humidity_model.pth (torch, 78938 bytes, 10 tensors)

lstm.weight_ih_l0 f4 [128, 46]
00000000: 6dd4 81bd c3c1 d83d 9bcc 89bd 8eac a43d
00000010: 1544 59bd 7d89 c13d 0a9e b93e e4e8 833d
00000020: 4f05 ad3d 89ad abbe 1f69 8c3e 4773 2a3d
00000030: 1559 52bd ca6b 373c 3085 c33e cea4 113e
00000040: 9f4f 883e c098 043e ae6c f33d a967 0cbe
00000050: cf59 58be 90f8 cebd 273b 563d 9a56 10be
00000060: 9051 f73d 2a9e 4d3d 2c0e 773e 217b f4bd
00000070: 4a59 d9be 5bf4 08be 4c02 543e 17f9 cc3d
00000080: 1c58 1d3e 8c59 163d 0dbd 26be d045 00be
00000090: 4d4c 903e ea78 293d 4e60 ca3d b1b5 81bd
000000a0: 3fb7 553e be13 fabd a2b3 21be e618 3cbd
000000b0: 22c5 873e 92d4 c03e f5a9 3b3d d017 133e
000000c0: 48c4 9a3d 1ccf 093e 5186 1d3d 3ad7 9cbc
000000d0: 586d 8c3d 7c1a 1d3e 737e 033d b73f 18be
000000e0: 9bea 2f3e ff43 3ebe 0fa1 053e c3c9 dbbd
000000f0: 86a4 4e3e 2153 29bb da60 6e3d 5798 4bbe
00000100: c15e 1dbe 42b7 0ebb 4d60 0cbe 2849 b4bd
00000110: cc9f 6abe 1f49 4ebe c125 18bd fb9b ad3e
00000120: c27c bf3d dfd8 8f3d fe72 9d3d 6f09 6cbd
00000130: fda5 873d 2ddb 3cbe 47d9 c33d a0a9 bdbd
00000140: 1ee7 d3be d280 e43b 12ca b03e 0b8e 9e3d
00000150: 6e89 d33d f501 1eba 4091 713d 6435 66be
00000160: ab9a 08bc 68c5 df3a 5d47 253d 8c7a f6bd
00000170: 5e84 cebe b568 bcbd f1a8 643e 18de 3bbe
00000180: 0aee 243e 9c1e bd3d 51cf 76be ecd1 83bd
00000190: c025 60be cbe5 b2be 3dca b6bc 4688 7cbd
000001a0: e556 e2bb 2707 91bd 4e8c af3e f66a ddbd
000001b0: a767 653e 96a5 45be bf73 023e 27d0 06bd
000001c0: 20de 8abe 3f29 8dbd 5b94 e53d 6219 543e
000001d0: 9b45 6c3d e87d 173e 1645 bdbe a984 8ebd
000001e0: 1f75 95bd c4df 42be 036a 5b3e 8033 263e
000001f0: acef 363c 4aea de3d 8bee c63d 2939 6d3e
00000200: 2496 12be 53bc d43d 790e 3e3e 5d99 1f3d
00000210: c3c2 a33e 91df 643e 9aa9 a63d 4fe5 e3bd
00000220: 9aeb 32bc 4967 0fbb 3e73 e6bc 3cd6 c23d
00000230: 5015 953e d93c 12be e378 8b3d badc 09be
00000240: 1668 f8bd 45a4 a6be af62 f33d 9649 ad3d
00000250: fa46 923e a60a 47bd 357c 9a3e eda8 fa3d
00000260: 68ef 423e 65ed 73be 195f f13d 7b4e 083e
00000270: 46bb e43b 297d 813e 89b6 a3bd 0b64 323e
00000280: c691 853d c8cf e2bd ab44 503e c0e8 16be
00000290: ff60 ce3d f510 88bc 854b 2f3e a56a d53c
000002a0: e92d 723d 10b9 18be 3ed3 d33b 3d09 953e
000002b0: 28bc 8b3d 5592 093e fae1 993e 45d8 893e
000002c0: 9838 993d 1f6c dbbd eb2e 823e d319 41bd
000002d0: 82f0 7dbd 0e90 093d 6de2 d0bc ca64 4f3e
000002e0: 56f9 563e aad6 c23d 2c14 593e c960 32be
000002f0: 3bd0 22bd b0cb 0e3e 9340 c3bd 9c10 3a3c
00000300: 8a59 31be 931b d73d 47aa a53d bf35 2bbe
00000310: 8c7b 413e fde1 53bd 9f9a 533d 75ad 673d
00000320: 4eb8 813e 09d6 6dbd 105d 05bc 64e4 c43d
00000330: 5ac0 49bc fb5d dd3c f55d 643e 2d95 fa3d
00000340: a29c d2bd 2889 d1bc 3941 7f3e 0992 9dbd
00000350: e9b9 cdbd cf7f 01bd f6e6 283d 3eb2 963e
00000360: b45e 903d 784a 553e e6ea e6bc ebb3 623e
00000370: cac4 bfbd c8c2 383e 7b76 38be c3e4 0abd
00000380: 6213 a73d fb97 9fba 4241 c03d 8a49 263d
00000390: afbe 45bd e496 123e c7d7 4abd 390f 43be
000003a0: 2119 043e 8fb9 babd d646 d0bd de55 0c3e
000003b0: fde9 efbd 91a0 30be 8505 de3c 56f2 e53d
000003c0: e5e1 c33d 81cb 1dbc ec41 443c 142e 0a3e
000003d0: 263b bf3c 3d03 cabb d62b 003e 64f6 0b3e
000003e0: 65f3 953e 17f4 3ebd 8989 a13d 333b 0f3d
000003f0: a657 90bd 3d35 ecbb fa7b 413e ed23 4d3e
-0.06339345 0.10583832 -0.067284785 0.08040725 -0.053043444 0.09450052 0.36253387 0.06440905
0.08448278 -0.33530834 0.2742395 0.041613843 -0.051354486 0.0111951325 0.38187551 0.14223024
0.26623246 0.12948895 0.118859634 -0.13711418 -0.2112801 -0.10106003 0.052302506 -0.14095536
0.12076104 0.050199665 0.241265 -0.119375475 -0.42450935 -0.13374464 0.20704001 0.100084476
0.15365642 0.036706492 -0.16283055 -0.12526631 0.28183213 0.04137508 0.0988165 -0.06333483
0.20870684 -0.12210797 -0.1579118 -0.045922183 0.26517588 0.37662178 0.04581638 0.14364552
0.07556969 0.13457912 0.038458172 -0.019145597 0.06856793 0.15342134 0.032103013 -0.14868055
0.17179339 -0.18580626 0.1304972 -0.10731842 0.20179948 -0.0025836902 0.058197834 -0.19882332
-0.15368177 -0.002177671 -0.13708611 -0.08803016 -0.2291252 -0.20145081 -0.03714538 0.33908066
0.093499675 0.07023787 0.07687949 -0.057626184 0.066234566 -0.18442984 0.09562927 -0.09260869
-0.41387266 0.0069733644 0.34529167 0.07741936 0.10328947 -0.00060275133 0.05897641 -0.22481304
-0.008337657 0.0017072381 0.04035126 -0.12035093 -0.40335363 -0.09199659 0.22330071 -0.18346441
0.1610643 0.09234354 -0.24102522 -0.06436524 -0.218894 -0.34940943 -0.022313232 -0.061653398
-0.0069073313 -0.07081442 0.3428673 -0.10811417 0.22402821 -0.19301447 0.12739466 -0.032913353
-0.27122593 -0.06892633 0.11209937 0.20712808 0.05768357 0.14794123 -0.3696677 -0.06958897
-0.0729773 -0.19030672 0.21427159 0.16230583 0.011165541 0.10884531 0.09713467 0.23166336
-0.14315087 0.103874825 0.18560208 0.038964618 0.3198453 0.22350909 0.08137818 -0.111277215
-0.01092043 -0.002188163 -0.028131124 0.09513518 0.29117823 -0.14281024 0.06810167 -0.13463107
-0.12129228 -0.32547203 0.11884057 0.08461301 0.28569776 -0.04859414 0.30172887 0.12239251
0.19036639 -0.23821028 0.117857166 0.13311188 0.0069803325 0.25290802 -0.079938 0.17420976
0.06521945 -0.110747874 0.20338695 -0.14737225 0.10077094 -0.016609648 0.17118652 0.026051829
0.059125815 -0.14914346 0.006464391 0.2910861 0.06822997 0.13434727 0.3005522 0.26922813
0.074814975 -0.10713982 0.2542642 -0.04714377 -0.061996944 0.033584647 -0.025498593 0.20253292
0.20993552 0.095136 0.21199101 -0.17419733 -0.039749365 0.13944888 -0.09533801 0.011356499
-0.17319313 0.10503306 0.080891185 -0.16719721 0.18894786 -0.05172919 0.05166113 0.056561906
0.25335926 -0.058065448 -0.008139864 0.096138746 -0.012313927 0.027022352 0.22301467 0.12235484
-0.102837816 -0.025578097 0.24927224 -0.076938696 -0.10045225 -0.03161603 0.041235887 0.29432863
0.07049313 0.20829189 -0.02818818 0.22138946 -0.093637064 0.18043053 -0.18013947 -0.03390957
0.08157994 -0.0012176031 0.09387447 0.040597476 -0.048277553 0.14315373 -0.049522188 -0.19048776
0.12900211 -0.09117424 -0.10169761 0.1370463 -0.117145516 -0.17248751 0.027102241 0.112278625
0.0956457 -0.009631039 0.011978608 0.1349414 0.023343634 -0.006164937 0.12516722 0.1366821
0.29287258 -0.0466195 0.07887561 0.034968566 -0.070479676 -0.007208495 0.1889495 0.20033236

lstm.weight_hh_l0 f4 [128, 32]
00000000: aa14 f03d 7453 393e aaba e23d 89d9 043e
00000010: 5b49 163e e95c 583e e226 e53c 5816 d83d
00000020: b50b 763a 449d e1bd d10d 99bd cd57 ea3d
00000030: 2c12 10bd 2708 c63d 183f 493e fcd5 2abe
00000040: 85b8 813e 4236 353e 6e55 383e fad8 98bd
00000050: 3c76 b43c 7ced c5bd 1c2d a2be 6e0d b13e
00000060: 4998 6d3e d5b4 903d cb90 f33c da94 253e
00000070: 7343 e5bb 5502 e9bd 62a5 0dbd 12a3 57bd
00000080: 3410 9c3d b1c4 74bc e909 a5bd 82d3 e63d
00000090: 305e 01be e4eb 133e 7b7d f63c cc5b 9ebe
000000a0: bd93 2cbc 5802 aabd 2129 adbc d9f0 f03d
000000b0: 8370 543e dc0c 22be d6dd a83e 7be3 23bd
000000c0: ec17 e6bd eb48 753e 2958 663e 35d4 7abe
000000d0: f7ab e73e acb2 20bd 990e 82be 190c 843e
000000e0: d12f a4bd 42b9 063e c86a d4bd 4a14 c3bc
000000f0: b9c5 1cbd e63c e73c 3039 413d cc63 243e
00000100: 4669 a2bd b1ec 0fbc b62a 5c3d 5a4f b43d
00000110: 3c20 b6be a45c 083d bd89 8f3e f30d 0f3e
00000120: b4c5 8d3d a67c 803e 1dcc 69bc 2961 0bbe
00000130: ef8f 47bd 59dd e2bd 8e26 4b3d 63ff 9dbe
00000140: 3765 32be 5f0e b63e fdfc 5f3e a68e 0cbd
00000150: 62e4 f43e 482c 85bb 7e94 fdbd 1213 203d
00000160: 4499 893b e847 bd3d 0060 bcbd d3ba 10bc
00000170: 4757 55be b49a 10be 4c89 d4bd 648c 1a3d
00000180: 3733 42bd 27c0 323e a1a8 9cbd b186 a83d
00000190: e18b 653c 47f7 8b3d 0a58 ee3d cbad 50bd
000001a0: 99ff 88be 6482 753a a28f 4f3e 50ee 26be
000001b0: 40b6 323e 127c 96be 63be 1fbc 6585 633d
000001c0: 08e0 9a3e c67c e53e df2f bbbd a2f4 eabd
000001d0: cda3 453e 7415 043d 4b7b b2bc 2b4d 5f3e
000001e0: 89fd 41bd 7d10 f03c e183 e03d 50c4 95be
000001f0: 117a 2f3d 1797 52be f997 fabd 60d6 8fbe
00000200: f2e5 ae3e 9238 7b3d 2593 5dbe 174b 133e
00000210: 4343 9e3d 5664 543e 0c8c 0b3e a2f6 503d
00000220: ae6e dabe 989d c2be c498 1ebc cab9 e7b8
00000230: 3cda 893e fc09 12be 707b 253e 9c14 4ebe
00000240: 8719 813e 93ae fe3c 1daf 663e d3b3 78be
00000250: 2c08 603e 6c04 69be 9dca 40be 3803 3c3d
00000260: f686 29be 7a8a 5c3e a717 bebc 9bb5 67be
00000270: 20d1 e2bb 2a3f 11be 56ba 2ebe dd6c b83d
00000280: 3d6a 883e 27ec bb3d 5dd8 b2bd 1023 5dbd
00000290: ad29 003d fa5d ab3d f8af 01bd 8a8a 5c3e
000002a0: b17e 9d3d d6d5 38be ea80 643d f854 fb3d
000002b0: 19f9 ba3d 16f9 e83d fd53 0bbd 5d1f fcbd
000002c0: 861f 3a3e 40f6 a6bc 14c3 843e 7d7f c13d
000002d0: 30d5 743d e0c5 f33a 6428 e53d 0643 0c3e
000002e0: c3ce 923e a6c1 2a3e 3cd8 413e f659 913b
000002f0: 48a3 2bbe e6a2 86bd 5328 623d e448 1a3e
00000300: 09c7 0f3e abd7 3e3c 964a fdbd a929 c83e
00000310: 63a0 dbbc d4a8 443d 6c3d 873e 4edb 25be
00000320: 069a fabd bec1 833d 2b96 b83e 59d5 bf3c
00000330: fed4 533e 83d3 683c cdf9 f43e 77ab 99bd
00000340: 4229 84bc 23da a5bd 6025 11bd 02d3 9bbd
00000350: 67ea 323e f6de a0be 7ad7 9abe 83fe 06be
00000360: 7a7a acbe 16a6 1f3c 8fd7 283e 6950 28be
00000370: 424a 65bd 042f 063e cb55 2bbe 054e 9dbe
00000380: 08f4 b33e 12e2 8b3e 611b 11bf 749d 9c3d
00000390: f085 123e 1102 673e 2fdb c03d 31f8 15be
000003a0: b5e7 99be 7e0b 833d 9bc0 7e3e ea5c 89be
000003b0: 7aaf cb3e 505f 40be bafa ef3e 4c48 ccbe
000003c0: 8f74 073e 81dc 2fbc 3a77 4fbd 413c 6abe
000003d0: 0a97 203e 6336 31bd 5072 a8bd 6a05 1f3d
000003e0: 1f84 ccbe cf17 fabd 34c0 a6bd e148 90be
000003f0: 9315 5ebe f934 3cbe a0cd a93d 22a0 79bd
0.11722691 0.18098241 0.110707596 0.12973608 0.1467642 0.21129192 0.027972642 0.10551137
0.00093859 -0.11016324 -0.074733384 0.11442528 -0.03517358 0.09669524 0.19652975 -0.16683191
0.2533609 0.17696479 0.18001339 -0.0746326 0.022029035 -0.09664437 -0.3167504 0.3458056
0.23202623 0.07065741 0.029732129 0.16170064 -0.006996566 -0.11377398 -0.03458155 -0.05264575
0.07620278 -0.014939473 -0.08058531 0.11270811 -0.12633586 0.14445454 0.03008913 -0.3092941
-0.01053327 -0.08301228 -0.021137776 0.11764688 0.20746045 -0.15825218 0.32981747 -0.040011864
-0.112350315 0.23953597 0.22494568 -0.24495013 0.45248386 -0.039232895 -0.25401762 0.2579048
-0.08016933 0.13156608 -0.103719294 -0.023813386 -0.0382745 0.02822728 0.04717368 0.16053694
-0.079302356 -0.008784459 0.05375167 0.088041976 -0.35571468 0.033291474 0.28034773 0.13970165
0.069224745 0.250951 -0.014269856 -0.13611282 -0.04872125 -0.11077375 0.049597315 -0.30858907
-0.17421423 0.3555784 0.21873851 -0.034315728 0.47830492 -0.0040641166 -0.12381838 0.039080687
0.004199179 0.09242231 -0.09197998 -0.008833605 -0.20834075 -0.14121515 -0.1037775 0.037731543
-0.047412124 0.17456113 -0.07649351 0.08228815 0.0140104005 0.06834274 0.11637886 -0.050946992
-0.26757506 0.0009365438 0.20269635 -0.16301847 0.17452335 -0.29391533 -0.009749982 0.055547137
0.30249047 0.44821757 -0.0913999 -0.11472441 0.19300766 0.03224702 -0.021787306 0.21806781
-0.04736093 0.029304737 0.10962654 -0.29251337 0.04284102 -0.20565449 -0.12236018 -0.28093243
0.3415981 0.061333247 -0.21638162 0.14384113 0.07727673 0.207414 0.13627642 0.051016457
-0.42662567 -0.3801086 -0.009679977 -0.00011049544 0.26924312 -0.14261621 0.16160369 -0.2012505
0.25214788 0.031089103 0.22527738 -0.24287347 0.21878117 -0.22755593 -0.18827291 0.045901507
-0.1655539 0.215372 -0.023204638 -0.2262787 -0.0069219023 -0.14184251 -0.17063269 0.09005139
0.26643553 0.09175902 -0.08732674 -0.053988516 0.031289745 0.08367534 -0.031661958 0.21537223
0.0769018 -0.18050322 0.055787005 0.12272066 0.09129543 0.11375634 -0.034015644 -0.123106696
0.18176088 -0.020381093 0.25930083 0.094481446 0.059773624 0.00185984 0.111893445 0.13697442
0.28673372 0.16675434 0.18930143 0.004435773 -0.16761506 -0.06574039 0.055214237 0.15066868
0.1404077 0.011648099 -0.12367742 0.39094284 -0.026809877 0.04801257 0.2641405 -0.1619694
-0.12236409 0.06433438 0.3605207 0.023417162 0.20686719 0.014210585 0.47846833 -0.075034074
-0.016132955 -0.08098247 -0.035436034 -0.07608606 0.1747223 -0.31420106 -0.3024252 -0.13183026
-0.33687192 0.009744188 0.16488479 -0.16436924 -0.05597902 0.13103873 -0.16731946 -0.30723587
0.3514712 0.27320915 -0.566824 0.07647219 0.14308906 0.22559382 0.09416806 -0.14645459
-0.3005959 0.06398676 0.2487816 -0.268287 0.39782315 -0.18786359 0.46870977 -0.39898908
0.13228057 -0.010733725 -0.050650813 -0.22874548 0.15682617 -0.043264758 -0.082249284 0.038823523
-0.3994455 -0.122115724 -0.081421286 -0.28180602 -0.21687917 -0.18379582 0.08291173 -0.06094373

lstm.bias_ih_l0 f4 [128]
00000000: 6fb8 03bd 1952 9bbc df82 48be 8a6e 8e3d
00000010: d71d 513d 10f6 1e3d cdf0 c73c a178 033e
00000020: 18da 2bbd 97be 5b3e 2f48 623d 127f c33d
00000030: aae0 1cbd 1b2d 733e 8a60 203e f9d2 4fbd
00000040: ac4e c2bd 1898 4a3d 172c 743e f402 32bd
00000050: f256 e63c 2f4c 563d c9b1 17bd c029 71bd
00000060: b289 c13b b1d8 753d 7cf6 6c3c 125f 36be
00000070: 5f23 28bd 14b7 19bd b479 93bd b1e2 e53d
00000080: 1a62 e23d b500 e9bd 5ced 0a3e 95b3 3e3e
00000090: 3e61 eebc 141a dfbd 222f 593c 1255 67be
000000a0: b2e2 833e 1a77 6e3e efd6 843d d491 fbbd
000000b0: 6d28 49bd ac08 e13d 46b7 ec3d 3474 3fba
000000c0: 72f2 ce3d 6c29 593e 62d0 07be 572d 12bd
000000d0: 2317 673e ae76 983d 3af1 7a3d a54d 1e3e
000000e0: 2f9e 983c d392 79be 7dc0 443e 3ea4 0c3e
000000f0: 4646 ed3d 654b bb3d 9079 763d d01e bebd
00000100: f76e 3c3d 3b66 71bd a8dc f43b c4ee 0e3d
00000110: 79ea 7c3d eabb c63d 552a 61bd 0caa ddbd
00000120: 675f 4fbe d2ae 82bd 852a e7bd fe4f 12be
00000130: 3867 a83d e782 c73d 50ee f0bd 3de3 cc3b
00000140: 4a0a 213e dd15 f33d 21e3 223e 0b36 91be
00000150: 5874 df3d 4071 1a3e 48d6 53be d0af 663d
00000160: f317 02be 7df8 3d3c a3ef cb3d 409c 96bd
00000170: 1d5f e4bd e5d1 9cbd 112f 0fbe 7cbb 60be
00000180: fdde 3b3e 7ce6 123e d252 a9bc 27bb 963d
00000190: d736 4c3e 638c 8cbc fb83 283e 7efd 813b
000001a0: ea89 0b3e 5078 8e3e 742d 553e 8b84 fbbb
000001b0: 55cc 3b3e dde7 d63d 4fed f23d 90de 8a3e
000001c0: 8f97 523c 96ac 81bd 5f14 493e bd61 483e
000001d0: f477 4bbd 086d a4bd b7de 813e c25c 1f3d
000001e0: 308b dabc 0ee0 bfbd 4a42 453d 0178 e0bd
000001f0: 2502 013d 04a7 c2bd 748a e83d adda 323d
-0.03215831 -0.018960046 -0.19581173 0.069546774 0.051053848 0.038808882 0.024406815 0.12838985
-0.041956037 0.21459423 0.05524462 0.09545721 -0.038300194 0.23747675 0.15661827 -0.05073831
-0.09487662 0.049461454 0.23844944 -0.043459848 0.02811763 0.052318748 -0.037034784 -0.058877707
0.005906307 0.060021106 0.014463063 -0.17809704 -0.041049358 -0.037528113 -0.072009474 0.112248786
0.11053868 -0.11377088 0.13567108 0.18623193 -0.029099103 -0.10893646 0.013255866 -0.22591045
0.25758892 0.23287621 0.06486308 -0.12283674 -0.04911082 0.10987982 0.11558394 -0.00073033874
0.101048365 0.21207207 -0.13263085 -0.03568777 0.2256742 0.07444511 0.061265208 0.15459307
0.018630115 -0.24372415 0.19214053 0.13734528 0.11585669 0.0914524 0.060174525 -0.09283221
0.04600426 -0.058935385 0.0074725933 0.034895673 0.061747048 0.097038105 -0.05497201 -0.108234495
-0.20251237 -0.063810006 -0.11287407 -0.14288327 0.082228124 0.097417645 -0.117642045 0.006252675
0.15726581 0.118694045 0.15906955 -0.28361544 0.10910863 0.15082264 -0.2068721 0.05632001
-0.12704448 0.011594889 0.099578165 -0.07354021 -0.11150954 -0.07657222 -0.13982798 -0.2194652
0.18346782 0.14345735 -0.020669375 0.07359915 0.19942795 -0.017156785 0.16456597 0.003966986
0.13626829 0.27826166 0.2081812 -0.0076757125 0.18339665 0.10493443 0.11861669 0.27122927
0.012853517 -0.06331746 0.19636677 0.19568534 -0.049674943 -0.080286086 0.2536523 0.03890682
-0.026677698 -0.09368907 0.04815892 -0.10960389 0.031496186 -0.09504512 0.11354533 0.043665577

lstm.bias_hh_l0 f4 [128]
00000000: 2f05 263e ca37 1fbd d304 e5bd c89b 403d
00000010: e79f 853e 0209 eb3d f538 a5bc 2bef 2e3e
00000020: 62e2 02be c125 38bd 59f0 b33d 344a 823c
00000030: 6a8e 913d 5530 943d 4265 363e c32b 693d
00000040: 2e89 95bd 525a 3e3d 47c8 aabd 8243 4a3e
00000050: 2b0b 1ebb 2ac4 acbd 25fd 033e a9ee bc3d
00000060: 7bf8 813d 3a44 ec3d cdfe 303e 3cf3 fcbd
00000070: be59 e63d a2c5 4dbd 9fa2 b53d 2bd3 163e
00000080: b001 70bc 2ac6 1f3d dbb0 d6bd 4839 3bbd
00000090: 769e d9bd 7d39 563e c3d4 893e a019 62be
000000a0: 2bb5 013e 256f 2f3e 1f2d 6dbe c0cc d6bd
000000b0: a512 053c f207 95bc 4870 0f3e 9447 f93d
000000c0: d8a3 03bd 0e4b 343e 5051 113e 721c 413a
000000d0: a06c 8e3e f68a 08be f54f 9b3c b58f 0f3e
000000e0: 01c0 c83d 5982 7cbe 10eb 70bd c370 00be
000000f0: 9eff 91bd 4127 803e f262 013e c6cb 02bd
00000100: 3c35 b83c 4bd3 353e a145 31be d685 0ebd
00000110: deb5 5cbe ec03 643e 9cd6 5e3e 1f68 3fbd
00000120: 97bd 27be d8cd 43be f94a 523e fca3 3fbe
00000130: b261 1f3d 0006 5e3c 66f4 4e3e 649d c2bd
00000140: bc72 303e a7ae ec3c f079 a83d 814a ddba
00000150: 0971 3dbc 8a5f ddbd 9f76 993d 704f 00be
00000160: 6e5c 57bd 89f1 313d 3855 b73c d46d 1abe
00000170: f87a 58be a51b b0bd 0a7a 19be 8c66 c53c
00000180: 6d61 6c3e c19a 303d e733 033e 5f6b 743e
00000190: e357 253e 5c9f d1bd 55c3 7f3e 8341 d93d
000001a0: aa16 573e 02bc 8a3d f85f e63d 29ed c83d
000001b0: a502 6cbd 6c82 623e 9163 093e 73a1 fc3d
000001c0: 61ef 353e eea1 00be 1147 aa3d b447 99bd
000001d0: c670 7b3e 3f66 f03d 6fbe 373e 27c4 f23c
000001e0: bea5 b03d 6e2c e43b 14e6 3f3e dcda 5b3d
000001f0: 9d20 cf3d 12d7 d8bd e97c 4abd 2b6e 823b
0.16212915 -0.038871564 -0.11182561 0.047023565 0.26098558 0.114763275 -0.02016876 0.17083423
-0.1278167 -0.04495788 0.08786077 0.015904523 0.071072415 0.07235781 0.17812064 0.0569265
-0.073015556 0.046472855 -0.08338981 0.19752315 -0.0024115543 -0.08435853 0.12889536 0.09225208
0.06346222 0.11536451 0.17284699 -0.12351081 0.11247586 -0.050237305 0.08868908 0.14728992
-0.01464884 0.039007343 -0.10482951 -0.045708925 -0.10625927 0.20920368 0.26920137 -0.22080088
0.12666766 0.17132242 -0.23161744 -0.10488272 0.008122121 -0.018192265 0.14007676 0.121718556
-0.032138675 0.17606756 0.14191175 0.00073666044 0.2781725 -0.1333426 0.018959025 0.14019664
0.09802247 -0.24659099 -0.058817923 -0.12543015 -0.07128833 0.25029948 0.12635401 -0.031932615
0.022486322 0.17756383 -0.17311718 -0.034795605 -0.21553752 0.22267121 0.21761554 -0.046730157
-0.16380917 -0.19121492 0.20536412 -0.18714899 0.03891153 0.013551235 0.20210418 -0.09502676
0.17231268 0.028891874 0.08226383 -0.0016883166 -0.011562594 -0.10809238 0.07493328 -0.12530303
-0.052578382 0.043443237 0.022379503 -0.15080959 -0.21140659 -0.08599023 -0.1498796 0.02409675
0.2308404 0.043116335 0.12812768 0.23869084 0.16146807 -0.102354735 0.24976857 0.106081985
0.2100474 0.06774141 0.11248773 0.0981086 -0.05761971 0.22120064 0.13416888 0.123354815
0.17767097 -0.12561771 0.08314336 -0.074843794 0.24554738 0.11738252 0.17943738 0.029634548
0.08625363 0.0069633042 0.18740112 0.053675517 0.10113642 -0.105878964 -0.04943553 0.003980418

lstm.weight_ih_l1 f4 [128, 32]
00000000: 71e7 c33d e91f 353e 0ba7 30be b9fd 813e
00000010: 3fb2 c0bd add1 393e 3be8 0b3e cfa0 06be
00000020: 0d32 41be 2c02 2cbe 6713 a13e 79e8 82bd
00000030: 079c 663e 719f 5ebe 34a2 1f3e 3f93 5dbe
00000040: 795b 53bc cd33 903d 189f ac3e 3ad8 afbd
00000050: 0b6c 863e b804 82be 5d18 9bbe 0f2b ac3e
00000060: 26d1 863c 6dd0 bd3d 29a4 6dbc 7e57 5cbe
00000070: b83e 423d 983f 87be 9791 e23c 7438 1ebe
00000080: b6f2 783c c7e5 8e3c e1c6 a4bd 6916 993c
00000090: 162d 28be de34 f63d 6203 86bd b300 193d
000000a0: 1b2e 4bbe 7394 0abd 11d0 63bc c3fc e6bc
000000b0: 0a68 4c3d 72f8 71bd 9c0d 173e fb6b c2bd
000000c0: 875d 0a3c 71c8 87bd 925e fe3c 404b bf3a
000000d0: 0a62 473e c63e f0bc 82b5 cd3d e62e 28bd
000000e0: 189c 0abe 026a b03d 3696 463e 9adc dcbd
000000f0: ab26 b4bd ab65 2abd 8072 74bd a8f8 2bbe
00000100: 4025 313e e1d9 9a3e 916a d1be 5e13 ea3e
00000110: 3e8d aabe 2450 fe3c c3c1 9e3d a70f aabc
00000120: ee7c 97bd 9d95 e4bd 8f33 283d 1879 33be
00000130: 1492 a43b 01d2 ec3d b08c 2b3d 8218 96be
00000140: 3a72 443e 835a 133e 90f8 0c3f 0ef4 9e3d
00000150: 72d3 d63b 7713 0bbe 1b8e 8cbe a7f7 433e
00000160: 5ddd f53d 6bcf ac3e 23c7 ec3d 4d84 e7bd
00000170: 0e2d 83bd 5d8c 73be ab84 c0bd af82 72bd
00000180: 4261 9e3e c4c6 3d3e 1e4a 9dbe 24c4 503d
00000190: 2db5 2cbd af23 ed3d 6128 b03e d9cf f5bc
000001a0: e15a e0be a071 20be 082a 26bd 20a3 b8bb
000001b0: 2445 193e 690d 61be be90 5c3e 8491 b2be
000001c0: 9881 ac3e 434e 353e 0f75 9f3e 65dc e63d
000001d0: 0ed8 463e 1f1d ffbd 03e2 98be 36e6 5e3e
000001e0: 95df c93d b025 4e3d c9c3 fe3d b22e 763d
000001f0: 7301 9d3d 05fb 7dbe fd02 4dbe 0557 f3bd
00000200: 69e7 843e b157 e33d 4ef5 51be b0b4 a8bd
00000210: 5832 b5bd 5689 4e3c ca02 253e 28e4 673d
00000220: 75e1 50be 640f 23be 3f63 5d3e ad82 16bd
00000230: b584 743e 9af5 6ebe 4d63 743e a33a aabe
00000240: b301 58bd c5e7 d4bd 965a 5b3b 9670 e7bd
00000250: e51d b23e 5aaa 8abe 674e b53d 4cb3 263e
00000260: 8a5a 65bd 65b5 8abb fada 123e dbb3 623d
00000270: 3463 94bd d04e dd3d debf a63b 211d 19bc
00000280: 5e09 763d 4463 563e d7de 7bbd 9cdb 8f3d
00000290: 9534 c7bd 76b5 2d3d 4bf8 c93c 86c4 11be
000002a0: bc48 20be 5be0 0f3d 43e8 623d 3457 123d
000002b0: 56f7 363e 3cc7 2cbe fd09 b9bd 67dc 25be
000002c0: 7436 3c3e cd98 873d 3179 3b3d 2106 afbd
000002d0: a87c b33b f7b4 e53d b8e0 98bc 553b 243d
000002e0: 3dd9 e83d 1a10 df3c 0a9d a33d 58b1 b2bd
000002f0: bdca 9e3d 6bc8 56be d49b 36be c6c3 55be
00000300: ca56 c83d c08c 133e 90f3 813d 2e0d cabc
00000310: 9e2b b1be 920c 013e ae8b 1d3e 3690 10be
00000320: 6461 083e 105c 4e3d a5e1 c0bc 64d9 c0bd
00000330: 77eb 073e 3866 7cbd 4c10 04bd 77a0 10be
00000340: d170 423e 523d 89bd d1b4 e2bd 43d9 6cbe
00000350: 1730 133d b1fe fabd 34c2 a23d ed60 22bd
00000360: fbe3 79bd 8bdb 023e 92ec 53bd ca1e febd
00000370: 387d 3bbd b960 08be cf8e 13bd 1ecd 04be
00000380: 1574 3a3e 0924 543d cf4c fdbd 1500 143e
00000390: 4bc9 febb f365 2a3c be8d 2a3e 42b1 37bd
000003a0: b9b0 c9be bc05 b9bd cc9e e1bc 9d9a 5c3d
000003b0: 1d2d 453e 9f1a 9b3b 63ee 4a3e 68a3 8cbe
000003c0: db75 ae3e 3d48 a23e d2bb 7a3e 7afc 9e3d
000003d0: 2c15 5a3e 2058 8abe 4327 a0be 6251 c33e
000003e0: 9e20 92bc 5ff8 973e d495 9c3d 27df 3c3e
000003f0: e1f6 273c 4115 2bbe 5d08 a4bd 45e0 9a3b
0.09565628 0.17687954 -0.17251222 0.25388888 -0.09408998 0.18146391 0.13662808 -0.13147281
-0.18866749 -0.16797704 0.31460115 -0.06391997 0.22520457 -0.2174051 0.1558922 -0.21638201
-0.012900227 0.0704113 0.3371513 -0.08586164 0.26254305 -0.25394225 -0.30292025 0.336266
0.016457152 0.0926827 -0.014504471 -0.2151775 0.047423095 -0.26415706 0.027657313 -0.15451223
0.015194586 0.01744355 -0.08045746 0.018687444 -0.16423449 0.12021802 -0.06543614 0.037354182
-0.19841807 -0.03383298 -0.013904587 -0.028196698 0.049903907 -0.059074827 0.14751285 -0.09493252
0.00844515 -0.06630028 0.031050954 0.001459457 0.19470993 -0.029326808 0.100443855 -0.04106035
-0.13536108 0.086139694 0.19393238 -0.10784264 -0.08796438 -0.041600864 -0.05967951 -0.16794074
0.17299366 0.30244353 -0.40901616 0.457179 -0.33310884 0.031044073 0.07751801 -0.020759417
-0.07396875 -0.11161349 0.041064795 -0.17526662 0.0050222967 0.115634926 0.041882217 -0.29315573
0.19184199 0.14389996 0.55066776 0.077613935 0.006555968 -0.13581644 -0.27452168 0.1913744
0.12005112 0.33751997 0.1156142 -0.11304531 -0.06405078 -0.23784013 -0.094003044 -0.05920666
0.30933577 0.18532854 -0.3072061 0.050968304 -0.04216497 0.11579072 0.34405807 -0.030006336
-0.43819335 -0.15668344 -0.040567428 -0.0056346804 0.14967781 -0.21977772 0.2153959 -0.34876645
0.33692622 0.17705636 0.31143996 0.11272506 0.19418356 -0.12456726 -0.29859933 0.21767506
0.09857098 0.05032891 0.12439687 0.060103126 0.07666292 -0.24802788 -0.20020671 -0.11881832
0.25957802 0.1110071 -0.20503733 -0.082375884 -0.08847493 0.012605986 0.16114345 0.05661407
-0.20398505 -0.1592384 0.2161989 -0.036745716 0.23878749 -0.23335877 0.23866005 -0.3324786
-0.052735996 -0.10395769 0.0033470741 -0.11300771 0.34788433 -0.27083093 0.08852845 0.16279334
-0.055994548 -0.0042330497 0.14341345 0.055347305 -0.07245484 0.10806048 0.0050887903 -0.009345324
0.060067527 0.20936304 -0.061491814 0.07024309 -0.09726826 0.042409383 0.024654528 -0.14235124
-0.15652746 0.03512607 0.055397283 0.035727695 0.17867789 -0.16872877 -0.09035108 -0.16197358
0.18380147 0.06620941 0.045769874 -0.08546091 0.0054775067 0.11216157 -0.018661842 0.040095646
0.1136956 0.027229358 0.07988937 -0.08725232 0.07753513 -0.20974891 -0.17832881 -0.20875463
0.09782179 0.1440916 0.06345284 -0.024664488 -0.3460359 0.12602451 0.15385315 -0.14117512
0.13318402 0.050380766 -0.023545096 -0.09416464 0.13273416 -0.06162092 -0.032242104 -0.14123712
0.18988349 -0.06701149 -0.11069644 -0.23129754 0.035934534 -0.1225561 0.079471976 -0.039643217
-0.061008435 0.12779061 -0.051739283 -0.12408216 -0.045773715 -0.13318147 -0.036024865 -0.12968871
0.18208344 0.05179218 -0.12368166 0.14453156 -0.007775461 0.010400283 0.16655633 -0.04484678
-0.3939264 -0.09034297 -0.02754154 0.05385839 0.1925549 0.004733398 0.198175 -0.2746842
0.34074292 0.31695738 0.2448571 0.07763 0.21297139 -0.2702036 -0.31279954 0.38148028
-0.017837819 0.2968168 0.07645765 0.18444501 0.010251732 -0.16707326 -0.08009408 0.004726442

lstm.weight_hh_l1 f4 [128, 32]
00000000: 2c97 d6bc 6fb6 f3bd 6af3 27be 713e 9f3b
00000010: 6fa1 b8bd d467 04bd c1f4 28bd 477a 0fbe
00000020: 3e8b 15bc 682c dd3d 28a0 a13d 58bb 1dbe
00000030: f661 11bd 6d79 3dbd 6a00 0e3d 5299 c03d
00000040: ef1b 023e 106c ea3d df6b ed3b f40b e5bd
00000050: 446e 4bbd 51a0 28be f480 363d e8ef 62bc
00000060: d6da 0abe 36e2 bf3d 2813 103c 9fef d63c
00000070: d7e6 89bc a0b2 643d a897 8abd 8466 edbd
00000080: c0c6 3fbe 1648 363b abc6 85bd daa7 89bc
00000090: ba3c 8d3d e7b2 8ebe 460e 3f3c d79d 593e
000000a0: 85ff cdbd 6609 b4bc 4895 473e 56ce 8fbe
000000b0: ddf1 843e 30ab 26be cb32 da3d b301 553e
000000c0: 0826 423e 3ad5 213d 4e34 76bd 0935 163d
000000d0: 4aa9 453e 5099 1cbe d1b8 513d c318 153e
000000e0: 7d1d d03d 5db7 24be bf5a ec3d 8d41 cd3c
000000f0: 2ba4 5fbe b84d a13d 4dc9 85bc 095e ae3b
00000100: aadc 8ebd 6816 a53d 016e ce3c 3944 af3d
00000110: a8b6 1abc 7e6d 18be bcaf a2bc 3c95 5bbe
00000120: 15d3 2bbd d72f 07be 52f1 183e 22f7 793b
00000130: 13d7 04be 0914 2e3e 3bf6 f4bc 29ce 0c3d
00000140: 2f52 dbbc 0c61 1a3e ddc3 35be 8135 bebd
00000150: d2d8 33bd 8de8 30bc 7772 6b3d 2ba0 36be
00000160: 962f 88bc 89fb 3ebc d69d 27be 2a99 a3bb
00000170: 2d90 e0bc f111 31be aa5b a13d 571b f6bd
00000180: 52f6 1a3d ce4b e7bd 825f 63be 2f37 213d
00000190: efab b1be 6daa be3d 6319 b1bd 5002 df3d
000001a0: 4320 b13d 6bc8 3fbe ac2f 8bbd 1d13 24bd
000001b0: caab 1cbe c49f aebb c096 05bd a636 5ebd
000001c0: e945 b9bd 890c cc3c 00b0 c3bc bf3e 8cbd
000001d0: fe26 8c3d f7ee e43d 452f 723e d644 663e
000001e0: 710f 603d 0361 803d f42c 13bd 636e f2bd
000001f0: fadd 34bc fb32 c43d d9f5 463d bc88 c73c
00000200: 0274 53be f2b8 6abe 83f3 dcbb 0ae7 6cbe
00000210: 2383 5fbd a607 2dbe 4a39 1bbd 5cec 2a3c
00000220: 4408 3b3d ca46 9bbc 7741 483e 25dc 2ebd
00000230: b1a1 673e f644 78be eba4 31bd 6376 2b3e
00000240: 7de1 ad3d 6b10 6b3c 9845 0e3c e3df 533d
00000250: 9233 1b3e 4c1a 29be a9db 3d3d 535b 2b3e
00000260: c334 fa3d 10b6 f3bd a658 dabd 60c1 6d3e
00000270: 27f4 30bd 0031 883e 8d50 03be 39a8 8abd
00000280: 8d30 4e3d cae4 25be c054 1fbe 4e3c d8bd
00000290: 2220 3c3e 38ac 70be af3d 903d 4313 7f3d
000002a0: b08f 63be de31 4bbe 2e81 2ebd c295 adbd
000002b0: 552f 823e caa9 89be 6be7 653d d198 373e
000002c0: d8e2 9eba 2f27 0e3e 1058 673d 3b90 15be
000002d0: 0f85 503e 5145 82be 0ae8 50bd fe6a 823c
000002e0: 5dd3 c33d 005c 9a3c b474 613e b236 883c
000002f0: e8ec 9abe bf89 283e 695c 04be ed77 893e
00000300: 9817 ecbd 7c7f 20be 9a33 973d fb26 1bbe
00000310: 7bc7 183e 9399 06be 2814 813c ebb7 203e
00000320: 1f3a c5bd 89c9 04be de57 893e a645 8bbe
00000330: 46db a13d 1e72 f0bd 06b6 713e 30c3 563d
00000340: df72 6f3e 3d6e dc3d ab63 47be 8b86 09be
00000350: 4ec9 fd3d 0d6f 47be 4fab 9dbc 509b 213e
00000360: 197e 66bd 8472 e03d afc4 5a3e 1598 823e
00000370: 6a93 ebbd a465 833e 29e8 8bbc ef52 7b3e
00000380: 0bd3 223e 0745 9a3d 6977 1e3e 231c 87bd
00000390: a9c4 34be aba2 17bd cc7d e53c 4378 563c
000003a0: 4ebc 01be fee6 b63d f32d b4bd 9559 783d
000003b0: 7be3 113e 85a4 02be bd7a e5bd 99de 053c
000003c0: ed1f 523d 00c4 80bd 9a05 e73d be66 f9bd
000003d0: 2a43 9d3c d854 7e3c 6a94 bd3d e937 fe3d
000003e0: e614 ac3d 8c17 a13d 1abf 3f3e 4a1b d73d
000003f0: c3c0 193e 8e28 16be d5f9 9ebd 2d75 143d
-0.026195131 -0.11900031 -0.16401449 0.0048597385 -0.09015166 -0.03232558 -0.04124904 -0.14011489
-0.009127436 0.107994854 0.078918755 -0.15403497 -0.035493813 -0.04625838 0.034668364 0.094042435
0.12705968 0.114463925 0.0072455253 -0.111839205 -0.049665704 -0.16467406 0.044556573 -0.013851143
-0.13560042 0.09369318 0.00879363 0.026237307 -0.016833706 0.055834413 -0.067672074 -0.11591819
-0.18728161 0.0027813963 -0.065320335 -0.01680367 0.06896348 -0.27870867 0.011661118 0.21251617
-0.10058502 -0.021977138 0.1949054 -0.2808711 0.25965777 -0.1627624 0.10654219 0.2080143
0.1895982 0.03950999 -0.060108475 0.036671672 0.1930286 -0.15292859 0.051201645 0.14560227
0.101618744 -0.16085573 0.11540746 0.025055671 -0.21839969 0.07876152 -0.01633134 0.0053212685
-0.06975682 0.08060914 0.025198938 0.08557934 -0.009442963 -0.14885518 -0.019859187 -0.21443647
-0.04194935 -0.13201843 0.14935806 0.0038141687 -0.1297267 0.1699983 -0.029902568 0.034376297
-0.026772587 0.15076083 -0.17750497 -0.09287549 -0.043907948 -0.010797632 0.05748221 -0.17834537
-0.016624253 -0.01165665 -0.16368803 -0.004992624 -0.027412498 -0.17292 0.07878812 -0.120169334
0.037832566 -0.112937555 -0.22204402 0.039359268 -0.34701487 0.0930985 -0.0864742 0.10889113
0.086487316 -0.18728797 -0.06796202 -0.04005729 -0.15299907 -0.005329104 -0.03261447 -0.054251336
-0.090465374 0.024908321 -0.023887634 -0.06847905 0.06843375 0.111783914 0.23650844 0.22487196
0.054702226 0.062685035 -0.035931543 -0.11837461 -0.011039251 0.09580036 0.048574302 0.024357192
-0.20649722 -0.22922114 -0.006742896 -0.2313501 -0.05456842 -0.16897449 -0.037896432 0.010432329
0.04566218 -0.018954653 0.19556223 -0.042690415 0.22620274 -0.24245057 -0.04337017 0.1674438
0.08490274 0.014347176 0.008683585 0.051727187 0.15156391 -0.16513938 0.046352062 0.16734056
0.12217095 -0.1189996 -0.106614396 0.23218298 -0.04320159 0.26599884 -0.12823696 -0.06770367
0.05033927 -0.16200557 -0.15559673 -0.10558377 0.18371633 -0.23503196 0.07043015 0.06227423
-0.22222781 -0.19843242 -0.042603664 -0.0847583 0.25426736 -0.2688735 0.0561289 0.17929389
-0.0012122048 0.13882135 0.056480467 -0.14605801 0.20363258 -0.2544351 -0.05100254 0.015920158
0.09561799 0.018842697 0.22017175 0.016627643 -0.3025887 0.16458796 -0.12925877 0.2684931
-0.11527938 -0.15673631 0.07382889 -0.15151589 0.14919846 -0.13144521 0.015756682 0.15695159
-0.09630226 -0.12967505 0.2682485 -0.27201575 0.07903151 -0.11740516 0.23604593 0.05243224
0.23383664 0.10763214 -0.19471614 -0.1343023 0.123919114 -0.19475956 -0.019246725 0.15781903
-0.0562726 0.10959342 0.21364091 0.25506654 -0.115027264 0.25663483 -0.017078476 0.24543355
0.15900819 0.07532697 0.15475239 -0.065971635 -0.17653145 -0.037020367 0.028014086 0.013090196
-0.12669489 0.08930777 -0.087978266 0.060632307 0.14246933 -0.12758072 -0.11205051 0.008170747
0.051299978 -0.06287384 0.11280365 -0.121778 0.019197065 0.015523158 0.09256823 0.12413008
0.084024236 0.07865819 0.18725243 0.10503252 0.15014939 -0.14663908 -0.077624954 0.03624456

lstm.bias_ih_l1 f4 [128]
00000000: a6c3 2cbd 4f40 d43d bee7 053e 38de ffbd
00000010: 21af 3d3e d9e0 1aba e5d5 5c3e 0043 0dbe
00000020: 167b 483e b133 b1bd 747c 84bc 2538 cd3c
00000030: 2966 943e 6acd 763c 253e ccbd 70b4 133e
00000040: f044 86bd d22e c43d cd10 3fbd 8afa 363e
00000050: 3dba 773e bb99 25bc b50f ee3d f45b 1e3e
00000060: a71f c4bd b4e6 f03d 8498 593d 7570 8cbd
00000070: f162 8ebd 6b41 6abd e724 fb3d 2ec6 5d3e
00000080: 06c3 73bd cd61 723e 148c 16be 0631 02be
00000090: a9cb cb3d be9e b43c b42c 173e 0741 20be
000000a0: af1e 983d afbb 833e 233c f53d ffa2 8e3e
000000b0: 0e57 523e d654 ddbc c7af 163e 097c 0abd
000000c0: 9ced ddbd b9aa 533d 6169 aebd c70d b13c
000000d0: 7813 60bb 9434 d23d bd78 b23d 2084 b83d
000000e0: e84d c2bc f62b 42be f55a 34be 5ffb 8a3d
000000f0: bc6c 333e a88c adbc f6ef 8e3e 16d0 b43d
00000100: d43e a8bd 32b9 55be db1c 1dbd e4c5 25be
00000110: bb0e 1f3d 6863 87be 1332 213e 2274 723e
00000120: 54cc 46be b965 8bbe a1ed ac3d e3ef 88be
00000130: 58db 563e 8ec8 05be 19b2 883e afb3 06bd
00000140: e6d9 e63d 0ee2 a13b 011a b2bd 1464 2d3c
00000150: 2631 833c 11fb c6bd 20ce 5e3e 5131 bebc
00000160: 64c6 913e 8b03 80bc 89c0 7a3e b8de 483d
00000170: 83d2 09be 4d44 793e 696a d0bd 2280 193e
00000180: 7f0c 59bd 6983 40bd f9cc df3c dc7b 033e
00000190: 6581 80bd c74f 823d 1527 c2ba 6df6 d63d
000001a0: 84a6 043b 7cd3 0f3e a9a8 20bd e653 203e
000001b0: 49e8 543d 2292 58bd 7c99 2a3d 492a 673e
000001c0: 10d4 ba3d 266f 0dbe 8b45 883e 3b43 a23d
000001d0: 596e 213c 28fc 73bd 639a 26be 3e4f 913d
000001e0: c7f3 a13e b8ee 13bd a685 15be 8a37 183d
000001f0: 5fcb 843e 9a6d 8c3d e039 bc3e 3c29 35bd
-0.042178772 0.103638284 0.13076684 -0.12493557 0.18523838 -0.00059081387 0.2156597 -0.1379509
0.19578204 -0.086524375 -0.016172625 0.025051186 0.28984192 0.015063623 -0.09972791 0.144243
-0.065561175 0.09579243 -0.04664688 0.1786901 0.24192138 -0.010107453 0.1162409 0.15464765
-0.0957635 0.11762753 0.053123966 -0.06857387 -0.06952465 -0.057191294 0.12262898 0.21657631
-0.05951216 0.2367012 -0.14701873 -0.12714013 0.099509545 0.02204835 0.14763147 -0.15649806
0.074277274 0.2572913 0.11974361 0.2785873 0.20541021 -0.027017992 0.14715491 -0.033809695
-0.10836336 0.051676486 -0.08516193 0.021613015 -0.0034191292 0.10263935 0.08714435 0.09009576
-0.02371879 -0.18962082 -0.17612822 0.067862265 0.17521948 -0.021185234 0.2791745 0.08828752
-0.082151085 -0.20871428 -0.038357597 -0.1618877 0.038832407 -0.26443028 0.15741758 0.23677114
-0.19413882 -0.27226046 0.084437616 -0.2674552 0.2098211 -0.13064787 0.26698378 -0.032886203
0.112720296 0.004940278 -0.08696366 0.0105829425 0.016014647 -0.09715856 0.21758318 -0.023216875
0.28471673 -0.01562669 0.24487509 0.049040526 -0.1345921 0.24342461 -0.10176546 0.14990285
-0.052990433 -0.047000322 0.027319418 0.12840217 -0.0627468 0.063628726 -0.0014812673 0.10496221
0.0020240853 0.14045519 -0.039223347 0.15657005 0.051979337 -0.052873738 0.04165028 0.22574724
0.09122479 -0.13811931 0.26615557 0.079229794 0.009852969 -0.059566647 -0.16269831 0.070951924
0.316313 -0.03611633 -0.14601764 0.03716234 0.2593641 0.06856842 0.36762905 -0.044228777

lstm.bias_hh_l1 f4 [128]
00000000: dc91 a5bd 9755 473d 0498 b33c aae5 ab3c
00000010: 521b ed3d 2940 833d 9f12 033e 667c 783d
00000020: 13e7 c33d 8703 623e 1017 4f3d 2cf1 6d3e
00000030: 059e 313e 91ff 293e 54f8 fc3d 6228 ad3d
00000040: 50ee 343d 306c 20bd 6a58 033e 5aca 583d
00000050: 07e6 253e 5bdf 5fbd d1a9 533d 1028 a73d
00000060: 98de 163d 8eb6 bdbd cbb2 043d e53f 153e
00000070: c888 053e 7b61 12bc 5679 9d3e 217b 303d
00000080: 369c 7abe 20bb f63d 32c9 e1bd 3763 babd
00000090: c56f 133e 185e 4b3e 7268 bb3d 756c ec3d
000000a0: 49f7 95bd d994 933d 96e5 853e de88 463e
000000b0: 8588 82bc 191a 423e 6718 333e 6b17 833e
000000c0: 0aba e0bd 8d99 243e 3153 c53d 309a 17be
000000d0: 07dc 873e 589d b6bc 45ae 01be 9490 f53a
000000e0: 9cdc 1f3d 5f2f f7bd 3da9 69bc fc9b ba3d
000000f0: 9c12 703e ffad 21be cdbe c03d 4560 e239
00000100: 3177 493d b946 88be 7fe0 8cbe d9fd b43d
00000110: 2f26 053e b099 7dbe 5ced 263e 072c 0b3d
00000120: df54 46be 601b cebd ff16 483e c550 04be
00000130: 4ece 3f3e 9d50 6ebe a2e7 783d 2fd3 da3d
00000140: b4b6 8e3e acfe 98bd 3358 c5bd 07d0 97be
00000150: 109c d53d 6bed f6bd a61f 5fbd f40e 863e
00000160: a8de 543e d0b6 373b cd36 263e 08bf 913e
00000170: dc38 8bbe 155f 443e d732 92be 4f29 8e3e
00000180: 77d8 f6bd cd17 973d 543d fc3d b798 0bbb
00000190: c263 4cbe 732d bd3e b0bf b83d cfc6 41bc
000001a0: b8a7 a43d 8dc3 7f3b e526 c23d b60e 983e
000001b0: bb2e 673d c609 453b 2cae 2f3c b877 8b3e
000001c0: 0145 423e 62c2 f33c 5805 103e eb98 a43d
000001d0: 468e 40bd 490f 563d 14d6 a23d 0e13 9bbd
000001e0: 4775 833e 5a91 f7bc 1f7d eebd f637 4fbd
000001f0: 9c46 e13d 94d7 62bd 0af7 b33d 5bc1 76bc
-0.08084461 0.04866561 0.021923073 0.020983536 0.115774766 0.06408722 0.12800072 0.06066551
0.09565558 0.22071658 0.050559103 0.23236531 0.17345436 0.16601397 0.12352052 0.08454968
0.044172585 -0.039165676 0.12826696 0.052927352 0.1620103 -0.054656368 0.05167562 0.08161938
0.036833376 -0.09263335 0.032397073 0.14575155 0.13040459 -0.008934374 0.30756634 0.043086175
-0.24473652 0.1204741 -0.11024703 -0.09100955 0.14398105 0.19860113 0.09150781 0.11544124
-0.073225565 0.07206125 0.26151723 0.19388148 -0.015934238 0.18955268 0.17489778 0.25603804
-0.10972984 0.160742 0.09635008 -0.14804912 0.26535055 -0.022291824 -0.12664135 0.0018735104
0.03902875 -0.12069582 -0.014261541 0.09111783 0.23444599 -0.1578903 0.09411392 0.00043177805
0.049185935 -0.26616457 -0.27515027 0.0883748 0.13002847 -0.24765658 0.16301483 0.033977535
-0.19368313 -0.10063815 0.19540022 -0.12921436 0.18731043 -0.23272939 0.060767777 0.10684811
0.27873766 -0.0747045 -0.09635963 -0.296509 0.10430157 -0.12057003 -0.05447354 0.26183283
0.20788062 0.0028032549 0.16231842 0.28466058 -0.27191818 0.19176896 -0.28554413 0.2776589
-0.12053006 0.073775865 0.12316385 -0.0021300742 -0.1995993 0.36948738 0.090209365 -0.011827185
0.08039802 0.003902647 0.09480075 0.29698724 0.05644105 0.003006564 0.010722678 0.27239776
0.18971635 0.029755775 0.14064538 0.08036979 -0.047010683 0.05226067 0.079509884 -0.07571994
0.25675413 -0.030220676 -0.11644959 -0.050590478 0.10999796 -0.055381373 0.08787353 -0.015060748

fc.weight f4 [3, 32]
00000000: f38b 1dc0 dc1b 10c0 81e5 12c0 1e98 18c0
00000010: d0d4 17c0 f644 1ac0 f52d 1040 2d07 2040
00000020: 8e92 0dc0 531f 17c0 4e50 1a40 11ac 16c0
00000030: b31b 1a40 ceee 1dc0 5f2a 1140 3781 1840
00000040: 8880 1b40 d05f 0d40 1655 1ec0 eabb 1dc0
00000050: 8123 1b40 a00b 17c0 44cb 0a40 d46c 1440
00000060: a00e 2040 1dc2 1dc0 fe24 1f40 c372 1440
00000070: 94d2 1ac0 6e56 1540 d2a1 1ac0 e76f 1940
00000080: 3172 11c0 83a5 1ac0 f782 18c0 caf4 1ec0
00000090: a47e 1bc0 05f6 16c0 ac37 1f40 fd09 1740
000000a0: 4eac 1cc0 1980 0ec0 6f19 1040 1dcf 1ac0
000000b0: fd78 1040 3336 10c0 9ec7 1240 726a 0f40
000000c0: e6b4 1840 f1fb 1f40 018c 16c0 73b5 19c0
000000d0: c131 1b40 8dda 1ac0 2955 1e40 d3a5 1e40
000000e0: 47dd 0d40 85b2 21c0 91f2 1840 bddc 1f40
000000f0: 4776 1bc0 95ef 1040 304b 1bc0 1e52 0d40
00000100: f026 1fc0 84ff 16c0 c3e4 20c0 c2c4 1bc0
00000110: 3011 14c0 f860 0fc0 0a25 1c40 d080 1f40
00000120: a96e 1cc0 2d29 1bc0 1b61 1240 46b4 0cc0
00000130: 78b3 1c40 942f 17c0 323a 1f40 a03b 1e40
00000140: a455 1940 9cf7 1c40 dc88 1fc0 ffcc 0fc0
00000150: bac6 1f40 339c 15c0 5dcb 1940 44cf 1940
00000160: 83c2 1140 7845 18c0 96de 1040 9531 1840
00000170: 519b 0ac0 b68f 1c40 5036 0ec0 1ccd 1940
-2.4616668 -2.2517004 -2.2952578 -2.3842845 -2.372364 -2.410459 2.252805 2.500438
-2.21207 -2.3612869 2.4111514 -2.354252 2.4079406 -2.4677005 2.2682111 2.3828866
2.42972 2.208973 -2.4739432 -2.4645944 2.424042 -2.3600845 2.1686563 2.3191423
2.5008926 -2.4649727 2.4866328 2.3195045 -2.4191027 2.3334002 -2.4161267 2.397455
-2.2725947 -2.416352 -2.3829935 -2.4836907 -2.4296045 -2.3587658 2.487773 2.3599846
-2.4480166 -2.2265685 2.2515523 -2.4188912 2.2573845 -2.253308 2.2934337 2.240872
2.3860412 2.4997523 -2.3522952 -2.4016998 2.4249117 -2.4195893 2.4739478 2.478871
2.2166307 -2.526521 2.389805 2.4978478 -2.429094 2.264623 -2.426464 2.208137
-2.4867516 -2.3593454 -2.5139625 -2.4338841 -2.313549 -2.2402935 2.4397607 2.492237
-2.4442542 -2.4243882 2.2871768 -2.198503 2.448454 -2.362279 2.487927 2.4723892
2.395852 2.4526129 -2.4927282 -2.246887 2.4965043 -2.3376586 2.4030373 2.4032755
2.277497 -2.37924 2.2635856 2.3780262 -2.1657298 2.4462714 -2.222065 2.403144

fc.bias f4 [3]
00000000: a703 0440 9777 0140 3ca0 e53f
2.062723 2.0229242 1.7939525
