precip_mm_model.pth (torch, 78952 bytes, 10 tensors)

lstm.weight_ih_l0 f4 [128, 46]
00000000: f868 b13d eee9 18be c61a 2c3e 8849 79bd
00000010: 252c 833e cf03 5c3e 9ead 11be 6891 1abd
00000020: e79e 95be 050f 3e3d 3784 143e 8607 19be
00000030: f8a0 853d 6b87 1dbe b315 fc3b da14 85bb
00000040: 21f6 123d 5897 d838 f12d 293c 5f10 c73e
00000050: 8de5 f4bd 27e3 553e 47ce b13d d35a 9c3e
00000060: 4ab7 c43d b042 7e3e 9e7b fdbe 835f bfbe
00000070: 9164 e83d 9eed b13c acae a3be 3058 63bd
00000080: 2758 e1be f02c 0b3d b34f a63e ae09 8bbe
00000090: 1b33 993d 3696 c63d fc1a 75be 90c5 8e3e
000000a0: f48b a1bd 5c10 28be 156b 8abe 1f18 e0bd
000000b0: f322 4b3e 6e81 3fbe bae7 09bd 3ad5 e23d
000000c0: e5ec e93c 54c2 063e 26ee 1f3e 7ff0 9dbd
000000d0: 1324 18bb 6342 75be edc5 7dbd 3d53 f9bc
000000e0: 3f61 edbd 504f 42be 5399 85bd 8b05 9b3e
000000f0: 6fdf 64be 3c0d 653d c0e0 23bd da41 5dbc
00000100: 46ff 35be d561 673c d847 34be 40f5 6c3e
00000110: 1c3e 523e 1290 63be 76e9 e4bd 305d c4bd
00000120: a907 d0bd ecb1 ef3d ab0e 23bd c0c9 d8be
00000130: 1dbe e63b 1c48 88be 30de 80ba ce45 2e3e
00000140: 18f6 0c3e f310 1d3e f848 53be 01fe 693e
00000150: b7ce 96be be08 933e 286e 84bd d049 5dbd
00000160: f7ab a7bd 4532 a13e 3f88 41bc b893 84be
00000170: b4c3 373e f940 573d e095 063e 0534 0b3e
00000180: 1948 a23d d5ee 09be 92ca 043e 5613 3dbe
00000190: 84f9 24be 2d2c b43d c5a6 a7bd 343b 62be
000001a0: ae50 46bd c41b 94be 0c6a 083e f084 0a3e
000001b0: 48c8 c33d 6466 193e 2867 853e 0784 07be
000001c0: dae0 193e d620 27be 3fe8 833e 54bb a6bd
000001d0: 7143 cd3e 7231 20be 9150 bebe a651 04be
000001e0: 9b72 b1bc 0e6f 863d 34f3 26bd 02d4 d93d
000001f0: 4125 393e 4600 a73d 561a 0dbd d690 c4bc
00000200: 7dab d23e 2f35 29bd 9cf7 d0bd b3cc 22be
00000210: 0f3f 153c e9fa f83d 8e51 a3be 0e0b 46be
00000220: 6813 bd3e 0f27 203d 388b 153d f672 723e
00000230: 245a db3e 648e d2bd 1a43 d2bd c2cb 713d
00000240: 4cab a83e 4c81 703d da21 0c3e f732 3c39
00000250: d749 08bd 7267 3c3e 0883 59be d919 843d
00000260: 7f50 923d 205d 723d 4ed1 f43c 31b0 963d
00000270: 65ab 1b3e bfa3 a83e b820 f43d 8460 913c
00000280: e4d8 8dbe 56ac 9abd d14a cabd a131 a2be
00000290: 5a55 b7be 7d2e 6cbd 6971 c13d b84d b23d
000002a0: c2fb c03e ecf6 c53e 3cfe 0d3f 4eb2 8a3d
000002b0: ed99 54be 7874 87be 2bef 953e 7b36 9fbd
000002c0: 273e a9be dc2e 883e 42c6 b93d 6264 0e3e
000002d0: 8309 90be f3f3 773e 98df bcbd f954 273d
000002e0: db50 8a3e 0db6 8b3e fafa 313e 4263 99bd
000002f0: a304 60bd 2c43 d13d 8e70 623b 37c4 f5bd
00000300: 0a7f 823d 7abb 3abe 943c d8bd e29f f63d
00000310: f902 023e ef99 2fbd ca47 80be f893 11ba
00000320: 5146 1cbe dcfe 8c3d c891 4f3d e759 633d
00000330: a961 55be 4ee6 9f3d 0946 053d 93c9 cf3d
00000340: a42f 393e 0b89 bcbe 48f2 153d 9ab0 85be
00000350: b55f 043e 3fe3 7e3e 1a40 9dbd 0052 f93d
00000360: 785d dcbc 207b 89bc ea74 923b a3ef cc3e
00000370: d2bd 94be 802d c4be 00aa 9d3e 820d 263e
00000380: 9a1b 57be 0169 8e3e b63e 61bd ec75 95bc
00000390: 21e7 a8bd 6725 f73d 354a 183a e58d a43d
000003a0: fbb4 873e fd48 e3ba 13e9 063c 0f45 0f3d
000003b0: a65c be3c 1794 853c 5bea 533e 268f 903e
000003c0: 361e f1bc 1f08 2abe 3b38 503e b59a 92be
000003d0: 18ae 03bd f416 bcbd 1023 16be 68bf ffbd
000003e0: f2df 323d cad0 93be 6208 1ebd 280d 4dbd
000003f0: de3a 89bd 619c 79be cd8d b93e f5b3 b5be
0.08662599 -0.14932987 0.16807088 -0.06086114 0.25619617 0.21485828 -0.14226386 -0.037736326
-0.29222795 0.046401042 0.14503561 -0.14944276 0.06524843 -0.15383689 0.0076930164 -0.0040613236
0.035879258 0.000103278726 0.010325895 0.38879678 -0.11957846 0.20887433 0.086819224 0.30538043
0.09605272 0.24830127 -0.49508375 -0.37377557 0.113473065 0.02171975 -0.31969202 -0.055504024
-0.44012567 0.033978403 0.3248268 -0.27155823 0.07480451 0.09696619 -0.23936075 0.27885103
-0.07888022 -0.1641249 -0.27034822 -0.10942101 0.19837551 -0.18701717 -0.033668257 0.11075826
0.028555343 0.13160068 0.1561819 -0.077118866 -0.0023214861 -0.23951106 -0.061956335 -0.030435199
-0.11590814 -0.18975568 -0.06523385 0.30277666 -0.22350858 0.055920824 -0.04000926 -0.01350447
-0.1777316 0.014122446 -0.17605531 0.2314043 0.20531505 -0.22222927 -0.11177342 -0.095880866
-0.10157711 0.11703858 -0.03980891 -0.42341423 0.0070417062 -0.26617515 -0.0009831842 0.17018816
0.13765752 0.15338497 -0.20633304 0.22850801 -0.29454586 0.28717607 -0.06466323 -0.05402547
-0.081870966 0.31483665 -0.011812269 -0.2589395 0.17945749 0.052552197 0.1314311 0.13594063
0.07923908 -0.13470013 0.129679 -0.18464407 -0.16110808 0.08797488 -0.08186106 -0.22092897
-0.048416786 -0.28927433 0.13321704 0.13527274 0.09559685 0.14980465 0.26055264 -0.13233958
0.1502718 -0.1632112 0.25763127 -0.08141199 0.40090516 -0.15643862 -0.37170842 -0.12921771
-0.021661093 0.06564151 -0.04075928 0.106361404 0.18080617 0.08154349 -0.034448944 -0.023994844
0.4114646 -0.041310485 -0.10203478 -0.15898399 0.009109273 0.12157232 -0.3189816 -0.19340155
0.36928868 0.03909975 0.036509722 0.23676667 0.4284221 -0.10281065 -0.10266705 0.05903221
0.3294319 0.058717057 0.13684788 0.00017948063 -0.033273544 0.18398836 -0.2124139 0.064502425
0.0714426 0.059170842 0.02988496 0.073578246 0.152021 0.32937428 0.11920303 0.017746218
-0.27704537 -0.07552402 -0.09877551 -0.3167849 -0.35807306 -0.057661522 0.094454594 0.0870623
0.37692076 0.3866495 0.55466056 0.0677229 -0.20761843 -0.26456046 0.29284033 -0.07774063
-0.3305523 0.2659825 0.09071018 0.1390548 -0.28132257 0.24214153 -0.092223346 0.04085252
0.27014813 0.2728733 0.17380896 -0.07489635 -0.054691922 0.1021789 0.003455195 -0.12000316
0.06371887 -0.18235579 -0.10558429 0.12042214 0.12696446 -0.042871412 -0.2505477 -0.000555336
-0.15261199 0.06884548 0.050676137 0.05550566 -0.20838036 0.07807599 0.032537494 0.10145869
0.1808458 -0.36823305 0.03660801 -0.261113 0.12927134 0.24891375 -0.07678242 0.121738434
-0.026900038 -0.016782343 0.0044695036 0.40026578 -0.2905107 -0.38315964 0.30793762 0.1621609
-0.21006623 0.27814487 -0.054991446 -0.018244706 -0.08247209 0.12067681 0.00058093976 0.08034877
0.26505265 -0.0017340478 0.00823428 0.03497797 0.023237538 0.016305966 0.20694868 0.28234214
-0.029433351 -0.1660466 0.2033395 -0.28633657 -0.03214845 -0.091840655 -0.14661813 -0.1248768
0.043670602 -0.2887023 -0.038582213 -0.050061375 -0.06700681 -0.2437606 0.36240998 -0.3548886

lstm.weight_hh_l0 f4 [128, 32]
00000000: de74 e2bb b5d8 b0bb f844 9ebe 44cd 4b3d
00000010: d253 be3d 757c ac3d 59a3 14be 096f 68be
00000020: 0bf0 883e b8c3 b2be f307 3bbe 6a90 a4bd
00000030: d1d3 5bbe 2806 013e 4555 213e 02d2 2abe
00000040: 2b1d 323e 0d0c 87bd d8fe 62be 7a26 24be
00000050: 1f95 2d3e 6887 c83d 459c b53e 6c3e 723e
00000060: 1314 b3bd 96b1 5cbd b51a b3bd a6d4 adbd
00000070: 1d4c b63d bf69 94be 7c17 86be d2db 863e
00000080: c850 373e 6058 22bd 8893 213e e178 6a3d
00000090: c4ee 623e a8a3 f4bd 4011 8b3d 8954 403b
000000a0: c8e4 52bd 4f1a fa3d f12c 993c 51ce 78bc
000000b0: c9f2 78be c583 b9bd 025c 81bd ce9e 3a3d
000000c0: 1f36 853d 0934 27be 5b36 f0bd 8d8f a33e
000000d0: fc2e 80bd 2cdf b1bc 8c26 193d e0c4 573d
000000e0: 2a1d 95ba e6c7 43bd 39ad 5abb 91e3 81bd
000000f0: 8dcc 843e 706d 26be d752 f0bd 3387 20bd
00000100: fe94 07be d587 38be d723 65be c9f7 10be
00000110: 2e36 82be ccfc 9e3c 5ef2 18be b3b6 28be
00000120: 64fa ff3d b47a 8bbd 3490 713e 145a 38be
00000130: 9d92 cebd 6a62 f33c ff68 133e 6df7 5e3e
00000140: feb4 a53d ace5 893e 944d a9bd 39d5 cfbe
00000150: ddac fb3d 190d d43d f2cf 5abe 80c1 84be
00000160: 6d2b 903b 091b ec3b 39f6 51bd 3bc6 6fbd
00000170: 4f3c 34be ba83 3fbe 92a9 d7bd a484 113c
00000180: d738 bcbe dfa6 a33e a7c4 0a3d 500a c73c
00000190: eb19 dabb 0e93 a03e 00e3 a1be ef52 53be
000001a0: 3fa4 71be 521b 20bd d4e0 24bd 449c cdbd
000001b0: dfa7 20be 9a18 d03d fcb2 dfbe d2bf a03e
000001c0: b3ad c93d 98f0 293e f33a 273d a774 ff3c
000001d0: c8d3 21be 95f4 a53d d19b 873e 2139 9abe
000001e0: 9689 d8bd facc 9bbd 18a1 aa3d 0a8e 7cbd
000001f0: 6b8c a2bd a068 f7bc 4e72 e2bd 6d6b 243e
00000200: 3439 16bc a0ca 3d3d cbce 55be 079e 4c3d
00000210: cbb2 52be 196e 433d 83a1 733d c052 efbd
00000220: 4f6a 93bd 7d5a b6be 89fb 92bd 5ade 5fbe
00000230: f1e3 0abe 3ba8 c6bd 08a7 ff3d b9de 743e
00000240: de43 223e f8d9 9a3e 29f5 63bd 861a 04be
00000250: b37e 8a3c c1c2 3e3e 4e30 823d bc59 18be
00000260: 5758 72be 85fc 80be 2bfa 383d cb98 edbd
00000270: 11c9 80be f8a6 f5bc f06b 4c3e 2aca a2bc
00000280: 4199 103e 5d86 e5bd 55c6 84be b058 12bf
00000290: c11d fbbe d6b3 0cbf faae 503e e725 1b3e
000002a0: 7bda 95be 0de6 acbe ae9d 203d 0cb9 5d3c
000002b0: 875d 05bc 7471 4dbe bb5b fa3e f318 32bd
000002c0: b888 3ebc 8516 133e ebce b53e ff88 9dbe
000002d0: 6b48 8abe 46b7 cdbd 30e5 a23e 76c6 63bd
000002e0: d6c3 d8be 8f11 e63c 01c1 403d 56f6 5abe
000002f0: 4597 a5be c0c2 62be 016a db3d 11c1 aebe
00000300: bec4 533d d288 d63e 936e ebbd 505b 4ebe
00000310: e30d d4bd 33f9 7d3e e422 ed3c dd98 a4bc
00000320: 167c 4d3d c310 d6bc 1480 443d 525c 84bd
00000330: 8b47 eb3d 4109 113d 7eba 87be 8e3e b73d
00000340: 055c 193e f9c2 8d3e 90f4 b63d 68de aebd
00000350: 9dc1 1ebe 14c9 1d3e 54b9 0b39 c343 f1bd
00000360: ab5f 383e bd66 ca3c 1fa2 d93d 4b9b 2f3e
00000370: b84a 683e 07f0 2d3c 307b 18be 7c74 a33e
00000380: 2c8d e43d e226 db3d 5fc6 1cbe 56e1 86bb
00000390: 1d60 04bd 28af 603a 5bb9 34be 27db 89bc
000003a0: ffa0 97be 529e b9bd 2fe1 8d3e 17d4 06bd
000003b0: 9fde 47be 8685 f43d 7bc3 5e3d b24b bf3e
000003c0: 6a8a aa3e 8739 9ebd 7619 eabd c62b 373e
000003d0: c4c9 913e 5bc4 17be da40 843e 0bcc 02bd
000003e0: 6efb 9cbe f875 363e dd54 613d 3102 6cbe
000003f0: ccf2 ec3d 0bdd 6dbe b4c9 16bd 3fe8 89bd
-0.0069109043 -0.0053969272 -0.30911994 0.049756303 0.09293331 0.08422176 -0.14515437 -0.22698607
0.26745638 -0.34914947 -0.18264751 -0.08035357 -0.2146752 0.12600005 0.15755184 -0.16681674
0.17393939 -0.065940954 -0.22167528 -0.16030303 0.16951416 0.09791452 0.35470787 0.23656625
-0.08744063 -0.053880297 -0.08745328 -0.08487825 0.08901236 -0.28986928 -0.26189792 0.26339585
0.1790191 -0.039635062 0.15778935 0.057244185 0.22161394 -0.119452775 0.067903996 0.0029347262
-0.051487714 0.12212049 0.018698188 -0.015185908 -0.24311365 -0.09058336 -0.06316377 0.045561604
0.065044634 -0.16328444 -0.117291175 0.31945458 -0.062589616 -0.021712862 0.037390277 0.05267799
-0.001137649 -0.04779806 -0.003336741 -0.06342233 0.2593731 -0.16252685 -0.117345504 -0.039191436
-0.1324043 -0.18020566 -0.22376953 -0.14157023 -0.2543196 0.019407652 -0.14936206 -0.16475944
0.1249893 -0.06810513 0.23590165 -0.18003112 -0.10086558 0.029710013 0.14395522 0.21774073
0.08091162 0.26933038 -0.0826675 -0.40592363 0.122888304 0.10354061 -0.21368387 -0.2592888
0.004399708 0.0072053713 -0.051260207 -0.058538657 -0.17601131 -0.18702593 -0.1053039 0.008881722
-0.36762115 0.3196325 0.03387895 0.02429691 -0.0066559217 0.31362194 -0.316185 -0.20637105
-0.23597811 -0.039088555 -0.040253475 -0.10039571 -0.15689038 0.101609424 -0.43691242 0.31396347
0.098475836 0.16595685 0.040827703 0.031183554 -0.15803444 0.08103291 0.26486066 -0.3012171
-0.105731174 -0.076074556 0.083315074 -0.061658897 -0.07936939 -0.030201256 -0.11056958 0.16056605
-0.009168912 0.046335816 -0.20879667 0.049955394 -0.20576017 0.04771242 0.0594802 -0.11685705
-0.07198011 -0.35615912 -0.07176883 -0.21862164 -0.13563515 -0.09700056 0.124830306 0.23913087
0.15846202 0.30244422 -0.055653725 -0.12900743 0.016906118 0.1862898 0.0635687 -0.14877981
-0.23666511 -0.25192657 0.045160454 -0.116014086 -0.25153401 -0.029986843 0.1996305 -0.01987179
0.14120962 -0.112072684 -0.25932565 -0.57166576 -0.49046138 -0.5496191 0.20379248 0.15151177
-0.2926825 -0.33769265 0.039212875 0.013532888 -0.008139974 -0.2006281 0.4889811 -0.043480825
-0.011629276 0.1436406 0.35509428 -0.30768582 -0.27008376 -0.10044722 0.3181548 -0.05560919
-0.4233691 0.028084544 0.047059063 -0.21383032 -0.32341972 -0.22144604 0.10713578 -0.34131673
0.0517013 0.4190126 -0.114957 -0.2015202 -0.10354211 0.24802093 0.028947301 -0.020092422
0.050167166 -0.02613104 0.047973707 -0.06462921 0.11488255 0.035409216 -0.2650947 0.08947478
0.14976509 0.27687815 0.08933365 -0.085385144 -0.15503545 0.15408736 0.00013325113 -0.11780503
0.18005244 0.024707193 0.10626625 0.17149083 0.22684753 0.010616309 -0.14890742 0.31924808
0.11159739 0.10700776 -0.15310048 -0.0041162176 -0.032318223 0.0008571022 -0.17648832 -0.016828133
-0.29615018 -0.090634 0.27710864 -0.03291711 -0.19518517 0.1193953 0.054385643 0.37362438
0.33308727 -0.07725816 -0.114306375 0.17887792 0.28474247 -0.14820997 0.25830728 -0.03193287
-0.30660576 0.17818439 0.055012573 -0.23047711 0.11569747 -0.23228852 -0.036813453 -0.067337506

lstm.bias_ih_l0 f4 [128]
00000000: 16e0 973c 18be 89bc 10ca 3e3d 59df 7b3d
00000010: 6cd7 973d 45ad 06bd 21f2 a8bd 32c1 383e
00000020: d14b 683d e11f abbc db88 e53c 96b6 2f3e
00000030: 7151 04be 719d a33e a9b9 83bd 9308 d4bd
00000040: b056 383e 7de0 853c 1c34 d63b 710b 563e
00000050: 98c3 2abe ee96 7e3d 5567 dbbd ab5d acbc
00000060: 2a3f 293e e445 5c3e 7ca2 593c c20e 64bd
00000070: 218f 633e 6f51 113e 1595 dd3d 19ea 0bbe
00000080: 4258 753d b80b bb3d f7eb 463e 9be9 2f3e
00000090: b26c ea3d 7ae2 c5bd 6046 e53d b43b f83d
000000a0: 143b d83c 76e1 fb3d 97bc 8fbe e9f8 c93d
000000b0: d549 c93d 2f1f 993e 1baa 04bd 9802 79bb
000000c0: 0f81 a43e 7f76 453e 2ec5 f53d ca86 e6bc
000000d0: 24c8 113e 718e a43d 3e32 783e 6f1d 133d
000000e0: 2961 123e e251 afbc 74d8 913b bfe2 033e
000000f0: 3786 733d ee33 05bd 89c9 37bd baf3 503e
00000100: 1b3a 93bd 3d9c b7bd 82e3 d2bc 1137 08be
00000110: d6de 383d 1f2f 13be d302 a1bd 2c1b 723c
00000120: 5673 2b3e 2623 123e 3861 3a3e 80fc 863d
00000130: f296 873d b897 2a3d 6dc8 3ebe 7ed3 07bd
00000140: 3b82 2ebe 51a6 933d 973b e63d 3bec 5f3d
00000150: 84a3 173c dc76 d03d a633 5e3d 7aeb 363d
00000160: 39d9 a23d 1a51 d1bc c037 db3d c0d9 113e
00000170: f6a0 40bb 1112 7bbd 3c39 9bbd 7ab9 17be
00000180: 6ebe 01bd bc91 263d 63de 513c 414d 0dbd
00000190: 4b4b 4dbd 6777 3f3d b924 f73d 3293 1d3c
000001a0: 83be c93d 6c67 3e3e 2ddb 05be bdde 053c
000001b0: 7100 92bd 6917 003e 437f df3c 3ebc a3bd
000001c0: 4abe 873d 3aa1 5a3e 8884 163c 2f75 df3d
000001d0: fd1f 2ebe 7375 153e 60ac b13d c4fc a4bc
000001e0: 4f0d 573e 73ca 37bd bb60 4b3e ee2a 4abc
000001f0: 6edf cbbd cbf8 f23d 912c ffbc 4fa4 e6bd
0.01853947 -0.016814277 0.04657942 0.061492298 0.07414135 -0.032880086 -0.082493074 0.18042448
0.05671293 -0.020889224 0.02801936 0.17159495 -0.12921692 0.31956056 -0.06431896 -0.10353198
0.18001819 0.016342396 0.0065369736 0.20902802 -0.16676176 0.062155657 -0.107130684 -0.021040758
0.16528001 0.21511036 0.013283368 -0.055678137 0.22222568 0.1419122 0.10819451 -0.1366352
0.059898622 0.091330945 0.19425951 0.17178957 0.11446513 -0.096623376 0.111950636 0.121207625
0.026395358 0.12298863 -0.2807357 0.09861929 0.098285355 0.29906604 -0.032388788 -0.003799593
0.32129714 0.19283484 0.120005 -0.028140444 0.14236504 0.08034981 0.24237916 0.035916742
0.14294876 -0.02140135 0.004450852 0.12879466 0.05945417 -0.032520227 -0.044869933 0.20405474
-0.07188817 -0.08965347 -0.02574325 -0.13302256 0.045134388 -0.14373444 -0.07861867 0.014776986
0.16743216 0.1427122 0.18201149 0.06591129 0.066205874 0.041648597 -0.18631144 -0.03316068
-0.17041866 0.07209457 0.112418346 0.054668646 0.009255294 0.101789206 0.054248475 0.04465816
0.07951588 -0.025551368 0.10703993 0.14243221 -0.0029392815 -0.061296526 -0.07579276 -0.14816847
-0.03167575 0.040666327 0.012809369 -0.034497503 -0.050120633 0.04674473 0.12067551 0.009617614
0.0985079 0.1859414 -0.1307189 0.008170781 -0.071289904 0.1250893 0.027282363 -0.07994889
0.06628092 0.21350566 0.009186871 0.10911023 -0.1700439 0.14595585 0.08675456 -0.02014006
0.2100117 -0.044870805 0.19861118 -0.012339337 -0.09954725 0.1186386 -0.03114918 -0.11261808

lstm.bias_hh_l0 f4 [128]
00000000: c037 20bc 73ca a1bd 0e03 b93d 5b65 9cbd
00000010: 7ceb c13d c279 c4bd 99ae fe3d 9a93 373e
00000020: 22f8 983d eefb 163e 9893 ad3d de2f 673e
00000030: af88 3b3d 0e38 9b3d 34ab 8c3e e3d3 98bd
00000040: a92f 85bc 9706 063e f1cc ba3c 31a4 013e
00000050: f671 c73b 5a48 e3bd ed52 5abd 972f bfbd
00000060: 0d86 a4bc d397 42bd 28c9 953d 505a f73d
00000070: 3bc8 223e 914a 373e 3997 173e df47 13be
00000080: de35 e03d ab8d 8abc 2e74 c13a fcc6 903e
00000090: 2c52 02be 2a5a 6c3d 9991 823d 95e0 50bd
000000a0: a3b8 0a3e d4e0 3f3e 46d2 db3c 5782 93bd
000000b0: ea5a 533d 1b76 9a3e 425e e9bd b4d4 db3d
000000c0: fc52 823e 3fdb 223e 6cec d43a 950c 173e
000000d0: 3428 213e 59cc 653e 7731 373e 641b 863d
000000e0: 075d 263e 7449 073e aaf6 c03d d31f 68bd
000000f0: be33 88bd e661 683e e79c 8d3d cb98 263e
00000100: b3a6 073e e568 1fbe 943a 643e 355d 0a3e
00000110: debb dbbd 8c68 7ebd a34a 57be f112 d63d
00000120: e2fb c83d 42a6 463e 26ba 083e 14c0 d03d
00000130: 5cee efbd a5d8 acbd 4b6b 2bbc 0ca1 e4bd
00000140: 6251 bcbc b1a5 43bd 1f3e e43d 1795 683d
00000150: 6ca9 90bd 74c5 b9bd b1f9 8cbd 57bc b03d
00000160: 4614 c33c 95d6 1a3e fc0a 88bc ffdf 92bc
00000170: 4457 2e3d 5f15 9bbc 51de 41be 5ad2 c73d
00000180: f489 32bd 36a7 5bbd 17ea 2c3d 0fd7 6e3e
00000190: f108 adbc b6f7 513d 4ec0 efbc ce11 55bd
000001a0: 50ff 5f3e 4cd5 ff3d 9661 53be d2b9 483e
000001b0: 81ae b63c 25ab 0abd 51fc b03d 62d1 c0bc
000001c0: ad43 263d 52df 93bc 7832 02be 7f8b 81bd
000001d0: ce98 65be 2f26 403e a255 4e3d 4672 143e
000001e0: ef6d d13c af09 50bd ad62 5c3e b296 e43d
000001f0: b084 6d3e 66db 403e ade5 97bd 4500 e83d
-0.009778917 -0.07899942 0.09033786 -0.076365195 0.09468743 -0.09593536 0.124356456 0.179274
0.074692026 0.14744541 0.08475417 0.22576854 0.04578465 0.07579051 0.27474368 -0.07462289
-0.016258078 0.13088451 0.022802802 0.1266029 0.0060865832 -0.11097784 -0.05330174 -0.09335249
-0.020083452 -0.047508072 0.07313758 0.120777726 0.15896694 0.17899539 0.1480378 -0.14382885
0.10947774 -0.016913256 0.0014759356 0.28276813 -0.12726659 0.057703175 0.06375427 -0.050995428
0.13546996 0.18738109 0.026833665 -0.07202595 0.051600374 0.30168232 -0.113949314 0.10733929
0.25453937 0.15903948 0.0016244776 0.14750893 0.15737993 0.22441234 0.17889963 0.06548193
0.16246425 0.13211614 0.094220474 -0.056670975 -0.06650494 0.22693595 0.06914692 0.16269223
0.13247184 -0.15567358 0.22287971 0.13512118 -0.10729192 -0.062111422 -0.21024565 0.104528315
0.09813668 0.1939936 0.1335226 0.10192886 -0.11715385 -0.08439759 -0.010462592 -0.1116353
-0.022988025 -0.047765438 0.11144661 0.05678281 -0.07063565 -0.09070864 -0.06883562 0.08629673
0.023813378 0.15120919 -0.0166068 -0.017929075 0.04256369 -0.018931089 -0.18932463 0.09756918
-0.043588594 -0.05362626 0.042215433 0.23324226 -0.021122428 0.051261626 -0.029266503 -0.052018933
0.21874738 0.12491855 -0.20642695 0.19602135 0.022300007 -0.033854622 0.086418755 -0.023537342
0.040591884 -0.018050823 -0.12714565 -0.06325435 -0.22421572 0.18764566 0.050374635 0.14496717
0.025565116 -0.050790485 0.21522017 0.11161555 0.23195148 0.18833694 -0.07416854 0.113281764

lstm.weight_ih_l1 f4 [128, 32]
00000000: 841a a7bd 8ae5 583e 4bc1 69bd dc9f de3a
00000010: 2760 8abe 6cd0 813e d549 90be b6f2 553d
00000020: fdc5 89be b0c9 19bd 061f 903d be37 07be
00000030: cdf9 aebd aa61 943e 21dc 0abd 3732 b03d
00000040: dd1f 3c3e c25e 833e 7675 3039 1ec3 77bd
00000050: 7868 d7bd 594f f0bd 987b 803e c25b 873e
00000060: 7deb 52be 3d01 b53e f0ac 83be 3e4f 26be
00000070: 2db5 e8be 4093 563d cc4b a73d b562 003e
00000080: f71c 81bd 8018 673e ec22 d8bb 04f7 863d
00000090: 2123 88be aed0 013e 2cd5 113e e4b8 43be
000000a0: 6274 93be 9216 7abd 7440 ea3c 04e2 52bd
000000b0: 6515 113d 6716 54bd c683 383e 5160 b6bb
000000c0: babd 823e b50e 3b3e cc7a 7fbd a97c c53c
000000d0: 1627 8c3e 09c1 93bd d589 a8bb 286c 88be
000000e0: 4a34 72be ee1e 7b3d c4e0 e3bd f20a 9b3d
000000f0: f190 bebc 0746 8e3d 46e8 e73d 9574 44be
00000100: e126 35be 9c42 b2bd fa27 723d c46a 9cbd
00000110: c852 363d 1c76 a83d dc41 5e3d b15b 08be
00000120: da37 2abe 58f4 69be 17c3 253e 800c 563d
00000130: 5b21 abbe c32a 9e3d 2cae 86be 51c3 4f3e
00000140: 87af 103e e59b 213e e3ea 90bb aaa3 9dbe
00000150: c43d 8fbd 2c86 7bbd 77af 493e 35cb 9e3e
00000160: 806c 77bd e4d7 703e f4fe 48bd 9629 3abe
00000170: e51a 69be cac6 14be ac62 8d3c 1d57 cd3d
00000180: 735b 89bc 4beb 92be b464 13bd 6615 a8be
00000190: 4426 08be 6215 1b3e 3a5e aabe 54e9 013d
000001a0: 554e c4be cbd6 afbe 9755 5b3e 2d7d 55be
000001b0: 889f a1be 1fcf bcbc 4ceb d0be 3c9c 883b
000001c0: 2915 b63b 8c8f 353e cffc 9a3d 9e24 073d
000001d0: bd39 09bd 5015 31be ebe2 de3d 4659 8e3e
000001e0: ac8e 943d b686 c93e a627 83be ae3c 82be
000001f0: bbb8 b0be bd30 73bd 24e7 c93d b302 87bc
00000200: e298 a5bc b9e1 003e 0542 21bd 2fee 92be
00000210: 8707 babd b913 7d3e 02f6 bbbc fedc 66be
00000220: e36d bbbd f32a 3a3d 4c9e 393d b17e 7bbd
00000230: 15ad a3be 7fb4 b8bb 9c85 8dbe f780 013e
00000240: d4c8 673e b085 503e 2f9b 913d 2ddc 05be
00000250: 6e35 e8bd a7b8 4abd d7df e73d d254 1b3e
00000260: 3b3b 86be 0e90 df3d 55b5 9dbe 80b8 4ebe
00000270: 1ac8 91be 0baf acbc 9687 5f3e f413 1f3e
00000280: 6a04 1c3c 29e4 0dbe 3bb1 b6be c40c 78be
00000290: e5b7 44be 2913 7e3e 6a68 38bd 4627 91bd
000002a0: 8cf1 a4bc bcbc 73be a8bd 3bbd c960 10be
000002b0: 784f 2fbe 6e5d b13d 8ff8 9b3d 7648 993e
000002c0: 546a 473e b91b 673e af26 d93c cd3b 35be
000002d0: f4a2 773e e581 a23d eb43 00bd 6764 4e3e
000002e0: be3f adbd ddad cc3d ee7c 09be e5c5 5ebe
000002f0: a558 dabd 222d 95bc 55c7 c2bd 1648 893d
00000300: bd36 2cbe 0d4c 74be 88b9 bebd 038d 24bd
00000310: d05e b13d 05b6 dd3e 0e84 88bd 767c f4bb
00000320: 4509 90bd 8b05 68bc 739b 2e3d 401f 05be
00000330: 4c7d 073d cac5 123e e876 df3c f0a8 333e
00000340: 512d 7d3e 18cf 713d ecf0 0a3e 4436 563e
00000350: 33c1 92bb dd04 9fbd 16b7 753e 7e39 563d
00000360: 90b8 55be 4851 f43d 84c0 3dbe 5fc8 08be
00000370: b97a 87bd b322 fdbd 3f8f e1bd 95f6 f13d
00000380: 651e 7f3c 0068 a23d 70a0 74be 3a10 6cbe
00000390: 85e3 0ebd ff91 a23e e262 443d d1a3 adbe
000003a0: a0f9 08bd 4111 3bbe fbda f7bb 3386 ddbd
000003b0: 22f7 97bd ccd3 703e 1065 c7bd 2276 883e
000003c0: 15cf ae3e 9707 753d 471a 873e 1e2d c4be
000003d0: ef75 f8bd 0247 903d 6da3 d53c 01da 15be
000003e0: e4e5 4abd 10da 903e 152c 56be eb70 85be
000003f0: e384 e6be fada 1d3d 9db4 11bd bf41 383e
-0.08159354 0.21181312 -0.057069104 0.0016984898 -0.27026483 0.25354326 -0.2818133 0.05223342
-0.26908866 -0.03754586 0.07037167 -0.13204858 -0.085437395 0.28980762 -0.033901338 0.08603328
0.1837153 0.25658232 0.00016828426 -0.060488813 -0.10517973 -0.11733884 0.25094295 0.26437193
-0.20597644 0.35352507 -0.25717878 -0.16241166 -0.45450726 0.052386522 0.08168754 0.12537654
-0.06304353 0.2256794 -0.00659596 0.06590083 -0.265893 0.12677261 0.14241475 -0.19113499
-0.2879973 -0.06105668 0.028595187 -0.051485077 0.035420794 -0.051779177 0.18019018 -0.005565681
0.25535375 0.18267329 -0.062372968 0.024107294 0.2737357 -0.07214553 -0.005143384 -0.26645017
-0.23652759 0.061308794 -0.11126855 0.07570447 -0.023262473 0.069469504 0.113235995 -0.19185098
-0.17690612 -0.08704111 0.059120156 -0.076375514 0.04451254 0.082256526 0.054262027 -0.13316227
-0.16622868 -0.22847116 0.16187702 0.052258015 -0.33423886 0.07723 -0.26304758 0.20289351
0.14129458 0.15782125 -0.004422532 -0.30788928 -0.06994203 -0.061407253 0.19695841 0.3101441
-0.060406208 0.23519856 -0.049071267 -0.18179926 -0.22764166 -0.14528957 0.017258964 0.10026381
-0.01676724 -0.2869514 -0.03598471 -0.32828826 -0.13295847 0.15144876 -0.33275014 0.03171666
-0.38341013 -0.34343562 0.21419369 -0.20848532 -0.31567025 -0.023047982 -0.40804517 0.004169015
0.0055567217 0.1773054 0.07567751 0.032993905 -0.03350233 -0.17293286 0.10883125 0.27802485
0.07253775 0.3936059 -0.25616187 -0.2543692 -0.34515938 -0.059372652 0.0985854 -0.01648078
-0.020214502 0.12586106 -0.0393696 -0.28697345 -0.09083467 0.24714555 -0.022944454 -0.2254524
-0.091518186 0.045451116 0.04531698 -0.06140012 -0.3196799 -0.005636751 -0.27640998 0.12646852
0.22635204 0.20363498 0.07109677 -0.13072272 -0.11338316 -0.049492504 0.11321991 0.15169075
-0.26217064 0.10916148 -0.30802408 -0.20187569 -0.28472978 -0.02107956 0.21829066 0.15534955
0.009522537 -0.13856567 -0.3568209 -0.2422362 -0.19210775 0.24811997 -0.045021452 -0.07087569
-0.02013471 -0.23802465 -0.045835167 -0.1409942 -0.17120159 0.086603984 0.07615768 0.29938096
0.19474155 0.22569169 0.026507704 -0.17698593 0.24183255 0.07934932 -0.03131477 0.20155488
-0.084594235 0.09994099 -0.13426563 -0.21755178 -0.10661439 -0.018209998 -0.09510676 0.067032024
-0.16817756 -0.23857136 -0.09312731 -0.04017354 0.08660662 0.43302932 -0.066658124 -0.007461126
-0.07033018 -0.014161478 0.042628717 -0.13000202 0.033078477 0.14333263 0.027278379 0.17544913
0.24724318 0.05903539 0.13568467 0.20919138 -0.0044785975 -0.077645995 0.23995623 0.052300923
-0.20871186 0.11929566 -0.1853047 -0.13357686 -0.06615204 -0.12360134 -0.1101365 0.1181461
0.015571211 0.07929993 -0.23889327 -0.23053065 -0.03488495 0.3175201 0.047945864 -0.33914044
-0.033441186 -0.182683 -0.0075639463 -0.10816612 -0.07420184 0.23518294 -0.09736073 0.26652628
0.34142366 0.05982169 0.26387236 -0.38315672 -0.12131869 0.07044794 0.026078904 -0.14633943
-0.049535647 0.28291368 -0.20915253 -0.26062712 -0.4502326 0.03853891 -0.035572637 0.1799383

lstm.weight_hh_l1 f4 [128, 32]
00000000: ed9b 2abe 474b 1cbd e4d4 3fbd d5c3 25bd
00000010: d215 7ebe 07f8 5f3d de99 a2bd 3476 69bb
00000020: c7c8 7b3d b5be 243e 8dc6 80bd fcd9 11be
00000030: 1768 7d3e 016a cdbd d2a2 70be b8fb d8bd
00000040: 8291 5b3e 4030 ea3d be6c d93c 9312 61be
00000050: c548 1dbd 755e 41bc b56d 893e 92e4 a73d
00000060: 2e9d 95be 41b6 3dbd a04a e83d 694c 05bc
00000070: 5ee7 a7bc 1e3c 8bbd 67bf 65be 213e 053e
00000080: d875 8dbd 4725 fe3c 3f97 dc3b f753 9cbe
00000090: 186b 99be 3a97 31bd 7c2a 173e 9e84 023e
000000a0: 89e0 f1bc 6389 ce3d 85c5 653e f5f1 333e
000000b0: 2c26 ed3d fba0 12be 4f5b 993c 74e2 1abd
000000c0: 1d13 91bb 86ae 483e 842d 20be a86d afbb
000000d0: d36e 6d3e 5441 a13e 9350 3abc 2cc4 663e
000000e0: 521a 143d 56ce 55be bc8b 3f3d ce03 b23e
000000f0: 7790 8e3e e41d 553e f3c9 eabd c147 f4bd
00000100: 45ac 6dbe 6583 a2bd 60dc 0e3e d793 653d
00000110: 634d dfbc d910 8f3b 2f87 eabb b7eb 0d3e
00000120: 510b e53b 7267 343e 8876 3c3d 7e43 9bbc
00000130: 51c7 d73d 4b9b cabd c755 e93c e21f 21be
00000140: 123b 9f3b e908 5a3e 152e d53c 4a97 c9bd
00000150: 9570 f0bd d332 f7bc 081a 883e 0ecb e33d
00000160: d89e 00be ace1 febd debb d0bd 7826 10bb
00000170: f0c9 c53d fa53 8d3d 74b9 ecbc db3a b7bd
00000180: 1034 90be aaf2 603e 06d7 f33a 367a 4ebe
00000190: efd1 9dbe 9d36 4bbe 0419 0e3e 3f77 a53e
000001a0: 659e b13e 7521 96bc 3082 483e 499f cc3d
000001b0: 3784 1c3e 389e 83be 2907 3bbe daa0 5abd
000001c0: 2b71 a33c 3f49 46bc 81ca 43bd 32e4 aebe
000001d0: ce93 c53d 1486 2d3e 2745 a63d 5d93 313e
000001e0: 2cf8 2abe 579d 0dbd 8c87 14bc 5ac4 0f3e
000001f0: b763 603e 6f6a 11ba 60d9 57be ff8d 99be
00000200: f0e8 cd3a d3ce 91bd 46ee 723c bc92 393e
00000210: 4152 593d 4345 6f3d 3718 813c 8e8c a5bd
00000220: 427e c23d 97b0 873d 17c4 9cbd b86a ac3d
00000230: a326 7b3e 3670 a1bd 10e7 3cbe 8d53 d33c
00000240: 8933 393d de58 e7bd af66 7b3d 0c59 23bc
00000250: 4ced 323e f384 d4bd 2c6e 4e3e 4c69 563e
00000260: 9e7f 6cbe 5448 0fbe d830 30bd 1980 2b3e
00000270: 90a6 913d 28f1 613c a367 02be 4d03 053e
00000280: 9d56 96be 72f3 393d ee86 65bc 86ac 9dbd
00000290: e0c9 6ebd 9b26 3dbd 0e3d 1d3a e06e 02bd
000002a0: 9a38 9cbd e84d 6a3c 989f ef3d 0c83 5c3d
000002b0: af17 733d 9129 23be e59e 9ebe 1fe9 8f3d
000002c0: d084 013d d3b1 1bbd 0807 393d 3281 e7bd
000002d0: 7365 76bc cd56 fc3c b70c 263d 10fe 133e
000002e0: c6dc 8cbe 32af babd 6c1a 193e bf6e b33c
000002f0: 9a13 82bd e8a8 a6be 74b5 56be eff7 68be
00000300: cecf 1bbe 1b77 cc3c 9e60 7d3d 3edd b7bd
00000310: f3c9 02be 5ba2 30bd 8a45 153e cfa5 743e
00000320: 45c9 b63d f3cf 793e 2f05 ccbd e95b 3f3e
00000330: 3fa1 603e e427 47bd c4dd f43d 6138 e4bd
00000340: c648 243e b463 e43a 272b 8e3d 7442 b8bc
00000350: 1fbe 2f3e b4a8 88bb 2435 103e e70c d93c
00000360: 2b6f bfbd 8147 93be 25d9 6e3e 2455 323e
00000370: fb14 963d eb5f 23be 692d 55be 030a 4fbd
00000380: 1aae ecbd e698 cf3d 9690 273e be88 60be
00000390: d16a 50bd be81 fbbd 491d 7e3e 7332 7e3e
000003a0: ddad 03be ee38 88bd d71c fb3c 4d98 b43c
000003b0: 5cbd 3f3e 833d 71be 93eb 51be 190f 663d
000003c0: 69c2 043d e22a 723d d33c e7bc b69b aabe
000003d0: 7f71 083e 881c 663c a919 babc fd9f d43d
000003e0: 5976 92be 1851 eb3c cc31 2e3e a16c e0bc
000003f0: 2c7f 81bb 0e1d d23b e135 d83d d247 8abe
-0.16661043 -0.038157728 -0.046833888 -0.040469963 -0.24813011 0.054679897 -0.07939504 -0.0035623433
0.061470773 0.16088374 -0.062878706 -0.1424331 0.24746738 -0.10029984 -0.23499611 -0.105948865
0.21442226 0.11434984 0.02654111 -0.21979742 -0.038399477 -0.0118023055 0.26841512 0.08197893
-0.2922148 -0.04631639 0.113423586 -0.008135893 -0.020496067 -0.06798576 -0.22436295 0.13011982
-0.069072425 0.031023635 0.006731897 -0.3053281 -0.2996452 -0.04335711 0.147623 0.12745902
-0.029526012 0.10084798 0.22438629 0.17572768 0.11579546 -0.14319222 0.018720297 -0.03781362
-0.0044273273 0.19597825 -0.15642363 -0.005353648 0.23186807 0.31495154 -0.011371749 0.22535771
0.036157914 -0.20879492 0.04676412 0.34768528 0.27844593 0.20812184 -0.114643 -0.119277485
-0.23210247 -0.07935218 0.13951254 0.056049194 -0.02725858 0.004366022 -0.0071572284 0.1385945
0.0069898744 0.17617586 0.046011478 -0.018953081 0.105360635 -0.09892901 0.028483285 -0.15734819
0.0048593367 0.21292461 0.02602295 -0.09843309 -0.11740223 -0.030175602 0.2658236 0.11122714
-0.12560594 -0.12445387 -0.10192083 -0.0021995585 0.09657657 0.06900783 -0.028897025 -0.08946773
-0.2816472 0.21967569 0.0018603511 -0.20163807 -0.3082423 -0.19845052 0.1387673 0.3231754
0.34691158 -0.0183265 0.19580913 0.09991319 0.15284811 -0.2570665 -0.1826445 -0.053376056
0.019951424 -0.012102424 -0.047800545 -0.34158474 0.09647332 0.16945678 0.081186585 0.17341371
-0.16696233 -0.03457388 -0.00906552 0.14039746 0.21913038 -0.0005547171 -0.21079016 -0.29991147
0.001570968 -0.07119527 0.014827317 0.18122381 0.05305696 0.058415662 0.015758617 -0.08083449
0.09496738 0.06625479 -0.07654589 0.084187925 0.24526457 -0.07882731 -0.18447518 0.025796676
0.045215163 -0.11296247 0.061377224 -0.009969961 0.17473334 -0.103769206 0.20159215 0.20938605
-0.23095557 -0.13992435 -0.04301533 0.16748084 0.071118474 0.013790406 -0.12734847 0.1298954
-0.29362956 0.045398183 -0.0140092205 -0.07698922 -0.05829799 -0.046179395 0.00059981726 -0.03184402
-0.076279834 0.014300801 0.11700362 0.053835914 0.05934876 -0.15933825 -0.30980602 0.07026886
0.0316208 -0.038011383 0.04517272 -0.11303939 -0.015038836 0.030803109 0.04053947 0.14452386
-0.27512187 -0.09115447 0.14951485 0.021903394 -0.06351395 -0.3255074 -0.20967656 -0.22750829
-0.1521599 0.024959138 0.06185972 -0.089777455 -0.1277235 -0.043123584 0.14577308 0.23891376
0.08925108 0.24395733 -0.09961926 0.18687405 0.2193651 -0.048622027 0.11956361 -0.11143566
0.16043386 0.0017424733 0.069418244 -0.022492625 0.17162369 -0.0041705016 0.14082772 0.02649541
-0.093473755 -0.2876549 0.23325022 0.17415291 0.073282205 -0.15954559 -0.20818104 -0.050546657
-0.11556645 0.10136585 0.16363749 -0.21927163 -0.050883118 -0.12280606 0.24815859 0.24823932
-0.12859292 -0.066514835 0.0306534 0.022045279 0.18724579 -0.23558621 -0.2050002 0.056166742
0.032411966 0.059122927 -0.028227245 -0.33321923 0.13324545 0.014044888 -0.022717314 0.10382078
-0.28605917 0.028725192 0.17011184 -0.027395548 -0.0039519276 0.006412155 0.105571516 -0.2700792

lstm.bias_ih_l1 f4 [128]
00000000: 222e 30be 1f11 0fbd 159d 1bbe a6e5 8b3d
00000010: c120 0a3b 1a98 4cbd 3062 e03d ee1a 973c
00000020: 33b5 4c3c 38e0 b5bc 68f2 473c 0bf1 ffbb
00000030: bdfc 8bbd 79e5 f23d 3bb0 08be 26f9 623d
00000040: c62a 20be e607 73bd 64da be3d 934a 6fbd
00000050: 25ed 4e3c 52cf 1cbe 13a5 48be 4044 ce3d
00000060: 5375 20be 9406 98bd 0e73 abbd c062 93bd
00000070: d982 123d 6263 ce3d 00e5 003e 5059 433e
00000080: 7df6 903d 0d75 23bd 1bdf 9f3c 5435 5ebe
00000090: 746c e23d 69fb 4cbd e801 a83d dc0e 313d
000000a0: af3f 64be 702f 0ebe 96a2 0c3d eb3a 30be
000000b0: 599e 15be d798 d2bd 3907 b2bd 2d3b 11be
000000c0: e8b8 37be aa1d 1fbd 8c25 843d 919b 75be
000000d0: 5d1f 27bd 40d2 7ebd 4273 0d3c ebba a23d
000000e0: 16d1 c63d c649 90bd 1e5b edbd a169 33be
000000f0: 8f90 1a3e 3202 7d3c 3926 33bd e6e9 3bbd
00000100: 9986 c1bd 32fc 203e e265 37bc 1e38 0ebe
00000110: 00e2 87bd 4a5b cabd 6f19 be3d f40c 163d
00000120: 8383 a73d 01aa f53c 754b 133e da8a a43d
00000130: c850 43bc 521f eebd 8fe2 b73d a058 afbd
00000140: 79c0 d0bc 8799 803d b374 b1bd c372 c0bd
00000150: 717a bd3c 928a d1bc b10e a0bd ba57 8fbd
00000160: 7b06 433e 37bf a53b 7e2d a23d 7c1c 7a3b
00000170: c22a ee3d b111 243d 8981 b9bd 3f3d fdbd
00000180: 2b09 5ebe 570c 3cbe e02b 423c dad1 a03d
00000190: 80b1 6c3b c3a9 38bc 61de dabd e508 183d
000001a0: 5246 223e 955d 60bb 1bfd c1bd 8efb a73d
000001b0: 7516 7abd f011 24be 0868 10be dd9a 5cbe
000001c0: a516 e43d 40df 733d a317 213e 6713 503c
000001d0: a9aa 023e 7c82 11be 77cc e3bd 72b6 49be
000001e0: e575 e1bd 9989 673d a252 f63c c941 d03d
000001f0: a7fb 80bd d42c b23b f67d 06bd b5e2 173e
-0.17205098 -0.034928437 -0.15196641 0.06830911 0.0021076652 -0.049949743 0.10956228 0.018445458
0.012494373 -0.022201642 0.01220379 -0.007810717 -0.068353154 0.11860175 -0.13348477 0.055413388
-0.15641317 -0.059333704 0.093189985 -0.05842073 0.012629782 -0.15313461 -0.19594221 0.100716114
-0.15669756 -0.0742313 -0.08371554 -0.071965694 0.035769317 0.100775495 0.12587357 0.19077039
0.07078264 -0.03990655 0.019515565 -0.2170003 0.11055842 -0.05004445 0.082034886 0.04322706
-0.22289918 -0.13885283 0.03433474 -0.17209975 -0.14611186 -0.10283058 -0.08692784 -0.1418273
-0.1794163 -0.03884665 0.06452474 -0.23985125 -0.040801395 -0.06221223 0.008633437 0.07945808
0.09707849 -0.07045321 -0.11589645 -0.17520763 0.15094207 0.015442418 -0.043737624 -0.04587736
-0.094495006 0.15721205 -0.011193724 -0.13888595 -0.06634903 -0.09880693 0.09282195 0.036633447
0.08179381 0.02998829 0.14384253 0.08034296 -0.011921115 -0.116270676 0.089787595 -0.08561826
-0.025482403 0.06279283 -0.08664837 -0.09396889 0.023129674 -0.02557877 -0.07815302 -0.069991544
0.19045441 0.005058195 0.07918833 0.003816395 0.11629249 0.040055934 -0.0905791 -0.123651974
-0.21683185 -0.18364082 0.011851281 0.07852526 0.003611654 -0.011270943 -0.10686947 0.037117857
0.15847138 -0.0034235467 -0.09472104 0.08202277 -0.061056573 -0.16022468 -0.14102185 -0.2154345
0.111371316 0.05953908 0.15731673 0.012699938 0.12760414 -0.14209932 -0.11122983 -0.19698504
-0.11008815 0.056527708 0.0300687 0.101687975 -0.06297999 0.005437473 -0.03283497 0.14832576

lstm.bias_hh_l1 f4 [128]
00000000: 7b27 213d 6f3a e9bd 707f 85bd 6767 fbbd
00000010: 2c6a 19be b482 203e f6be a3bd ae23 d33d
00000020: 427f 8dbc 6e5d 0fbe 86b9 123e a23f 2abe
00000030: 7e6e e5bd 6f4c eabd 619b 3fbe bcfa 08bc
00000040: 062d 723d 3429 5fbd a790 35be a788 cc3d
00000050: 99a1 34bc 6503 853d 9645 f83b 0762 54be
00000060: 37a2 fd3d ab99 ca3d 9585 133e a5c5 27be
00000070: abbe 04be 5ccd 063e 6f15 203e c912 823d
00000080: a9d8 16be 0f47 68bd c690 05be a4af 37be
00000090: 24c3 febd 3b88 bb3d f262 b6bd f8de 6dbe
000000a0: b53e 0cbe 82a6 39be 0e09 983c 8aa2 cc3c
000000b0: 8ddb 2bbe c3a9 ba3d f6c0 fbbd 357a 18be
000000c0: adae 68ba 47a0 b2bd b3eb dcbd e5c8 703d
000000d0: fa3e a3bd 918e 27bd 7ed0 d73c 9a84 86bd
000000e0: 74b1 103d 42d3 b8bd 0ca5 cabd b1a1 48be
000000f0: fedf 5abc 8da0 77be 4a5f 8d3d 4aa7 9abe
00000100: c358 923d 9c35 343d c416 d33d 8d25 c13d
00000110: c418 1dbe ec86 803d f54f df3c 40e9 0e3d
00000120: 89e6 333a 5f3d 2e3e ed18 d23d 8d9f 843d
00000130: 20b0 46bb 0b36 4ebc 9b90 853d 649b 1c3d
00000140: 7daf 15bd 547d 0d3e 7b45 10be bc2e b5bb
00000150: 654d 66bd 1b1f 883c 8994 a83d 0908 24be
00000160: 2bbf 5fbd 3c45 82bd 02fb e03d 00c0 993d
00000170: bbbd 90bc 90e0 9abd e82b 783d d791 233d
00000180: dcbc 56bd 58f7 a83d 3696 3e3c 22ac a6bd
00000190: 2c6b 11be 74bb e9bd 398c 5d3d 072e 2dbd
000001a0: 6fb6 5d3d 4d78 923d 070c 22be 5eb0 93bd
000001b0: 902a 0bbe c4d7 04be 2075 f43c eb97 44be
000001c0: 5f9e 07be a521 e9bc 05bf f23d 71ea 173e
000001d0: f950 a33d 54a4 053e e57a e9bd 8ea9 7ebe
000001e0: fef4 47be b32d 52be 197a 00bd d060 c3bd
000001f0: 39a2 b03d 20ba 923b 99ae eb3c c785 0f3e
0.039344292 -0.113880984 -0.065184474 -0.12275582 -0.14981908 0.1567486 -0.07995407 0.1030954
-0.017272595 -0.14000484 0.14328584 -0.16625836 -0.11202715 -0.1144036 -0.18711616 -0.008360561
0.05912497 -0.054482654 -0.17730962 0.09987002 -0.011024856 0.06494788 0.0075766547 -0.2074052
0.12384456 0.09892591 0.14406426 -0.16383989 -0.12963359 0.13164276 0.15633176 0.06351239
-0.14731087 -0.05670839 -0.13043508 -0.17938095 -0.12439564 0.09156843 -0.08905591 -0.23229587
-0.13695796 -0.18129924 0.018559005 0.024979848 -0.1678297 0.09114411 -0.12292664 -0.14890368
-0.00088761264 -0.08721977 -0.107871436 0.058785338 -0.07970996 -0.040907446 0.026344534 -0.065682605
0.035325482 -0.09024669 -0.098947614 -0.1959293 -0.013359068 -0.24182339 0.069029406 -0.30205756
0.07145836 0.04399644 0.103070766 0.0943099 -0.15341479 0.06275734 0.027259806 0.034890413
0.00068626605 0.17015599 0.102586605 0.064757444 -0.003031738 -0.012586127 0.06521722 0.03823413
-0.03654431 0.1381734 -0.14089005 -0.005529253 -0.056226153 0.016616395 0.08231456 -0.1601869
-0.05462567 -0.06360862 0.10985376 0.07507324 -0.017668596 -0.07562363 0.060588747 0.039934006
-0.052426204 0.08250302 0.011632493 -0.081383005 -0.14201039 -0.11412707 0.054088805 -0.042280223
0.05412906 0.07151852 -0.158249 -0.07211374 -0.13590455 -0.12972933 0.029841006 -0.19198577
-0.13244008 -0.028458426 0.1185284 0.14835526 0.07974429 0.13050967 -0.114003934 -0.24869367
-0.19527051 -0.20525245 -0.03136644 -0.0953995 0.086246915 0.0044777542 0.028769778 0.14015876

fc.weight f4 [3, 32]
00000000: 09c1 68be 2958 5abe 700e 983e f517 86be
00000010: a3d0 48be e40b 18be 1c8e 573e 0ebd 8a3d
00000020: 9b7f ee3b cfbe e3bc 2b95 073b 4b38 8fbd
00000030: efee 7c3c 3247 7b3d 443c fabd aa54 5fbd
00000040: a7b5 3bbe d23d 013e 7bcc 61be 2980 233c
00000050: 71b0 ac3e d7d5 3f3e 6099 743e 1881 063d
00000060: 0d93 ba3d 43d6 30be 8c14 c53c c0ae 933d
00000070: 7ac0 6e3e ca4d 553e 02eb 83be 712c 563e
00000080: eddf 92be 1a9b 8bbc c7bf 543e 11b0 98be
00000090: 822b 4ebe 42d1 15be 2b14 443e 81cc 533e
000000a0: dcb7 843e d1bf 2f3e 5ff7 4e3e 8b04 ce3d
000000b0: ba0b 8d3e 91bc 49be 7bb7 c23c 61e0 86be
000000c0: 420c 5c3d 11d7 2e3e b46c 13be f881 2abe
000000d0: 0723 2f3e 88c8 003e 05f8 6b3e f038 82bd
000000e0: 48ac 853d 482e 48be 9275 873e 6fdd 8f3e
000000f0: 0ebd 1c3e ae92 573e 2bd3 2cbe 3404 9ebc
00000100: 90d3 8dbe 0122 2e3e bb76 ac3d d7ab 51be
00000110: 4bdb 63be d2d6 45be d61b 473e 301f 503e
00000120: 70aa 963e f372 773e 6f4d 6c3e f024 1c3e
00000130: a184 333e bf2a 9dbe dfdd b63d b690 75be
00000140: 8348 b73b d39b 073e f7c2 20be 4ada 9abe
00000150: 1ce3 58bc e0aa 2a3e ade8 173e ee0d bbbd
00000160: c7e7 243d 1301 eebd 8b00 863e a0c4 0f3e
00000170: c910 7c3e e1df 3b3d 00b2 61be c249 72be
-0.22729887 -0.21322693 0.29698515 -0.26190153 -0.19610839 -0.14848286 0.21050304 0.067743406
0.0072783954 -0.027800946 0.0020688276 -0.06993159 0.015437826 0.061347194 -0.12218526 -0.0545241
-0.18331014 0.12621239 -0.2205066 0.009979286 0.33728364 0.18733917 0.23886633 0.032837957
0.09110079 -0.17269234 0.02405765 0.07211065 0.23315611 0.20830455 -0.25765234 0.2091539
-0.28686467 -0.017041732 0.20776282 -0.29821828 -0.20133784 -0.14630607 0.19148318 0.20683481
0.25921524 0.17163016 0.20211552 0.1005946 0.2754801 -0.19700839 0.02376913 -0.26343063
0.053722627 0.17074229 -0.14396936 -0.16651142 0.17103206 0.12576497 0.2304383 -0.06358516
0.06527001 -0.19548905 0.26456887 0.28098628 0.15306494 0.21052048 -0.16877429 -0.019289114
-0.27700472 0.17005159 0.084210835 -0.20475708 -0.22251622 -0.19320229 0.19444212 0.20324397
0.29426908 0.24164943 0.23076414 0.15248466 0.17531063 -0.30696675 0.08929037 -0.23980984
0.005593361 0.13243036 -0.15699373 -0.30244666 -0.013237741 0.16666746 0.14834853 -0.09133516
0.040260103 -0.11621299 0.2617229 0.1403985 0.24615778 0.045867804 -0.22040558 -0.23660949

fc.bias f4 [3]
00000000: d9f5 243e 2a0c 0a3e 465a 0b3e
0.16109408 0.13481203 0.13608655
