precip_mm_ann_model.pth (torch, 48832 bytes, 6 tensors)

model.0.weight f4 [32, 322]
000000 11 b7 40 3d e7 52 7a 3e 50 eb da bd fc dc af be
       0.047049586 0.24445687 -0.106894135 -0.34348285
000010 11 e8 7b be 58 fc 7d bd 66 5a b6 bc 80 70 14 bd
       -0.24600245 -0.062008232 -0.022259902 -0.0362401
000020 09 34 aa 3c f0 c1 1b be 87 d0 8c 3c e4 e0 81 3d
       0.020776765 -0.152107 0.017189277 0.063417226
000030 99 61 e1 3d be d7 f1 bd 39 7a 8a 3c 32 dc d5 3d
       0.110049434 -0.11808728 0.016903983 0.104423895
000040 4b f7 51 bb e5 e8 61 3e 58 ea 19 3d ef 8f f0 bd
       -0.0032038267 0.22061498 0.037577003 -0.11746203
000050 25 35 15 be 52 33 10 3e e1 95 70 3d e0 93 8c be
       -0.14571054 0.14082077 0.058736686 -0.2745657
000060 35 e7 f7 3e 32 b1 a5 3e f2 14 87 be e9 f3 12 3e
       0.48418584 0.32361752 -0.26383168 0.14350857
000070 de a8 85 be d0 02 66 3e 2b 46 69 bd 3f 0d 03 3f
       -0.26105398 0.2246201 -0.056951683 0.51192087
000080 92 19 03 3d 95 e3 90 bc 93 c5 5d 3e af bc 43 be
       0.032006808 -0.017686645 0.216574 -0.19114946
000090 37 88 a3 3d ec 5b 25 3e 94 72 b0 3e de 31 ee 3b
       0.07984965 0.16148347 0.34462416 0.007269128
0000a0 02 ce ee bc ad fe 1a bc 21 04 d6 3c e6 a9 b6 3e
       -0.029150967 -0.0094601335 0.026125016 0.35676497
0000b0 01 63 48 3e a7 3e 29 be b1 4a 1a 3d 20 d7 3b 3e
       0.19569017 -0.16527806 0.037668888 0.18343782
0000c0 a5 70 2c be 25 6a 3b be 4e 38 9d bd 58 b9 6c bd
       -0.16839845 -0.1830221 -0.07676755 -0.057793945
0000d0 19 d3 10 bd 82 33 eb 3c 13 c6 2e bd be 83 c6 bd
       -0.03535757 0.028711084 -0.042669367 -0.096930966
0000e0 d8 56 09 be 23 36 4a 3e 6d 8b e3 3d 14 09 13 be
       -0.13412035 0.19747214 0.11110578 -0.14358932
0000f0 b8 66 61 3d bb ba 33 3e c9 02 f5 3c 20 a9 17 3e
       0.0550296 0.17551701 0.029908555 0.1481061
000100 41 d7 d8 3d 08 a1 18 3e 91 ee 16 bd 5b f2 f9 3d
       0.105879314 0.14905179 -0.03684861 0.12204429
000110 7b b0 00 be 0a 89 6c 3e c3 f0 62 3e 5d b7 f0 3e
       -0.12567322 0.23099151 0.22162156 0.47014895
000120 ad 14 8b 3e b8 a4 75 bd 42 cc b6 be c7 df eb 3d
       0.27164212 -0.05997154 -0.3570271 0.115172915
000130 ed a1 0c be f8 f1 37 3e 0f 87 31 bd 3d 30 00 be
       -0.13733645 0.17963398 -0.043341693 -0.12518401
000140 89 6f 37 3e 21 12 93 3d 86 fa c8 bd b2 7d 89 bd
       0.17913641 0.07181192 -0.098134086 -0.067134276
000150 8d 9a 96 3e d5 da 8d 3c 0d 9a 1f 3e a6 e3 80 be
       0.29414788 0.017316261 0.1558611 -0.25173682
000160 c9 47 c2 3d c5 75 3e 3e 00 79 1d 3e 40 8d 1e 3d
       0.09486348 0.18599613 0.15378189 0.038708925
000170 17 89 32 3d 76 25 eb 3d c1 83 c5 bd 9c 77 85 bc
       0.04358777 0.114817545 -0.09644271 -0.016292386
000180 0d b9 43 be dc ba 2d be 40 99 b3 3d 09 ac a5 3d
       -0.1911356 -0.16965812 0.087694645 0.08089454
000190 d0 18 99 bd 68 e3 fb 3c 9d 0c a2 bd 14 e7 0b 3e
       -0.07475436 0.030748084 -0.07912562 0.13662368
0001a0 eb 49 2c 3e 26 03 42 be 81 e3 00 3d 00 a3 19 3e
       0.16825072 -0.18946514 0.031466965 0.15003586
0001b0 a5 25 dd 3c aa e7 6e 3e a5 b7 55 3d 38 99 ee 3d
       0.02699549 0.2333056 0.05217709 0.11650318
0001c0 77 9c da bd 09 1d ab bc 1a 6f a3 be 09 29 53 3e
       -0.106743746 -0.020887868 -0.319207 0.20621122
0001d0 60 94 ab 3d bf fa 0d 3f 0e d6 77 be 1c 47 8e bd
       0.0837791 0.55460733 -0.24202749 -0.06947157
0001e0 72 0c 22 3e cc ed f8 bd ac 6b 47 3e 38 18 d4 3d
       0.1582506 -0.12154731 0.19474667 0.10356182
0001f0 28 d1 51 3e f5 16 d3 3c a8 69 79 3e 0f 9b 46 3e
       0.20489943 0.025767783 0.24356711 0.19395088
000200 06 ab b2 3d 38 6b 85 be 92 58 92 3e d2 14 e2 3e
       0.087240264 -0.26058364 0.285832 0.4415651
000210 fd 1d 8f 3e 95 88 bb be 21 a9 0e 3e db 69 1a be
       0.27952567 -0.3662764 0.13931705 -0.15079443
000220 c1 7c 93 3d 1d 92 f0 3d 25 0b b8 bb b1 be 61 bc
       0.07201529 0.11746619 -0.005616563 -0.0137783745
000230 69 a6 b4 bd d2 1a 06 bd 02 a1 48 be 51 16 80 bd
       -0.08820803 -0.03274042 -0.1959267 -0.062542565
000240 29 5c 1b 3e 04 b2 c4 bc 2b 36 df 3d 5f c5 67 3e
       0.15171875 -0.024010666 0.108990036 0.22633885
000250 59 cf e4 3d 66 c4 a9 3d c2 5b 17 3e 0d dd 08 be
       0.11172361 0.08289413 0.14781097 -0.13365574
000260 79 a9 22 bd 6c 76 cb 3d 1c 43 9a 3d 64 a5 5f 3e
       -0.039712403 0.099346966 0.07532331 0.21840435
000270 06 97 8f 3d 01 42 aa bc 27 dc 8b bc 35 d4 b1 bc
       0.07011227 -0.020783426 -0.01707275 -0.021707634
000280 cc 20 41 be e4 ad 8b bd 9a 51 64 3e 47 ba 13 3f
       -0.18860167 -0.068202764 0.22296754 0.5770611
000290 de fa 06 3e 7d 69 85 bc fb a8 ee 3e 40 14 83 be
       0.13181636 -0.016285652 0.46613297 -0.25601387
0002a0 ef 13 ae 3e 33 48 5a 3d c7 f3 9e 3e e5 a0 52 3c
       0.33999583 0.05329151 0.31045362 0.012855743
0002b0 2d 1f 9d 3e e0 c9 c3 3d 33 af 48 bd 2c f1 04 be
       0.30687848 0.09559989 -0.048995208 -0.12982625
0002c0 84 2e 97 bd 2a 0b c6 3e 45 ca a0 3e 2b 38 07 be
       -0.07381919 0.38680393 0.3140432 -0.1320502
0002d0 e2 26 0e 3e ea 72 42 3c 59 ae bd 3d 3c 4a 23 3d
       0.1388202 0.011868218 0.0926177 0.039865717
0002e0 40 cd cb 3c d6 8f cf bd 87 76 c9 3c 7d 9e aa bd
       0.024878144 -0.101348564 0.024592651 -0.083310105
0002f0 ae 7f 81 be f7 fd dd bd e1 9c 03 bc b0 f7 8e 3d
       -0.25292724 -0.108394556 -0.008033008 0.069808364
000300 b9 3b 01 3e d1 ac 7b 3e fc c9 bd 3d 29 2e 94 3d
       0.12620439 0.24577643 0.09267041 0.07235367
000310 02 c0 d2 3d 45 b4 2e be 19 f7 15 be 64 aa 0f 3c
       0.10290529 -0.17060955 -0.14645042 0.008768652
000320 3f d9 67 3d b0 5d 28 3e 5d e9 de 3c b5 06 22 bd
       0.056603666 0.16441989 0.027210886 -0.039557178
000330 16 55 71 3d 14 6d 3f bd 52 83 7e be 54 3a aa 3e
       0.058919035 -0.046734884 -0.24854782 0.33247626
000340 ec 59 8f bd 2e 7b ec 3e 81 f2 72 3e 41 2f 27 3e
       -0.06999573 0.4618773 0.2372532 0.1632662
000350 7a cd 21 3e 0e f5 bf bc dc 6f 9e 3e 3f 78 02 bc
       0.1580104 -0.02343228 0.30944717 -0.007963239
000360 14 5a f3 3d d5 fb 50 3e 10 b9 1f 3d 0c 90 cf bd
       0.118824154 0.20408566 0.03899485 -0.10134897
000370 be 9d 49 3e 2a ea 1b be bd 31 f4 bd 81 f6 12 be
       0.1968908 -0.15226045 -0.11923549 -0.14351846
000380 a7 e1 6b bd 1e 6d c9 bd 9b 89 53 3e 2d f8 da 3d
       -0.057588246 -0.098352656 0.20657961 0.10691867
000390 df 2b 61 3e 41 8b d2 3d d5 f0 73 bd f2 fa 21 3e
       0.21989392 0.10280467 -0.059555847 0.15818384
0003a0 64 ab fa 3d 1a 63 d4 bd 09 ef dd bd c7 e7 48 be
       0.122397214 -0.103704646 -0.10836608 -0.19619666
0003b0 fb 17 39 be 49 7c d2 bb b4 78 99 bc 33 c2 fc 3c
       -0.18075554 -0.0064235074 -0.018734314 0.03085432
0003c0 cc ef 4f bc 67 6b 4b 3e f4 2e 8e 3d fb bd 3f bd
       -0.012691449 0.1986519 0.06942549 -0.04681204
0003d0 86 36 58 bd 1e d2 ae 3d 8b 66 8b 3b da 00 4b 3e
       -0.052786373 0.085361704 0.0042541674 0.19824544
0003e0 f1 18 b4 3d c6 c9 14 bd bb c4 2a 3e 0a 62 f6 ba
       0.0879382 -0.03632524 0.16676609 -0.0018797528
0003f0 d1 9c 19 be f8 23 eb 3d ce d6 c7 bc d4 a8 06 3f
       -0.15001227 0.1148147 -0.024394419 0.5260136

model.0.bias f4 [32]
000000 0e b8 00 3e c0 b0 8b 3c c8 b8 91 be 6c de 05 3d
       0.12570211 0.017052054 -0.2846129 0.03268282
000010 88 a7 fe 3b 70 4e 82 be a9 63 82 be 50 3a 8b be
       0.007771436 -0.25450468 -0.2546666 -0.27192926
000020 b8 38 61 be 80 aa 77 be d1 70 9b be 46 39 29 3e
       -0.21994293 -0.24186134 -0.3035951 0.16525754
000030 b5 65 07 3c f8 5b 8d be 15 ad 14 bc 97 71 af be
       0.008263995 -0.2760923 -0.009074469 -0.3426635
000040 f4 69 ef bd 3e 85 8d be 3a 3a a3 be 9f 98 99 be
       -0.11690131 -0.27640718 -0.3188036 -0.29999253
000050 42 59 aa be 0c 56 a2 be 48 86 8e be 43 b5 b5 be
       -0.33271223 -0.31706274 -0.27836823 -0.35489854
000060 f8 8f 90 be 45 a9 90 be 49 de 7e be 04 b2 da 3d
       -0.2823484 -0.28254142 -0.24889483 0.10678485
000070 86 69 4d be 31 48 c1 be ef b1 67 be 02 36 58 be
       -0.20059785 -0.3775039 -0.2262647 -0.21114352

model.3.weight f4 [32, 32]
000000 eb c0 91 be 13 d2 46 be d2 cc dd 3c 03 a8 7a be
       -0.28467497 -0.19416074 0.027075205 -0.24478154
000010 1f 89 0a bf 05 90 23 3d c9 71 83 3a 7e 74 2a 3c
       -0.5411548 0.03993227 0.0010028417 0.01040375
000020 33 7f 97 3c bf 03 3b 3d 76 2b 02 3c e9 32 90 be
       0.01849327 0.04565787 0.007944932 -0.2816384
000030 2e 94 16 3c 09 88 3b 3d a5 b2 1e 3e c3 d6 bb b9
       0.009190602 0.04578403 0.15497835 -0.0003582743
000040 d2 41 2a 3d 0d c6 c6 3d 3f b9 2c bc dc fe 5d 3d
       0.041566677 0.09705744 -0.010542213 0.05419813
000050 ee de 39 bc 5e 52 ee bc 65 29 33 3e ee 6e a7 3d
       -0.0113446545 -0.02909201 0.1749626 0.08175455
000060 21 9b 18 bd 02 65 93 bb 27 e8 55 3e a4 14 c1 be
       -0.037257317 -0.004498125 0.2088934 -0.3771106
000070 c1 c8 bc bc 60 87 c1 3c de fb 31 3c 23 87 88 3c
       -0.023044946 0.023624122 0.0108632725 0.016666
000080 33 e1 81 bd b8 c4 1e be ad 13 9b 3d ec 07 e0 3c
       -0.063417815 -0.1550473 0.07572112 0.027347527
000090 bc d0 f7 bd 09 89 96 bc fa bf b4 bd 9c 5e eb bc
       -0.1210036 -0.01837589 -0.08825679 -0.028731637
0000a0 12 6e 84 bd be 1f 5c 3e ed 2e 06 bd 95 4e 0d be
       -0.06466307 0.21496484 -0.032759596 -0.13799508
0000b0 ee 56 27 bd c6 96 39 3e 6d 17 f5 3b 67 f1 88 bd
       -0.040854387 0.18123922 0.007479599 -0.06686669
0000c0 96 e4 c2 bd 53 ef 52 3e f2 a5 40 3e d1 d5 2f 3e
       -0.095162556 0.20599107 0.18813303 0.17171408
0000d0 4f c4 d7 3c c8 02 78 3e 58 a9 cc 3e d6 6d 1e be
       0.026338724 0.24219811 0.3997295 -0.15471587
0000e0 a5 8f 64 be 76 e2 34 be 4e be 18 3c 1c 53 3a be
       -0.22320421 -0.17664513 0.009322716 -0.18195766
0000f0 c4 d5 ef be 76 27 e6 bd 9a d1 2d 3e 86 ec 85 be
       -0.46842778 -0.11237995 0.16974488 -0.26157016
000100 c6 dc 90 be 61 66 c8 bd 94 37 e5 3d 88 eb 1b be
       -0.28293437 -0.09785152 0.11192241 -0.15226567
000110 45 21 ea be ba 76 ec 3c 04 58 98 bd b8 ad 49 be
       -0.45728508 0.028865207 -0.07438663 -0.19695175
000120 90 97 d5 3c ee e9 19 3d 13 e2 5c bb 64 48 2b 3d
       0.026073247 0.03757661 -0.0033704087 0.041817084
000130 f1 ee 92 be 1f cc c1 bc a2 60 28 be f8 63 1e 3d
       -0.28697923 -0.023656903 -0.16443112 0.038669556
000140 ce 9e dd bb e9 96 70 3d 49 6b 7d 3d 96 0d fe 3d
       -0.0067633158 0.05873767 0.061869893 0.12404935
000150 b0 2f a7 bd 68 a1 1c 3b 52 20 6e 3c e9 2c 0d be
       -0.081633925 0.0023899917 0.014534073 -0.13786663
000160 58 20 77 bc 3e 51 96 3d 7e 15 28 bd 3e e0 a3 be
       -0.015083395 0.073397145 -0.04103612 -0.3200702
000170 d3 90 36 3a 9c fb 85 3d 47 55 d7 3d 32 e4 36 3d
       0.00069643295 0.06542131 0.10514312 0.044651218
000180 d4 c8 2c be 92 ec c3 be 15 26 07 3f 42 df 18 be
       -0.16873485 -0.38266426 0.52792484 -0.14928916
000190 74 8f 80 be 7d aa 8d be 03 e0 00 be 63 5a a8 3d
       -0.25109446 -0.27669135 -0.12585454 0.08220365
0001a0 46 4a a3 be 3a d8 44 be 61 ec b3 3e a2 94 a9 bd
       -0.31892604 -0.19223109 0.3514128 -0.082803026
0001b0 1e 77 b6 be 96 78 84 3d 8c 6f 1d be 63 2b 4a 3e
       -0.35637754 0.064683124 -0.15374583 0.19743113
0001c0 f5 d2 81 be b3 4e ac be 64 a1 4f 3e 9c 92 15 3d
       -0.2535626 -0.33653793 0.2027641 0.03651677
0001d0 fc 3e e3 3d 64 38 49 be c7 ca 4c 3e ce 67 8e 3d
       0.11095998 -0.19650418 0.19999228 0.06953393
0001e0 30 cd 78 bd db 6c 69 be 5a c7 62 be 31 dd 47 be
       -0.060742557 -0.22795431 -0.22146359 -0.19517972
0001f0 80 c8 d3 3e 46 f4 34 3e 71 57 b7 bd cc 1e 18 be
       0.41363907 0.17671308 -0.08952225 -0.14855498
000200 a2 f2 ba bd 71 6d 32 bd bc 5d 96 3a 66 ce e7 3d
       -0.0912831 -0.043561403 0.0011472027 0.11318664
000210 71 40 99 bd 69 7a 35 3e 22 91 9c bc 29 74 d1 3e
       -0.07482994 0.17722477 -0.019112173 0.40908936
000220 f4 f5 b7 3d a2 95 f6 3e 4f 79 4e 3e 73 7b 02 be
       0.08982459 0.48161036 0.20163463 -0.12742405
000230 31 d9 65 bd d5 e9 9d 3d cf 74 a1 bd e8 3c 55 3e
       -0.056115333 0.077106155 -0.078836076 0.20824015
000240 b6 47 41 be 78 ff 8c 3d 14 29 ed 3d 24 f2 0a be
       -0.18875012 0.06884664 0.11580101 -0.13568932
000250 f4 4a 2d bc 9f d2 3e 3e 39 07 3f be 8a c4 53 3e
       -0.010576952 0.18635033 -0.18655099 0.20680442
000260 20 58 43 3e b8 cc 75 bc 96 09 ce bd a5 bc a2 bd
       0.19076586 -0.015002422 -0.10060422 -0.07946137
000270 a3 6f 0c 3e fd eb 83 bd 85 e6 80 bd 89 73 a7 3b
       0.13714461 -0.064414956 -0.06293968 0.0051102084
000280 1e c1 96 bd 22 3b 78 bd ce 6f cc bd d3 92 8d be
       -0.07361053 -0.06060327 -0.099822626 -0.2765108
000290 e8 64 a2 bb 72 b3 7a bd c3 52 05 be 39 82 69 3e
       -0.0049558766 -0.06120629 -0.13019852 0.22803582
0002a0 a1 98 48 be 09 83 3c be c4 98 68 3e 3d b3 9f be
       -0.19589473 -0.18409361 0.22714525 -0.31191435
0002b0 00 1f 7a bc 79 92 4a 3e 3c ec dd bd 78 d4 4a 3e
       -0.01526618 0.19782437 -0.10836074 0.19807613
0002c0 42 d7 75 be 9f 13 d7 bc d2 30 a2 3d c5 e9 e2 bd
       -0.24007896 -0.026254473 0.07919468 -0.11079744
0002d0 5a a5 de 3e b2 c8 1f 3e 31 a9 5a 3e a3 e3 f4 3c
       0.43485528 0.15603903 0.21353604 0.029893702
0002e0 93 26 95 bb d4 b5 b8 bd 9d e0 62 be d2 90 71 bd
       -0.0045517175 -0.09019056 -0.22155996 -0.058976002
0002f0 ec 89 cf bd 71 e8 95 3d e6 31 7e bd de 91 4e bc
       -0.101337284 0.07319725 -0.062059306 -0.01260802
000300 4a be db bd 78 ce b6 3d 4c ea 14 3f 79 99 1d be
       -0.10729654 0.089260995 0.5817001 -0.15390576
000310 c9 b7 0e be 4d da 4e 3e 92 ad 86 be 89 7a 22 be
       -0.13937296 0.20200463 -0.263043 -0.15867056
000320 7b 94 97 3b 28 a9 2a bc dc a0 24 bd 20 09 0c be
       0.0046258545 -0.010416307 -0.04019247 -0.13675356
000330 2e fb 49 be 5c 71 97 bd 4f 0d 18 be 31 65 ba 3e
       -0.19724724 -0.073946685 -0.14848827 0.36405328
000340 11 70 06 be c1 6f b5 3e 87 c3 69 3e 7c e0 3e 3e
       -0.13128687 0.35436824 0.22828494 0.18640321
000350 22 ef 68 3d 1c e5 01 3d 07 b1 3d 3e d5 ff 90 3d
       0.05686868 0.031712636 0.18524562 0.07080046
000360 55 04 c9 3d 02 7d 01 3e 8c 9f eb bd de f0 d0 bd
       0.098152794 0.12645343 -0.115050405 -0.10202192
000370 89 4c bc bb 81 1a cf 3e 80 4d 81 bd fd 36 b0 3e
       -0.0057464284 0.40449908 -0.0631361 0.34416953
000380 6a 1a 20 be ce 70 00 be 74 3b cd 3d c3 92 d6 bd
       -0.15635076 -0.12543032 0.100211054 -0.10477211
000390 8a e6 06 be 4a 49 f9 bc b5 f0 a3 3d 3b c3 bd bd
       -0.13173881 -0.030430455 0.080048956 -0.09265753
0003a0 1a c3 17 3d 13 49 84 bd d5 1b cd 3d 69 50 81 be
       0.037051298 -0.0645925 0.10015074 -0.2525666
0003b0 33 1f 87 bd 17 e8 eb bd b6 4b 34 be d1 0c 74 3e
       -0.06597748 -0.11518877 -0.17607006 0.23833014
0003c0 61 9a 57 3c 9d 7b 25 be 57 22 c2 be 8d fc 3f 3e
       0.013159365 -0.16160436 -0.37916824 0.18748684
0003d0 f9 2a 56 3d fc f1 f2 be 72 59 bb 3e ee f1 b2 3d
       0.052287076 -0.47450244 0.3659168 0.08737551
0003e0 68 0b 40 bd 0a 83 bc 3d 07 94 a2 bd 27 56 2f be
       -0.046885878 0.09204681 -0.0793839 -0.17122708
0003f0 d1 3a c6 bd fe 5d 9b 3d bb 8c 59 3e 15 d7 27 3b
       -0.09679187 0.07586287 0.2124509 0.0025610377

model.3.bias f4 [32]
000000 88 62 7c be 5b 56 c8 bc e6 9c 95 be db 16 76 be
       -0.24646962 -0.02445524 -0.29221267 -0.24032156
000010 1f 7f 82 be 27 45 61 be b4 ac b5 be 79 60 af bc
       -0.2548761 -0.21999036 -0.35483325 -0.021408306
000020 87 f7 50 be ff 40 75 bd db 09 99 be 55 af 67 be
       -0.20406924 -0.05987644 -0.29890332 -0.22625478
000030 33 81 00 be c2 1d 0f bd d2 05 4d 3d 76 13 83 bd
       -0.12549286 -0.03494049 0.05005438 -0.06400196
000040 71 21 51 3e 86 56 85 be 1d 25 d6 bd 72 a5 6b 3e
       0.20422913 -0.26042575 -0.104562975 0.23012331
000050 cb 85 b5 be 8f d3 41 be 39 11 b3 3d b4 8b 99 3d
       -0.35453638 -0.1892836 0.08743519 0.074973494
000060 e5 52 ef bd a1 7b b9 3e 6b 7d 8f be b8 e1 8f be
       -0.11685733 0.36227134 -0.28025374 -0.28101897
000070 e3 b8 bc be 1f f7 a3 3d ed 6f 14 3e 71 4a 9b be
       -0.36859807 0.08006119 0.14495821 -0.30330232

model.5.weight f4 [3, 32]
000000 3c e6 12 be 92 54 f2 3d 98 2f 53 bc 5a 5e 3a 3e
       -0.1434564 0.11832537 -0.012889765 0.18200055
000010 7f 4a a2 3e 5a 2b 01 3e ce 20 2d be ea 9f 6e 3e
       0.3169746 0.12614194 -0.16907045 0.2330319
000020 36 9b f0 3d 2c cd 15 3e 87 05 5b be 89 8f 05 3f
       0.11748354 0.14629048 -0.21388827 0.5217214
000030 e0 3f 9b be 53 ba a6 bd 4c fc 2e 3e 52 f2 9d be
       -0.3032217 -0.08141007 0.17088431 -0.30848938
000040 e1 49 61 3e e2 79 21 3f e9 fe 99 3e b5 ad 45 3d
       0.22000839 0.63076603 0.30077294 0.048261363
000050 18 e7 37 be 3f b4 27 3d 78 4c 92 3e ee 9f 33 3d
       -0.17959249 0.04094338 0.28573966 0.043853693
000060 8f 81 cd 3d 89 c1 e5 3e 90 71 1e 3f 1c 1c 96 bd
       0.10034477 0.44874218 0.6189203 -0.0732958
000070 0b ea 5b be ae 83 8f 3e df 4a 2b be a0 84 08 3f
       -0.21475999 0.2803015 -0.1672778 0.5332737
000080 76 62 37 be 3f 3f 64 3e 9a 39 3f be 44 26 34 3e
       -0.17908654 0.22289751 -0.18674317 0.17592722
000090 21 b3 61 bd d0 25 3c 3c c5 0f 5c be db 95 19 3e
       -0.05510247 0.011483625 -0.2149039 0.14998572
0000a0 df 57 94 3e 10 7b 1f 3e a3 ff ee be 9d 74 02 bd
       0.2897329 0.15574288 -0.4667941 -0.031849492
0000b0 13 eb 83 be 20 83 cd 3e 72 67 51 3e 38 da 04 3f
       -0.25765285 0.40139103 0.20449618 0.51895475
0000c0 ce 9f 24 3e 6b b8 91 3e cb de ef 3d 6b f3 e4 3e
       0.16076586 0.28461012 0.11712416 0.44716963
0000d0 83 bf 37 3f 51 06 10 3f e4 4c fd bd c9 0e 12 bd
       0.717766 0.5625964 -0.12368181 -0.03565863
0000e0 58 20 64 3e e6 c7 ae bd 77 de 75 be a0 46 91 bd
       0.22277963 -0.08534221 -0.24010645 -0.07093549
0000f0 88 6b d9 3c d4 25 18 3e 03 c6 ab 3e e2 a4 8d be
       0.026540533 0.1485818 0.33549508 -0.27664858
000100 66 48 f1 bd f2 6b b0 3d cb cf 23 be fd 86 e9 3e
       -0.11781387 0.08614339 -0.15997235 0.456108
000110 0c 46 0b bd 77 34 6b be 74 5f de 3e 15 97 8d 3c
       -0.03400235 -0.22969232 0.434322 0.017283956
000120 f5 77 be 3e 53 4b 04 3e e0 a5 40 3f 2c 01 15 bc
       0.37200895 0.12919359 0.75253105 -0.009094518
000130 9f 41 69 be fd ee 9f 3e 44 64 4a 3e ba 4b 9c 3e
       -0.22778939 0.3123702 0.19764811 0.30526525
000140 61 a9 b0 3d e3 ad af be 61 a1 56 3d 3c 39 87 3d
       0.086260565 -0.34312353 0.052399997 0.066027135
000150 d9 0f 9a be 65 c7 b9 be 65 13 45 3e 31 59 e5 3e
       -0.30090216 -0.36284938 0.1924568 0.4479461
000160 fc 1b aa 3e 01 56 f8 bc 25 68 aa 3e 0a 39 64 bd
       0.33224475 -0.030314447 0.3328258 -0.05571846
000170 79 87 14 3f 98 0e fb bd e0 2c 2f 3e 34 0a f3 3b
       0.58019215 -0.12258643 0.17106962 0.007416988

model.5.bias f4 [3]
000000 8b 5e 88 bc 65 9f 6d 3c 8e 85 22 3e
       -0.016646644 0.014503335 0.1587126
