pressure_mb_ann_model.pth (torch, 48852 bytes, 6 tensors)

model.0.weight f4 [32, 322]
00000000: 425e f83c 2621 1a3d 3a5f 043c 98b2 903a
00000010: 9358 a63c 5764 463d 26be 30bd 91b3 b3bb
00000020: 1468 07bd 9ab0 6e3b 01c3 a63c 0c8a 2d3c
00000030: 3aa8 8a3c d6b2 e8ba abf7 7abd f893 4bbd
00000040: 29ff f8bc 91c7 afbb 37f7 053c 8d90 11bd
00000050: ef7e 613d 1ef1 663b e2c9 fb3e 251b be3e
00000060: 5f33 c83e c58c 0d3f a5ff 033f f2ea 043f
00000070: bb5e ee3e f7e6 e93e f447 d83e 5a9d 063f
00000080: 6fbe b43e d69a 0b3f 2204 d23e 0fa3 fa3e
00000090: e21e c93e b210 263f d03b f83e e242 383f
000000a0: 9ed9 063f 688e c83e 0ef1 d03e 0687 233f
000000b0: 74e7 133f e364 343f 9a30 873d e8d3 4a3c
000000c0: 8196 1b3d edd8 25bb 9c30 9abd 7e08 31bd
000000d0: b8bf 6cba 4bc3 05bd 445d cbbd 2f56 953c
000000e0: 2571 00be df0f 923b 7b7f d7bb ebbe ecbc
000000f0: d262 9ebd ee24 4abb ac55 b9bc e229 c23b
00000100: 7f1d 78bd f3b1 24bd aab4 de3d f044 14bd
00000110: c70f f23e 9573 d13e ad95 093f ed91 093f
00000120: 5b22 f23e a0fc e93e 65ab 093f 82bf f03e
00000130: beae 013f a1b7 ff3e 0017 033f 0619 cc3e
00000140: d07f 0a3f 2359 133f 2717 d93e dc5d fb3e
00000150: 4a69 003f 981f 463f 30fd d33e 4a69 fc3e
00000160: b59c f03e 8cc8 3c3f a213 093f d5e7 3d3f
00000170: eac1 1bbc 46ce 5dbc 37cb c2bc 3c36 52bc
00000180: b547 493d 8205 b83c 0b1d 303d 161a 5cbd
00000190: ae32 e1bd 2f7e 803d d9e5 83bd 46e1 ab3c
000001a0: f95a 60bd 7176 ab3c 0580 63bd 1a2b 093d
000001b0: dbf8 b2bd 1bd9 03bd 0899 48bd dd4b 82bc
000001c0: 0953 d13d e795 a83b 7ddc 053f b988 ad3e
000001d0: 25f5 083f 4473 073f c0d9 eb3e 4d8e c43e
000001e0: 3b1a 173f d6ca 0c3f 1906 0d3f 6e5a 0b3f
000001f0: d1ad db3e 4c7e e43e 65a5 073f 3366 f03e
00000200: f319 053f 2bc2 d23e b15b 033f b2e4 1b3f
00000210: 4b59 f23e a6e4 f13e f63f e63e ba5d 273f
00000220: bfaf fe3e 19c6 4a3f 348d 5dbc c076 de3b
00000230: 748a a9bc 163d 40bd 7581 86bd 9afb 0d3d
00000240: 035f 0abd e784 d8bc 30b4 4b3a ee48 11bd
00000250: 3aa1 173a 4239 e0bd 8fc8 433d b990 d73c
00000260: 9468 b0bc 9043 093b 7a64 16bd 3c3e eabc
00000270: 8f1f 74bd 2118 243c 1623 ef3c cc7b e5bc
00000280: 2c8b f63e ef75 b43e af26 c43e a8f8 1d3f
00000290: 84de f93e 8945 f73e 81ed fd3e 81ea e53e
000002a0: a80a 083f 177a 213f 219f a33e 7f27 fa3e
000002b0: 3a0c 113f f6db e33e c006 113f dc15 043f
000002c0: 444b 0a3f 2496 263f 2c98 033f a643 d43e
000002d0: b559 e23e ec0c 463f 1242 fb3e 0336 433f
000002e0: d7aa ffbc 3cec a43c 2466 7b3c 2d01 0d3c
000002f0: 6993 843d 47a2 ca3c 4d14 8bbb bc58 10bd
00000300: 212a 05bc e783 cabc 2194 63bd c5c6 af3c
00000310: e99e 8a3d 5704 4c3c 45c2 5bbb d4d8 e33c
00000320: 6f5a 613d f1f7 293d 4bd4 673c 0250 6cbd
00000330: 9937 33bc f8a7 8abb c7c9 de3e b517 b23e
00000340: 002e 053f 27c1 e73e a268 0e3f f95d c53e
00000350: 2f6f 003f d144 fc3e f440 153f 6bf5 d93e
00000360: 69f0 123f c5ce 073f e471 ff3e 4e65 d03e
00000370: 81a0 133f 615b 063f b35f ed3e 6590 173f
00000380: 4ba8 133f 591e de3e d327 ed3e a354 383f
00000390: 0aee d33e e6ed 3a3f 363c c63c f8cd f2bd
000003a0: 76e9 71bd 3e38 4a3d 5390 103d bbb2 273c
000003b0: 181f 4e3d d1bf 2939 9bdb bbbd 071e ae3c
000003c0: 4161 21bd bf69 6b3c 31bb 9a3c 6798 0d3d
000003d0: 2285 b1bc 05ba 36bd fd45 71bd f059 573d
000003e0: db33 00bd c9a0 aebd 5577 e83d dc77 3cbd
000003f0: cdfd 033f f4ea 0c3f aae8 f93e f202 1b3f
0.030318383 0.03762927 0.008079344 0.0011039553 0.020305907 0.048435535 -0.04315009 -0.0054840525
-0.03305824 0.003642118 0.020356657 0.010591995 0.01692592 -0.0017753493 -0.06127135 -0.04970166
-0.030395107 -0.0053643663 0.008176616 -0.035538245 0.055052694 0.0035238932 0.49177462 0.37130085
0.39101693 0.5529292 0.5156196 0.51921 0.4655665 0.45684025 0.42242396 0.5258385
0.3530154 0.54533136 0.41018778 0.4895253 0.39281374 0.64869225 0.48483133 0.71977055
0.5267581 0.39171147 0.4080891 0.63877904 0.57775044 0.7046644 0.06601067 0.012379624
0.03798533 -0.00253063 -0.07528803 -0.04322099 -0.0009031254 -0.03265695 -0.099298984 0.018229572
-0.12543161 0.0044574584 -0.006576476 -0.02889963 -0.07733692 -0.0030844766 -0.02262386 0.005925403
-0.060575005 -0.040208768 0.10874303 -0.036198556 0.47277662 0.40908495 0.5374401 0.5373829
0.47291836 0.4570055 0.5377715 0.4702111 0.5065726 0.49944785 0.5120697 0.3986284
0.54101276 0.57557887 0.42400476 0.49095047 0.5016066 0.7739196 0.41404104 0.4929908
0.46994558 0.7374351 0.5354558 0.7418187 -0.009506682 -0.013537949 -0.023778541 -0.012830313
0.04914065 0.022463564 0.042996448 -0.053735815 -0.109959945 0.062740676 -0.06440324 0.020981442
-0.05477426 0.0209305 -0.05554201 0.03348837 -0.08738872 -0.03218947 -0.048974067 -0.015905315
0.10220916 0.005144823 0.52289563 0.33893374 0.5349906 0.52910256 0.46064568 0.38389817
0.590244 0.54997003 0.5508743 0.5443486 0.4290605 0.44627607 0.5298675 0.46952972
0.5199272 0.41163763 0.51311785 0.60895836 0.4733375 0.47244757 0.44970673 0.6537739
0.4974346 0.79208523 -0.013522435 0.0067890584 -0.020695902 -0.046933256 -0.06567661 0.034663774
-0.033782016 -0.02643056 0.00077706855 -0.03546994 0.00057842175 -0.10948421 0.04779869 0.026314126
-0.021534242 0.0020944811 -0.036716916 -0.028594129 -0.05960041 0.010015518 0.029191535 -0.028013133
0.48153055 0.35246226 0.38310763 0.61707544 0.48802578 0.4829524 0.49595264 0.44905475
0.5314126 0.6307692 0.31957343 0.48858258 0.5665928 0.44503754 0.56650925 0.51595855
0.54021096 0.65072846 0.5140407 0.41457862 0.44209066 0.7736347 0.49073845 0.7625429
-0.031209392 0.020132177 0.015344176 0.008606237 0.06473429 0.024735583 -0.0042443634 -0.035240874
-0.00812772 -0.024721099 -0.05556119 0.021457085 0.06768591 0.012452207 -0.0033532542 0.027813353
0.055017885 0.04149622 0.014149736 -0.05769349 -0.0109385485 -0.004231449 0.4351332 0.34783712
0.52023315 0.4526455 0.55628407 0.38548258 0.5016965 0.49271253 0.58302236 0.42570052
0.57398087 0.5304988 0.4989158 0.4070229 0.57666785 0.52483183 0.46362075 0.59204704
0.5767867 0.43382528 0.46319446 0.72004145 0.41392547 0.73019254 0.024198633 -0.11855692
-0.059060536 0.049370043 0.03529389 0.010235484 0.050322622 0.00016188553 -0.09172746 0.021254553
-0.03939939 0.014368474 0.018888088 0.03456917 -0.021669928 -0.044610996 -0.058904637 0.052576005
-0.031299453 -0.08526761 0.11350886 -0.046012744 0.51559144 0.5504601 0.4881032 0.6055137

model.0.bias f4 [32]
00000000: 49d5 523f 45d3 623f 493a 5e3f 5fba 493f
00000010: 5e1d 5a3f 23af 64bf 0082 5ebf 2bf3 303f
00000020: 3cf2 d33e c69a 80bf f6f6 3a3f 9c64 61bf
00000030: c78d 3d3f 496b 51bf 5615 46bf 2f51 5e3f
00000040: 66b1 473f e4c2 553f 8ce4 433f 08fe 523f
00000050: ff6e 413f 90de 3e3f d77e 343f 6d4e 353f
00000060: 723c 5b3f 60bf 423f ade9 233f 0541 693f
00000070: 2278 563f e8ac 4bbf 0927 64bf c31d 8240
0.823567 0.8860362 0.86807686 0.78800005 0.8520106 -0.8932974 -0.86917114 0.69121045
0.41395748 -1.0047233 0.7303308 -0.8804414 0.7404446 -0.8180433 -0.77376306 0.86842626
0.78005064 0.83500504 0.7652061 0.8241887 0.7555999 0.74558353 0.7050604 0.70822793
0.8563911 0.76073265 0.64028436 0.91114837 0.8377706 -0.7956071 -0.8912206 4.066133

model.3.weight f4 [32, 32]
00000000: b844 97bd 91c9 a2bd 0fa0 273d 2a63 d1bd
00000010: fcbc a53d 3243 a1be 9f54 e9be 93cc 263d
00000020: 1cdd 683d 4a5d a8be 5ecb 3e3d 7b2a 21bf
00000030: a51c 853d eddf 23bf 3ed3 dbbe 8f94 7a3d
00000040: f956 bbb8 7734 e2bd 7ea0 0fbe c395 9cbd
00000050: 333e bb3d 0376 39bd 7184 83bc 6070 bb3d
00000060: 0730 ef3d f336 9a3d 5ac0 bdbc f192 8abd
00000070: 5167 273e 9e0b a3be 92c4 f6be aecb a93f
00000080: 51b7 913d cb61 0f3e 0be1 a53d 3420 c13d
00000090: eb86 a63d 2b12 d23e 1c73 a13e f555 0b3d
000000a0: de75 7ebd 7261 b93d 23be 093e dcf6 b43e
000000b0: b29f ca3d 3aa5 3a3e 5e71 8e3e 045c be3d
000000c0: 0d92 a03d aab1 0f3e 09f9 173e 6b57 e83d
000000d0: 8388 163e 8626 1e3d 1ea7 b93d 5e75 263c
000000e0: 53f7 573c 74b4 9f3d e9a4 5dbd 7d2f 283e
000000f0: 9122 103e 05c5 853e 2729 353e c57b 9fbf
00000100: 1c42 613e ada8 0bbe e716 083d d3b7 363d
00000110: 24b6 18be d621 b73e 6ef8 203e 8ab6 973e
00000120: f0ed 1c3e fa59 0b3e 33cf 76bc 40ca 433e
00000130: 3e99 393e 1862 8b3e 2abd a53e 7982 08be
00000140: 908a 553e f8c7 71bc 8601 543e b566 6c3d
00000150: 3c83 d73d 90c9 8d3d 1fbb 463c 1e66 453c
00000160: 11a7 1fbe 73b1 babd 04bc b4bd e3e1 b1bd
00000170: b126 07be 49ae 583e e58b d53d 6c39 afbf
00000180: 8336 353d f508 063d 5776 da3c 1f00 eb3c
00000190: 1c77 053d d5d8 66bd e00f 2abd 75a2 273d
000001a0: 657e 7cbc 1dac 4cbd afae e33c 3b79 0abd
000001b0: 50d3 433d 5c46 8abc 4818 f3bc 8513 ca3c
000001c0: 2783 2a3d 51a1 0b3d 929f f13c ea25 303d
000001d0: a585 6c3d ba24 2a3d aa12 9a3c 9285 953c
000001e0: f6eb 3c3d 906f 843c f414 963c 0b3a 983d
000001f0: f67d 193d b9f3 f33a 16b8 2abd 3602 85bf
00000200: dc51 f6bd 55a8 f6ba 3648 233e 3701 c5bd
00000210: dd84 bc3c 4e74 9a3e e930 043e 2d3b a03d
00000220: c95d 04be 2066 85be 12dd 6c3d 6a88 3d3e
00000230: f42b c53d 7230 743e 84d1 6d3d de64 073e
00000240: 2b9a 9d3d c39e e3bc 5d83 9e3d 0040 ef3d
00000250: e1ca 96bd ec92 7ebd 3550 91bd 5e73 d13c
00000260: e98a 923d 7d58 133e 5ca7 bc3d 1261 bb3d
00000270: a0e6 683c 95fa 3f3e e287 ff3d 20fc a3bf
00000280: c7bb bfbb 7ca1 39be cce9 273d 7d87 a9bd
00000290: 8b67 983d 7b5e 9cbe 60dc d3bd 1454 3f3c
000002a0: 0b9d 0f3e 733a d1be 86a8 ba3c 2f34 aebe
000002b0: c06e 703d 384f c1be 9160 73be 4b2d 133d
000002c0: 7966 b0bd 1d30 8b3d 65b0 11be 0eb1 43be
000002d0: f173 7bbd 3fb5 e3bc 89a0 26bd e14d 20be
000002e0: a260 64be ac8b f4bd 5166 a5bc 92f3 3cbe
000002f0: 1c31 2c3d cdd3 b8be f787 86be 9c6e bc3f
00000300: c0c9 9abc 9a15 363d 1175 51bd 884b 843d
00000310: 91f4 8e3d f825 8e3d 8934 3abd 65d7 d03d
00000320: bdb4 24be 10c1 c0be 9c6f aebd af2f 90bd
00000330: b268 1c3d 7f7b 223c 1b3b f8bd 1ac4 ac3c
00000340: b9e7 b9bd d0c6 95bd dad7 8e3d 1520 0e3e
00000350: 517d 17bd b7ae 113e 1355 c63d dcb4 403c
00000360: 6c35 05bd 4946 d93d 1492 0c3e ecde 90bd
00000370: c5f1 b4bd b622 b6bd fd38 b1bd 2978 9dbf
00000380: 178f 50be bf86 9f3d ade8 92bd 3129 4dbd
00000390: 7f9c febd 346d 08bf 52d8 a7be 4578 dfbd
000003a0: 0de7 233e 7909 43be 9782 2abe 6ba6 d0be
000003b0: 90fd fcbd 44f0 4bbe 1c07 03bf 3f2d 04be
000003c0: 51f4 813d 4b09 fb3d 884b 6fbd a941 463c
000003d0: c359 b2bd 709a 37bd 97da c93d ef79 21be
000003e0: f366 9fbd 6c7c 3cbd 49fb 913d 5166 39be
000003f0: 0421 8abd e78d b5be 0625 44be f968 a53f
-0.07386154 -0.07948602 0.04092413 -0.10223992 0.080926865 -0.31496578 -0.45572373 0.04072244
0.05685149 -0.32883674 0.046580665 -0.62955445 0.06499604 -0.6401356 -0.42934602 0.061176833
-8.933055e-05 -0.11045163 -0.14026067 -0.07645752 0.09142723 -0.04527856 -0.016054364 0.09152293
0.11679082 0.07530012 -0.02316301 -0.06766308 0.16348006 -0.318448 -0.48196846 1.3265283
0.07115043 0.14002149 0.08099564 0.094299704 0.08131202 0.41029486 0.31533134 0.034017522
-0.062124126 0.09051789 0.13451438 0.3534459 0.09893741 0.18227091 0.27820867 0.09294894
0.07840357 0.14032617 0.14841093 0.11344799 0.14700513 0.038610958 0.09065078 0.010159818
0.013181525 0.077980906 -0.05411235 0.16424365 0.14075686 0.26126876 0.1769148 -1.2459646
0.21997875 -0.13638563 0.033224966 0.044608902 -0.14913231 0.35768002 0.15719768 0.29631454
0.15325141 0.13608542 -0.015064049 0.19120121 0.18124864 0.27223277 0.32370883 -0.13331021
0.20853639 -0.014757149 0.20703706 0.057715137 0.10523078 0.069232106 0.012129574 0.012048272
-0.15591075 -0.09115877 -0.08824924 -0.086856626 -0.13198353 0.21160235 0.104270734 -1.3689399
0.04424144 0.032723386 0.026667757 0.028686581 0.032584295 -0.05635913 -0.041519046 0.040926415
-0.015410994 -0.049968828 0.027793257 -0.03380702 0.047808945 -0.016879253 -0.029674664 0.02466751
0.041628983 0.03408939 0.029495034 0.043004908 0.05774464 0.04153893 0.018807728 0.018252168
0.046123467 0.016166478 0.018320538 0.07432946 0.03747364 0.0018612064 -0.041679464 -1.03913
-0.12027332 -0.0018818477 0.15945515 -0.09619372 0.023012573 0.30166858 0.12909283 0.07823787
-0.12926401 -0.26054478 0.057828017 0.18509069 0.09627524 0.23846605 0.058061138 0.13222072
0.07695421 -0.027785664 0.07739899 0.11682129 -0.07362915 -0.062151834 -0.070953764 0.025567707
0.07155401 0.14389224 0.09211609 0.09149374 0.014215142 0.18747933 0.124770895 -1.2811317
-0.005851242 -0.18128008 0.04099445 -0.082777955 0.07441624 -0.30540833 -0.103447676 0.011677761
0.14024751 -0.40864906 0.022785436 -0.34024188 0.05869937 -0.37755752 -0.23767306 0.035931867
-0.08613295 0.06796286 -0.14227445 -0.1911051 -0.061389867 -0.027796386 -0.040680442 -0.15654708
-0.22302487 -0.11940703 -0.02019039 -0.1845229 0.04203902 -0.3609909 -0.26275608 1.4721255
-0.01889503 0.044454195 -0.051137034 0.06459719 0.06980241 0.06940836 -0.045460258 0.10197333
-0.16084571 -0.37647295 -0.085173815 -0.07040345 0.038185783 0.009917139 -0.121206485 0.021089602
-0.09077401 -0.07313311 0.06974764 0.13879426 -0.036984745 0.14226805 0.09684195 0.01176187
-0.03252165 0.10609109 0.137276 -0.07073769 -0.088351764 -0.08893339 -0.08653448 -1.2302295
-0.20367084 0.07789373 -0.07173286 -0.05008811 -0.12432193 -0.5329163 -0.32782227 -0.109116115
0.16006108 -0.19046582 -0.16651379 -0.40751967 -0.12353051 -0.19915873 -0.51182723 -0.12907885
0.06345428 0.12257632 -0.05842164 0.012100616 -0.08708527 -0.044825017 0.09856146 -0.1576917
-0.07783308 -0.046017095 0.07128007 -0.18105437 -0.067445785 -0.35459825 -0.19154748 1.292266

model.3.bias f4 [32]
00000000: a985 0c41 de0e 02c1 4800 00c1 3acd 8cc0
00000010: f356 fbc0 2c37 0141 c7ca e8c0 a46d 0241
00000020: 2f85 0ac1 8966 16c1 34b8 0641 b860 fbc0
00000030: ce72 03c1 6d0a 0a41 a61d 0c41 8fbd e6c0
00000040: a58e d7c0 7a9a 0e41 3759 0541 0a01 0541
00000050: 9035 e1c0 2bbc 1341 d155 e140 226b 0041
00000060: 8b3e 0041 c6c6 f540 eff4 ff40 3dea 0a41
00000070: 13dd 0041 92b9 1141 f1e8 0bc1 6724 f4c0
8.782632 -8.12863 -8.000069 -4.400052 -7.854364 8.07597 -7.274753 8.151768
-8.657516 -9.400033 8.419971 -7.8555565 -8.2155285 8.627545 8.757238 -7.2106395
-6.7361627 8.912714 8.334281 8.312754 -7.0377884 9.233439 7.0417256 8.026155
8.015269 7.6805143 7.998649 8.682187 8.053973 9.107805 -8.74437 -7.6294436

model.5.weight f4 [3, 32]
00000000: 1818 6a3f 9de3 bfbf ee88 81bf 7d47 d2bf
00000010: 05e9 85bf 19ed 6b3f 5f19 a2bf dbc9 8a3f
00000020: fd3a 4dbf 00b9 49bf 03c6 413f b292 83bf
00000030: 13c3 8fbf 479c 723f 9add 7a3f 22c8 a1bf
00000040: aa6e 9bbf f2b2 4d3f 0cf4 6c3f 29b4 703f
00000050: 9960 5cbf 7f3e 673f e467 bb40 1775 873f
00000060: a7ec 5e3f 5b46 7e3f ac68 823f 3c6f 5a3f
00000070: b00f 373f 48ed 6c3f 7d83 13bf 671a 56bf
00000080: ae72 6f3f 7fa9 abbf 358f 53bf d697 cbbf
00000090: f1f4 9abf 20d6 633f 036c aabf 5ce4 923f
000000a0: 3289 47bf 97a2 2cbf d3ef 753f a5de 53bf
000000b0: 4100 69bf 73a6 6e3f 4a54 533f 1c64 a1bf
000000c0: 6e8e 97bf 61c9 583f e8ef 583f 11b8 773f
000000d0: 1042 4cbf 3508 623f d465 bb40 d6e4 863f
000000e0: 8fee 713f 9ff4 793f d723 6a3f f5a8 6b3f
000000f0: 955a 623f 4a24 523f 94a0 59bf 892f 7bbf
00000100: 408a 713f 05c1 bfbf 5150 6ebf 13fd c4bf
00000110: f586 85bf 3f4a 7e3f af9a afbf f1e7 673f
00000120: 3b27 33bf a508 60bf 239b 5a3f 5a09 81bf
00000130: ed31 83bf c45d 733f 4ea9 563f d306 93bf
00000140: 8e38 91bf 5ad4 593f 61df 483f 7d6d 7a3f
00000150: 5ff2 6cbf 2438 4b3f 9f5d bc40 cb40 943f
00000160: d605 823f e987 813f 3775 773f 8659 823f
00000170: 6a53 7c3f 686f 393f d9b7 53bf a848 20bf
0.91443014 -1.4991337 -1.0119913 -1.6428066 -1.0461737 0.9215866 -1.2663993 1.0842851
-0.80168134 -0.7879791 0.75692767 -1.0279143 -1.1231407 0.9476971 0.9799439 -1.2639201
-1.2143147 0.80351174 0.92559886 0.940249 -0.86084896 0.90329736 5.856432 1.0582608
0.8707985 0.99326104 1.0188193 0.8532598 0.7150831 0.9254956 -0.5762251 -0.83634037
0.9353436 -1.3411101 -0.8264039 -1.5905712 -1.2106 0.88998604 -1.3314213 1.147594
-0.7794372 -0.6743559 0.9606907 -0.82761604 -0.9101601 0.9322273 0.8255049 -1.2608676
-1.1840341 0.8468228 0.8474107 0.9676524 -0.79788303 0.8829377 5.85618 1.0538585
0.94504637 0.9763889 0.9146094 0.9205468 0.8841947 0.8208662 -0.8501065 -0.9811941
0.9435158 -1.498078 -0.93091303 -1.5389732 -1.0431811 0.9933204 -1.3719081 0.9058829
-0.69981736 -0.8751319 0.8539297 -1.0080979 -1.0249611 0.9506495 0.8385209 -1.1486458
-1.1345384 0.8508965 0.7846585 0.97823316 -0.9255733 0.7938254 5.8864284 1.1582273
1.0158031 1.0119601 0.9666323 1.018357 0.9856478 0.7243562 -0.82702404 -0.62610865

model.5.bias f4 [3]
00000000: eb2f b640 d928 bc40 a354 b740
5.6933494 5.8799863 5.7290816
