pressure_mb_model.pth (torch, 78980 bytes, 10 tensors)

lstm.weight_ih_l0 f4 [128, 46]
0	0xbdec1955	-0.11528269
1	0xbd2fe2f3	-0.042941045
2	0x3d9f5a8a	0.07780941
3	0x3e45217b	0.19251053
4	0xbd96f946	-0.07371764
5	0x3e5cc93d	0.21561141
6	0x3d784184	0.060609356
7	0xbd870b26	-0.06593923
8	0x3e1cb347	0.15302764
9	0x3d4f0217	0.050539102
10	0xbe2eb89e	-0.17062613
11	0xbdc060ee	-0.09393488
12	0xbe750b42	-0.23930076
13	0x3dc6ce87	0.09707361
14	0xbe282e76	-0.16423973
15	0xbc2ca4c3	-0.010537329
16	0xbd7177aa	-0.05895201
17	0x3e0a8276	0.1352633
18	0xbe00fc6e	-0.12596294
19	0x3e143967	0.14475022
20	0xbe25fcf8	-0.16209781
21	0x3e47f5df	0.19527386
22	0x3e6a1bc9	0.22862162
23	0x3e5312af	0.20612596
24	0x3e1ebc7b	0.15501587
25	0x3e8ca74f	0.27471396
26	0x3e4f58fa	0.20248786
27	0x3e856981	0.26057056
28	0x3e8d47aa	0.27593738
29	0xbd200ce2	-0.039074786
30	0x3e320b82	0.17387202
31	0x3e8f31a4	0.2796756
32	0x3e0466da	0.1292986
33	0x3e603616	0.21895632
34	0x3d551183	0.052018654
35	0x3e3e8c61	0.18608238
36	0x3d56fe78	0.052488774
37	0xbd6c292f	-0.057656463
38	0x3e120817	0.14260899
39	0xbd50f1c5	-0.05101182
40	0x3b9e0c7e	0.0048232665
41	0x3dc8aaf0	0.09798229
42	0x3d99bf14	0.075071484
43	0x3ce02b34	0.02736435
44	0x3e54f65f	0.20797108
45	0x3d9e4548	0.07728058
46	0x3e54d72c	0.20785207
47	0x3e076639	0.13222589
48	0x3d91ffef	0.071288936
49	0x3de6fee1	0.11279083
50	0x3e4ccd2e	0.20000145
51	0xbe46636e	-0.19373867
52	0x3d2302c6	0.039797567
53	0x3e32fe1d	0.17479749
54	0x3d290662	0.041265853
55	0x3d9b1410	0.07572186
56	0x3de3f216	0.111301586
57	0x3d6edd9b	0.05831681
58	0xbe35c41a	-0.17750588
59	0xbe1aa9cf	-0.1510384
60	0x3e0a156b	0.13484733
61	0x3dadc49d	0.08484767
62	0xbdb06df4	-0.08614722
63	0xbe09902f	-0.13433908
64	0x3e782399	0.2423233
65	0xbe071424	-0.13191277
66	0x3d55885d	0.052132
67	0x3b3d62fe	0.0028898115
68	0x3dc5ee7e	0.096646294
69	0x3e49c3e1	0.19703628
70	0x3e07bd7d	0.13255878
71	0xbc60a815	-0.013711949
72	0x3d8c1256	0.06839435
73	0x3e6681e5	0.22510488
74	0x3e848bcf	0.25887915
75	0x3dcd5c0d	0.10027323
76	0x3e2498aa	0.16073862
77	0x3e69b7b4	0.22823983
78	0x3e53e858	0.20694101
79	0x3e67f18c	0.22650737
80	0x3db70e23	0.08938243
81	0x3e1a1508	0.15047085
82	0xbd64c1d6	-0.05584892
83	0x3dea2cba	0.11434312
84	0xbb330a3c	-0.0027319333
85	0xbdaf6d2d	-0.085657455
86	0x3df36d2e	0.11886059
87	0x3d47f683	0.048819076
88	0x3e0b13b5	0.13581736
89	0x3e56c37c	0.20973009
90	0x3d3392a5	0.043841023
91	0x3e8f5a77	0.27998707
92	0x3e3f5bf1	0.18687417
93	0x3dde09eb	0.108417355
94	0xbce63740	-0.028102517
95	0x3d09ded7	0.033659782
96	0xbd9a9844	-0.075485736
97	0xbe42cd63	-0.19023661
98	0x3e49a418	0.19691503
99	0xbe09853d	-0.13429733
100	0xbe0ac885	-0.13553055
101	0xbe6a8c0f	-0.2290499
102	0x3d259ff5	0.04043575
103	0x3c838b08	0.016057506
104	0x3c5814c0	0.013188541
105	0xbde65472	-0.112465754
106	0xbe1da9d2	-0.15396813
107	0x3dba8e65	0.09109191
108	0x3e03891d	0.12845273
109	0x3da5ad97	0.0808975
110	0x3da7a5d8	0.08185929
111	0x3e40501b	0.18780558
112	0xbd9fd701	-0.078046806
113	0xbca5ac8a	-0.020223875
114	0x3eb29658	0.34880328
115	0x3e3640b6	0.17798123
116	0x3dc51bc6	0.09624438
117	0x3ed4d033	0.41565093
118	0x3f1496eb	0.5804278
119	0x3f1522f2	0.5825645
120	0x3eded400	0.43521118
121	0x3e1247cd	0.14285202
122	0x3e00dabb	0.12583439
123	0x3ebaf468	0.36514592
124	0x3e26bd6c	0.16283196
125	0x3e97c632	0.296434
126	0x3ebe8315	0.37209383
127	0x3ef9bb99	0.48775938
128	0x3ea4776b	0.3212236
129	0x3ec49888	0.38397622
130	0x3efed482	0.49771506
131	0x3e9d02a6	0.30666083
132	0x3daa3962	0.08311726
133	0x3e8a685c	0.27032745
134	0x3ef43726	0.47698325
135	0x3e8fcd7e	0.28086466
136	0x3f2820c5	0.65675
137	0x3ef7b988	0.48383737
138	0xbdcebda9	-0.100947686
139	0x3e38efe6	0.18060264
140	0x3e07fe2a	0.1328055
141	0xbe288d4e	-0.16460153
142	0xbd89604d	-0.06707821
143	0xbe1976d8	-0.14986742
144	0xbe0692a4	-0.13141876
145	0x3dafd00d	0.085846044
146	0x3ba5c928	0.00505938
147	0x3e2bc8a0	0.16775751
148	0xbcffd173	-0.031227803
149	0x3dc83dcc	0.09777412
150	0xbe3fda91	-0.1873572
151	0xbd22aefb	-0.039717656
152	0xbdbb5e97	-0.09148901
153	0xbe291ef0	-0.16515708
154	0xbe373b85	-0.17893799
155	0x3e2b8685	0.16750534
156	0x3d2f962f	0.042867836
157	0x3e4fc633	0.20290451
158	0xbdb631d4	-0.08896223
159	0xbdac33a9	-0.08408291
160	0xbb6fca41	-0.0036589059
161	0x3d967855	0.0734717
162	0x3d1a292f	0.037636932
163	0xbd48ba0d	-0.049005557
164	0x3d72e003	0.059295665
165	0x3e4f3fc2	0.20239165
166	0xbded7b56	-0.1159579
167	0xbdcbacef	-0.09945094
168	0xbdc4e1f9	-0.09613413
169	0x3de0bdac	0.10973677
170	0x3e5bc514	0.21461898
171	0xbddf934c	-0.109167665
172	0x3d7f52bb	0.062334757
173	0x3d271a48	0.040796548
174	0xbc7ade23	-0.015311751
175	0x3cea83c8	0.028627291
176	0x3dec829a	0.11548348
177	0xbc7a6f04	-0.015285257
178	0x3e1f5cb3	0.15562706
179	0xbd80fd49	-0.0629831
180	0xbc8da834	-0.01729212
181	0x3cec00d3	0.028808987
182	0x3db6dff5	0.08929435
183	0x3e1717e3	0.14755206
184	0x3e44307f	0.19159125
185	0x3d783a57	0.060602512
186	0xbd6a06fc	-0.057135567
187	0xbe7cd6de	-0.2469134
188	0xbb8a1d0c	-0.0042148884
189	0x3dc3bdca	0.09557684
190	0x3bf57335	0.0074905404
191	0x3e337d9f	0.1752839
192	0x3d2d7993	0.04235227
193	0x3d491bbe	0.049098723
194	0x3d69fd17	0.05712613
195	0x3ba45652	0.005015173
196	0x3e16606a	0.14685217
197	0xbe068a58	-0.13138711
198	0xbc191da9	-0.00934545
199	0xbe0d4ce4	-0.13798863
200	0xbe4e78d5	-0.20163281
201	0x3d2a44c6	0.041569494
202	0x3d1a5eb3	0.03768797
203	0xbd059e9b	-0.03262196
204	0x3d7d28b2	0.06180639
205	0x3cf1d466	0.029520225
206	0x3d046394	0.032321528
207	0x3ea2a54c	0.31766737
208	0x3e0bab75	0.13639624
209	0xbc4f2c8f	-0.012644901
210	0x3e5b0878	0.2138995
211	0xbc8edad1	-0.017438324
212	0x3e37009d	0.17871328
213	0x3e28d764	0.16488415
214	0x3e8f1aee	0.27950233
215	0x3e9fa27f	0.31178662
216	0xbcfed41f	-0.031107007
217	0x3e40ab51	0.18815352
218	0x3deb5075	0.11489955
219	0x3b99c731	0.004692935
220	0x3cd44530	0.025911897
221	0x3e76d455	0.24104436
222	0x3da767a4	0.08174065
223	0xbd883f3e	-0.066526875
224	0x3c136060	0.008995146
225	0x3e02db31	0.12778927
226	0x3e31a657	0.1734861
227	0x3e88f87b	0.26752076
228	0x3e8b9740	0.27263832
229	0x3e1eee54	0.15520602
230	0x3e2d6ab7	0.1693524
231	0x3d91a5e4	0.07111719
232	0x3d6ace15	0.05732544
233	0xbcee97b5	-0.029125074
234	0xbcee44d4	-0.029085554
235	0x3d8a3325	0.06748036
236	0x3df95967	0.12175255
237	0x3dae0e19	0.08498783
238	0xbd19016e	-0.03735488
239	0xbcf99ab4	-0.030469276
240	0xbe80b6ea	-0.25139552
241	0xbd279c9c	-0.04092084
242	0xbe5d7ff3	-0.2163084
243	0xbe2b16a7	-0.1670786
244	0xbe7df36d	-0.24799891
245	0xbe24ca90	-0.16092896
246	0xbc426fe8	-0.011867501
247	0xbd08dc42	-0.03341318
248	0x3c98ae3c	0.018637769
249	0x3e387bfd	0.18016048
250	0xbcff82f5	-0.031190375
251	0x3cb642a3	0.022248572
252	0x3c00c31c	0.007859018
253	0xbd04cde2	-0.032422908
254	0xba92f2c7	-0.0011211269
255	0x3e3071da	0.17230931

lstm.weight_hh_l0 f4 [128, 32]
0	0xbcbe7150	-0.023247391
1	0xbc83308e	-0.016014364
2	0x3e31ef87	0.17376529
3	0xbdf9c4c8	-0.12195736
4	0x3d6673c1	0.056262735
5	0x3da16075	0.07879726
6	0x3d9bf2e3	0.07614686
7	0x3d6e2b42	0.058146723
8	0x3e04e659	0.12978496
9	0xbe1bebcc	-0.15226668
10	0x3d575dd5	0.05257972
11	0x3e896843	0.26837358
12	0xbcc13ab5	-0.023587564
13	0x3e721bad	0.2364337
14	0x3ca35a95	0.019940654
15	0xbd16651b	-0.036717515
16	0xbe36b2fb	-0.17841713
17	0xbd0a6c5f	-0.033794757
18	0x3d8401c3	0.064456485
19	0xbd71dc3d	-0.059047926
20	0xbe801975	-0.25019422
21	0xbd7c561a	-0.06160555
22	0xbe866aa2	-0.2625323
23	0xbe608ac0	-0.21927929
24	0xbdd2c9d7	-0.10292404
25	0x3e198932	0.14993742
26	0xbce292a8	-0.027657822
27	0xbe2b6da6	-0.16741046
28	0x3cddc383	0.027070766
29	0x3d49a4bb	0.049229365
30	0x3c192bd0	0.009348825
31	0x3da0dc57	0.078545265
32	0xbd22cf89	-0.039748702
33	0xbe2d8c22	-0.16947988
34	0x3ea362f4	0.31911433
35	0x3d8ad542	0.06778957
36	0xbe8e1b1d	-0.2775506
37	0x3d2de247	0.042452123
38	0xbcacd761	-0.021098794
39	0xbc6e3145	-0.014538114
40	0x3dcd73ac	0.10031828
41	0xbe4633ef	-0.19355749
42	0x3e46566f	0.1936891
43	0x3e53145d	0.20613237
44	0xbd5fe328	-0.054659992
45	0x3e124fc4	0.1428824
46	0x3d8d81b5	0.06909505
47	0xbceebfb7	-0.029144151
48	0xbd1ec170	-0.038758695
49	0x3e45e382	0.19325069
50	0x3e66d972	0.22543886
51	0xbe54f1f6	-0.20795426
52	0xbe74d32d	-0.23908682
53	0xbdebed8a	-0.11519916
54	0xbe62471c	-0.22097439
55	0xbe81fd8b	-0.2538875
56	0xbcb8c872	-0.022556517
57	0x3da77758	0.0817706
58	0xbc58cb1e	-0.013232021
59	0xbe839478	-0.2569921
60	0x3e6ac909	0.22928251
61	0x3dfc8cde	0.12331556
62	0x3e809c08	0.25119042
63	0x3ccc5b87	0.024945987
64	0x3e7b890d	0.24564
65	0xbea0173c	-0.31267726
66	0x3df9fe42	0.12206699
67	0xbda89138	-0.08230823
68	0xbe56fae7	-0.20994149
69	0x3e2a8be8	0.16654932
70	0x3e6a9e1a	0.22911873
71	0x3da4cc23	0.080467485
72	0x3e6090bc	0.21930212
73	0xbdf172dd	-0.117894866
74	0x3e42f2bc	0.19037908
75	0x3cf332db	0.029687336
76	0x3d6a5b00	0.05721569
77	0x3e1b68b7	0.15176664
78	0xbeb20cbb	-0.34775338
79	0x3d1c0cbf	0.038098093
80	0xbdc5ef26	-0.096647546
81	0x3c57a704	0.013162378
82	0x3ebdc6d5	0.3706576
83	0xbde82929	-0.11335976
84	0xbd19b911	-0.03753001
85	0xbe542a53	-0.2071927
86	0xbe7bd9d7	-0.24594818
87	0xbd35cb01	-0.044383053
88	0xbe258d59	-0.16167201
89	0x3ea32edd	0.3187169
90	0xbbd152fc	-0.0063880663
91	0xbe8b6ff8	-0.27233863
92	0x3ccb0c22	0.024786059
93	0x3e42b874	0.19015676
94	0x3cec5ab4	0.028851844
95	0xbea32a7d	-0.31868353
96	0x3e2dfe58	0.16991556
97	0xbe7f183e	-0.24911591
98	0x3e42d6b6	0.19027218
99	0x3d692163	0.056916606
100	0xbd5aa7d6	-0.053382717
101	0x3e9facf4	0.3118664
102	0x3d13a1ef	0.036043104
103	0x3e447e5e	0.1918883
104	0xbd209324	-0.039202824
105	0x3d310e7b	0.0432267
106	0x3e4ff76c	0.20309228
107	0x3d8c50e3	0.068513654
108	0x3de0a33d	0.10968635
109	0x3e4f6f53	0.2025731
110	0xbe3592f4	-0.1773184
111	0x3d378bb7	0.044810977
112	0xbe367b12	-0.17820385
113	0x3e3ce27e	0.18445775
114	0xbd62bfa1	-0.055358533
115	0xbe3f75a4	-0.1869722
116	0xbd9743f3	-0.07386007
117	0xbc4eaf4a	-0.012615034
118	0xbd9b499d	-0.075824
119	0xbd486e03	-0.04893304
120	0xbe78d529	-0.24300064
121	0x3e97c654	0.296435
122	0xbd425024	-0.04743971
123	0x3d148806	0.036262535
124	0xbe2cc8c3	-0.1687346
125	0x3d8f99d2	0.07011761
126	0x3ddef6c9	0.10886914
127	0xbde4c60b	-0.11170586
128	0x3e07bbea	0.13255277
129	0xbe35171a	-0.17684594
130	0x3da8dcde	0.08245252
131	0xbe330b5a	-0.17484799
132	0xbe1aac4a	-0.15104786
133	0x3e81ac6d	0.25326863
134	0xbd04e85e	-0.032448165
135	0x3da1cda9	0.07900555
136	0x3e5a00d1	0.21289374
137	0xbe7f50af	-0.24933122
138	0x3d6527b4	0.055946067
139	0x3e84b617	0.25920174
140	0x3e62d3ce	0.2215111
141	0x3e5a5d20	0.21324587
142	0xbe61bd35	-0.22044833
143	0x3d2525ef	0.04031938
144	0xbe60ab80	-0.21940422
145	0x3e38d074	0.18048269
146	0x3e27ee6d	0.16399546
147	0xbe67affb	-0.22625725
148	0x3c80c0d2	0.015716944
149	0xbdd42813	-0.10359206
150	0xbde81046	-0.11331229
151	0xbe7f7a9b	-0.24949114
152	0xbe58a7bc	-0.21157736
153	0x3e271437	0.16316305
154	0x3e452f86	0.1925641
155	0xbd51ce7d	-0.051222313
156	0x3e9342a8	0.28761792
157	0x3e33f22d	0.17572851
158	0x3e40ea8c	0.18839473
159	0xbe8750b2	-0.26428753
160	0x3e3af854	0.18258792
161	0x3d4c4171	0.049867097
162	0x3d08d59d	0.033406842
163	0x3d3b4675	0.04572149
164	0xbe279ed7	-0.16369186
165	0x3e177e49	0.14794268
166	0x3e4a78e9	0.19772686
167	0x3e6f54cb	0.2337219
168	0x3e78c52b	0.24293964
169	0xb9a1cb5b	-0.00030859825
170	0xbd2be166	-0.041963004
171	0x3e3836f4	0.17989713
172	0x3cce007d	0.025146717
173	0x3d771af6	0.060328446
174	0x3d52dfb1	0.05148286
175	0x3da4d714	0.080488354
176	0xbd06f92b	-0.03295247
177	0xbd649b1b	-0.055811983
178	0x3c3a0b6a	0.01135526
179	0xbe10016e	-0.14063045
180	0xbde7538a	-0.11295231
181	0x3d6017cf	0.054710206
182	0xbd8b8072	-0.068116084
183	0xbe88d9c9	-0.26728657
184	0xbe85d9b7	-0.26142666
185	0x3cd234b3	0.025659895
186	0xbd5df6f2	-0.054190584
187	0xbe0a961e	-0.13533828
188	0x3ab3e85d	0.0013725866
189	0xbd056f5b	-0.0325769
190	0x3d482de8	0.048871905
191	0xbcb4df16	-0.022079032
192	0x3e0013f9	0.12507619
193	0xbe46d06f	-0.19415449
194	0x3e9a62c1	0.30153468
195	0xbe076be7	-0.13224755
196	0xbe23b1d4	-0.15985805
197	0x3de8e49e	0.1137173
198	0x3e5736db	0.2101702
199	0xbd5d9860	-0.054100394
200	0x3dd5979a	0.10429306
201	0x3d0b3471	0.03398556
202	0x3e45d726	0.19320354
203	0x3dca55d9	0.098796554
204	0x3cf23c1c	0.029569678
205	0xbd8c762f	-0.06858479
206	0xbe054b6d	-0.13017054
207	0x3e3842da	0.17994252
208	0xbc99de22	-0.018782679
209	0x3e34a36e	0.17640468
210	0xbdb7cbb3	-0.089743994
211	0xbdc2db33	-0.09514465
212	0xbe3eeab9	-0.18644227
213	0xbdd63484	-0.10459235
214	0xbd9a120d	-0.07522974
215	0xbe717498	-0.23579633
216	0x3c97a402	0.018510822
217	0x3e644471	0.22291733
218	0x3e237545	0.15962704
219	0xbe815aac	-0.2526449
220	0x3e4f000e	0.20214865
221	0xbd1be809	-0.038063083
222	0x3e7cf63d	0.24703307
223	0xbe897da2	-0.26853663
224	0x3e917af4	0.28414118
225	0xbe175f9e	-0.14782569
226	0x3d277509	0.040883098
227	0xbdf239c5	-0.11827425
228	0xbda8ec6f	-0.08248221
229	0x3e3fd0a2	0.18731931
230	0x3e2cbaf9	0.168682
231	0x3e7c7060	0.24652243
232	0x3e5072e4	0.20356327
233	0xbe10b72e	-0.14132378
234	0x3e1214f4	0.14265805
235	0xbd79bcf4	-0.060971215
236	0xbd60d7c2	-0.054893263
237	0x3d84102c	0.06448397
238	0x3c97acda	0.01851504
239	0x3e4964e1	0.19667388
240	0x3c05fa9c	0.008177426
241	0x3e6a5863	0.2288528
242	0x3d87f0ca	0.06637724
243	0xbe8f6c1a	-0.28012162
244	0xbd09af2e	-0.03361433
245	0x3c789dea	0.015174368
246	0xbe1c854e	-0.15285227
247	0xbe86c734	-0.26323855
248	0xbe447be6	-0.19187889
249	0x3d95e512	0.07319082
250	0x3e345b13	0.17612867
251	0xbe5d3823	-0.21603446
252	0x3e1b54db	0.15169089
253	0xbd91b251	-0.07114089
254	0x3e1b4fa8	0.15167105
255	0x3bdb7e0c	0.0066983756

lstm.bias_ih_l0 f4 [128]
0	0x3d23847a	0.03992126
1	0x3d039733	0.032126617
2	0x3f1f4733	0.62218016
3	0x3ce9692b	0.02849253
4	0x3e177102	0.14789203
5	0x3e685c82	0.22691539
6	0x3e4c460e	0.19948599
7	0x3e26e835	0.16299517
8	0x3e2abb18	0.16672933
9	0xbc90a0d3	-0.017654812
10	0x3ad8bf48	0.0016536498
11	0xbb223d21	-0.0024755674
12	0x3d49b372	0.049243398
13	0x3da493fc	0.08036038
14	0x3d1dec9e	0.038555734
15	0x3e3ecffb	0.18634026
16	0x3d35bac7	0.044367578
17	0x3e416d75	0.18889411
18	0x3e81ada3	0.25327787
19	0x3d4d349f	0.05009901
20	0x3e392087	0.18078814
21	0xbca8fc4b	-0.020628115
22	0x3e366da4	0.17815262
23	0x3e3b21ac	0.18274564
24	0x3df5f862	0.12010266
25	0x3f1fedaf	0.6247205
26	0x3c85808f	0.016296653
27	0x3e758391	0.2397597
28	0x3ddf626c	0.10907444
29	0x3dd6820f	0.104740255
30	0x3e97a80a	0.2962039
31	0x3d43a153	0.047761273
32	0x3dc6de81	0.09710408
33	0x3de78636	0.113048956
34	0x3e336e90	0.17522645
35	0x3e1583f3	0.14601116
36	0x3d15f1f4	0.036607698
37	0x3dbde835	0.092728056
38	0xbdbe87fd	-0.093032815
39	0x3d5dfe97	0.054197874
40	0x3c9d877c	0.019229643
41	0x3e1a3795	0.15060265
42	0xbd8b7059	-0.06808538
43	0x3de0c49e	0.10975002
44	0x3e138124	0.14404732
45	0x3e0c9db5	0.13732035
46	0xbd5fb458	-0.05461535
47	0x3e823172	0.2542835
48	0x3e5cee3e	0.21575257
49	0x3e0b385c	0.13595718
50	0xbd0bc35d	-0.03412186
51	0x3deb7ee6	0.11498813
52	0x3e32e294	0.17469245
53	0x3d82ebca	0.063926294
54	0x3e47c2cf	0.19507907
55	0x3e05798c	0.13034648
56	0x3d9f6a32	0.07783927
57	0x3e694b5c	0.22782654
58	0x3e4510b4	0.19244653
59	0x3d1893ed	0.037250448
60	0x3e55200e	0.20813009
61	0x3e2187d4	0.1577447
62	0xbd94d53f	-0.07267236
63	0xbd8f1e87	-0.069882445
64	0x3e2db4ee	0.1696355
65	0xbdf842e8	-0.12122136
66	0x3e0f673f	0.14004229
67	0xbdf06380	-0.11737728
68	0xbdf10fa0	-0.11770558
69	0x3df7e3b2	0.12103976
70	0x3e53192b	0.2061507
71	0x3daf13b5	0.08548681
72	0x3d087240	0.033312082
73	0xbe2e7df5	-0.17040236
74	0x3e8ad287	0.27113745
75	0x3e284bc1	0.16435148
76	0x3e3e93f3	0.18611126
77	0x3e6c368c	0.23067683
78	0xbe81d12a	-0.25354892
79	0x3e3c8321	0.18409397
80	0xbe474701	-0.1946068
81	0x3e67a34e	0.2262089
82	0x3e0d0cec	0.1377446
83	0xbcbe65b7	-0.02324186
84	0xbe031c96	-0.12803873
85	0xbe858ea9	-0.26085404
86	0xbe0dec38	-0.13859642
87	0xbe583781	-0.21114923
88	0xbe42dbe4	-0.19029194
89	0x3e99f120	0.30066776
90	0x3e8367b9	0.25665072
91	0xbe77ab05	-0.24186333
92	0x3dd9a95d	0.106280066
93	0x3e2555e9	0.16146053
94	0x3e7c6056	0.24646124
95	0xbdbaf754	-0.09129205
96	0x3e0b6dff	0.13616179
97	0xbb1bacf9	-0.0023754223
98	0x3f0973c5	0.53692275
99	0x3e3eb8d0	0.18625188
100	0x3e6096c6	0.21932516
101	0x3ddfb64d	0.10923443
102	0x3e29b067	0.16571198
103	0x3e7bd64b	0.24593465
104	0x3e85ce6e	0.26134056
105	0x3da15c5a	0.07878943
106	0xbc0c43a4	-0.008561049
107	0x3e979bd0	0.29611063
108	0x3c9f9c09	0.019483583
109	0x3e43394b	0.19064824
110	0x3ddf01a6	0.10888986
111	0x3e6529b7	0.22379194
112	0x3e7c220c	0.24622363
113	0x3e029d29	0.12755264
114	0x3e81ec40	0.25375557
115	0x3d6a8a37	0.05726072
116	0x3db88216	0.09009187
117	0x3c0c4ffd	0.008563993
118	0x3d81ebe8	0.06343824
119	0x3e7f78b1	0.24948384
120	0x3da9e8d3	0.08296361
121	0x3ea1d8ba	0.31610662
122	0xbc855b18	-0.016278788
123	0x3dd4d042	0.103912845
124	0x3e53d388	0.20686162
125	0x3e86fd6a	0.26365215
126	0x3e811490	0.25211
127	0x3d86121d	0.065464236

lstm.bias_hh_l0 f4 [128]
0	0x3e8b17f6	0.27166718
1	0x3e9adb6e	0.30245537
2	0x3eeeb59a	0.46622926
3	0x3e5fc77e	0.21853444
4	0x3e3d0556	0.18459067
5	0x3e447656	0.19185767
6	0x3db3eff0	0.08785999
7	0x3e10b466	0.14131317
8	0x3dca021c	0.098636836
9	0x3e1c6193	0.15271597
10	0x3cee336d	0.029077256
11	0x3e28f09a	0.16498032
12	0x3e9a96b9	0.30193117
13	0xbd0f1453	-0.034931492
14	0x3e91f26e	0.28505272
15	0x3e768c13	0.24076872
16	0x3e8ed401	0.2789612
17	0x3e4bdc8c	0.1990835
18	0x3e3be781	0.1835003
19	0x3e876625	0.26445118
20	0x3e8eadc5	0.2786695
21	0x3e8eefc9	0.27917317
22	0x3d66d6b3	0.056357097
23	0x3d21d4a5	0.039509434
24	0x3dcab6cc	0.09898147
25	0x3efe25c2	0.49638182
26	0xbcb5791c	-0.022152476
27	0x3e5e4837	0.21707235
28	0x3df2f97a	0.1186399
29	0x3e4d36fb	0.20040505
30	0x3e649afb	0.22324745
31	0x3e5490ac	0.20758313
32	0x3dff4a10	0.12465298
33	0x3dcc75d2	0.0998341
34	0xbd195333	-0.03743286
35	0xbc407bb4	-0.011748243
36	0x3d741a1b	0.05959521
37	0x3d8d6099	0.0690319
38	0xbb4ca73b	-0.0031227607
39	0x3e4e3659	0.2013792
40	0xbdb46468	-0.088082135
41	0x3cbc4abc	0.022984855
42	0x3e2312ee	0.1592519
43	0xbcc043e0	-0.023469865
44	0x3dbc42cf	0.0919243
45	0x3e2a8657	0.16652809
46	0x3e28571c	0.1643948
47	0xbd3a218d	-0.045442153
48	0x3dd4deaf	0.10394036
49	0xbdb9d12e	-0.09073101
50	0x3e2ba036	0.16760334
51	0x3d77cd5f	0.06049859
52	0x3e6bfa09	0.230446
53	0x3e3f3b39	0.18674935
54	0x3d1297d0	0.03578931
55	0x3e61d4ba	0.22053805
56	0x3d59f764	0.053214446
57	0x3bc4931d	0.0059989826
58	0xbd9ad1e5	-0.075595655
59	0xbbab81d5	-0.005233983
60	0xbd3ccf9c	-0.04609643
61	0x3df5c004	0.11999515
62	0x3e2e6cb5	0.17033656
63	0x3cbed8b2	0.023296688
64	0x3e2cfc3a	0.16893092
65	0xbdee2d88	-0.11629778
66	0x3ea06d5e	0.3133344
67	0xbd2ebead	-0.04266231
68	0xbe73b66a	-0.23800054
69	0x3e872c2d	0.2640089
70	0x3e11fc97	0.14256512
71	0x3e293e5a	0.16527691
72	0x3e593423	0.21211295
73	0xbe6feca2	-0.23430112
74	0x3d1caad3	0.03824885
75	0x3c1426d6	0.009042462
76	0x3d886cfc	0.06661412
77	0x3e575082	0.21026805
78	0xbccdfb67	-0.025144292
79	0x3e8c7d3b	0.27439293
80	0xbe73ccf9	-0.2380866
81	0x3e10bdb0	0.1413486
82	0x3e48b17f	0.1959896
83	0xbeb50d47	-0.35361692
84	0xbd74d8aa	-0.05977694
85	0xbe3144aa	-0.1731135
86	0x3c3e124d	0.011601043
87	0xbe772647	-0.24135695
88	0xbe70973e	-0.23495194
89	0x3e752d52	0.2394307
90	0x3e643308	0.22285092
91	0xbe8a0b64	-0.26961815
92	0x3e1bf52e	0.15230247
93	0x3ddb4e35	0.10708276
94	0xbc172c3e	-0.009226857
95	0xbc7fa403	-0.015603068
96	0x3e66caa4	0.22538239
97	0x3d934384	0.07190612
98	0x3f239ac3	0.6390802
99	0x3d6cf344	0.057849184
100	0x3d58eddf	0.052961227
101	0x3df77e7b	0.12084671
102	0x3e9028b8	0.28156066
103	0x3e8deee6	0.27721328
104	0x3e10698b	0.14102761
105	0x3d290e49	0.04127339
106	0x3dceb6c8	0.100934565
107	0xbbab816c	-0.005233934
108	0x3e7aadb2	0.24480322
109	0x3d82fa24	0.06395367
110	0x3e12d8ff	0.1434059
111	0x3d9a780e	0.0754243
112	0x3e074eb3	0.13213615
113	0x3e635a51	0.22202422
114	0x3e26243c	0.1622476
115	0x3e5be052	0.2147229
116	0x3e96695b	0.29377255
117	0x3e457a00	0.1928482
118	0x3d4aefc9	0.049545083
119	0x3e7a1f77	0.24426065
120	0x3e5a618b	0.21326272
121	0x3ef4bbc8	0.47799516
122	0x3e6d5f70	0.23180938
123	0x3e819d67	0.253154
124	0x3e59971c	0.2124905
125	0x3dfb1f21	0.12261797
126	0x3d9c3320	0.07626939
127	0xbca0662d	-0.019579971

lstm.weight_ih_l1 f4 [128, 32]
0	0x3d7ecffa	0.06221006
1	0xbe91c352	-0.2846933
2	0x3e16fcc8	0.14744866
3	0xbe9f4c0c	-0.31112707
4	0xbe0222be	-0.12708566
5	0xbccc5718	-0.024943873
6	0x3ccad2b4	0.024758674
7	0x3e12af01	0.14324571
8	0x3db04ffa	0.08609004
9	0x3d1e64db	0.038670402
10	0xbc70458b	-0.014665018
11	0x3e978b9a	0.29598695
12	0x3dc02682	0.09382345
13	0x3c29717e	0.010342
14	0xbe3a6381	-0.1820202
15	0x3d9557ff	0.072921745
16	0xbceb3678	-0.028712496
17	0x3d1bd0ac	0.038040802
18	0x3e0ac073	0.13549976
19	0xbe569eca	-0.2095901
20	0xbdb4f776	-0.08836262
21	0x3ccc9aa9	0.024976091
22	0x3c6ee2b5	0.014580418
23	0xbe99479a	-0.2993744
24	0xbe087849	-0.13327135
25	0x3ecc53d8	0.39907718
26	0x3df3784f	0.118881814
27	0xbe6f1b62	-0.2335029
28	0x3cbe67ef	0.023242919
29	0xbcb8b186	-0.022545587
30	0x3e7c0995	0.2461303
31	0xbe59e761	-0.2127967
32	0x3e6d6ff3	0.23187236
33	0xbd88ee13	-0.06686034
34	0x3f031537	0.51204246
35	0xbe049dc3	-0.12950806
36	0xbe0f788a	-0.14010826
37	0xbc8f53f4	-0.017496087
38	0xbd0f3f1a	-0.034972288
39	0x3e4fa471	0.20277573
40	0x3c8ee90b	0.017445108
41	0x3b4c8461	0.0031206834
42	0x3dbd6994	0.09248653
43	0x3dd3d263	0.103428625
44	0x3d90f38d	0.070777036
45	0x3e8491ed	0.25892583
46	0xbe83dacb	-0.25752863
47	0x3e3fa234	0.1871422
48	0xbd99efeb	-0.07516464
49	0x3dd88056	0.10571353
50	0x3e7728bd	0.24136634
51	0xbe23574e	-0.15951273
52	0xbe866a65	-0.26253048
53	0xbe389561	-0.18025734
54	0xbd556eb1	-0.052107517
55	0xbe185a9d	-0.14878316
56	0xbd9580d8	-0.072999656
57	0x3ee027f7	0.4378049
58	0x3e6212ef	0.22077535
59	0xbde88118	-0.11352748
60	0x3e816a04	0.25276196
61	0x3c95c3d9	0.018281864
62	0x3cd6e59a	0.02623253
63	0xbdc93f7f	-0.09826564
64	0x3db184c9	0.08667905
65	0xbe8e145e	-0.27749914
66	0x3e26b658	0.16280496
67	0x3d730a28	0.059335858
68	0xbdf4a4e1	-0.11945511
69	0x3c5e46fc	0.013566729
70	0x3dfa465e	0.12220453
71	0x3e91d2c3	0.2848111
72	0x3cc0f909	0.02355625
73	0xbe508edd	-0.20366998
74	0x3e407f7d	0.18798633
75	0x3e5f881d	0.21829267
76	0xbc884d21	-0.01663834
77	0x3e4ce4dd	0.2000918
78	0xbe8fce1e	-0.28086942
79	0x3d55d6c1	0.05220676
80	0xbd1f0897	-0.03882655
81	0x3d92be75	0.07165233
82	0x3e858c90	0.26083803
83	0xbea1f7ee	-0.31634468
84	0xbd391c70	-0.045193136
85	0xbe87e58d	-0.2654232
86	0xbd87697f	-0.06611919
87	0xbe94886e	-0.29010338
88	0x3c2059bd	0.00978702
89	0x3e81194f	0.2521462
90	0x3e810f36	0.25206918
91	0xbe5c7b29	-0.21531357
92	0x3b4d484b	0.0031323608
93	0x3e8fd2af	0.28090426
94	0x3b4c5d06	0.0031183376
95	0xbe889076	-0.26672715
96	0x3cb70a00	0.022343636
97	0xb947871b	-0.0001902845
98	0x3e3c667e	0.18398473
99	0x3c7fe6c1	0.015618981
100	0x3d21109d	0.039322484
101	0x3c7d5771	0.015462742
102	0x3e81a8d8	0.2532413
103	0xbd83f210	-0.06442654
104	0x3e3fda8a	0.1873571
105	0xbe134ab2	-0.14383963
106	0x3e8369cd	0.25666657
107	0x3e3a0b45	0.18168361
108	0x3e1aad35	0.15105136
109	0x3db7c58c	0.08973226
110	0xbcda4482	-0.026643995
111	0x3ea28fdf	0.3175039
112	0xbdfa6749	-0.12226731
113	0xbc98fde7	-0.018675758
114	0xbd97e619	-0.074169345
115	0xbe89d21b	-0.2691811
116	0xbd944843	-0.07240345
117	0xbe74fac4	-0.23923784
118	0xbd142752	-0.03617031
119	0xbdb853f0	-0.09000385
120	0xbe890e88	-0.267689
121	0x3f327c95	0.6972135
122	0x3e4e13f6	0.20124802
123	0xbde25d79	-0.11052985
124	0x3e0e9a39	0.13926019
125	0x3e8a495a	0.27009088
126	0x3e420bb0	0.18949771
127	0x3b92ab65	0.004475998
128	0xbb06791b	-0.0020518962
129	0xbe74056c	-0.23830193
130	0x3ebcd484	0.36880887
131	0xbe427a0c	-0.1899187
132	0xbd1a930a	-0.037737884
133	0x3e6ccdcb	0.23125379
134	0xbd1f5f0a	-0.038908996
135	0x3e832af7	0.25618717
136	0x3e91ab67	0.28451082
137	0xbdb54b74	-0.08852282
138	0x3e99251a	0.2991112
139	0x3c16fe72	0.009215938
140	0x3db3f2c3	0.087865375
141	0x3e4698d9	0.19394244
142	0xbe75d14b	-0.2400562
143	0x3e3e08cd	0.18558045
144	0xbc16e0f3	-0.0092089055
145	0xbcd71b7a	-0.026258219
146	0x3db7b781	0.089705475
147	0xbe8bdf09	-0.273186
148	0xbe87164b	-0.26384196
149	0xbd79fde8	-0.06103316
150	0x3cc1c806	0.023654949
151	0xbe02813f	-0.12744616
152	0xbde661cd	-0.11249123
153	0x3eef9157	0.46790573
154	0x3e25577c	0.16146654
155	0xbdfe9b8a	-0.124320105
156	0x3e159b47	0.14610015
157	0x3e860b12	0.2618032
158	0x3cb73b36	0.022367101
159	0xbe79926c	-0.24372262
160	0x3e196d0a	0.14983001
161	0xbc4b6f45	-0.012416665
162	0x3e7d2b57	0.24723564
163	0xbe7f9614	-0.24959594
164	0xbe28e1b1	-0.16492344
165	0xbbd82e1f	-0.006597295
166	0x3c05ce3d	0.008166847
167	0xbcf753b5	-0.030191282
168	0x3db92fe2	0.09042336
169	0x3ca0a1be	0.019608375
170	0xbc6135aa	-0.013745705
171	0x3e899e1b	0.26878437
172	0x3e47612a	0.19470659
173	0xbd6cdf31	-0.05783004
174	0xbd228006	-0.039672874
175	0x3e4970e6	0.19671974
176	0xbdc9302d	-0.09823642
177	0x3e62c3be	0.22144982
178	0x3de058b5	0.109544195
179	0x3b9554d3	0.004557231
180	0x3d771147	0.06031921
181	0xbe8c4411	-0.2739568
182	0x3d87523e	0.06607483
183	0xbcee4144	-0.029083855
184	0xbd8d0549	-0.06885774
185	0x3ed3ce7d	0.41368476
186	0x3e5a3725	0.21310098
187	0xbe75b724	-0.23995644
188	0xbc308c51	-0.010775642
189	0x3e847b87	0.25875494
190	0x3cf51a39	0.02991973
191	0xbe5d2d11	-0.21599223
192	0x3e4f8da4	0.20268875
193	0x3b8c03ca	0.0042729126
194	0x3dccafc7	0.09994464
195	0x3c631dc9	0.013862082
196	0xbe05954a	-0.1304523
197	0x3dff0ba1	0.1245339
198	0xbbd6af34	-0.0065516476
199	0x3dde24cc	0.10846862
200	0xbcbf313b	-0.023338905
201	0xbb553ea1	-0.003253855
202	0x3e82cf77	0.25548908
203	0xbd6e22fd	-0.058138836
204	0x3e8f622a	0.2800458
205	0xbd5e6e39	-0.054304335
206	0xbe3f5a3b	-0.18686764
207	0x3e2d787e	0.16940495
208	0xbe14521c	-0.14484447
209	0x3e71426b	0.23560493
210	0x3b806b90	0.0039190724
211	0xbea4774d	-0.3212227
212	0xbe96861c	-0.29399192
213	0xbde8ee5f	-0.11373591
214	0x3d544272	0.05182118
215	0xbb829edb	-0.003986222
216	0xbdd542cc	-0.10413131
217	0x3f279220	0.65457344
218	0x3de21d7f	0.11040782
219	0xbd1faa16	-0.038980566
220	0xbd8314a7	-0.064004235
221	0x3e89aa63	0.26887807
222	0x3e17078a	0.1474897
223	0xbdd4a206	-0.10382466
224	0x3e228b5b	0.15873472
225	0xbe4549e8	-0.19266474
226	0x3ea13e3b	0.3149279
227	0xbe8905eb	-0.26762328
228	0xbdf6bf58	-0.12048215
229	0x3d98474d	0.074354745
230	0x3ce2583a	0.02762996
231	0x3cb502be	0.022096034
232	0x3d5c22b8	0.053744048
233	0x3c55165f	0.013005822
234	0x3e8c8994	0.27448714
235	0x3e5c1ca7	0.21495305
236	0x3d4673e5	0.04845037
237	0x3e7a9593	0.2447112
238	0xbe8bfa2a	-0.27339298
239	0x3e86c329	0.2632077
240	0x3b20bdc2	0.0024527167
241	0x3e33e8ef	0.17569326
242	0xbce03e0f	-0.027373342
243	0xbccec11d	-0.025238568
244	0xbe81a2f4	-0.25319636
245	0xbc8e138b	-0.017343303
246	0xbe07d9a9	-0.13266625
247	0xbe37f1ea	-0.17963377
248	0x3c401a9f	0.011725097
249	0x3f204afd	0.62614423
250	0x3e783bfc	0.24241632
251	0xbe716bd9	-0.23576297
252	0x3e064c8e	0.13115141
253	0x3dec61b9	0.115420766
254	0x3e8b5a35	0.2721726
255	0xbe22c188	-0.15894139

lstm.weight_hh_l1 f4 [128, 32]
0	0x3e19df7d	0.1502666
1	0xbdd1cf87	-0.10244661
2	0xbdd4991c	-0.10380766
3	0xbe858e51	-0.2608514
4	0x3c5e7673	0.013578045
5	0xbcaa6527	-0.020800186
6	0xbc29ffba	-0.010375911
7	0xbe0005a7	-0.12502156
8	0xbf38fae8	-0.7225785
9	0xbe832763	-0.25615987
10	0xbddec172	-0.108767405
11	0x3c9d9a4b	0.019238612
12	0xbd253a45	-0.040338773
13	0x3847adb0	4.7607056e-05
14	0x3e817747	0.25286314
15	0x3d4fdfe0	0.050750613
16	0xbe5657d6	-0.20931944
17	0xbe7f91d3	-0.24957971
18	0xbe13d79e	-0.1443772
19	0xbce5c432	-0.028047655
20	0xbbf63400	-0.007513523
21	0xbdb14760	-0.08656192
22	0x3e4b5116	0.1985515
23	0xbd1083ed	-0.035282064
24	0x3e202d71	0.15642335
25	0xbdc9b6b2	-0.098492995
26	0x3df0d915	0.11760155
27	0xbe2b06b5	-0.16701777
28	0xbc98b4bf	-0.018640874
29	0xbd133802	-0.035942085
30	0xbddf1872	-0.108933344
31	0xbc104905	-0.008806472
32	0x3d07ef07	0.03318694
33	0x3d61ab52	0.055095024
34	0xbe5175a7	-0.20455037
35	0xbe65f54f	-0.22456859
36	0xbe8b2e10	-0.2718358
37	0xbe5d4b0a	-0.21610656
38	0xbd545b11	-0.05184466
39	0xbecb4fc2	-0.39709288
40	0xbd9b8077	-0.07592862
41	0xbe923302	-0.2855454
42	0xbd67fb5d	-0.056636203
43	0xbd5aa543	-0.053380262
44	0x3c620c75	0.013796915
45	0xbe7521f6	-0.23938736
46	0x3dd1b194	0.102389485
47	0xbd943e9e	-0.07238506
48	0xbdc4461d	-0.095836855
49	0xbddfd774	-0.10929766
50	0xbe0cc17f	-0.13745688
51	0xbe9224f5	-0.2854382
52	0xbdb25d73	-0.0870923
53	0x3e096db7	0.13420759
54	0x3ded5416	0.11588304
55	0x3d5c72dd	0.05382048
56	0x3d98c66c	0.07459721
57	0xbe09c702	-0.13454822
58	0x3d07319a	0.033006288
59	0x3d361f4c	0.04446344
60	0x3e1ebcac	0.1550166
61	0x3dd77523	0.10520389
62	0xbe69be7f	-0.22826575
63	0x3d22b810	0.039726317
64	0x3e6080d6	0.21924147
65	0x3a823b2e	0.000993585
66	0xbe3ae71a	-0.18252221
67	0xbe68bca9	-0.22728218
68	0x3d26a3f3	0.040683698
69	0x3d88c018	0.06677264
70	0xbe53095f	-0.20609044
71	0xbdab0b85	-0.083518066
72	0x3dc323b7	0.095282964
73	0xbc6af227	-0.01433996
74	0xbe802516	-0.25028294
75	0x3cdc39f1	0.026883097
76	0x38a0b50b	7.6631164e-05
77	0x3da514b2	0.08060588
78	0x3dc63fba	0.096801236
79	0xbd1e4502	-0.03864003
80	0xbe15c9fa	-0.14627829
81	0x3d73d328	0.059527546
82	0x3d356b77	0.04429194
83	0xbd5ac3a6	-0.05340924
84	0xbe4b0adb	-0.1982836
85	0x3dbc2726	0.091871545
86	0x3e0fc957	0.14041649
87	0x3dac0f5e	0.084013686
88	0x3e7aa8c3	0.2447844
89	0x3d819c6b	0.063286625
90	0x3decd1e9	0.11563475
91	0xbe50c519	-0.20387687
92	0x3d2732f1	0.040820066
93	0x3e49da0f	0.19712089
94	0xba186406	-0.00058132445
95	0x3d636a00	0.05552101
96	0x3de6ed95	0.11275784
97	0x3d82a7ce	0.063796625
98	0xbe0bc2ca	-0.13648525
99	0xbe2bd1dc	-0.16779274
100	0xbcccc32a	-0.024995405
101	0xbe28f353	-0.16499071
102	0xbe6e0e31	-0.23247601
103	0xbeb60846	-0.35553187
104	0xbef16a28	-0.47151303
105	0xbd819e44	-0.06329015
106	0xbde8ea1e	-0.11372779
107	0x3e562bfb	0.20915215
108	0x3db1d64f	0.08683454
109	0x3d5402a1	0.05176032
110	0x3dbc4f67	0.09194832
111	0xbd8561fc	-0.0651283
112	0xbe828d05	-0.25498214
113	0xbd3a1a70	-0.04543537
114	0xbd9da727	-0.076978974
115	0xbd505e39	-0.050871108
116	0xbe4d004c	-0.20019644
117	0x3e17dd0f	0.14830421
118	0x3e019b3c	0.12656873
119	0x3d4ce13d	0.05001949
120	0x3c53917b	0.012913103
121	0xbde50a00	-0.11183548
122	0xbd1e87b0	-0.03870362
123	0xbb96dee5	-0.004604208
124	0x3d14d51a	0.036336042
125	0xbbe5fd67	-0.0070187333
126	0xbe825ae8	-0.2545998
127	0x3cf7e5f1	0.030261012
128	0x3cfe472e	0.0310398
129	0xbe7c4bf6	-0.24638352
130	0xbd8a855e	-0.06763719
131	0xbe62c10b	-0.22143953
132	0x3d956aee	0.07295786
133	0xbe4e79b9	-0.20163621
134	0x3c4037c7	0.011732048
135	0xbe7d7d05	-0.24754722
136	0xbebd4036	-0.36963052
137	0x3cfaeba4	0.03062994
138	0xbd041dfa	-0.03225515
139	0xbd381644	-0.04494311
140	0xbe5b0317	-0.21387897
141	0x3cc22510	0.023699313
142	0x3ddaa321	0.106756456
143	0xbe1c4373	-0.15260105
144	0xbd84ea6e	-0.064900264
145	0xbe15ca8e	-0.1462805
146	0xbdf7b40c	-0.12094888
147	0xbda44b3b	-0.080221616
148	0xbe69ff73	-0.22851352
149	0x3d79bf8f	0.0609737
150	0x3eaf115e	0.34192938
151	0xbe654146	-0.22388181
152	0xbd372b84	-0.044719234
153	0xbd06b357	-0.032885876
154	0x3b927f4e	0.0044707423
155	0x3d25cb71	0.04047722
156	0x3e5dca18	0.21659124
157	0x3e7e3870	0.24826217
158	0xbea854b2	-0.32877117
159	0x3dc5bcdb	0.09655162
160	0x3c84246c	0.016130649
161	0xbe3cc649	-0.18435015
162	0x3c0d497b	0.008623476
163	0xbe490cf4	-0.19633847
164	0xbcada311	-0.02119592
165	0x3d89770d	0.0671216
166	0xbd0da7ed	-0.034583975
167	0xbe99c540	-0.30033302
168	0xbe23d270	-0.15998244
169	0xbe34a1fd	-0.17639919
170	0xbe4a693f	-0.1976671
171	0x3cd580a6	0.02606232
172	0xbe58933c	-0.21149915
173	0xbe396ea9	-0.1810862
174	0x3c897aec	0.016782247
175	0xbc93c86a	-0.0180399
176	0x3d51b8c4	0.051201597
177	0xbdd40989	-0.10353381
178	0xbe0a7ffc	-0.13525385
179	0xbe1106df	-0.14162777
180	0x3cb9a607	0.022662176
181	0x3e01afe7	0.12664758
182	0x3e995994	0.29951155
183	0xbe50859f	-0.20363472
184	0x3c52fe15	0.012877961
185	0xbe618e20	-0.22026873
186	0x3e267636	0.16256031
187	0x3d4581de	0.048219554
188	0x3e39c306	0.18140802
189	0x3e5fb459	0.21846141
190	0xbd189ef9	-0.037260983
191	0x3e4a5bed	0.1976163
192	0x3d95acf1	0.073083766
193	0xbdf79906	-0.12089734
194	0xbe24b073	-0.16082935
195	0xbd6b8c87	-0.057507064
196	0xbe701930	-0.23447108
197	0xbdab1925	-0.08354405
198	0xbdd2b344	-0.102880985
199	0xbe9ead43	-0.30991563
200	0xbe4924a5	-0.19642885
201	0xbe250d38	-0.16118324
202	0xbd000613	-0.031255793
203	0x3de8e14c	0.11371097
204	0xbd955864	-0.0729225
205	0xbdcc8450	-0.09986174
206	0x3c655b46	0.013998812
207	0xbcd24436	-0.025667291
208	0xbe472bc1	-0.19450285
209	0xbe6d580f	-0.23178123
210	0xbe160cc1	-0.14653303
211	0xbc0a1493	-0.008427757
212	0x3d123a26	0.035699986
213	0x3d260a58	0.04053721
214	0x3eae6d2b	0.34067664
215	0xbce62ab1	-0.028096529
216	0xbd0d4332	-0.03448791
217	0xbe5ec214	-0.21753722
218	0xbc4bad12	-0.0124314
219	0xbe619686	-0.22030076
220	0xbd90f4ad	-0.07077918
221	0x3d15410e	0.036438994
222	0xbe555d81	-0.2083645
223	0x3e3942f8	0.18091953
224	0x3e5c0599	0.2148651
225	0xbd37f5c5	-0.04491212
226	0xbda9a66a	-0.08283694
227	0x3d05df2e	0.032683544
228	0x3cd38f12	0.025825057
229	0xbcc1b1e0	-0.023644388
230	0xbd22b3ab	-0.039722126
231	0xbe2702de	-0.16309687
232	0xbea0e2a8	-0.31422925
233	0xbde929f8	-0.11384958
234	0xbaacadc7	-0.0013174348
235	0xbc433131	-0.011913584
236	0xbd9f5297	-0.07779425
237	0xbd88edbb	-0.066859685
238	0x3e0a7e71	0.13524796
239	0xbe7e4c33	-0.24833755
240	0xbe5bd811	-0.21469142
241	0xbd934b8c	-0.07192144
242	0xbe3e3c21	-0.18577625
243	0xbe1326f0	-0.14370322
244	0x3cf6a513	0.03010801
245	0x3de2d1fe	0.11075209
246	0xbce6eefb	-0.028190127
247	0xbe18639c	-0.14881748
248	0x3d57a8c7	0.052651193
249	0xbe02c61e	-0.12770888
250	0x3dd25e79	0.102719255
251	0xbe35662a	-0.17714754
252	0x3d40d26b	0.04707567
253	0xbd475a86	-0.048670314
254	0xbe54fb72	-0.20799044
255	0xbd47b697	-0.048758116

lstm.bias_ih_l1 f4 [128]
0	0xbd6538a6	-0.055962227
1	0xbcad8fa9	-0.021186667
2	0xbd12433b	-0.035708647
3	0x3d8d10cc	0.068879694
4	0x3e32d8c9	0.1746551
5	0xbcb85a6e	-0.022504058
6	0xbd401899	-0.04689846
7	0x3e0373de	0.12837169
8	0x3e0f97d9	0.14022769
9	0xbd32c9bf	-0.04364943
10	0x3e54c3db	0.20777838
11	0x3cddfb09	0.027097242
12	0x3e3beed7	0.18352829
13	0x3e23183a	0.1592721
14	0x3df6c925	0.12050084
15	0xbc8f668a	-0.01750495
16	0xbdd67f7c	-0.104735345
17	0x3bd02807	0.006352428
18	0x3d6dc710	0.05805117
19	0x3db5e637	0.088818006
20	0x3dd799d2	0.10527386
21	0x3dbf20b9	0.09332413
22	0x3e04171d	0.12899442
23	0x3d8af804	0.067855865
24	0xbbc86f38	-0.006116774
25	0xbd774f20	-0.060378194
26	0x3e27f2e2	0.16401246
27	0x3dc5a3ea	0.09650405
28	0xba7e9f68	-0.00097130844
29	0x3cf23240	0.029564977
30	0x3e533664	0.20626217
31	0x3e0c001d	0.13671918
32	0xbc64df8c	-0.013969313
33	0xb9e74465	-0.0004411071
34	0xbcd0ba13	-0.025479352
35	0xbddc216c	-0.10748562
36	0x3e109484	0.14119154
37	0xbda51146	-0.08059935
38	0xbd10314d	-0.035203267
39	0x3d8a7cdd	0.06762097
40	0xbdcbb7ee	-0.09947191
41	0x3dabd2bd	0.083898045
42	0x3e507b3f	0.20359515
43	0xbda784f5	-0.081796564
44	0xbba2d079	-0.0049686995
45	0xbd8507bc	-0.06495616
46	0x3db4224a	0.087956026
47	0xbb855e83	-0.0040701046
48	0x3e3835a1	0.17989208
49	0x3d043cfe	0.03228473
50	0x3d8cd748	0.06876999
51	0xbd3f68fd	-0.046730984
52	0x3e5e4a9e	0.21708152
53	0x3dbf7084	0.093476325
54	0x3e1ae1d3	0.15125208
55	0xbda660b8	-0.081239164
56	0x3dfe3d93	0.12414088
57	0xbb50a9ca	-0.0031839483
58	0x3d9ec956	0.077532455
59	0xbc24aff8	-0.01005172
60	0xba1c42f4	-0.00059609045
61	0x3cf81985	0.030285606
62	0xbc850c82	-0.016241316
63	0xbdc13454	-0.09433809
64	0xbd9a0206	-0.07519917
65	0xbe04b415	-0.12959321
66	0xbdd52289	-0.10406978
67	0xbe6cdd89	-0.23131384
68	0xbe228956	-0.15872702
69	0x3aa319c3	0.0012443591
70	0xbe3aa274	-0.18226033
71	0xbe37b9e1	-0.17942001
72	0xbd0a546d	-0.03377192
73	0xbe5cce05	-0.21562965
74	0xbcdf6c76	-0.027273398
75	0x3dfdb765	0.12388495
76	0xbe67d21d	-0.22638746
77	0x39251588	0.00015743647
78	0x3e27d293	0.16388921
79	0xbe62c061	-0.22143699
80	0x3db3a89f	0.08772396
81	0x3d25bf34	0.04046555
82	0xbddd4e08	-0.10805899
83	0xbe3866fc	-0.18008035
84	0xbd9deb1a	-0.07710858
85	0x3e4fb2bc	0.20283026
86	0x3e277208	0.16352093
87	0xbd10c7a3	-0.03534664
88	0x3e1aab4b	0.15104406
89	0xbe2c1a98	-0.1680702
90	0x3d8dfd6e	0.069331035
91	0xbe1f92dc	-0.15583366
92	0xbd36e352	-0.044650383
93	0x3e1fd07e	0.15606877
94	0xbc9b5213	-0.018960034
95	0x3e044f42	0.1292086
96	0x3e362e46	0.1779109
97	0x3dc9cfd5	0.09854094
98	0x3e7941de	0.24341533
99	0xbbce7aee	-0.0063012755
100	0x3cb8f3aa	0.022577126
101	0x3e15de11	0.14635493
102	0x3e00f52c	0.12593526
103	0x3db4462b	0.08802446
104	0xbdd91986	-0.10600571
105	0x3d61de91	0.055143896
106	0x3e00953e	0.12556931
107	0x3e940c65	0.28915706
108	0x3cc138e8	0.023586705
109	0x3c477c96	0.0121757
110	0x3e727669	0.23677982
111	0x3ce530b8	0.027977332
112	0x3dc1fbd0	0.094718575
113	0x3e71dd0f	0.23619483
114	0x3df9e763	0.12202337
115	0x3df9a6d3	0.12190022
116	0x3e82730a	0.25478393
117	0x3e7d69e1	0.24747421
118	0xbd0d28a5	-0.03446259
119	0x3e47212d	0.1944625
120	0x3e89a4ff	0.26883695
121	0x3e2f48c5	0.17117603
122	0x3dfeab63	0.12435033
123	0x3e1dcc3d	0.15409942
124	0xbd9ac53b	-0.0755715
125	0x3e2dd3d8	0.16975343
126	0xbc818d7e	-0.015814539
127	0x3de144cc	0.1099945

lstm.bias_hh_l1 f4 [128]
0	0x3c675305	0.0141189145
1	0x3cfc09c5	0.030766377
2	0x3d3c4de2	0.045972712
3	0x3e672b96	0.2257522
4	0xbce60312	-0.028077636
5	0x3cc4a078	0.024002299
6	0x3d0d5ade	0.034510486
7	0xbd05fe57	-0.03271326
8	0x3e39e441	0.18153478
9	0x3e889a57	0.26680252
10	0xbda0fe33	-0.07860985
11	0x3dcd2c76	0.10018246
12	0x3e6e8658	0.23293436
13	0x3c6c32ee	0.014416439
14	0x3dd2c365	0.10291175
15	0x3dd44e6b	0.103665195
16	0x3d5c7b29	0.053828392
17	0x3cf8438e	0.03030565
18	0xbc6018f0	-0.013677821
19	0x3db91162	0.09036519
20	0xb90e6627	-0.0001358023
21	0x3d736327	0.05942073
22	0x3d296734	0.041358188
23	0x3e4112b2	0.18854788
24	0x3e32a4b6	0.17445645
25	0x3af61f06	0.0018777556
26	0x3d9c2565	0.0762432
27	0x3d8b0da7	0.06789713
28	0x3d987380	0.07443905
29	0x3e7057c3	0.23470978
30	0x3e24d6a8	0.1609751
31	0x3e039434	0.12849504
32	0x3dffcbaf	0.124900214
33	0x3e152e5c	0.14568466
34	0x3de8aa87	0.113606505
35	0x3d52d8d0	0.0514763
36	0xbda35e4d	-0.07976971
37	0x3d91111e	0.07083343
38	0xbd6f75ed	-0.058462072
39	0x3dc8ce3e	0.098049626
40	0xbd69344a	-0.056934632
41	0x3d6714b9	0.056416247
42	0x3e20bea0	0.15697718
43	0x3d1145a1	0.035466794
44	0x3c2788c9	0.010225483
45	0x3e69ca43	0.22831063
46	0xbd8f222d	-0.069889404
47	0xbd252bef	-0.0403251
48	0xbdbf8734	-0.0935196
49	0x3dac52d4	0.08414236
50	0xbd611650	-0.05495292
51	0x3dc634ed	0.096780635
52	0x3e15222a	0.14563814
53	0x3e1d5799	0.15365447
54	0xbde72817	-0.112869434
55	0x3e533c7a	0.20628539
56	0x3e5a1435	0.21296771
57	0xbd388163	-0.045045268
58	0x3d62559e	0.055257432
59	0xbdb3cf6b	-0.08779796
60	0xbe0a2e95	-0.13494332
61	0x3daaa162	0.083315626
62	0x3e2710a6	0.16314945
63	0x3d61327a	0.05497978
64	0xbcb61135	-0.022225002
65	0xbdc3fe2d	-0.095699646
66	0xbde693c7	-0.11258655
67	0x3c58efd5	0.013240774
68	0xbd6d9fcc	-0.058013722
69	0xbe3548ed	-0.177036
70	0xbd6a52fc	-0.057208046
71	0x3d8bcb2b	0.068258606
72	0x3b85d239	0.0040838984
73	0xbe3c4ba7	-0.18388234
74	0x3d17762f	0.036977943
75	0x3e09a4ba	0.13441744
76	0x3cf8ec9c	0.030386262
77	0x3d85dad5	0.065358795
78	0xbc75ace1	-0.014994831
79	0xbe2644df	-0.1623721
80	0xbd49d652	-0.049276657
81	0xbe4399be	-0.19101617
82	0xbd70f9d3	-0.058832
83	0xbd0716e5	-0.03298082
84	0xbe139117	-0.14410816
85	0x3e0e0a19	0.1387104
86	0x3e5921b6	0.21204266
87	0xbcf65f8d	-0.030074859
88	0x3d0e4939	0.0347378
89	0xbe56e827	-0.20986997
90	0x3e1ea02e	0.15490791
91	0xbd98c989	-0.07460315
92	0xbdbc5121	-0.091951616
93	0x3e0ada53	0.13559847
94	0x3dbf4d33	0.093408965
95	0xbcf21ecd	-0.029555703
96	0x3e2fdfea	0.1717526
97	0xbb88a9a3	-0.004170613
98	0x3d128edf	0.035780784
99	0x3db9d5bb	0.09073969
100	0xbb042e6b	-0.0020169269
101	0x3e606ea4	0.21917206
102	0x3e857f2c	0.26073587
103	0x3e9f3bd1	0.31100324
104	0x3d3c5aa3	0.045984875
105	0x3e89e343	0.269312
106	0x3e95b0e6	0.29236525
107	0x3e34b69e	0.17647788
108	0x3db66238	0.089054525
109	0xbc4bcf28	-0.012439527
110	0x3e01857e	0.1264858
111	0x3cb26e4d	0.021781111
112	0x3e85d76e	0.26140922
113	0x3d622303	0.05520917
114	0x3d20c9eb	0.039255064
115	0xbc15b2dd	-0.009136883
116	0x3e7450e8	0.23858988
117	0x3e1eb4cf	0.1549866
118	0x3e21c660	0.1579833
119	0x3e88900c	0.266724
120	0xbc4ae809	-0.012384423
121	0x3ca2cf0c	0.019874118
122	0x3dd74f9f	0.105132334
123	0x3b487647	0.0030588077
124	0x3e46192a	0.19345537
125	0x3e27c83c	0.16384977
126	0x3e83c7bf	0.25738332
127	0x3cc2f92d	0.023800457

fc.weight f4 [3, 32]
0	0x40842efc	4.1307354
1	0xc08362c6	-4.1058073
2	0xc080c177	-4.0236163
3	0xc0805975	-4.01092
4	0xc080ef2b	-4.0291953
5	0xc0827bc9	-4.0776105
6	0xc07c9573	-3.9466217
7	0xc080e00e	-4.0273504
8	0xc080d377	-4.0258136
9	0xc080121f	-4.002212
10	0xc080f548	-4.0299416
11	0x4075af6e	3.8388324
12	0xc080b9ab	-4.0226645
13	0xc07ec472	-3.98074
14	0x40810858	4.0322685
15	0xc0828cb0	-4.079674
16	0xc081d1cb	-4.0568595
17	0xc0840b8d	-4.12641
18	0xc07e72bd	-3.975753
19	0xc0786c00	-3.8815918
20	0xc0715a76	-3.7711463
21	0x407faabf	3.9947965
22	0x407e2903	3.9712532
23	0xc0787419	-3.882086
24	0x4084281b	4.1298957
25	0xc078a603	-3.8851326
26	0x407da54f	3.9632146
27	0xc0792494	-3.8928576
28	0x407db704	3.9642954
29	0x407b43a3	3.9260032
30	0xc07b5a3e	-3.927383
31	0x4080d1f7	4.0256305
32	0x407920c5	3.892625
33	0xc0733c84	-3.8005686
34	0xc0814c13	-4.0405364
35	0xc07e32d7	-3.971853
36	0xc077a91c	-3.8696966
37	0xc08100a0	-4.0313263
38	0xc0813c61	-4.0386205
39	0xc081e62d	-4.0593476
40	0xc083700b	-4.107427
41	0xc07f0808	-3.9848652
42	0xc08205c2	-4.063203
43	0x40809be0	4.0190277
44	0xc077a609	-3.869509
45	0xc083c729	-4.1180615
46	0x407702a9	3.8595374
47	0xc07cd12e	-3.9502673
48	0xc080d9fc	-4.0266094
49	0xc079f6c3	-3.9056861
50	0xc081c76b	-4.055593
51	0xc07981fb	-3.8985584
52	0xc07fe10e	-3.9981112
53	0x407cc6a7	3.9496248
54	0x4078f6a5	3.890054
55	0xc07ddc4c	-3.9665709
56	0x40760b04	3.8444223
57	0xc077ff8f	-3.874973
58	0x407dba33	3.9644897
59	0xc0825319	-4.0726438
60	0x4082056a	4.063161
61	0x4081be4c	4.0544796
62	0xc07e6b77	-3.9753091
63	0x40802f64	4.005785
64	0x4081eda7	4.0602603
65	0xc07900fd	-3.8906853
66	0xc07ff1dd	-3.9991372
67	0xc07ae822	-3.9204183
68	0xc0823d45	-4.069979
69	0xc07a73a5	-3.9133084
70	0xc0807f1f	-4.0155177
71	0xc08236d3	-4.0691924
72	0xc07a6987	-3.9126909
73	0xc072ade8	-3.7918644
74	0xc08367ac	-4.1064053
75	0x40824340	4.070709
76	0xc07d2ee6	-3.9559875
77	0xc0816813	-4.0439544
78	0x4083a476	4.113826
79	0xc077ab6a	-3.8698373
80	0xc0837a3a	-4.10867
81	0xc074ffc3	-3.8281105
82	0xc0781854	-3.8764849
83	0xc084b617	-4.147228
84	0xc0822ce3	-4.0679793
85	0x4075a023	3.837899
86	0x407f4a2a	3.9889016
87	0xc082ba37	-4.0852313
88	0x407cb478	3.948515
89	0xc0803487	-4.006412
90	0x40818f3c	4.0487347
91	0xc0825703	-4.0731215
92	0x408323f1	4.0981374
93	0x4082687b	4.075254
94	0xc08142f7	-4.0394244
95	0x407f5097	3.9892938

fc.bias f4 [3]
0	0x406451f8	3.567503
1	0x405cc83c	3.4497213
2	0x4058f87b	3.390166
