temperature_celsius_model.pth (torch, 79156 bytes, 10 tensors)

lstm.weight_ih_l0 f4 [128, 46]
0	0x3df4fb39	0.119619794
1	0x3e1a6cbf	0.15080546
2	0xbe1d1b5b	-0.15342467
3	0x3e1004ad	0.14064284
4	0xbe43bc2e	-0.19114754
5	0x3d91268d	0.07087431
6	0xbbc39961	-0.005969212
7	0x3e2ae2e8	0.1668812
8	0xbe062c92	-0.1310294
9	0x3ce8a3e4	0.028398462
10	0xbe477105	-0.19476707
11	0x3d527140	0.051377535
12	0x3e5edb2e	0.21763298
13	0x3e3b160a	0.18270126
14	0xbe245dc0	-0.16051388
15	0x3c2452e0	0.010029525
16	0xbd2ecf00	-0.04267788
17	0xbe306646	-0.17226514
18	0x3dd70965	0.10499839
19	0x3dca9b63	0.09892919
20	0xbe2f1f36	-0.1710175
21	0xbdf32716	-0.118726894
22	0x3e12b94b	0.14328496
23	0xbd86f7b5	-0.06590215
24	0xbc51e699	-0.012811326
25	0x3d4b1ef5	0.04959007
26	0x3c879b0e	0.016553428
27	0xbe8014dd	-0.25015917
28	0xbd14ef89	-0.03636125
29	0x3e2cfaa0	0.16892481
30	0xbe2377d5	-0.15963681
31	0x3ec4aed4	0.38414633
32	0xbdb245d0	-0.08704722
33	0xbe293868	-0.16525424
34	0x3da5b5ff	0.080913536
35	0x3e00a78f	0.12563919
36	0xbdbbbe38	-0.09167141
37	0x3cfdecca	0.030996699
38	0xbeab89f5	-0.3350369
39	0xbc975985	-0.018475303
40	0xbd0b1383	-0.033954155
41	0x3c5fcfcb	0.013660382
42	0xbdee62ee	-0.11639963
43	0x3e529b05	0.20566948
44	0x3bd119f5	0.006381268
45	0xbe361167	-0.17780076
46	0xbd2aef8a	-0.04173235
47	0xbd805d70	-0.06267822
48	0xbe175d83	-0.14781766
49	0x3b23b92c	0.0024982197
50	0xbd849506	-0.064737365
51	0x3e562469	0.20912327
52	0xbe0d0c35	-0.13774188
53	0x3d3d8a89	0.046274696
54	0x3e38c9b5	0.18045695
55	0x3e5ca379	0.21546735
56	0xbe0d3376	-0.13789162
57	0xbe1fa073	-0.1558855
58	0xbca84400	-0.020540237
59	0xbbbbb209	-0.0057280106
60	0x3d0a053c	0.0336964
61	0x3ddd806a	0.10815509
62	0x3d62bd8b	0.055356544
63	0xbe988ad4	-0.29793417
64	0x3da9c28c	0.0828906
65	0x3e28ce1a	0.16484872
66	0xbd638b46	-0.055552743
67	0x3c375af6	0.01119112
68	0xbd98e166	-0.07464866
69	0xbdd037bb	-0.1016688
70	0xbd8868ad	-0.0666059
71	0x3e931d20	0.28733158
72	0x3e5049ee	0.20340702
73	0x3da4a089	0.08038432
74	0xbc9b050f	-0.01892331
75	0x3e4af8c4	0.19821459
76	0x3cf672d6	0.030084055
77	0xbec6cdb7	-0.38828823
78	0x3d5fdfb6	0.054656707
79	0xbd0999a0	-0.033593774
80	0x3eb15d0e	0.34641308
81	0xbe76fec6	-0.24120626
82	0xbe757383	-0.23969845
83	0x3d7f055a	0.062260963
84	0xbdb63a84	-0.0889788
85	0x3cce15bd	0.02515685
86	0x3ce6caf4	0.028172947
87	0xbe477bb2	-0.1948078
88	0xbd647c68	-0.055782706
89	0x3e8bf33d	0.27334014
90	0xbe28361c	-0.16426891
91	0xbd27af66	-0.040938757
92	0x3dd11060	0.102082014
93	0xba5d3e50	-0.0008439766
94	0x3e4188f8	0.18899906
95	0xbe8aa6b1	-0.270803
96	0xbd8b7712	-0.0680982
97	0xbe666762	-0.22500375
98	0xbde1c4d0	-0.11023867
99	0x3de3bfe9	0.11120588
100	0x3bd37c93	0.0064540594
101	0x3d4a3011	0.049362246
102	0xbea4093c	-0.32038295
103	0x3dbb6502	0.09150125
104	0xbda92cdb	-0.082605086
105	0xbe837f00	-0.2568283
106	0xbeb515da	-0.35368234
107	0xbcc5f0c6	-0.024162661
108	0xbe3088aa	-0.17239633
109	0x3dec868f	0.115491025
110	0x3d92d861	0.07170177
111	0xbe55fb58	-0.20896661
112	0x3dbe6ac9	0.092977114
113	0x3cb3175c	0.021861725
114	0xbdb17fd4	-0.086669594
115	0xbce1024a	-0.027466912
116	0x3e305c77	0.17222773
117	0x3d964e40	0.07339144
118	0x3e9c3776	0.30511063
119	0xbe867ad1	-0.26265576
120	0xbcfb98a4	-0.030712433
121	0xbea339c6	-0.31880015
122	0x3e67582b	0.22592227
123	0xbd6a521e	-0.05720722
124	0xbe50561a	-0.20345345
125	0xbdcd56c3	-0.10026314
126	0x3e67a87a	0.22622862
127	0x3dd9bdc4	0.10631898
128	0x3ec90d1c	0.39267814
129	0xbe53a85f	-0.20669697
130	0xbdf7b3f4	-0.1209487
131	0x3e426137	0.18982397
132	0x3e3bd98d	0.18344708
133	0xbed86dd9	-0.42271307
134	0x3e89e139	0.26929644
135	0x3d3072d6	0.043078266
136	0xbdac8517	-0.084238224
137	0xbe259ad9	-0.16172351
138	0x3dbbb4d8	0.091653526
139	0xbd748a65	-0.059702296
140	0x3e2335bf	0.15938471
141	0xbe88116d	-0.26575795
142	0xba29ddea	-0.0006479906
143	0xbd11775e	-0.035514228
144	0xbdc6dfe0	-0.097106695
145	0x3dd24bbc	0.102683514
146	0x3cfa4bd6	0.03055374
147	0xbdad4f6d	-0.08462415
148	0xbce6cbe0	-0.028173387
149	0xbdeeb611	-0.1165582
150	0xbdb5989d	-0.08866999
151	0x3e91060b	0.28324923
152	0x3e1c53e0	0.15266371
153	0xbdafc8aa	-0.085831955
154	0xbe6ff359	-0.23432674
155	0xbd11ec5c	-0.0356258
156	0xbdc012a7	-0.09378558
157	0xbccb7e61	-0.024840536
158	0x3cbf955d	0.023386652
159	0xbdabca76	-0.08388226
160	0xbdca86bb	-0.09888979
161	0xbdcd300c	-0.1001893
162	0xbe8d57ea	-0.27606136
163	0xbe002e12	-0.12517574
164	0x3c4d23a8	0.012520708
165	0x3d5ea1ff	0.05435371
166	0xb9663d12	-0.0002195726
167	0xbbf48ea8	-0.007463295
168	0x3d64d20c	0.05586438
169	0x3e5c4bd7	0.21513306
170	0x3e51121f	0.20417069
171	0x3f013be3	0.50482005
172	0xbe3cbd34	-0.1843155
173	0x3d889a8f	0.06670105
174	0xbe7720b9	-0.24133576
175	0xbdb1bb79	-0.08678336
176	0xbe24b786	-0.16085634
177	0x3d9bc971	0.07606781
178	0xbea57482	-0.3231545
179	0xbdf51190	-0.119662404
180	0x3e9342ed	0.28761998
181	0x3b2fa6d9	0.002680233
182	0x3d8b8ede	0.06814359
183	0x3e378a6d	0.17923899
184	0xbe3c3245	-0.18378551
185	0x3d848b3a	0.06471868
186	0x3daaccfb	0.08339878
187	0xbe3b19c8	-0.18271554
188	0x3e28b38d	0.16474743
189	0x3d0d9dd9	0.034574363
190	0xbd8ddf30	-0.06927335
191	0x3d9380e5	0.07202319
192	0xbe103804	-0.14083868
193	0xbe60b20a	-0.21942917
194	0xbcbc424e	-0.022980835
195	0xbe618a8f	-0.22025512
196	0xbdcd3e98	-0.100217044
197	0x3e2dd4d3	0.16975717
198	0x3e631dea	0.2217938
199	0x3e84d8eb	0.25946745
200	0xbd1235a8	-0.0356957
201	0xbe1afcbf	-0.15135477
202	0x3ced7555	0.028986612
203	0x3e80bd52	0.2514444
204	0x3b10313c	0.0022002002
205	0x3e5560ab	0.20837657
206	0xba6be506	-0.0008998666
207	0xbcc73097	-0.024315162
208	0xbe3aa7d1	-0.1822808
209	0xbd2bf76a	-0.041984
210	0x3e74642e	0.2386634
211	0x3e403544	0.18770319
212	0x3e9e83f6	0.30960053
213	0x3e638e0f	0.2222216
214	0x3e4d252d	0.20033713
215	0xbdb7d34d	-0.08975849
216	0x3e08fdeb	0.13378112
217	0x3eb366ce	0.3503937
218	0x3e99e016	0.30053777
219	0x3e7cf897	0.24704204
220	0xbd415c8b	-0.047207396
221	0xbe1bfa04	-0.15232092
222	0xba92b8d1	-0.0011193996
223	0x3e5764f2	0.21034601
224	0xbe6e758c	-0.23287028
225	0xbcbf4509	-0.023348348
226	0xbe5bcfe8	-0.21466029
227	0xbc2f0fad	-0.01068489
228	0x3e299f65	0.1656471
229	0x3e685f68	0.22692645
230	0x3e6d6a56	0.23185095
231	0xbd08865f	-0.03333127
232	0x3ce182db	0.027528217
233	0x3d090766	0.03345432
234	0xbe91bfd3	-0.28466663
235	0x3d4b19fe	0.049585335
236	0x3eb81614	0.35954344
237	0x3e8f694f	0.28010032
238	0xbda4bc3d	-0.08043716
239	0x3e7f1943	0.2491198
240	0x3e005bd6	0.12535033
241	0x3e47ebaf	0.195235
242	0xbd019f42	-0.03164602
243	0xbe081916	-0.1329082
244	0x3ccca67c	0.02498173
245	0xbc58d055	-0.013233264
246	0xbea6e102	-0.32593542
247	0x3e13e67b	0.1444339
248	0xbc2183b6	-0.0098580625
249	0x3d11a138	0.03555414
250	0xbe33f820	-0.17575121
251	0xbd8e3e79	-0.069455095
252	0x3ead68a1	0.33868888
253	0x3cd1a977	0.025593502
254	0xbcc67dba	-0.024229873
255	0xbdaeda80	-0.08537769

lstm.weight_hh_l0 f4 [128, 32]
0	0xbe902019	-0.2814949
1	0x3dfb3886	0.1226664
2	0x3e2e74e6	0.1703678
3	0xbda12b6f	-0.078696124
4	0x3d820937	0.06349414
5	0xbd926f59	-0.07150144
6	0xbed6107d	-0.41809455
7	0xbd0fafee	-0.03507989
8	0xbd0b09c4	-0.03394486
9	0x3df25286	0.11832146
10	0xbe2789d0	-0.16361165
11	0x3e8a8b8e	0.27059597
12	0x3e82dcff	0.25559232
13	0xbd32441f	-0.043521997
14	0xbc9a0dca	-0.018805403
15	0xbdf97254	-0.121800095
16	0xbe026fe9	-0.12738003
17	0x3e7b5db8	0.2454747
18	0x3c2b80cc	0.010467719
19	0x3cdaf3e1	0.026727619
20	0x3de9fbb1	0.114249595
21	0xbe24d5ce	-0.16097185
22	0xbd0c6d13	-0.03428371
23	0x3d541e24	0.051786557
24	0x3e7115c0	0.23543453
25	0xbe4bdd53	-0.19908647
26	0x3df6e5aa	0.12055524
27	0x3d9a8d60	0.075464964
28	0x3d5230ff	0.051316258
29	0xbe4f38e8	-0.20236552
30	0x3e5655ed	0.20931216
31	0x3e7245ea	0.23659483
32	0xbcb150ee	-0.021645036
33	0xbd19df47	-0.03756645
34	0xbf0411a1	-0.515894
35	0xbde618ed	-0.11235223
36	0x3dbe8940	0.09303522
37	0xbd9350fd	-0.07193182
38	0x3c77d099	0.015125417
39	0x3dd9d2b8	0.106358945
40	0x3be3264a	0.0069320546
41	0xbc4d58c6	-0.012533372
42	0xbe24a913	-0.16080122
43	0xbdd11be2	-0.10210396
44	0xbe036433	-0.12831192
45	0xbe8e8a95	-0.27840105
46	0xbd70168c	-0.058615252
47	0x3dfa83c9	0.12232167
48	0x3e2ea676	0.17055687
49	0x3e4d0ff2	0.20025614
50	0x3e104bbd	0.14091392
51	0xbd16d65b	-0.03682552
52	0x3c8aca3d	0.016942138
53	0x3e58f0f0	0.2118566
54	0xbe6a397d	-0.22873493
55	0xbe42112d	-0.18951865
56	0x3d08d84f	0.033409413
57	0xbd79c742	-0.060981043
58	0xbe11c4de	-0.14235255
59	0xbdff79d4	-0.12474409
60	0xbd52d407	-0.051471736
61	0xbe108eb1	-0.14116932
62	0xbd8c0709	-0.06837279
63	0x3e530ae9	0.2060963
64	0xbe38dccb	-0.18052976
65	0xbdcde1c2	-0.100528255
66	0x3cd22b4a	0.025655407
67	0xbe3a039a	-0.18165436
68	0xbda9fe84	-0.08300498
69	0xbdc1cde8	-0.094631016
70	0xbcf7634e	-0.03019872
71	0x3e222e3d	0.15837951
72	0x3d162b38	0.03666231
73	0x3c1299d0	0.008947805
74	0x3db9dcaa	0.090752915
75	0xbe12e4c2	-0.14345077
76	0xbec33fef	-0.38134715
77	0xbe46af9a	-0.19402924
78	0x3e32dcd2	0.17467049
79	0x3d8d6596	0.069041416
80	0xbcf6f3ad	-0.03014549
81	0x3da49840	0.08036852
82	0x3e33958c	0.17537516
83	0x3d912ebe	0.070889935
84	0x3e1c94ad	0.1529109
85	0x3e025a35	0.12729724
86	0x3d9e470c	0.07728395
87	0x3e6eae67	0.23308717
88	0xbca47680	-0.020076036
89	0x3d82185b	0.06352302
90	0xbe373ac4	-0.17893511
91	0x3e52a816	0.20571932
92	0xbd81c757	-0.06336849
93	0xbcf3dcd7	-0.02976839
94	0xbd18689a	-0.03720913
95	0x3eeedefa	0.46654493
96	0xbe870f73	-0.26378974
97	0xbd08bf33	-0.033385467
98	0xbe9f0f9b	-0.31066594
99	0xbd4513c8	-0.048114568
100	0x3e7766a9	0.24160255
101	0x3dc4d2ec	0.09610543
102	0x39879ece	0.00025867525
103	0x3e7f41db	0.24927466
104	0xbe0855c0	-0.13313961
105	0x3e00395b	0.1252188
106	0xbe043b87	-0.12913333
107	0xbd42f0fa	-0.047593094
108	0xbe439aa7	-0.19101964
109	0xbe34d44b	-0.17659108
110	0x3db75404	0.089515716
111	0x3e9403cb	0.28909144
112	0x3dc61fca	0.09674032
113	0xbcd59b7c	-0.026075117
114	0x3ba31071	0.004976325
115	0xbd7f39e5	-0.062311072
116	0x3d5450c2	0.05183483
117	0xbe0665a3	-0.13124709
118	0x3e09b39a	0.13447419
119	0x3d6cf424	0.05785002
120	0xbe4cc1c0	-0.19995785
121	0x3e2a8e9f	0.16655968
122	0xbd9612a2	-0.07327773
123	0xbd03dd7a	-0.03219364
124	0x3d5aad9c	0.053388223
125	0xbe42fd32	-0.19041899
126	0xbda2bb35	-0.07945863
127	0x3dd86531	0.10566176
128	0x3bba6d74	0.0056893174
129	0x3e86592d	0.2623991
130	0x3d8e77a6	0.06956415
131	0xbe85155a	-0.25992852
132	0xbe047224	-0.12934166
133	0xbcabad0c	-0.020956539
134	0xbc7a0d1f	-0.015261917
135	0x3e3514d6	0.1768373
136	0xbe4f4dc0	-0.20244503
137	0xbca7aa77	-0.020467026
138	0x3e10d691	0.1414435
139	0xbe531d84	-0.20616728
140	0x3e4fdbe1	0.20298721
141	0xbc58a156	-0.013222059
142	0x3e019185	0.12653168
143	0x3e5b5269	0.21418156
144	0x3d823ea3	0.06359603
145	0xbd562b39	-0.052287314
146	0x3ddcc771	0.10780228
147	0xbbaad529	-0.005213399
148	0x3d98cc64	0.074608594
149	0xbe102843	-0.14077859
150	0x3e2a0249	0.16602434
151	0x3e013020	0.12616014
152	0x3d8bc554	0.06824747
153	0x3e1572a3	0.14594512
154	0xbe26aab1	-0.16276051
155	0xbdac7bf1	-0.084220774
156	0xbdd9c7aa	-0.10633786
157	0x3dba80cd	0.09106598
158	0x3da299e4	0.079395086
159	0xbe36db22	-0.1785703
160	0xbcb566c1	-0.022143723
161	0xbe264303	-0.162365
162	0x3d41a986	0.04728081
163	0x3e1220c3	0.1427031
164	0x3e27c815	0.16384919
165	0x3e097d98	0.13426816
166	0x3daf348f	0.08554947
167	0x3d7b75f6	0.061391793
168	0x3c7ba60a	0.015359411
169	0x3e0ac1c3	0.13550477
170	0x3d73209b	0.059357267
171	0x3e754da0	0.23955393
172	0x3d08acfd	0.0333681
173	0xbdaceaca	-0.0844322
174	0xbd81aad8	-0.06331414
175	0xbe247fec	-0.16064423
176	0x3d926d26	0.07149725
177	0xbd0f80b7	-0.03503486
178	0xbdd2d888	-0.10295206
179	0xbcb8ba6b	-0.022549829
180	0x3e1dc5fc	0.15407556
181	0xbd35b241	-0.04435945
182	0xbe3ec7b2	-0.18630865
183	0xbd130e4b	-0.035902303
184	0x3db9fba7	0.09081202
185	0x3ce69474	0.02814696
186	0xbe22b7ea	-0.1589047
187	0xbdc870c7	-0.097871356
188	0x3c39a224	0.011330161
189	0x3dc55b72	0.096365824
190	0xbd495b15	-0.04915913
191	0x3e4e1a24	0.2012716
192	0x3e9ae3d6	0.3025195
193	0xbd352433	-0.044223975
194	0xbda76e23	-0.08175304
195	0x3d6a7355	0.057238895
196	0x3d27e866	0.040993117
197	0x3e2117a3	0.15731673
198	0xbe597930	-0.21237636
199	0xbb1f4d2c	-0.0024307473
200	0x3cba2715	0.022723714
201	0x3e10fc60	0.14158773
202	0x3e808d6d	0.251079
203	0xbe116fd6	-0.14202818
204	0xbd9ea539	-0.077463575
205	0x3e8f7d2f	0.28025195
206	0xbe4cc818	-0.19998205
207	0xbe280e7f	-0.1641178
208	0x3e380a6b	0.17972724
209	0x3b933d6e	0.004493407
210	0x3e04a1f5	0.12952407
211	0xbcea2e05	-0.028586397
212	0x3da8eddb	0.08248492
213	0xbd9eb2a4	-0.07748917
214	0xbe98be02	-0.29832464
215	0x3c4d935c	0.01254734
216	0xbd810ebb	-0.06301638
217	0xbd83f0b5	-0.064423956
218	0x3e6085a6	0.21925983
219	0x3d74ccbd	0.059765566
220	0xbe5ec129	-0.21753372
221	0x3e3ac180	0.18237877
222	0x3d082333	0.033236694
223	0x3da02ec2	0.07821418
224	0x3e7b03e7	0.24513207
225	0xbd55cb4b	-0.05219583
226	0xbe10b037	-0.1412972
227	0xbd53fb69	-0.051753435
228	0xbda204da	-0.079110816
229	0x3dcc99ac	0.09990248
230	0xbd4779f0	-0.048700273
231	0xbda6c262	-0.08142544
232	0x3e4c60e0	0.1995883
233	0xbe49c0ff	-0.19702528
234	0x3e24f1ee	0.16107914
235	0x3b83fd2a	0.0040279822
236	0xbb79a352	-0.0038091731
237	0xbd6d87e2	-0.057990916
238	0x3ab54502	0.001382977
239	0xbcbf2289	-0.023331897
240	0xbd43e16e	-0.04782241
241	0x3c41a261	0.011818499
242	0x3dfae5be	0.12250851
243	0x3bdcb5d4	0.006735543
244	0x3df9a053	0.121887825
245	0x3e16e766	0.14736709
246	0xbde896df	-0.113569014
247	0xbdf9e34f	-0.12201559
248	0x3e8398ee	0.25702614
249	0xbe7f061b	-0.24904673
250	0x3cb7fe7b	0.022460213
251	0x3e30277d	0.17202564
252	0x3e4d6143	0.20056634
253	0xbdcc1100	-0.0996418
254	0x3c33732c	0.010952752
255	0x3c529f09	0.0128553

lstm.bias_ih_l0 f4 [128]
0	0x3dddb32c	0.1082519
1	0x3d04770a	0.032340087
2	0x3db3d26a	0.08780368
3	0x3e2f7859	0.17135753
4	0xbca8a6e7	-0.020587398
5	0xbd80b798	-0.06285018
6	0xbdf93516	-0.121683285
7	0xbdab74ff	-0.083719246
8	0xbdabe2b1	-0.08392847
9	0x3db9c5f5	0.090709604
10	0x3c1e2ae2	0.009653779
11	0x3e62bed8	0.22143114
12	0xbd96474e	-0.07337819
13	0xbd2af1c7	-0.041734483
14	0x3e1d5434	0.15364152
15	0x3e84e2c8	0.2595427
16	0xbd258704	-0.040411964
17	0xbde5ffc1	-0.11230422
18	0x3d98c43a	0.07459302
19	0x3e56b7a4	0.20968491
20	0xbdad2877	-0.08454984
21	0xbcd862e3	-0.02641434
22	0x3e0d7c91	0.1381705
23	0x3e07a432	0.1324623
24	0x3e0a458e	0.13503096
25	0x3d3e115d	0.046403278
26	0x3dafddb2	0.08587207
27	0x3ddd8128	0.1081565
28	0xbdaa0d55	-0.08303324
29	0x3e5cd92c	0.2156722
30	0x3dfc8a7c	0.12331101
31	0xbe5a4fc6	-0.21319494
32	0x3da41d2c	0.080133766
33	0x3df1a264	0.11798552
34	0x3ce1850f	0.027529268
35	0x3e5c1b58	0.21494806
36	0xbe1a082c	-0.1504218
37	0x3e949cdc	0.29025924
38	0x3e7a0135	0.24414523
39	0xbcf5e930	-0.030018419
40	0xbdf2d20c	-0.118564695
41	0xbc818767	-0.015811635
42	0x3d69d1df	0.057084914
43	0xbdc326e5	-0.09528903
44	0x3c97cb68	0.018529609
45	0x3dab4282	0.08362295
46	0xbd19f392	-0.037585802
47	0xbadc0b7a	-0.0016788088
48	0x3db20df8	0.086940706
49	0x3c8820c7	0.016617192
50	0x3e24e842	0.16104224
51	0x3c0c0378	0.008545749
52	0xbdfad1e2	-0.12247063
53	0x3d21cb94	0.039500788
54	0xbd118810	-0.03553015
55	0x392ebbb2	0.00016663855
56	0x3de4a21e	0.11163734
57	0x3d60373b	0.054740172
58	0x3cecb75e	0.02889603
59	0x3d00519f	0.03132784
60	0xbe4cee07	-0.20012675
61	0x3e1fe077	0.1561297
62	0x3e83b912	0.25727135
63	0x3d9181d9	0.071048446
64	0xbe11b9cf	-0.14231037
65	0xbe33133d	-0.17487808
66	0x3e22fe4c	0.15917319
67	0xbbfd32a3	-0.0077269836
68	0x3e858d81	0.2608452
69	0x3e431143	0.19049554
70	0x3d187823	0.037223946
71	0xbc484225	-0.012222801
72	0xbe76ff49	-0.24120821
73	0x3e3de515	0.18544419
74	0x3dca9c43	0.09893086
75	0x3e08e345	0.13367946
76	0x3dd3d116	0.10342614
77	0xbe65f978	-0.22458446
78	0xbdd724cd	-0.10505066
79	0x3ddca02f	0.1077274
80	0x3d62cdad	0.05537193
81	0xbdaa9f89	-0.0833121
82	0xbc9b8c4d	-0.018987799
83	0xbd2678d5	-0.04064258
84	0xbe1524d7	-0.14564835
85	0x3cdfcf35	0.027320484
86	0xbde4c9b5	-0.11171285
87	0x3d442f19	0.04789648
88	0xbd5182c2	-0.05115009
89	0xbdd2b207	-0.10287862
90	0x3cd79917	0.026318116
91	0xbc0b6e18	-0.008510135
92	0xbd707596	-0.05870589
93	0x3e691ae3	0.22764163
94	0x3dd28ef6	0.10281174
95	0xbe281ecb	-0.16417997
96	0xbe1405af	-0.14455293
97	0xbd4f1d09	-0.0505648
98	0x3e406311	0.18787791
99	0x3e5d0827	0.21585141
100	0x3e0c7c89	0.13719381
101	0x3d44aaa4	0.048014298
102	0x3e137a5a	0.14402142
103	0x3d9a0d81	0.07522107
104	0xbb8ee1e3	-0.004360424
105	0x3c8d1b5c	0.01722496
106	0x3d8be821	0.068313845
107	0x3e29fee0	0.16601133
108	0x3e3e71ad	0.18598051
109	0x3e337ffc	0.17529291
110	0xbdc33f30	-0.095335364
111	0x3d939303	0.07205775
112	0x3db70a95	0.08937565
113	0xbdecc8ac	-0.115617126
114	0xbd060fd1	-0.032729927
115	0x3d771976	0.060327016
116	0xbdf03480	-0.117287636
117	0x3d2e18c3	0.042504083
118	0x39e72ef8	0.00044094748
119	0x3c9502bb	0.018189779
120	0x3ea8dacd	0.32979432
121	0x3da66d84	0.08126357
122	0x3e4f750d	0.20259495
123	0xbd80cd32	-0.06289138
124	0x3e2945f7	0.16530596
125	0x3e5b22b0	0.21399951
126	0xbdc3f16e	-0.095675334
127	0xbe08459b	-0.13307802

lstm.bias_hh_l0 f4 [128]
0	0xbd49d392	-0.049274035
1	0x3de70d3f	0.11281823
2	0xbdd59750	-0.10429251
3	0x3dd51396	0.10404126
4	0x3e3963a6	0.18104419
5	0xbd1a8f7a	-0.037734486
6	0xbd7fd706	-0.06246092
7	0xbdeee6cb	-0.11665114
8	0x3e07d4d3	0.1326478
9	0x3e33e9c0	0.17569637
10	0xbc34958c	-0.011021983
11	0xbd50ba2a	-0.05095879
12	0x3de1f577	0.11033147
13	0xbe3af67b	-0.18258087
14	0xbc8fdc75	-0.017561177
15	0x3cbf973e	0.023387548
16	0xbd374976	-0.044747792
17	0x3d6a71fc	0.05723761
18	0x3ded59d4	0.11589399
19	0x3dc0dd70	0.09417236
20	0x3df88563	0.121348165
21	0x3d05fa7b	0.03270958
22	0x3de78104	0.11303905
23	0xbdc05afd	-0.09392355
24	0x3e26dea6	0.16295871
25	0x3dfd29c8	0.12361485
26	0x3d081664	0.03322448
27	0xbbad934e	-0.005297101
28	0xbd2885da	-0.041143276
29	0xbd520747	-0.05127647
30	0x3cf2dee2	0.029647294
31	0x3d792a5a	0.060831405
32	0x3e7cecfb	0.24699776
33	0x3e82806a	0.25488597
34	0x3e4f1112	0.20221356
35	0xbd16a58e	-0.03677898
36	0x3db445c7	0.088023715
37	0x3dbd5a08	0.09245688
38	0x3daff01b	0.08590718
39	0xbd2c73a2	-0.042102464
40	0xbd8486d3	-0.06471028
41	0x3d879d3e	0.066217884
42	0xbd82c13d	-0.063845135
43	0x3e3a18f6	0.18173584
44	0xbdb89932	-0.09013595
45	0xbde3088e	-0.11085616
46	0x3e4c6196	0.19959101
47	0xbca29f77	-0.01985143
48	0xbe176aa5	-0.14786775
49	0xbe37b3c4	-0.17939669
50	0x3e4437e8	0.19161952
51	0xbc11580e	-0.0088710915
52	0xbde5075c	-0.11183044
53	0xbdb5e4a6	-0.08881502
54	0xbd367578	-0.04454562
55	0x3df082ed	0.11743722
56	0x3d9866de	0.07441495
57	0xbd6f07f9	-0.058357213
58	0xbce51703	-0.027965074
59	0x3dea4d98	0.11440581
60	0xbe1c4ff7	-0.15264879
61	0x3dd574c1	0.1042266
62	0x3e8e69f8	0.27815223
63	0xbd7b2648	-0.061315805
64	0xbd98bb35	-0.07457582
65	0x3ddabc88	0.10680491
66	0xbdcecb7d	-0.10097406
67	0x3d328ab7	0.04358932
68	0x3de3ca26	0.11122541
69	0x3e17f11d	0.14838071
70	0xbc9fa9f6	-0.019490223
71	0x3d953cbe	0.07286976
72	0xbe0aef77	-0.13567911
73	0x3e6aa26d	0.22913523
74	0xbe461856	-0.19345221
75	0xbda7417e	-0.081667885
76	0xbe38c4f4	-0.18043882
77	0xbe085734	-0.13314515
78	0xbd04f881	-0.032463554
79	0x3e82ee53	0.25572452
80	0xba662448	-0.000877921
81	0x3b86ae76	0.004110153
82	0x3db549ea	0.088519886
83	0x3d21890d	0.039437342
84	0xbe068aa4	-0.13138825
85	0x3d9d99e0	0.07695365
86	0x3d094fa7	0.033523228
87	0x3d5dfc9f	0.054195996
88	0xbe42b1ac	-0.19013089
89	0xbe333724	-0.17501503
90	0xbd6e61e5	-0.05819883
91	0xbd1e1706	-0.038596176
92	0xbd7cff27	-0.06176677
93	0x3e49476b	0.1965615
94	0x3e0d9395	0.1382583
95	0xbe0bc8d1	-0.13650824
96	0x3ddca54c	0.107737154
97	0x3d1b984d	0.037987042
98	0x3d80f1b2	0.062961
99	0xbd532df2	-0.05155749
100	0x3e1248ca	0.1428558
101	0xbdae5dc6	-0.085139796
102	0x3de8b442	0.113625064
103	0x3dd30cda	0.103051856
104	0x3c86c599	0.016451644
105	0xbdc9986f	-0.098435275
106	0x3d9cacc0	0.07650137
107	0x3e25a95e	0.1617789
108	0x3cc7d06d	0.024391377
109	0xbdb43f95	-0.0880119
110	0x3e07972e	0.13241264
111	0xbc0b6c85	-0.00850976
112	0x3d91dbf9	0.071220346
113	0x3dc1d4e2	0.09464432
114	0xbd5e4001	-0.054260258
115	0xbd8b80e5	-0.06811694
116	0xbe040722	-0.12893346
117	0xbd1f80bb	-0.038941126
118	0xbd49232d	-0.049105812
119	0xbdbd5cfa	-0.092462495
120	0x3e0d99ac	0.13828152
121	0xbd015cfc	-0.031582817
122	0xbdd8cb75	-0.10585681
123	0x3d6f9085	0.058487434
124	0x3cfdc4f7	0.03097771
125	0x3e1a8b8e	0.15092298
126	0x3df782ac	0.120854706
127	0xbe005304	-0.12531668

lstm.weight_ih_l1 f4 [128, 32]
0	0xbe11b896	-0.1423057
1	0xbcc9711d	-0.02459007
2	0xbd69c6ce	-0.05707436
3	0xbdbbb062	-0.09164502
4	0x3d154bd7	0.03644928
5	0x3e1e5d9a	0.15465394
6	0x3c36eae4	0.011164401
7	0x3d35da2b	0.044397514
8	0x3cf001cf	0.029297737
9	0xbe778012	-0.24169949
10	0xbcdfbd16	-0.027311843
11	0xbdb22399	-0.08698196
12	0xbe63dc00	-0.22251892
13	0xbe49e61c	-0.19716686
14	0xbdd3e865	-0.1034706
15	0x3e62f9f8	0.22165668
16	0x3e6a92e1	0.22907592
17	0x3dcd7e54	0.10033861
18	0x3ccda208	0.025101677
19	0x3c5f8f12	0.01364495
20	0x3cd0ae86	0.025473844
21	0x3e50daa5	0.20395906
22	0xbde5b700	-0.11216545
23	0xbd772a03	-0.0603428
24	0xbe317737	-0.17330633
25	0xbe74ee0f	-0.23918937
26	0x3c5b23a0	0.013375193
27	0xbdbc508d	-0.09195051
28	0xbd43bae0	-0.04778564
29	0x3d8078bc	0.06273028
30	0xbca4a644	-0.020098813
31	0x3e2c50c4	0.16827685
32	0x3cd2be99	0.02572565
33	0x3bda533c	0.0066627543
34	0x3d5943a5	0.053043026
35	0xbca6e94c	-0.020374916
36	0xbe0e45e6	-0.13893852
37	0x3d5bc4da	0.05365453
38	0x3d0fbbc3	0.035091173
39	0x3eea8f55	0.4581248
40	0xbe9e9a94	-0.3097731
41	0xbde6a1bb	-0.112613164
42	0xbd918366	-0.071051404
43	0xbd03e835	-0.03220387
44	0xbe6a56fd	-0.22884746
45	0x3cf10bb5	0.029424528
46	0xbeb2cd08	-0.3492205
47	0xbcb37cb0	-0.021910042
48	0x3e222d53	0.15837602
49	0xbdf85870	-0.12126243
50	0xbe20f1c0	-0.1571722
51	0x3e37467a	0.17897978
52	0xbdcd0a64	-0.100117475
53	0xbccb7829	-0.02483757
54	0xbdbd339e	-0.09238361
55	0xbdb1d6b2	-0.08683528
56	0xbe18ef94	-0.14935142
57	0xbde1357e	-0.10996531
58	0xbc9d3165	-0.019188592
59	0x3c7f3eac	0.015578907
60	0xbd6d5103	-0.057938587
61	0x3c7fb44b	0.01560695
62	0x3b5cd0a1	0.0033693688
63	0xbd882053	-0.0664679
64	0xbd21c93b	-0.03949855
65	0x3bd34964	0.006447958
66	0x3de11ff9	0.109924264
67	0xbe1a309e	-0.15057608
68	0x3d7fcee5	0.06245317
69	0xbcd3ae24	-0.025839873
70	0x3de9cbe8	0.11415845
71	0x3eb21e4c	0.3478874
72	0xbdba573e	-0.090986714
73	0xbe56a439	-0.20961083
74	0xbdd66302	-0.10468103
75	0x3dcc04da	0.09961863
76	0xbdc37002	-0.09542848
77	0xbe250207	-0.16114055
78	0xbe4026c8	-0.18764794
79	0x3e7ecd2e	0.24882957
80	0x3d9e9779	0.07743735
81	0x3e245e8e	0.16051695
82	0xbe3fed31	-0.18742825
83	0xbe19c853	-0.15017824
84	0x3e66fd3d	0.2255754
85	0x3e1a0c29	0.15043701
86	0xbd96358b	-0.07334431
87	0x3d861016	0.06546037
88	0xbddc515d	-0.10757706
89	0x3be51f61	0.006992266
90	0x3e3c9ad8	0.18418443
91	0xbe0eff0f	-0.13964485
92	0x3cf661a0	0.030075848
93	0x3ea16b5f	0.3152723
94	0xbd9023ef	-0.07038104
95	0x3e2d7318	0.16938436
96	0xbe0d5186	-0.1380063
97	0x3d90f2c4	0.07077554
98	0x3e0f479f	0.13992165
99	0x3e52e8da	0.20596638
100	0xbaa70333	-0.0012742042
101	0xbc1e3842	-0.009656968
102	0xbe01ddb8	-0.12682235
103	0x3e588895	0.21145852
104	0x3d88a8dd	0.06672833
105	0x3de4fbaa	0.111808136
106	0x3e1dcede	0.15410945
107	0x3e08a02f	0.13342355
108	0x3e4df454	0.20112735
109	0x3dad2eb6	0.08456175
110	0xbe941419	-0.28921583
111	0x3e61c955	0.22049458
112	0x3e564e34	0.2092827
113	0x3e696a75	0.22794516
114	0xbc98e062	-0.018661682
115	0xbc9a56f2	-0.018840287
116	0x3e8e7c00	0.2782898
117	0x3db8ad37	0.09017413
118	0x3e0919a0	0.13388681
119	0x3cf7263d	0.0301696
120	0xbc2b2515	-0.010445853
121	0xbe754633	-0.2395256
122	0x3db20635	0.0869259
123	0x3c00d5bf	0.007863461
124	0x3e031a32	0.12802961
125	0x3c026ed0	0.00796099
126	0x3e4aae96	0.19793162
127	0x3dc44469	0.09583361
128	0x3d9e1267	0.07718354
129	0xbe34fd38	-0.1767472
130	0xbda19d6b	-0.07891353
131	0x3d88fc5b	0.06688758
132	0xbdc58624	-0.09644726
133	0x3daa2c52	0.08309235
134	0x3c55614e	0.0130236875
135	0x3e5e3d60	0.217031
136	0xbe503422	-0.20332387
137	0x3dc0d0b8	0.0941481
138	0x3db66903	0.08906748
139	0xbd9d0952	-0.07667793
140	0x3d630b1f	0.055430528
141	0xbe50c936	-0.20389256
142	0xbe589faf	-0.21154664
143	0x3cce35fd	0.025172228
144	0x3c91b908	0.017788425
145	0x3e67b97a	0.22629347
146	0x3e815ff4	0.2526852
147	0xbe15bf24	-0.14623696
148	0x3c195a01	0.0093598375
149	0x3e0ca1ad	0.1373355
150	0x3d9af6ee	0.07566629
151	0xbe6c16ec	-0.23055619
152	0xbe8dffb8	-0.2773416
153	0xbe49ab78	-0.19694316
154	0x3e9157dc	0.28387344
155	0xbe38da79	-0.1805209
156	0x3e104134	0.14087373
157	0x3db3fd3e	0.087885365
158	0x3ae98089	0.0017814796
159	0xbc9b99cc	-0.018994235
160	0xbccfcd54	-0.025366463
161	0x3c774088	0.015091069
162	0x3e1ffccf	0.15623783
163	0xbdd58fe4	-0.104278356
164	0xbe1a953d	-0.15095992
165	0x3e4e343a	0.2013711
166	0x3e00b67c	0.12569612
167	0x3e33d047	0.1755992
168	0xbe00e82f	-0.12588571
169	0xbe018952	-0.1265004
170	0xbdad47c6	-0.08460955
171	0xbdcaa384	-0.098944694
172	0xbd12b533	-0.035817336
173	0xbe71ee57	-0.23626076
174	0xbd966339	-0.07343144
175	0xbcf2e09c	-0.029648118
176	0x3da5ba48	0.08092171
177	0xbd1de067	-0.038544085
178	0x3e096c5c	0.13420242
179	0x3e24a8e8	0.16080058
180	0xbd87e024	-0.06634548
181	0x3c8a46b4	0.016879417
182	0xbe0cc89b	-0.137484
183	0xbde0607d	-0.10955904
184	0xbea45254	-0.3209406
185	0xbe2eb72f	-0.17062066
186	0x3eb1c74a	0.34722358
187	0x3c90ed27	0.017691208
188	0x3e99c8c2	0.3003598
189	0x3d8f9932	0.070116416
190	0x3d15e41d	0.0365945
191	0xbdbee7de	-0.09321569
192	0xbddf8d30	-0.10915601
193	0xbdf67776	-0.12034504
194	0xbe4cee61	-0.2001281
195	0xbe5afa61	-0.21384574
196	0xbe623f7d	-0.22094531
197	0xbd902fa0	-0.07040334
198	0x3dad9d34	0.0847725
199	0x3e07aba2	0.13249066
200	0xbddb4d82	-0.10708143
201	0xbdfd8a03	-0.12379839
202	0x3e8972df	0.26845452
203	0xbc0b9892	-0.008520262
204	0xbe4c8846	-0.19973859
205	0x3c22dc97	0.009940288
206	0xbe2d82ef	-0.16944478
207	0x3e1dc52d	0.15407248
208	0xbd914ef9	-0.07095141
209	0x3e6f1e73	0.23351459
210	0xbc5d93fe	-0.013524054
211	0xbd9d43b4	-0.07678929
212	0x3e3f0f96	0.1865829
213	0xbdeb4910	-0.11488545
214	0x3dcd3be0	0.10021186
215	0x3d3d8e31	0.046278182
216	0xbe877277	-0.26454517
217	0xbe2561f5	-0.16150649
218	0x3dc204c1	0.09473563
219	0xbcf3c5f1	-0.029757472
220	0xbc8d2e15	-0.017233888
221	0x3d9dfa19	0.07713718
222	0x3d909175	0.07058994
223	0x3e8cc6fc	0.27495563
224	0x3e0da1ab	0.13831203
225	0xbdaa2564	-0.08307913
226	0xbd04d530	-0.032429874
227	0x3d83941a	0.064247325
228	0xbe1cf84b	-0.15329091
229	0x3e1eafcc	0.15496749
230	0xbc4e21e2	-0.0125813205
231	0x3e82a13b	0.25513634
232	0x3d21533e	0.039386027
233	0x3c4a3671	0.012342081
234	0x3db4f04a	0.08834894
235	0xbdd2ad43	-0.10286953
236	0xbe8b3c82	-0.271946
237	0xbd336218	-0.04379472
238	0xbd97dc10	-0.074150205
239	0x3dc9118f	0.09817802
240	0xbca31428	-0.019907072
241	0xbdd44f79	-0.10366721
242	0xba4fdb0a	-0.00079290627
243	0xbd047fd7	-0.03234848
244	0x3e0ad596	0.13558039
245	0x3e33ff3e	0.17577836
246	0x3bdf55b9	0.006815639
247	0xbe444ddc	-0.19170326
248	0xbe69fa32	-0.22849348
249	0xbe256f08	-0.16155636
250	0x3cea0eba	0.028571475
251	0xbe2a73d3	-0.16645746
252	0x3c8cd659	0.017192053
253	0xbde6e54e	-0.11274205
254	0xbdfe2bca	-0.12410696
255	0x3ea40059	0.32031515

lstm.weight_hh_l1 f4 [128, 32]
0	0x3c794be8	0.015215851
1	0xbdf3c0fb	-0.119020425
2	0x3d2db967	0.04241314
3	0xbcf9f3f7	-0.03051184
4	0xbd79b26a	-0.060961165
5	0x398d566e	0.0002695801
6	0x3e108039	0.14111413
7	0xbdc29ef5	-0.09502975
8	0x3df1186b	0.117722355
9	0x3e566a99	0.20939101
10	0xbd0b59e2	-0.034021266
11	0xbc6c4e81	-0.014423014
12	0x3c8df012	0.017326389
13	0xbd9450d5	-0.0724198
14	0x3dcd6d54	0.10030618
15	0x3e490a56	0.19632849
16	0xbcad691c	-0.021168284
17	0xbb8a9484	-0.00422913
18	0xbd4f2798	-0.05057487
19	0xbdb908b3	-0.09034862
20	0xbcab551f	-0.020914612
21	0xbe19eacd	-0.15030976
22	0x3d431018	0.04762277
23	0xbe52276f	-0.20522855
24	0x3e0fd02a	0.14044252
25	0xbda365d0	-0.079784036
26	0xbe027c60	-0.12742758
27	0xbda51eb2	-0.08062495
28	0x3d83f02d	0.06442294
29	0xbd31958e	-0.043355517
30	0xbe49d1ad	-0.19708891
31	0x3d1236af	0.03569668
32	0x3e06e1f6	0.13172135
33	0x3d03f697	0.03221759
34	0xbba54072	-0.005043083
35	0x3dc6ad36	0.09701006
36	0xbcff3812	-0.031154666
37	0x3c01343f	0.007885992
38	0xbe623b32	-0.22092894
39	0xbe7b3db7	-0.24535261
40	0x3e23e437	0.16005026
41	0xbce7fd3a	-0.02831899
42	0x3d7ef4e9	0.062245283
43	0xbe113603	-0.1418076
44	0xbd0b34a2	-0.03398574
45	0x3db67f4e	0.08911
46	0x3e810b40	0.25203896
47	0x3d8bf23d	0.06833313
48	0x3d9a17e9	0.07524092
49	0x3e0a291b	0.13492243
50	0xbe69fec9	-0.22851099
51	0xbbc4c34f	-0.006004728
52	0xbcaebd2c	-0.021330439
53	0x3e7c9797	0.24667202
54	0xbe84104e	-0.2579369
55	0xbe83f6b0	-0.25774145
56	0x3e44e3c5	0.19227512
57	0xbda93843	-0.08262684
58	0x3e07403a	0.13208094
59	0xbe63d982	-0.22250941
60	0x3e3e9d9a	0.18614808
61	0x3d075e4a	0.033048905
62	0xbec59a3e	-0.3859424
63	0xbe4e7587	-0.2016202
64	0x3e5b537f	0.2141857
65	0x3ce278a2	0.027645413
66	0x3d3cdc43	0.046108495
67	0x3e4219b6	0.1895512
68	0x3c3e8ae5	0.011629795
69	0x3ded1a98	0.11577338
70	0xbe5fc061	-0.2185073
71	0xbea06416	-0.3132636
72	0x3b9d42b4	0.0047992114
73	0x3e7f0c2d	0.24906988
74	0x3daa48e1	0.08314682
75	0xbd6fc84f	-0.05854064
76	0xbdf1e21a	-0.118107036
77	0xbc5a184c	-0.013311457
78	0xbcb75bfe	-0.022382732
79	0xbd330b73	-0.04371209
80	0x3e3af709	0.18258299
81	0x3d0ea2ef	0.034823354
82	0xbcd2e998	-0.025746152
83	0x3df73b89	0.12071902
84	0xbc8219d0	-0.015881449
85	0xbd431bb8	-0.047633857
86	0x3cfa3023	0.030540532
87	0xbe1f4891	-0.15555026
88	0x3e156314	0.14588577
89	0x3ca12553	0.019671118
90	0x3e18e6c2	0.14931777
91	0xbe4a1089	-0.1973287
92	0xb8a7875c	-7.988393e-05
93	0x3daacb26	0.08339529
94	0xbddb5233	-0.10709038
95	0xbd768edf	-0.060194846
96	0x3db45381	0.088049896
97	0x3e003bff	0.12522887
98	0xbd3380d9	-0.04382405
99	0xbcb76d1d	-0.022390896
100	0x3dd98b99	0.10622329
101	0x3d611cc3	0.05495907
102	0xbe487987	-0.19577609
103	0x3cda24f1	0.026628943
104	0x3e9b0c9b	0.30283055
105	0x3d7c2c6d	0.061565805
106	0xbe032446	-0.12806806
107	0x3bbcb2c0	0.0057586133
108	0xbd29d164	-0.041459456
109	0x3e0c0c01	0.13676454
110	0xbca29c19	-0.019849824
111	0xbe165a17	-0.14682804
112	0xb979c26a	-0.00023818915
113	0x3e291cb4	0.16514856
114	0x3d181640	0.037130594
115	0xbe360b83	-0.17777829
116	0x3e019652	0.12654999
117	0xbd4547c8	-0.04816416
118	0xbe156a8b	-0.14591424
119	0xba15ee92	-0.00057194487
120	0xbdb2349e	-0.08701442
121	0xbe0135a3	-0.12618117
122	0x3dcc6f8b	0.09982213
123	0x3dc468ae	0.095902786
124	0xbd771d92	-0.060330935
125	0xbccb2a65	-0.024800489
126	0xbc3ea7b8	-0.011636667
127	0xbd3829d0	-0.04496175
128	0x3d0768d3	0.033058953
129	0xbd4b2363	-0.049594294
130	0x3dba618f	0.09100639
131	0x3d27c133	0.040955734
132	0x3b9cce3b	0.004785327
133	0xbd92f475	-0.07175533
134	0x3da29b89	0.07939822
135	0x3dc171e8	0.09445554
136	0xbde4d7c4	-0.111739665
137	0x3c028ed7	0.007968626
138	0xbe0ae189	-0.13562597
139	0xbcbf55be	-0.023356315
140	0x3e01f506	0.12691125
141	0x3bebadfe	0.0071923723
142	0xbd9027e4	-0.070388585
143	0x3dffe70f	0.12495243
144	0xbda4500f	-0.080230825
145	0xbdb2d218	-0.087314785
146	0x3c75cf44	0.015003029
147	0x3e314dd1	0.17314841
148	0xbe08095e	-0.13284823
149	0x3d16fa47	0.036859777
150	0xbda09a8a	-0.07841976
151	0xbd803c1c	-0.06261465
152	0xbd27fca4	-0.04101242
153	0x3de00422	0.10938288
154	0xbd47318c	-0.048631236
155	0xbde1ac39	-0.11019177
156	0x3df7970b	0.12089356
157	0xbdeb6ac6	-0.11494975
158	0x3d8fdd4d	0.07024632
159	0xbdc78919	-0.09742946
160	0x3cbb058a	0.02282979
161	0x3dd5dbcc	0.104423136
162	0xbe17e24b	-0.14832418
163	0x3e7205db	0.23635046
164	0x3d054b34	0.032542422
165	0xbd9ad7fe	-0.075607285
166	0xbe4eb004	-0.20184332
167	0x3d730d3d	0.059338797
168	0x3e29e19b	0.16589968
169	0x3d100524	0.035161152
170	0x3e2b4f22	0.16729406
171	0xbe1a9116	-0.15094408
172	0xbba347f7	-0.004982944
173	0xbcdd07cc	-0.026981257
174	0xbd4c3e2e	-0.049863987
175	0xbdf56f47	-0.11984115
176	0xbd153ec3	-0.036436807
177	0x3e129e53	0.14318208
178	0xbe679ec6	-0.22619161
179	0x3ca0504e	0.019569542
180	0xbd13c0ec	-0.036072657
181	0xbcdecbe2	-0.027196828
182	0xbe18b6c1	-0.14913465
183	0xbc81725d	-0.015801603
184	0xbd91acf3	-0.071130656
185	0xbdd8b603	-0.10581591
186	0xbda3aa3f	-0.07991456
187	0xbe5172c0	-0.2045393
188	0x3e50f76c	0.20406884
189	0x3d7dd840	0.06197381
190	0xbebe7d16	-0.37204808
191	0xbdd99ef7	-0.10626023
192	0x3de09173	0.10965242
193	0xbe20a599	-0.1568817
194	0x3dc52875	0.09626857
195	0x3dbc30e0	0.0918901
196	0xbdc398e5	-0.09550647
197	0xbdc95a88	-0.098317206
198	0x3df3df08	0.11907774
199	0x3dbf15a4	0.093302995
200	0x3db938da	0.09044047
201	0x3c22bba7	0.009932435
202	0x3e1d859e	0.15383002
203	0xbd86811e	-0.06567596
204	0xbd00c7b9	-0.03144047
205	0xbe17334e	-0.14765665
206	0xbd8ebad6	-0.0696923
207	0x3d59f0ec	0.053208277
208	0x3d93ae10	0.07210934
209	0xbe07c5a1	-0.13258983
210	0x3df6ec08	0.12056738
211	0x3cc1e55e	0.023668941
212	0x3bada218	0.005298864
213	0xbe209134	-0.1568039
214	0xbca02124	-0.019547053
215	0x3e122349	0.14271273
216	0xbe48d512	-0.1961253
217	0x3d3e60c8	0.046479017
218	0x3a9a6333	0.0011778831
219	0xbcb88719	-0.022525357
220	0xbc908490	-0.017641336
221	0x3e0ae85d	0.13565202
222	0xbe49e00a	-0.1971437
223	0xbd8d4cfc	-0.06899449
224	0xbdd8648f	-0.10566055
225	0xbe07285e	-0.13198993
226	0xbd428692	-0.047491618
227	0x3e203425	0.15644892
228	0x3e41e8ab	0.18936412
229	0xbdf3c8f2	-0.11903562
230	0xbdf34d9c	-0.11880037
231	0xbd87b14b	-0.06625613
232	0xbe048c0c	-0.12944049
233	0xbd0e3d21	-0.034726266
234	0x3d97c71a	0.074110225
235	0xbcd932d3	-0.026513493
236	0xbc4a135d	-0.012333718
237	0xbd8dd924	-0.06926182
238	0x3d4236f1	0.047415677
239	0xbdde074d	-0.10841236
240	0xbe0c7e41	-0.13720037
241	0x3dbb7a0b	0.09154137
242	0x3d386617	0.045019235
243	0x3c08a5aa	0.008340279
244	0xbd98d32d	-0.074621536
245	0xbcb1296f	-0.021626202
246	0xbe0ba4c8	-0.13637078
247	0xbd82ad67	-0.0638073
248	0x3cd38e52	0.0258247
249	0x3e084765	0.13308485
250	0xbe4998d4	-0.19687206
251	0x3d23b852	0.039970703
252	0xbd947ad8	-0.07249993
253	0x3e2f8493	0.17140417
254	0xbc644558	-0.013932548
255	0xbcebdca9	-0.028791742

lstm.bias_ih_l1 f4 [128]
0	0x3e6c62f6	0.23084626
1	0x3e964fac	0.2935766
2	0x3e78f949	0.24313845
3	0xbd398cc1	-0.04530025
4	0x3e1d0623	0.15334372
5	0x3e85078c	0.2598232
6	0x3ccb3f12	0.024810348
7	0x3d34a98e	0.044107012
8	0x3df69a64	0.120411664
9	0x3e6eaa8c	0.23307246
10	0x3bc9593a	0.00614467
11	0x3dee72e0	0.116430044
12	0xbd9a759b	-0.07541963
13	0x3bf95b9e	0.0076097986
14	0x3dd58895	0.104264416
15	0x3d72e5a0	0.05930102
16	0x3e52948d	0.2056448
17	0x3e979b5d	0.2961072
18	0x3de5eac4	0.112264186
19	0x3eb1b69e	0.34709638
20	0x3e030dcb	0.1279823
21	0x3e68e862	0.22744897
22	0x3e1bada3	0.15202956
23	0x3d28c247	0.041200902
24	0x3d94e345	0.07269911
25	0x3d9146f9	0.07093615
26	0x3e54898f	0.207556
27	0xbd7fa799	-0.062415693
28	0x3ea9a697	0.3313491
29	0x3e15a64d	0.1461422
30	0x3e810f65	0.25207058
31	0xbd1d2099	-0.038361166
32	0x3cd61baf	0.026136247
33	0x3e62a423	0.22132926
34	0x3e712ed6	0.23553023
35	0x3e51ed99	0.20500793
36	0xbd44c3d1	-0.048038308
37	0x3d820cd2	0.063501015
38	0x3e6d38a3	0.23166136
39	0x3be8a58c	0.007099813
40	0x3d3ab551	0.045583073
41	0x3e24c66b	0.16091315
42	0xbb9ce69d	-0.0047882334
43	0x3bfe56e9	0.0077618253
44	0xbc7e10b9	-0.015506917
45	0x3dd40c13	0.103538655
46	0x3e3cab7f	0.18424796
47	0x3dadd3d2	0.08487667
48	0x3e53dbc4	0.20689303
49	0x3e071f5c	0.13195556
50	0x3dde0580	0.10840893
51	0x3e7a8336	0.24464116
52	0x3ca0b600	0.019618034
53	0x3df8b911	0.121446736
54	0x3daf0905	0.08546642
55	0x3dafa116	0.085756466
56	0x3c392a9a	0.011301661
57	0x3d9e8527	0.077402405
58	0x3da7b4e3	0.08188798
59	0xbd7ff21e	-0.06248676
60	0x3d1aa1cb	0.037751954
61	0x3e4cfd5b	0.20018522
62	0x3dd7231c	0.105047435
63	0x3b66fa26	0.0035244315
64	0xbe23857e	-0.15968892
65	0x3e3f9f75	0.18713172
66	0xbe286279	-0.16443814
67	0x3c0b27d1	0.00849338
68	0xbdffa486	-0.12482552
69	0x3c99cafb	0.018773546
70	0xbda6c5c3	-0.08143189
71	0xbdb38b62	-0.087668195
72	0xbd277710	-0.04088503
73	0xbe61663c	-0.22011656
74	0x3e09af60	0.13445807
75	0x3ddfdd3a	0.109308675
76	0xbd3af03e	-0.04563927
77	0x3ddea38d	0.108710386
78	0x3e50ee3c	0.20403379
79	0xbd1b3e7f	-0.037901398
80	0xba4cdf24	-0.0007815233
81	0x3db209bf	0.08693265
82	0xbe2cf755	-0.16891225
83	0xbe7c2da6	-0.24626788
84	0x3de9374a	0.11387499
85	0x3ddf85c9	0.10914189
86	0xbe45f8c1	-0.19333173
87	0xbd5c3399	-0.053760145
88	0xbe1bbd60	-0.1520896
89	0xbd186f51	-0.037215535
90	0xbd534860	-0.051582694
91	0xbe261263	-0.16217951
92	0xbe18b4d6	-0.14912733
93	0xbe36896c	-0.1782586
94	0x3cd3f468	0.025873378
95	0x3e09ec8d	0.13469143
96	0x3ef84eec	0.48497713
97	0x3ec95ceb	0.39328703
98	0x3e824318	0.25441813
99	0x3e54d853	0.20785646
100	0x3e95a5e6	0.29228133
101	0x3e8fee01	0.2811127
102	0x3eeaf931	0.45893243
103	0x3e8ff638	0.28117537
104	0x3e9f1aa5	0.31075016
105	0x3ead54aa	0.33853656
106	0x3e96ea27	0.2947552
107	0x3e42b6f1	0.19015099
108	0x3e1aed66	0.15129623
109	0x3d6e198e	0.05812984
110	0x3e6529dc	0.2237925
111	0x3d1293a9	0.03578535
112	0x3e71f7dc	0.23629707
113	0x3e92324c	0.28553998
114	0x3d7fdbd1	0.062465493
115	0x3e25aad6	0.1617845
116	0x3e797008	0.24359143
117	0x3dd8b9fc	0.10582349
118	0x3cae2778	0.021259055
119	0xbd976f8e	-0.07394324
120	0x3efe2257	0.49635574
121	0x3e918945	0.2842504
122	0x3eeaea66	0.45881957
123	0x3df7d478	0.12101072
124	0x3e426fe6	0.18987998
125	0x3bbecf04	0.005823018
126	0x3f285f82	0.65770733
127	0x3ddc651f	0.10761475

lstm.bias_hh_l1 f4 [128]
0	0x3e2d0ea4	0.16900116
1	0x3eb5fee0	0.35546017
2	0x3e5861d4	0.21131068
3	0x3e8b3a41	0.27192882
4	0x3de8074d	0.113295175
5	0x3e980fb0	0.2969947
6	0x3e120baa	0.14262262
7	0xbccb0b98	-0.024785802
8	0x3e02689b	0.12735216
9	0x3d8af741	0.06785441
10	0x3e8d5c13	0.2760931
11	0x3ea3793a	0.31928426
12	0xbc9427cf	-0.018085388
13	0x3c52c3cf	0.012864067
14	0x3e8d5f1b	0.27611622
15	0xbd7b6654	-0.061376885
16	0x3e636f8b	0.22210519
17	0x3e738fed	0.23785372
18	0x3e665d17	0.22496448
19	0x3ea56d64	0.3231002
20	0x3e276dab	0.16350429
21	0x3e1db5bc	0.15401357
22	0x3e479d91	0.194937
23	0x3c125865	0.008932208
24	0x3e1063e1	0.14100601
25	0x3d6acaa3	0.057322156
26	0x3db38c07	0.087669425
27	0xbe81ab79	-0.25326136
28	0x3e5ff5c3	0.21871094
29	0x3d208ce8	0.03919688
30	0x3e45c004	0.1931153
31	0xbe0347a8	-0.12820303
32	0x3e50a776	0.20376381
33	0x3db41f73	0.08795061
34	0x3e1eddf6	0.15514359
35	0x3d98f208	0.07468039
36	0xbd8ed3ad	-0.06973968
37	0x3dc749b3	0.09730854
38	0x3e1fec55	0.15617497
39	0xbc91c808	-0.017795578
40	0xbe05e40b	-0.13075273
41	0x3e13d11d	0.14435239
42	0xbd1508b1	-0.036385242
43	0xbcfaf225	-0.030633042
44	0xbe11e6e7	-0.14248239
45	0x3d8cb2ed	0.06870065
46	0x3e1fac9d	0.1559319
47	0xbcb5c585	-0.022188911
48	0x3e242266	0.16028747
49	0x3d894616	0.06702821
50	0x3e44d867	0.19223176
51	0x3e04a246	0.12952527
52	0x3e87e7d9	0.26544073
53	0xbd0e0820	-0.034675717
54	0x3e372dcf	0.17888568
55	0x3dc4902e	0.095978126
56	0xbd1345e8	-0.03595534
57	0x3e7e2d23	0.24821906
58	0x3e160747	0.14651214
59	0x3d24330b	0.04008774
60	0xbc07b28d	-0.008282316
61	0x3deba5f4	0.115062624
62	0xbda941c6	-0.082644984
63	0xbc46fdb2	-0.012145447
64	0x3d3e45df	0.046453353
65	0x3dd6ea69	0.10493929
66	0xbe68ff45	-0.22753628
67	0x3df5d543	0.12003567
68	0xbe333239	-0.17499627
69	0x3e0bebe5	0.13664205
70	0xbdc782b7	-0.09741729
71	0xbca2209b	-0.019790938
72	0x3d998d6e	0.07497679
73	0x3d654cbb	0.05598138
74	0x3ce49536	0.02790318
75	0x3cc3a2cc	0.023881339
76	0x3df92ded	0.12166963
77	0x3dfca3a3	0.12335899
78	0x3e1cf696	0.1532844
79	0xbd8071f5	-0.062717356
80	0xbdaaf159	-0.08346815
81	0x3cf9a839	0.030475723
82	0xbe41af95	-0.18914635
83	0xbe128910	-0.14310098
84	0x3d4e9daa	0.05044333
85	0x3e2b9c23	0.1675878
86	0xbde4416a	-0.11145289
87	0xbdf37b20	-0.118887186
88	0x3da8f8d8	0.08250588
89	0xbe01d031	-0.12677075
90	0x3e22c360	0.15894842
91	0xbdb8fd8c	-0.09032735
92	0xbd0b1d57	-0.033963528
93	0xbd921bb7	-0.071341924
94	0x3e218b35	0.1577576
95	0xbd969e55	-0.07354418
96	0x3e99714c	0.2996925
97	0x3ed22713	0.41045436
98	0x3e5c6670	0.21523452
99	0xbc411eac	-0.011787098
100	0x3e408e71	0.18804337
101	0x3e72a550	0.23695874
102	0x3ee043bf	0.43801686
103	0x3e82a88c	0.25519216
104	0x3f0ebb94	0.5575497
105	0x3ea525aa	0.32255298
106	0x3e8d3fa1	0.27587608
107	0x3eb17719	0.34661177
108	0x3d9ccd71	0.07656372
109	0x3e46e2f0	0.19422507
110	0xbd7760a6	-0.060394906
111	0xbda3b061	-0.07992626
112	0x3e8e468f	0.27788207
113	0x3e993236	0.2992112
114	0x3bbd5d6e	0.00577896
115	0x3e75aa6c	0.23990792
116	0x3e8d006b	0.2753938
117	0x3d9eda7c	0.07756516
118	0x3dc89c29	0.0979541
119	0x3d835e3a	0.06414457
120	0x3ec84edd	0.39122668
121	0x3e6b1514	0.2295726
122	0x3e3e0a99	0.1855873
123	0x3e531ce6	0.20616493
124	0x3e913143	0.28357896
125	0x3ea4f67f	0.32219312
126	0x3f0897a1	0.5335637
127	0x3e703d28	0.2346083

fc.weight f4 [3, 32]
0	0xbf85b46e	-1.0445688
1	0x3f621ab4	0.88321996
2	0xbf777395	-0.9666074
3	0x3f5a55d2	0.852872
4	0xbf85b1ca	-1.0444882
5	0x3f84ecb6	1.0384738
6	0x3f87a189	1.0596172
7	0x3f92cf60	1.1469536
8	0xbf927e0b	-1.1444715
9	0xbf918c59	-1.1370956
10	0x3f72ed01	0.9489289
11	0x3f915ac0	1.135582
12	0x3f6a4e7d	0.91526014
13	0x3f8975ab	1.0739034
14	0x3f880adc	1.0628314
15	0x3f7daca0	0.9909153
16	0xbf84e242	-1.0381548
17	0x3f90d336	1.1314456
18	0xbf7aeef3	-0.9802086
19	0xbf868a09	-1.0510875
20	0x3f6b6106	0.9194492
21	0x3f8c0c48	1.0941248
22	0xbf85c843	-1.045174
23	0xbf831839	-1.0241767
24	0xbf876864	-1.0578732
25	0xbf8be65c	-1.0929675
26	0x3f920d9d	1.1410404
27	0xbf839a8a	-1.0281537
28	0xbf8ad7f3	-1.0847152
29	0xbf8035e3	-1.0016445
30	0x3f77dd0a	0.96821654
31	0x3f6e0f84	0.92992425
32	0xbf7ad3b7	-0.979793
33	0x3f750d93	0.9572384
34	0xbf6dec9c	-0.9293916
35	0x3f7b0cfe	0.980667
36	0xbf8ffdf0	-1.124937
37	0x3f8cd3f8	1.1002188
38	0x3f83cbdf	1.0296592
39	0x3f845147	1.0337304
40	0xbf8a6bed	-1.0814186
41	0xbf91b1d4	-1.1382394
42	0x3f72cf36	0.9484743
43	0x3f8d66c5	1.1046988
44	0x3f894be1	1.0726281
45	0x3f6d8b27	0.92790455
46	0x3f7cf956	0.98817956
47	0x3f899dee	1.0751321
48	0xbf85c527	-1.0450791
49	0x3f8c40c3	1.0957264
50	0xbf87085c	-1.0549426
51	0xbf593c73	-0.84857863
52	0x3f8d0313	1.1016563
53	0x3f78f363	0.9724638
54	0xbf739912	-0.9515544
55	0xbf8dd614	-1.1080956
56	0xbf70d60b	-0.94076604
57	0xbf8854c0	-1.0650864
58	0x3f867b03	1.050629
59	0xbf83517d	-1.0259243
60	0xbf917034	-1.1362367
61	0xbf8ab4ad	-1.0836388
62	0x3f9180f6	1.1367481
63	0x3f860c3f	1.0472487
64	0xbf9483f1	-1.1602765
65	0x3f87bc39	1.0604316
66	0xbf827040	-1.0190506
67	0x3f87e09a	1.0615418
68	0xbf6ac738	-0.91710234
69	0x3f8b5383	1.0884861
70	0x3f7ed118	0.995378
71	0x3f91a5d3	1.137873
72	0xbf8fe902	-1.1242983
73	0xbf87f912	-1.0622885
74	0x3f90d4e3	1.1314968
75	0x3f85eb15	1.0462366
76	0x3f8b2008	1.086915
77	0x3f5f5c5c	0.87250304
78	0x3f7dbb68	0.99114084
79	0x3f883bc7	1.0643243
80	0xbf856133	-1.0420288
81	0x3f90bef5	1.1308275
82	0xbf752501	-0.9575959
83	0xbf8361c4	-1.0264211
84	0x3f8ab452	1.0836279
85	0x3f84651f	1.034336
86	0xbf618cdb	-0.88105553
87	0xbf8e2cd9	-1.1107436
88	0xbf8dc31f	-1.1075171
89	0xbf7ca9ce	-0.986966
90	0x3f689df5	0.90866023
91	0xbf833f0b	-1.0253614
92	0xbf725040	-0.946537
93	0xbf7a4783	-0.9776537
94	0x3f8927e7	1.0715302
95	0x3f8b201d	1.0869175

fc.bias f4 [3]
0	0x3f80d807	1.0065926
1	0x3f7724e5	0.9654067
2	0x3f54ecb6	0.8317369
