models/cloud_ann_model.pth (torch, 48792 bytes, 6 tensors)

model.0.weight f4 [32, 322]
000000 54 4e 6b 3d 54 da a2 3d fc 22 3c 3e 05 d1 59 be
       0.057447746 0.07951799 0.1837272 -0.21271141
000010 df d0 0f bf 6a b3 d6 3d 31 fe fc 3d 05 c9 66 3d
       -0.56178087 0.10483439 0.12353171 0.05634405
000020 a0 27 3d be 75 96 08 3e b6 51 9b be 6d bd 7c 3e
       -0.18472147 0.13338645 -0.30335778 0.24681635
000030 23 c9 bf 3c 18 be 02 3e 21 43 2e 3d a8 cd 25 3e
       0.02341134 0.12767828 0.042544488 0.16191733
000040 4a d8 bc 3c f5 35 96 3d 43 14 08 3e 79 bf 13 bd
       0.023052353 0.0733451 0.13288979 -0.036071274
000050 4d 6a 40 3e 38 95 84 bd 22 e4 d4 bd b0 25 51 be
       0.1879055 -0.06473774 -0.103950754 -0.20424533
000060 bc 8f 17 be 60 9c 0a 3e 1e 63 86 be 19 c8 52 3d
       -0.14800924 0.13536215 -0.26247495 0.05146036
000070 93 24 b0 be dc 4e 1e 3e ec 8e 92 3e 9e 43 89 be
       -0.34402904 0.1545977 0.28624666 -0.268094
000080 2d c9 06 bf 17 19 7f be ee fe cf be f9 07 a2 3d
       -0.5265072 -0.24911915 -0.40624183 0.07911677
000090 c6 a1 b1 bd f0 ad c8 be 4f 14 f6 bd da f3 4c bd
       -0.08673434 -0.39195204 -0.12015592 -0.050037242
0000a0 67 c6 99 3d 30 89 03 be 2c 46 8a be 54 14 1c be
       0.07508545 -0.12845302 -0.27006662 -0.1524213
0000b0 fb a9 1f bc 2a 48 01 bf 1c 58 0a 3e cf 4b ed 3d
       -0.009745116 -0.5050074 0.13510174 0.11586725
0000c0 64 07 eb 3d 70 e5 be bc c6 57 26 be 49 ce 4f 3d
       0.11476019 -0.023302764 -0.1624442 0.05073384
0000d0 b9 7b b7 3d 56 25 aa 3b 52 b2 ee bd a5 70 19 3e
       0.08959145 0.005192439 -0.11655106 0.14984377
0000e0 93 e5 4c be 2c 05 74 3e 6d 2b a1 3c e3 11 1e 3d
       -0.2000945 0.23830098 0.019674027 0.038591277
0000f0 2a 39 1f 3d e5 71 2d 3e 6a 52 22 3d 2d 7e a3 bd
       0.038872875 0.16937979 0.039629377 -0.079830505
000100 ce 15 3a 3c 90 cf f3 bc 1a dc 5b 3d 83 a2 44 bd
       0.011357738 -0.02976206 0.053676702 -0.048006546
000110 c8 00 7f 3d 49 7d b9 3d a1 83 24 bf 73 56 f5 bb
       0.062256604 0.09057099 -0.6426335 -0.007487112
000120 fa cb 85 bd f9 aa 78 be 5c f2 a0 3d 20 23 58 3e
       -0.06533046 -0.24283971 0.078587264 0.21107149
000130 c7 93 a0 3d c1 2d 8a 3c 86 f2 b9 bd 42 e2 6c 3c
       0.07840686 0.01686752 -0.09079461 0.014458241
000140 cc 06 2e bf b8 1f 60 bd 64 71 f0 bd 31 ab 02 bf
       -0.6797912 -0.05471775 -0.117403775 -0.5104247
000150 a6 2d 6d be 5a 33 a5 be ab 30 c8 bd a8 63 a9 3e
       -0.23161945 -0.3226574 -0.09774908 0.33083844
000160 e3 c9 5a be ca f0 90 bd 62 50 c8 bd 4e 56 a1 be
       -0.21366076 -0.07077177 -0.09780957 -0.31511158
000170 5f b0 9f 3d 8d 5e ee 3c 84 30 e7 3d c0 6b f3 3c
       0.07797312 0.02909782 0.112885505 0.029714465
000180 92 4b cf ba f1 00 5b 3d 3a 75 ae 3d fe eb 68 be
       -0.0015815368 0.053467695 0.08518453 -0.22746274
000190 4f ca da bd ad a0 d2 3d 21 a6 6e be 74 ff 2c 3e
       -0.106831186 0.10284553 -0.2330556 0.16894323
0001a0 7a eb 8d 3d 2b 71 29 3e 2c 67 54 3c 87 a8 2b 3e
       0.06929679 0.16547076 0.012964051 0.16763507
0001b0 e1 3c 03 be 0b 2d 1b be 26 d0 1f bd e4 cf e8 bd
       -0.12816192 -0.15153901 -0.039016865 -0.11367777
0001c0 03 97 b5 bd bb 07 65 bc ba 3d c2 3d e1 d0 85 be
       -0.08866694 -0.013978894 0.0948443 -0.26135924
0001d0 73 9c 1b bf 85 a9 8b 3e 9c d3 4f 3e 2d 0f 84 3e
       -0.607856 0.2727777 0.20295566 0.25792828
0001e0 7d d5 f7 bd 98 42 c7 3c 0f 4d 05 3e 15 c2 e3 be
       -0.121012665 0.024323747 0.13017677 -0.4448401
0001f0 99 37 a0 be 92 cf 63 bd 7f a8 b9 be 6f 69 90 bd
       -0.31292418 -0.055617876 -0.36261365 -0.0705136
000200 35 41 0e be df 1a 11 bf 97 10 0d 3e ac 28 0c be
       -0.13892062 -0.5668163 0.1377586 -0.1368739
000210 dd e4 96 be d0 aa 8a 3e e0 77 2a be c9 9a 4b be
       -0.29471484 0.27083445 -0.16647291 -0.19883265
000220 95 d5 a1 be 58 c8 7f be bc 7d 9b bc f1 a2 03 bb
       -0.31608263 -0.24978769 -0.018980853 -0.0020086134
000230 89 cd be 3e 71 0c 34 be 5a 9b 7e bd f7 f4 ff 3d
       0.37266186 -0.17582871 -0.062159874 0.12497895
000240 82 b0 ab 3c 6e 6b 01 be 10 eb 04 be 63 14 f9 3d
       0.020958189 -0.12638637 -0.12980294 0.121620916
000250 58 18 2a be 99 90 9c 3e 72 05 d3 3d 10 de de 3d
       -0.16610849 0.3057907 0.10303773 0.10882199
000260 50 63 20 bc 2c 59 c6 3d 26 75 21 be 9d da 43 be
       -0.009789303 0.09684977 -0.15767345 -0.19126363
000270 ea 85 c2 bd 7c a9 52 3d fe 15 05 be 76 d0 ec bc
       -0.09498198 0.051431164 -0.1299667 -0.028907996
000280 71 0e 12 bd 3b 42 3e be 4f c6 f4 be 8e 74 a5 3e
       -0.035658304 -0.18579952 -0.47807547 0.32315487
000290 e6 1c 74 be 84 70 08 be 81 a0 9e be 3d 8f 50 3e
       -0.23839149 -0.13324171 -0.3098183 0.20367141
0002a0 d8 07 64 3d 34 4d a1 be b2 56 28 be a8 10 e9 bd
       0.055671543 -0.31504214 -0.16439322 -0.1138013
0002b0 fe 95 ed be b8 d4 b8 3d e4 fa 64 be 35 18 95 be
       -0.46403497 0.09024948 -0.22361332 -0.2912003
0002c0 be a0 06 bf dc f5 1a bd df 6c c7 bd 5a 6a 0b bd
       -0.52589023 -0.037832126 -0.097375624 -0.03403697
0002d0 e4 53 10 be 25 5d 89 be 23 e6 44 be fa 07 f1 bd
       -0.14094502 -0.26828876 -0.19228415 -0.117690995
0002e0 dc f7 c7 bd 19 a5 82 3c 05 9d 93 3d be c9 a9 be
       -0.09764072 0.015947865 0.072076835 -0.3316173
0002f0 3a 4b 17 bc 24 ac 4b 3d 4e 49 3c bd 9b 4b 1c be
       -0.009234244 0.049724713 -0.045968346 -0.15263216
000300 03 1c 68 be 9a 1b dc 3b e8 bc 8c be 46 61 6c 3d
       -0.22666936 0.0067171576 -0.27487874 0.057709955
000310 b3 6c 94 3e 3e a2 ed 3d 41 69 de 3d 49 a9 93 3e
       0.2898918 0.11603211 0.10859919 0.28840092
000320 c1 42 42 be af da 21 be 8f 6d a9 bd 39 63 fe bd
       -0.18970777 -0.15806077 -0.0827285 -0.12421269
000330 af 6c 78 be 19 d7 7b bd f2 69 10 bf 40 a6 87 bc
       -0.2426021 -0.06148443 -0.5641166 -0.016558766
000340 97 b0 b7 be b2 51 79 3d 44 dd ba bd d1 70 1b 3e
       -0.35876915 0.060868926 -0.09124234 0.15179755
000350 02 e9 99 3d 6c 8c f6 bd 7e 74 56 bc c5 20 53 be
       0.07515146 -0.12038502 -0.013089297 -0.2061797
000360 ca 61 4a be 25 a3 a0 bc f6 44 90 be 10 ef c2 bd
       -0.19763866 -0.019609043 -0.28177613 -0.09518254
000370 57 23 07 be 62 8c 43 bd d5 ff 32 be 05 9a 59 be
       -0.13197075 -0.0477413 -0.17480405 -0.2125016
000380 09 38 b6 be 8a f9 5b bd 25 73 36 bd a3 06 ae bd
       -0.35589626 -0.053704776 -0.044543404 -0.084973596
000390 3d 46 61 be fc 32 32 be ba 35 21 be f1 be 4d 3d
       -0.2199945 -0.17402261 -0.15743151 0.050230924
0003a0 ae 17 24 3e 7d c9 d0 be e6 b0 05 be f0 55 f8 3c
       0.16024658 -0.40778723 -0.13055763 0.030314416
0003b0 7c f7 65 bd ff 0e a9 3d 7c 55 e1 bd 4d cc 9d be
       -0.056144223 0.082548134 -0.11002633 -0.30819932
0003c0 0e 34 ca be e5 e7 e3 3d 54 60 e5 bc c1 01 2e 3e
       -0.3949284 0.11128215 -0.028000034 0.16992857
0003d0 e6 20 a5 3d 93 5b a1 3e e6 5a 5a be ad 24 40 be
       0.080629155 0.31515178 -0.21323738 -0.1876399
0003e0 2d d1 81 bd b5 66 2e bc ed e1 e9 3d 10 ca 07 bd
       -0.06338725 -0.010644604 0.11420045 -0.033151686
0003f0 89 d0 e1 be c2 61 2c 3e a0 d8 41 bf 92 54 3a 3e
       -0.44104412 0.16834167 -0.7572117 0.18196324

model.0.bias f4 [32]
000000 c8 c9 9e be cc 60 3d be a6 7c 40 be 52 b5 49 be
       -0.31013322 -0.18493956 -0.1879755 -0.19698074
000010 0e f0 e2 be 0b 0b bd bd 06 4d 40 be 3d bc ed bd
       -0.44323772 -0.09230622 -0.18779382 -0.11608169
000020 31 73 22 be bd de 16 3d 28 c2 c7 bd 27 3b 8f be
       -0.15864255 0.036833514 -0.09753829 -0.27974817
000030 47 9d a6 be 71 36 ca bd ed 1a 93 be bc d2 da bd
       -0.32541868 -0.09873665 -0.2873148 -0.10684726
000040 10 cf c1 be 2e 93 b4 bd 7a ca 08 be b1 20 56 bd
       -0.3785329 -0.08817135 -0.13358489 -0.05227727
000050 0e 49 98 be 7f 4d a9 bc 60 1e fa bd 87 31 46 be
       -0.29743236 -0.020666836 -0.12212825 -0.1935483
000060 bf 62 bc be bb 76 1f be 98 16 cb bd ba 0f 37 be
       -0.36794087 -0.15572636 -0.09916419 -0.17877093
000070 79 71 ca bd 5c ee 51 be 2c 31 3d be 37 8e f7 bc
       -0.098849244 -0.20501083 -0.18475789 -0.03021918

model.3.weight f4 [32, 32]
000000 1b d5 25 bf 09 20 4f 3d 48 1c 01 3f cf 53 4d 3e
       -0.647783 0.05056766 0.5043378 0.20051502
000010 13 03 e3 3e bb eb 70 3e ef f8 80 3e 59 c8 8e 3e
       0.44338283 0.23527424 0.2518992 0.27887228
000020 ac 22 ee 3d 35 93 6e 3e 11 e4 4e 3e c6 8f 90 3e
       0.11627707 0.23298343 0.20204188 0.2823469
000030 97 93 7a 3e df 03 9b 3d 99 42 81 3e f6 10 12 3e
       0.24470364 0.07569098 0.25246122 0.14264283
000040 4c 83 29 3e 49 ff 51 3e 96 e3 47 3e 60 6d d7 3d
       0.16553992 0.2050754 0.19520411 0.105189085
000050 a3 74 11 bf c4 84 e9 3a 66 5d df 3d bd 57 a5 3e
       -0.568186 0.0017816056 0.10906486 0.32293501
000060 72 b2 38 bf 9b 54 ba 3e 99 22 73 3e 15 ac 42 3d
       -0.72147286 0.36392674 0.23743667 0.04752739
000070 c2 3f 8a 3d d0 05 8d 3e b2 d2 2c bc 54 7a da 3d
       0.06750442 0.27543497 -0.010548281 0.106678635
000080 64 54 c5 3e be 09 95 3c e8 68 33 be ff 12 47 bd
       0.38540947 0.018193122 -0.17520487 -0.0486021
000090 c9 5b 70 3f f5 48 9b be 08 49 02 3f 78 51 d4 bd
       0.93890053 -0.303291 0.50892687 -0.103671014
0000a0 c2 e9 96 3e a0 01 89 3e 6d 8b ed 3d ae c8 da be
       0.29475218 0.26759052 0.11598859 -0.4273123
0000b0 63 e4 56 3e 71 d0 1f 3e 58 3b a0 bd d9 48 6e bd
       0.2098556 0.15606858 -0.07823819 -0.05817494
0000c0 18 13 b0 bf 1d 75 46 3e a8 76 34 3e 53 c5 40 3e
       -1.3755827 0.19380613 0.17623389 0.18825273
0000d0 79 ae 59 3e a9 d1 a9 be a6 5d bd 3c 98 36 2e bf
       0.21257962 -0.3316777 0.023115944 -0.68052053
0000e0 1b 3c bb 3d 2c 89 60 3e 0c 6e 34 bf f3 97 48 bd
       0.091423236 0.21927327 -0.7048042 -0.048973035
0000f0 10 cb 07 3e 8d 4a 94 3e 1f fb 05 3e c1 2e af 3d
       0.13261056 0.28963128 0.13084076 0.085538395
000100 4a 10 c9 bd 48 ac 54 3e 4b 1a be bd 5e ce 7d be
       -0.0981756 0.20768845 -0.09282359 -0.24785754
000110 57 e5 42 3e 54 0d 63 be 3f dd 99 be df a2 33 3e
       0.19032799 -0.22173053 -0.3005161 0.17542599
000120 76 7a 9a be 09 4e 6a be 3c e7 7b 3d 7f 75 bb bd
       -0.30171555 -0.2288133 0.06149982 -0.0915327
000130 70 dd 1c 3e 02 9b 83 3e a3 b1 d4 bd 4a a0 c3 bd
       0.15318847 0.257042 -0.10385444 -0.09552057
000140 21 75 a9 3d 89 9d 78 be c8 ed 08 be 8f 55 5d be
       0.08274294 -0.24278845 -0.13371956 -0.2161467
000150 b0 62 5d 3f 2f 9b 41 be c3 82 4b 3d fa 84 17 be
       0.8647871 -0.18906854 0.04968525 -0.1479682
000160 ca c1 05 bf 66 ee fc 3d 00 f6 8a 3e 23 bb a2 be
       -0.52248824 0.123501584 0.27140808 -0.317834
000170 fa 50 8b 3e d0 48 53 3e e3 10 9e be 54 a4 12 bd
       0.27210218 0.20633245 -0.3087226 -0.035801247
000180 53 f4 db bd 40 7c 43 be 96 b1 cb bd b4 35 bb bd
       -0.107399605 -0.19090366 -0.09945981 -0.091411024
000190 27 8f 96 be fe db fc be 20 9e 19 be 16 e7 59 be
       -0.29406092 -0.4938659 -0.15001726 -0.21279559
0001a0 9e 22 46 be 74 70 70 bd a2 50 86 be d1 6f 95 be
       -0.19349143 -0.058700994 -0.26233393 -0.29186872
0001b0 75 c4 e4 bc d5 5c f1 3c 2e d2 89 be 91 fc 39 be
       -0.02792571 0.029463211 -0.26918167 -0.18162753
0001c0 2d d0 83 be 8b 18 fe bd d2 3c 0c be 33 ee 81 be
       -0.25744763 -0.12407025 -0.13695076 -0.25377044
0001d0 e8 bb 86 3b 22 1f 94 bd 4c 01 e1 bc 4f f3 4c be
       0.0041117556 -0.072325006 -0.027466439 -0.2001469
0001e0 80 14 ca 3d 23 43 7c 3d bd c6 f8 3c 31 e6 b5 3d
       0.09867191 0.061587464 0.030368203 0.08881796
0001f0 64 d3 ae be d2 2f 41 be a5 d0 ce bd 7c b8 b8 3d
       -0.34145653 -0.18865898 -0.100983895 0.090195626
000200 3e 90 17 bf 97 e2 9b 3e 5b 2e 84 3e 8d c9 70 3d
       -0.5920447 0.30446312 0.25816616 0.058785964
000210 ce 4c f6 3e 02 cc 98 3e 27 e6 57 3e 4b 8d 60 3e
       0.48105472 0.29843146 0.2108389 0.21928899
000220 65 18 ba 3e b4 01 90 bc 2e 25 76 bc 41 df 8f 3d
       0.36346737 -0.017578937 -0.015023513 0.07025004
000230 9b 39 53 3c f6 22 16 bd 8c a5 bf 3e 54 f1 87 3e
       0.012892152 -0.036654435 0.3743099 0.26551306
000240 aa 71 ba 3e 9a 31 e8 bd 91 ac cc 3d 41 73 09 3e
       0.36414844 -0.11337586 0.09993852 0.13422872
000250 9b 7e c3 be f2 22 a3 3e eb ca 86 3e ea 94 a6 3e
       -0.3818253 0.318626 0.2632669 0.32535487
000260 5e 69 35 bf fc b2 bf 3e 06 62 5a 3e eb 91 7b 3e
       -0.708639 0.37441242 0.21326455 0.24567382
000270 3b 00 81 3e 1d 41 83 3e 33 a1 37 3e 2b e3 81 3e
       0.25195488 0.25635615 0.17932586 0.25368628
000280 a9 d5 19 be c0 e8 aa bd be 32 17 3e bc e5 17 be
       -0.15022911 -0.08345175 0.1476545 -0.1483373
000290 71 fe 10 bf 55 8a a7 be 4a 52 d8 bd b3 b4 92 bd
       -0.56638247 -0.32722726 -0.105625704 -0.07163372
0002a0 c3 43 bd be 67 6c 6c bd a2 80 77 be aa f8 9e be
       -0.3696576 -0.057720568 -0.24170163 -0.3104909
0002b0 a0 c3 3d be 5f 0f 90 be 59 e9 a8 be 6a 91 cb 3c
       -0.18531656 -0.28136727 -0.3299053 0.024849612
0002c0 8d 92 20 bd 9d 1d 8f be 22 ad 2c 3d 15 48 66 be
       -0.03920226 -0.2795228 0.0421573 -0.22488435
0002d0 5d 61 f0 bd 2f 6b 29 bd 7b 90 d8 bd ca 0a a4 be
       -0.117373206 -0.041361984 -0.105744325 -0.3203948
0002e0 88 6e 81 3d 13 6b ac bd 4a 20 1a bc 4f 94 05 be
       0.0631991 -0.0841886 -0.009407112 -0.13044856
0002f0 79 91 e4 be b8 4f b4 be 9a a2 4f be 68 f7 09 3d
       -0.44642237 -0.3521707 -0.20276871 0.03368321
000300 72 dd 76 be 05 b0 df bd 0e 58 26 3c a4 c8 31 be
       -0.24107912 -0.10922245 0.01015283 -0.17361695
000310 d3 d6 ed be 76 b4 e4 be 41 fa cb bd 3a 86 31 be
       -0.4645296 -0.4466893 -0.099598415 -0.1733636
000320 0c a7 ad be c3 81 2f 3d cb 5b 40 3d c8 e3 cd bd
       -0.3391651 0.04284836 0.04696254 -0.100532115
000330 f7 ca 27 3c 05 f2 96 bd 13 7b a8 be 09 12 d8 3c
       0.010241262 -0.0737038 -0.32906398 0.026375787
000340 e7 38 3c be 48 16 f0 bd 36 2f a6 bd fc 58 8d be
       -0.18381082 -0.11723 -0.081144735 -0.27606952
000350 fa 32 21 3d e5 4a 08 be 2a 8b 9f bc a1 e6 b2 be
       0.039355256 -0.1330982 -0.019475538 -0.3494158
000360 c3 86 7a ba 83 b8 9b bd fe a2 82 3c 06 6c 24 be
       -0.0009556824 -0.07603552 0.015946861 -0.16056833
000370 fa 54 5b bc 40 3d 86 be c1 42 40 be f6 92 e5 bd
       -0.013386959 -0.26218605 -0.18775465 -0.11209671
000380 cc 52 3a be 49 1a 39 3e 65 92 85 3e 47 3c e6 3e
       -0.18195647 0.18076433 0.26088253 0.44967863
000390 60 98 9a 3d 13 8c 8b bd 52 45 11 3e 97 9e b8 3e
       0.075485945 -0.068138264 0.141866 0.36058494
0003a0 9a 03 9c 3e 53 a9 8f be 55 9d dc 3e 27 3d 5e 3e
       0.30471498 -0.28058872 0.43088785 0.21703015
0003b0 67 41 e9 3e ce 85 c4 3e 4a e2 29 be 8d d1 6f 3e
       0.4555771 0.38383335 -0.16590229 0.23419781
0003c0 72 3b e3 3d 1a 12 e1 3d 25 9b 61 bd b3 a8 87 bd
       0.11095323 0.10989781 -0.055079598 -0.06623974
0003d0 b2 cb 9b bd b3 25 cb 3e 70 d4 96 bd cb 41 af 3d
       -0.07607211 0.396772 -0.07364738 0.08557471
0003e0 12 4a aa be 67 60 5f bd 52 85 85 3e 1b 4d 06 3f
       -0.33259636 -0.054535296 0.26078278 0.52461404
0003f0 e9 f7 5d 3e 95 3e bf 3e 69 23 c4 bc f8 82 8b 3e
       0.21676601 0.37352434 -0.023942666 0.2724836

model.3.bias f4 [32]
000000 ef 8a 9b 3f 67 bd 2e 3f fd e6 ed bf bf e6 9c bf
       1.2151774 0.68257755 -1.8586117 -1.2257918
000010 ad 9e a0 3f fb 1b 94 bf fc 79 94 bf 29 3b 72 3f
       1.2548424 -1.1571039 -1.1599727 0.9462152
000020 dd e4 a9 3f bc 30 7a 3f 34 69 69 bf 5c 14 b7 bf
       1.3272969 0.9773061 -0.9117615 -1.4303088
000030 0e 0a 8b 3f 9b db a9 3f b3 ce a1 3f a0 c1 94 3f
       1.0862443 1.3270143 1.2641205 1.162159
000040 e9 10 bc bf e5 03 b2 3f d3 5e a0 bf 3a b2 97 bf
       -1.469266 1.3907439 -1.2528938 -1.1851265
000050 c4 d0 ae bf 54 90 a7 3f c8 bd f3 bf d9 aa 9c be
       -1.365746 1.309092 -1.9042292 -0.30599096
000060 c5 c4 b2 3f 64 93 a6 3f 15 63 96 3f a3 0c ed bf
       1.3966299 1.301373 1.1748987 -1.8519481
000070 30 cb b7 3f 03 3a 3d 3f a5 f0 95 3f f7 46 af 3f
       1.4358883 0.73916644 1.1714064 1.3693532

model.5.weight f4 [3, 32]
000000 d0 65 c0 3e a2 f6 71 3f 50 0f ea be 8e 2f 8e be
       0.37577677 0.94516957 -0.45714808 -0.27770656
000010 0a 73 ea 3e b8 00 a9 be 31 58 98 be a0 78 83 3e
       0.45790893 -0.3300836 -0.29754785 0.25677967
000020 a2 cf 38 3e b6 06 e5 3e 19 13 76 be b7 ec a9 bd
       0.18047956 0.44731683 -0.24030723 -0.08297103
000030 12 12 8a 3e 64 06 20 3e 78 a0 fd 3d 7e f7 cf 3e
       0.26966912 0.15627438 0.123841226 0.4061851
000040 33 28 76 be 13 a3 fd 3d c5 1a 9a be 47 31 77 be
       -0.24038772 0.123846196 -0.3009855 -0.24139892
000050 28 39 a3 be 05 2e bd 3e a9 d3 e8 be f3 6c 19 be
       -0.31879544 0.36949173 -0.45473984 -0.14982967
000060 d3 63 81 3e 15 8f c6 3e 15 ab c6 3e c8 3b 1e bf
       0.25271472 0.38781038 0.388024 -0.6180997
000070 08 b8 ff 3e a5 e5 3f 3f 9a 9e e0 3e e9 6f c8 3e
       0.49945092 0.74959785 0.43871003 0.3914788
000080 fc 49 a6 3e 6f 44 6e 3f 02 9c 14 bf 48 99 c8 be
       0.3247832 0.9307317 -0.5805055 -0.39179444
000090 ec 4d 9b 3e a9 d3 7e be 1a da df be 27 e1 ce 3e
       0.30332887 -0.2488543 -0.43721086 0.40406153
0000a0 a8 71 8c 3e 11 1a aa 3e 96 70 c7 be bb 54 92 be
       0.27430463 0.33223012 -0.38953084 -0.2858027
0000b0 3f 98 af 3e e4 44 c1 3e e7 fb cd 3e f2 aa b1 3e
       0.34295842 0.37747872 0.4023125 0.34700733
0000c0 0d 0a 8d be 07 ee b8 3e a3 73 88 be 29 88 b8 be
       -0.2754673 0.361191 -0.26650724 -0.36041382
0000d0 ef 5e 41 be d7 e1 7c 3e c6 06 2a bf b0 90 13 be
       -0.1888387 0.24695526 -0.66416585 -0.14410663
0000e0 ec bb c3 3e 86 0e 9c 3e e9 60 98 3e ef 72 d6 be
       0.3822931 0.3047983 0.29761437 -0.41884562
0000f0 d3 14 91 3e 6c 43 5c 3f cc 96 15 3e 8a 3b b1 3e
       0.283362 0.8604038 0.14608306 0.34615737
000100 86 eb a6 3e a9 fd 68 3f 43 49 17 bf 09 1d 91 be
       0.32601565 0.91012055 -0.59096164 -0.28342465
000110 d0 5c 5b 3e ce 24 c9 be 3d 39 60 be 73 d6 e7 3e
       0.21422124 -0.39285892 -0.21896835 0.452808
000120 6a 40 e1 3e 89 50 a5 3e 51 20 98 be 22 39 d0 be
       0.43994457 0.32288006 -0.29712155 -0.4066859
000130 7e 76 2c 3e 7b 43 c5 3e 6d 2a 9c 3e 2d f8 52 3e
       0.16842076 0.38528046 0.30501118 0.20602484
000140 06 d5 b6 be 34 8b b8 3e db d4 c2 be 1c 7d ad be
       -0.357094 0.36043704 -0.3805302 -0.33884513
000150 f2 cc aa be be e1 a1 3e 72 74 41 bf 07 1e e0 bd
       -0.33359486 0.3161754 -0.75568306 -0.10943227
000160 a2 46 94 3e a3 93 d7 3e d9 c8 a1 3e f4 81 ad be
       0.2896014 0.42104825 0.31598547 -0.3388821
000170 f8 25 75 3e 6f 13 62 3f 4f 08 b7 3e 4c 31 c5 3e
       0.23940265 0.88310903 0.35748526 0.38514173

model.5.bias f4 [3]
000000 b0 c8 41 3f 92 10 62 3f 34 1f 79 3f
       0.7569685 0.88306534 0.9731324
