models/cloud_lstm_model.pth (torch, 78966 bytes, 10 tensors)

lstm.weight_ih_l0 f4 [128, 46]
00000000: 8499 6eba ddf3 b13e 3973 d03d ed3d a7bd
00000010: 9c2f d8bd 0eb9 22bf 1788 20be b574 403e
00000020: 6bb5 bc3e bd6c c33d cc1c e13d 9d5f f0bc
00000030: 45e0 953c 4ede e93d 1142 673e 3001 95bd
00000040: 7761 d13d ff50 b33d c92f 92be 2f91 f0bd
00000050: efb2 1cbe 696e a33d f8f0 613b 627f 32bb
00000060: 673d 223e d365 5ebd bf9f fb3d 3388 babd
00000070: 472e 24be 05df 743c 6dce a43d 2f0d a23e
00000080: b902 9cbd 9392 c0bc 2b36 b9be ef5d 73be
00000090: 9d94 ffbd d9f9 e43d dfc7 95bd ae16 aa3c
000000a0: 4a30 dcbd 0bd1 e43d be58 eabc 670b 023e
000000b0: 99b5 d63d 6de4 01be 931d 1c3e 8ff2 273e
000000c0: e4a3 45bd ea45 5ebc 9d2b 6cbe 5d72 eebd
000000d0: 89b1 273e e4a7 12ba de37 d7bd 1d91 4e3e
000000e0: d5de b73d 8455 393e cd14 e63d 90e1 0a3e
000000f0: 8fa9 c63e 8d17 be3e 29d1 9f3e 70ac d9bc
00000100: e378 7f3d fac2 2cbc b442 00bd 3cf7 dbbd
00000110: aa77 44bd 9641 713e 930f 593e b5b4 343d
00000120: 254b 5abc 768b c23d 8efb 60bd 2eea 79be
00000130: 8983 86be c3db ee3e d1e0 4c3e 1d5f d2bd
00000140: e240 543e 119d 8cbc 55d0 b7bd 4fdb 61be
00000150: 7758 86be 4936 ae3d 1a16 3ebd bf89 3abe
00000160: 14a0 3d3e 8923 bfbc f4f2 e1bc 4af3 2fbe
00000170: 711f 553e 5ba7 943e e526 38bc e204 9cbe
00000180: 6d7e 813e 5903 c43e 48c4 ac3e 0481 98be
00000190: f6d0 0bbe 97fc b4bd 59c2 98be e4f8 e13d
000001a0: 9223 943d 8c75 64be 5f02 1bbd c9d1 69bd
000001b0: 6f84 033e 4624 35bd 2c66 7b3d 7fc4 9ebd
000001c0: 3540 173d eae8 193d 0e44 1d3d e4a9 be3e
000001d0: bbdc 60bd c844 02be a926 423e cccd be3d
000001e0: 00b3 bbbd 9073 58bd b98f c3be 20bb 813e
000001f0: d2d3 7b3e a793 00bd 64c1 5a3e 9bcb 2b3e
00000200: 9661 00be 1c14 3f3e 454b 7c3d 43dd babb
00000210: 9171 f43d 357a 523e 1f5b a53e c9eb cc3d
00000220: 3a0b 233e 65b4 e03d 5c11 c9bd 642c 583d
00000230: c621 d7bd b105 503e 7104 a6be bd34 273e
00000240: e620 5ebe 662e bdbe b6c3 0c3d 8d7a dfbd
00000250: cf06 c23d 6583 98bb b55d 843e 12ed 253d
00000260: 8729 543e 04de 2ebd ab92 a33d 53a1 ac3e
00000270: 04c4 10bd 37af 453d e955 c13d b449 4bbe
00000280: ef0e f63d 3e19 13bc d5e2 3f3c d8e7 66be
00000290: 3a8d 783e e646 25be 3d7c 683d ee7f 77bc
000002a0: e338 51bd d933 b33e 2c32 ad3e 84f4 4bbe
000002b0: 98c8 43be 32ec 35be 1367 8d3c 2ac8 563d
000002c0: 7b04 ad3c 745d 39be 4359 4d3e f98c 1bbe
000002d0: f7d2 233e 2362 d13a 9145 d8bd f8e6 f13d
000002e0: 27b1 d63d 960a 58bd b60d 4fbe 6e93 2abb
000002f0: b81f 2c3d fa00 da3e 1a0c 4ebd c238 d3bc
00000300: a295 303d 2240 8c3d 1f3b 48be 2525 2abe
00000310: 6be6 08bc 3ecc 25be 20fe 33be 553e c43c
00000320: 0e45 fbbd b9e3 3e3e ce8f c53d 1d3a 103e
00000330: bd59 3abe 74c4 d5bd 630f 913e 16d7 b13d
00000340: 651d 413a 97e4 d83e 4861 483d 67dd adbd
00000350: 967b 12be b0e1 5bbb 3fd7 343d 6a79 683c
00000360: c553 f33d bb28 81be d23b 0b3d 213f aabd
00000370: 92a1 bb3d 6357 58bd a1c2 b3bd 610d 483e
00000380: 0869 1a3e 95e9 d0bd 1a03 3abe 2ab5 593e
00000390: 00d8 a73d ce4f 253d 9d35 1cbd d7e0 35bd
000003a0: 4a77 3e3c a389 45bd 70e3 043e e31e 923e
000003b0: 7d7c 183d f6b2 92be b3c7 183d c558 c23d
000003c0: 9578 3b3d 8964 853e ec63 0abd d17c 8f3e
000003d0: f1f2 d2bd d6cf fd3d 773f 2abe f2d7 acbd
000003e0: 7b37 75be 8185 563e 63df eabd c6bf 543e
000003f0: 20b9 c43e 3b94 01be 9ec1 963e b882 10bd
-0.0009101855 0.34756365 0.10178227 -0.08166108 -0.10555956 -0.6356362 -0.15676914 0.1879452
0.3685716 0.095422246 0.10991821 -0.029342467 0.018295417 0.114193544 0.22583796 -0.07275617
0.10223668 0.08755683 -0.28552082 -0.117464416 -0.15302633 0.079800434 0.0034475904 -0.002723657
0.15843736 -0.054296326 0.122863285 -0.09108009 -0.16033278 0.01494575 0.08047185 0.31650683
-0.07617707 -0.023507392 -0.3617414 -0.23766302 -0.124795176 0.11180467 -0.07313513 0.020762768
-0.10751398 0.11172684 -0.028606769 0.12699662 0.10483856 -0.12684794 0.15245657 0.16401123
-0.048252 -0.0135664735 -0.23063512 -0.11642907 0.16376318 -0.00055944757 -0.10508703 0.20172544
0.08978049 0.18099028 0.11234436 0.13562608 0.38801238 0.37127343 0.31214264 -0.026571482
0.062371146 -0.010544533 -0.031313613 -0.107405156 -0.047965683 0.23560175 0.21197347 0.04411765
-0.01332358 0.09499256 -0.0549274 -0.24405739 -0.26272228 0.4665204 0.20007636 -0.10272048
0.20727876 -0.017164739 -0.08975283 -0.22056316 -0.26239368 0.08506448 -0.046407796 -0.18216608
0.18518096 -0.023332374 -0.02758167 -0.17182651 0.20812775 0.29033932 -0.011239742 -0.30472475
0.25291768 0.38283804 0.337435 -0.2978593 -0.13653931 -0.0883724 -0.29835775 0.110338
0.07233347 -0.22310466 -0.037844058 -0.057084832 0.12843488 -0.044224046 0.061376736 -0.077523224
0.036926467 0.03757564 0.03839498 0.3723899 -0.054898005 -0.1272155 0.1896006 0.093165964
-0.09165001 -0.052844584 -0.3819559 0.25338078 0.24592522 -0.031390812 0.21362835 0.16776888
-0.12537226 0.18660015 0.06159522 -0.005702646 0.119357236 0.20554431 0.32296082 0.1000591
0.15922251 0.109719075 -0.09817764 0.05277671 -0.10504489 0.20314671 -0.32425264 0.16328712
-0.21692237 -0.36949462 0.034366332 -0.109120466 0.09473955 -0.0046543353 0.25852743 0.04050929
0.20718966 -0.0426922 0.07986959 0.3371683 -0.035343185 0.0482628 0.09440214 -0.19852334
0.12014567 -0.008978186 0.011711796 -0.22549379 0.24272624 -0.16140327 0.056759108 -0.015106184
-0.051079642 0.35000494 0.3382734 -0.19917494 -0.19119489 -0.17765883 0.017261064 0.052436985
0.0211203 -0.18102056 0.20053582 -0.15190496 0.15998445 0.0015974682 -0.10560144 0.11811632
0.10483008 -0.05274447 -0.20220074 -0.0026027816 0.042022437 0.4257887 -0.05030451 -0.0257839
0.04311145 0.0684817 -0.19553803 -0.16615732 -0.008355717 -0.16191193 -0.1757741 0.023955503
-0.122690305 0.18641557 0.09646569 0.14084668 -0.18198295 -0.10437861 0.28332052 0.086836025
0.0007366746 0.423619 0.0489209 -0.08489495 -0.14304957 -0.0033551268 0.044150587 0.014189104
0.11881212 -0.25226387 0.033992596 -0.08312822 0.091616765 -0.052817713 -0.08777357 0.19536354
0.15079129 -0.10200802 -0.18165246 0.21260515 0.081954956 0.04035931 -0.038137067 -0.044403877
0.01162512 -0.048226964 0.12977386 0.2853919 0.037228096 -0.2865216 0.037299823 0.09489588
0.045769293 0.26053265 -0.0337867 0.28024915 -0.10300244 0.12393157 -0.16625772 -0.08439626
-0.23946945 0.20949365 -0.11468389 0.20776281 0.3842249 -0.12654202 0.29444593 -0.035280913

lstm.weight_hh_l0 f4 [128, 32]
00000000: e328 87be ad69 e33e 4a6b f3bd 0fa5 633e
00000010: c7e9 3c3e 4eaf 513e 6ecb 85be 2ebc 523e
00000020: aa54 2c3e 33f7 13bf 3268 c3bd 4bf0 9bbd
00000030: 78ea a53e dd31 28be 45e9 d13d be30 a73b
00000040: f3f3 1d3e 69b7 fc3d 96fd dbbd 1205 00be
00000050: 255c 88be 765c 413e 797e 5dbd 001f adbc
00000060: 55f5 ea3d 5af3 5c3c 8b77 793d 99df b6bd
00000070: 406b a9bd 6417 4cbe ae07 00be 60a9 023e
00000080: f3a2 41be f95d b33c bf22 8dbe 9960 a03e
00000090: 3e26 1a3d 0261 0f3d 3185 2bbe 8de6 b83d
000000a0: 756c 74be d20e 013d 7870 a73e b51b 803e
000000b0: 236e 183e 84f3 1b3d 2b04 1ebe 70b7 fd3d
000000c0: 1569 f33d 7d5d 833e 5087 0f3d 9d75 443e
000000d0: 7e4a 133b e0bc 8dbd 54af 71be ce03 3abd
000000e0: b33c c5bd 015f 04bd 3d1e f3bd 93f7 09be
000000f0: 3670 8f3c 9a6d 85be 5d38 e23d 788d 01bd
00000100: 6dad 2f3e cb97 1ebe a158 b1bd d1c2 e63c
00000110: 7197 c7bd 0235 42be a1fb 73be 094e 1c3e
00000120: c84d c73d 820d 44be 5436 b3bd dfe6 2fbd
00000130: dc8b c93e 63c9 b2bc c7bd ecbb b157 96be
00000140: b417 35be a905 b33d 54a1 203d cde8 71bd
00000150: 11c2 e3bd 5a03 883d 4f17 223d 1f9e 2a3d
00000160: 3b5b 1fbe 65eb 4f3d aaa8 3abe 6d1b fb3b
00000170: 3e8a c73d 01c8 10bc 0e65 25be 783c 21be
00000180: 1fb0 06be 8fb7 843e cd6c 78be 93dd 2b3e
00000190: 316d 883c c815 a73d 4849 c53d f5c3 653e
000001a0: 06b6 333e 142a 30be 0e61 34be e499 2b3e
000001b0: 6a7f 2abe 1926 05be 0686 93bc e3e8 063c
000001c0: 40c4 19be 097d a03e 7abb 19be 1a29 80be
000001d0: 9aaf 4d3d 1e43 f53d 40e4 f6be 05c9 be3e
000001e0: fcb8 b63d c066 e43d 1fbf 21bd 194c 52bc
000001f0: db4d d5bb e36f 7fbe 33dc 23be 20d2 bd3d
00000200: e42d 99bc 58f8 3e3e 316c dbbd 07a2 2fbe
00000210: 9a39 473e ab2b ccbd d854 7dbe fe87 8cbd
00000220: 8c8e a7be f989 713d 2521 a13c 84b3 4ebe
00000230: 17fb 933d 3a1b 2bbe a393 8cbd c497 bc3d
00000240: f89c d23b 308a 873e 4a58 3fbe a455 053e
00000250: 54a3 84bc 5037 853d e4f1 5cbe bebf d73e
00000260: 52d1 8e3d 5b10 843e f0b3 d3be 2052 dabe
00000270: 2487 ac3e 0af8 d7be 52b9 243d d3b7 ed3d
00000280: 9d02 dabe a0fd 383e def7 84bd 10fc 52be
00000290: 292c 573e 219e 1a3d 509b 363d 086e ea3c
000002a0: 580e f0be 1117 af3e cd7f febe ce59 d8be
000002b0: a293 0a3f f763 b7be 1aa4 54be 1b94 62be
000002c0: 06c3 3bbd 3d47 8bbc f843 e2bd a694 883d
000002d0: 7238 f93d 7b70 69bd 9eff f0bd 3b02 9a3e
000002e0: 8bba 0b3e f6a3 803e b0a8 9fbe 1d45 21bd
000002f0: 26b5 493e 7acb f5be cd4b 01bb 6158 b33d
00000300: ae42 c2be bc5c 453e 8945 733e a049 173f
00000310: fc71 94bc e5da c43e d8fa eebe 2e97 7dbd
00000320: 28a5 7dbe 82b3 63be 9095 463c ad55 98be
00000330: 0743 813e a036 febb 2f34 cd3e aa96 0abd
00000340: ef13 123e 2826 cebc 25fd 883d f040 5d3e
00000350: 13ea b03c 420d af3e cfc6 71bd 7c4c db3a
00000360: ec12 8dbd 31d1 713e 2d18 1c3e bf8f a3bd
00000370: 11f6 15bd f52d 0e3d f563 22bb 26f6 b23e
00000380: 6f20 8bbe 536f 863d 0d90 82bd 5bf1 913e
00000390: 8450 ba3e f31e d93e 25c6 14bd d626 be3e
000003a0: 7cc9 babe 6b37 22be ac93 d0be 41ee 14be
000003b0: 4a03 753e 30c5 a8bd 0d41 793d 9c10 a73c
000003c0: a27f 09be 7769 0c3d 0dab d3be b5cc 8d3e
000003d0: f786 c9be c7df ddbc 84e8 02be 17de 4ebe
000003e0: f93f 563e e330 13bd 68da a9bd 075a 193e
000003f0: 1bc6 173e f5be 9abc e0e4 18be 3504 1c3e
-0.26398382 0.44416562 -0.11885698 0.22230934 0.18448554 0.2047703 -0.26131767 0.20579597
0.16829172 -0.5779907 -0.09541358 -0.076141916 0.32405448 -0.16425271 0.10249571 0.005102246
0.1542509 0.1233967 -0.10741727 -0.12501934 -0.266328 0.18882927 -0.05407569 -0.021132946
0.114725746 0.013485754 0.06090502 -0.089293666 -0.082724094 -0.19930798 -0.1250293 0.12759924
-0.18909816 0.021895396 -0.27565572 0.31323698 0.037634127 0.035004623 -0.16750027 0.09028349
-0.23869498 0.031508274 0.32702994 0.2502114 0.14885764 0.03807403 -0.15431277 0.123885036
0.11885277 0.25657263 0.035041153 0.19185491 0.002247482 -0.06920791 -0.23602039 -0.045413785
-0.09630718 -0.032317165 -0.11871002 -0.13473348 0.017509561 -0.26060182 0.11045907 -0.031629056
0.17156 -0.15487592 -0.08659483 0.028169068 -0.09745682 -0.18965533 -0.23826458 0.15264143
0.097316325 -0.19145778 -0.08750597 -0.042944785 0.39364517 -0.021824544 -0.0072247717 -0.29363778
-0.17684823 0.08741314 0.039216354 -0.059059907 -0.111209996 0.06641264 0.03957301 0.041654702
-0.15562145 0.0507616 -0.18228403 0.0076631815 0.097431645 -0.008836747 -0.1615183 -0.15745723
-0.13153122 0.25921294 -0.24260254 0.16783743 0.016653629 0.08158451 0.09633118 0.22438033
0.17549905 -0.17203552 -0.17615148 0.16757923 -0.16650167 -0.13002814 -0.018008243 0.008234235
-0.1501627 0.31345394 -0.15012923 -0.25031358 0.050216295 0.11975692 -0.48221016 0.3726274
0.08922002 0.111524105 -0.039488908 -0.012835526 -0.0065095252 -0.24945025 -0.16001968 0.09268594
-0.01869864 0.18649423 -0.10713995 -0.17151652 0.19455567 -0.099692665 -0.24739397 -0.06861876
-0.32725942 0.05896947 0.019669125 -0.20185667 0.07225626 -0.16709605 -0.06864097 0.092086345
0.0064274035 0.26472616 -0.18686023 0.1302095 -0.016191162 0.06504691 -0.21576649 0.42138475
0.069735184 0.25793728 -0.4134822 -0.4264078 0.33696854 -0.42181426 0.040215798 0.11607327
-0.4258012 0.180655 -0.064925894 -0.20603967 0.2101294 0.03774846 0.04458171 0.02861692
-0.46885943 0.34197286 -0.4970688 -0.42256016 0.5413152 -0.35818455 -0.20765725 -0.2212681
-0.045840286 -0.017001742 -0.1104812 0.066689774 0.12168969 -0.056992035 -0.11767505 0.30079827
0.13645379 0.25125092 -0.31183386 -0.039372552 0.19698009 -0.48006803 -0.0019729019 0.08757091
-0.37941498 0.19273657 0.23756994 0.5909672 -0.018120758 0.38448253 -0.46675754 -0.061911754
-0.24770033 -0.22236446 0.012120619 -0.29752865 0.2524645 -0.0077579767 0.40078875 -0.03383509
0.14265417 -0.025164679 0.066889085 0.21606803 0.02159599 0.34189802 -0.05902749 0.0016731168
-0.06888375 0.23614956 0.15243597 -0.07986402 -0.03661162 0.034711797 -0.0024778817 0.3495342
-0.27173182 0.06564202 -0.06375132 0.28504452 0.36389554 0.42406425 -0.036321778 0.37139004
-0.36481845 -0.15841453 -0.40737665 -0.14544012 0.23927036 -0.082407355 0.060853053 0.020393662
-0.13427594 0.034280267 -0.4134144 0.27695242 -0.39360783 -0.027084244 -0.1278401 -0.20201908
0.20922841 -0.035935294 -0.08293611 0.14975749 0.14821665 -0.018889884 -0.14931059 0.1523598

lstm.bias_ih_l0 f4 [128]
00000000: 6f49 b4bd 0c5a 613e 446d a93e 8b8e 65bc
00000010: b647 e43d 3aa1 073e 3f11 403d 844c 413e
00000020: 1107 0e3e 86a2 22bd c1cb 8a3e 5e5c 003e
00000030: 443a c9bd 1459 523e 2a23 193e e51e b03e
00000040: 830d a3bd 7686 89bb c947 41bd 2b2a 803e
00000050: 31a9 633e dd12 d63d b433 0bbe 6bf7 313e
00000060: 5207 3bbe 9885 78bd 04a3 92bc 00ad 093c
00000070: bb0b 0ebd ff8b 913d c06d 2ebe 5da1 a3bd
00000080: 54be 253d 2333 773e 4d4f 84bd 5597 4aba
00000090: 853b f8bd 3127 83bb eec1 0d3e 56b5 bd3e
000000a0: 7509 623e c5ab c83c ea3d 1b3e de30 d8bc
000000b0: c077 123e 225a 0abd f90c 123e e01c 843e
000000c0: 8c4d 8abd ffac 0e3e 9b6e 26bd 9ba8 e53d
000000d0: fa75 803d 0470 293e 19c7 8bbd 9666 a93d
000000e0: 3741 1e3d 9018 813e 6c19 783d 6a76 89bd
000000f0: 24e4 373e c2c6 193d e5e6 143e 59d5 a43c
00000100: 83e3 50bd 7824 a03c efcf 783d 4e82 dc3d
00000110: 991f 113e 56a9 09be 27cb 403d b711 843d
00000120: 6f34 e93d 892b 0e3e dff5 bd3c fb87 87bd
00000130: 20ba abbc 70ec 8a3d 72f1 d3bd 4a49 cfbd
00000140: b9e8 9ebd 3ced 8c3d c57c 593d 94b9 543d
00000150: fe39 fbbc 7c82 2ebd 005e 13be 3ed5 b9bd
00000160: 6b24 273e 71a4 b13d b6c7 91bb fab9 c6bd
00000170: a350 133d c835 f8bc e023 60bd 3fcf 023e
00000180: 832f acbd c61f 3f3e 3c9c ce3d c893 bebc
00000190: 27c6 ec3d b819 8cbc fb32 963d ad8e b63e
000001a0: 2171 393e 395b e83d 54e7 023e 07ba 20bc
000001b0: ad32 313e 4a39 513e f15e 8ebc ed6e d03e
000001c0: ae40 c4bc c132 c23d 1dd0 553e 07ba 2e3e
000001d0: 7029 873e 496f 203e 4f42 c53d 0459 28bd
000001e0: 9a9e 6f3e 0d60 3c3e 4452 3a3e 6a43 113e
000001f0: 1f05 ac3d 01ba 7dbc 6b98 cd3c 34ee fa3c
-0.08803069 0.22007006 0.33091176 -0.014011036 0.1114649 0.13245097 0.046891447 0.18876845
0.13869883 -0.039705776 0.27108577 0.12535235 -0.098255664 0.20541793 0.1495482 0.3439857
-0.079615615 -0.004196937 -0.0471876 0.25032172 0.2223251 0.10452817 -0.13593942 0.17379539
-0.18264511 -0.06067428 -0.017899998 0.008403063 -0.034679156 0.0710678 -0.17034054 -0.07989762
0.040464714 0.24140601 -0.06460438 -0.00077282387 -0.121207274 -0.0040024747 0.1384351 0.3705241
0.2207392 0.024495969 0.15160337 -0.02639049 0.14303493 -0.033777364 0.14262761 0.2580328
-0.06753072 0.1393318 -0.040632825 0.112137996 0.06272502 0.16546637 -0.06825084 0.0827152
0.038636412 0.25214052 0.06057112 -0.06712039 0.17958122 0.037543066 0.14541204 0.020121263
-0.050998222 0.01954864 0.060745176 0.10767041 0.1417221 -0.13443503 0.04706874 0.06448691
0.11386954 0.13883795 0.02318853 -0.06617733 -0.020962775 0.06783378 -0.103487864 -0.10121401
-0.07759232 0.06881186 0.053097505 0.051934794 -0.030667301 -0.04260491 -0.14391327 -0.09073876
0.16322486 0.08673943 -0.004448856 -0.09703441 0.035965573 -0.030299082 -0.054721713 0.1277437
-0.084075 0.18664464 0.10088393 -0.023263827 0.11561232 -0.017102107 0.073339425 0.35655728
0.18109562 0.11345524 0.12783557 -0.009809977 0.17304488 0.2043201 -0.017379256 0.4070963
-0.023956623 0.09482337 0.2088017 0.17063151 0.26398802 0.15667452 0.09631788 -0.041100517
0.23400345 0.18396015 0.18195444 0.14185873 0.08399414 -0.015486241 0.025097093 0.030631162

lstm.bias_hh_l0 f4 [128]
00000000: d77b e33a a810 2c3e 6156 5f3e 0985 943d
00000010: eeca 9e3d a33f ed3d 777e b03d 4736 cd3d
00000020: 5010 69bc 2a8f 49be b32c 1e3e d9c5 debc
00000030: 4e66 6c3d 00b7 a73d 64e5 3c3c 9f3b ac3d
00000040: f05d 40be 1261 66bd c259 7bbd 5f4f 543d
00000050: 75db 94bc 8db4 e03d be18 29be 2968 113e
00000060: ee43 0fbe d1bd 70bc dbc5 103e 7d48 c13d
00000070: f955 6b3d 5614 ff3b 917e 0dbd 41fe 473d
00000080: 26c7 f0bc 8cec a7bd 3710 113e 589d b53c
00000090: 7055 c2bb b053 003e 3246 493e 3cfd e33e
000000a0: fb48 a6bd bf12 2e3e 376d 8d3e 74b7 2e3d
000000b0: cc5a 813e 4eb4 01bc ff76 353e 5a90 bc3d
000000c0: 7e9c f1ba 6ec9 a83d 761a 263e dd01 9f3d
000000d0: c7e2 303e 3cff 523e e795 b03d bb35 0d3e
000000e0: e43c bdbc 499c 303e 097c 11be b1a3 c53d
000000f0: 4df0 9a3e 6086 98bc 0141 1fbe 9476 97bc
00000100: 5208 97bd 9e22 d23d b4f7 eebd c8f3 bdb9
00000110: bf63 103e 3c2e 4e3e e41e 29be 9d1c 8c3d
00000120: a0a0 e4bc b22e 833d 27ce d8bd 1696 b8bd
00000130: b599 963d dd96 23be 16d9 b6bd 2708 13be
00000140: 662d 01be 7363 483d b00d 08be 9130 143e
00000150: 13e8 e83c 51e8 0abe 7455 4bbe 4871 e8bd
00000160: 5178 c53b 56da 373e d63f ff3d 7830 d7bd
00000170: a8f9 3a3e 536d b83c 62e7 36be 776a 02be
00000180: 47af 903d ba6f 323e cddc 993e cc52 263e
00000190: 6d45 3c3e 7d26 c03d 28a6 043e 1e6b fe3c
000001a0: 8e98 9abd cc38 ac3c b508 e53d 201d c43d
000001b0: a987 323e 6234 eabc 277e ab3d 3609 ad3d
000001c0: b6be 7b3d 497f 2c3e 7036 433e 0b41 9c3d
000001d0: 8edd 95bd 6c17 313d 211d 1abd 2869 6c3e
000001e0: 2471 193d c7da 6c3e 9229 163e 6f44 9abd
000001f0: a839 243e a787 27bc 1b1d 463e e5d1 143e
0.0017355633 0.16803229 0.21810295 0.07251937 0.077535495 0.11584403 0.08617871 0.10020118
-0.014225081 -0.19683519 0.15446739 -0.02719395 0.057714753 0.08189201 0.0115293 0.08409809
-0.18785834 -0.056244917 -0.061364897 0.051833507 -0.018171052 0.10971937 -0.16513345 0.1419989
-0.13990757 -0.014693693 0.14137976 0.09437654 0.057455037 0.0077844067 -0.03454453 0.04882646
-0.029391836 -0.081994146 0.14166342 0.022169754 -0.005930595 0.12531924 0.19655684 0.4452914
-0.08119389 0.16999339 0.27622387 0.042655423 0.25264585 -0.007916523 0.17721175 0.092072204
-0.0018433479 0.08241545 0.16221032 0.07764027 0.17274009 0.20605177 0.086223416 0.13790028
-0.023100324 0.17247118 -0.14207472 0.09650362 0.3026146 -0.018618762 -0.15552141 -0.01848916
-0.07374634 0.10260509 -0.11668339 -0.0003623052 0.1410055 0.20134825 -0.1651569 0.06841395
-0.027908623 0.06405391 -0.105861954 -0.090130016 0.07353536 -0.15975519 -0.089281246 -0.14358579
-0.12614974 0.048922967 -0.13286471 0.14471652 0.028430974 -0.13565184 -0.19856817 -0.11349732
0.0060263057 0.17954382 0.124633476 -0.105072916 0.18259299 0.022513067 -0.17861703 -0.12735926
0.070646815 0.17425433 0.3005127 0.16242522 0.18385859 0.09382341 0.12954009 0.031056937
-0.07548629 0.021023177 0.11183301 0.09575868 0.17434563 -0.028589431 0.08373671 0.084490225
0.061461173 0.1684543 0.19063735 0.076295935 -0.07317649 0.043235227 -0.037625436 0.23086989
0.037461415 0.23130332 0.14664295 -0.07532584 0.16037619 -0.010225213 0.1934704 0.14533193

lstm.weight_ih_l1 f4 [128, 32]
00000000: c40b 2dbe 20ba 483d f4ac 9ebe 2016 853e
00000010: 6cc2 9b3e 6dee d63c afc6 fc3d e767 733e
00000020: a913 51bd b27b 7e3d 575a c6ba cc09 a23d
00000030: 5ca7 ca3d 77d5 38be 5127 24be c924 d4be
00000040: 131f 25be 2240 803e eed4 34be 71e9 8d3d
00000050: 4b25 a33b db9e 683c 21eb b23c c3df 613e
00000060: 7626 6f3e 7c50 85bd 4aa1 8c3d d5f4 30bd
00000070: 1f7f d33c 50f1 76bd 74d5 88be 17a3 173d
00000080: adbe 26be 77b2 fcbc e84b e8bd bf61 1c3e
00000090: a57e 323e 6d39 f23d aa23 1dbc ca2a 4b3e
000000a0: f49e 93bc b4c8 f7bc ce09 47be c45d 6ebe
000000b0: f06f 363e c5e8 d7bd 1d08 b5be 28ed 4cbe
000000c0: 9b3e adbe 525d 393d a4c3 a43d a86d 6a3d
000000d0: cffd 0fbe 895b 68be 4f7b 42be f3a7 0b3e
000000e0: 0d56 3b3e 3ca2 89bd 44d1 b13c e4fc bdbc
000000f0: 5f14 e83d 01dc 04be 01d0 3e3d f6a8 ad3d
00000100: c1a1 0e3e d935 573d c56b cfbe 770f 4d3d
00000110: 14b5 473e df14 b23e f442 f9bd 7fe8 8b3e
00000120: 0e38 44be d3db 9dbe 774b 2c3d 65f9 83be
00000130: f2f5 bf3e 741f 77be 9868 1fbe bbc0 9dbe
00000140: e744 77be e558 b13d e6ae f9bd ff0c 8f3e
00000150: b601 1ebe 7c78 5ebe bf2c 8ebd 4d0d 873e
00000160: c412 b23e 82d7 87bc 6b72 f7bd 0f3d 683b
00000170: d93f 5c3e 405f afbe e72b 34be 8fc4 d13e
00000180: f29a 1d3d 8bd4 f23d 46b5 6bbc 69cb 8f3e
00000190: 451a bb3e 6597 9fba 4796 62bc abfe da3d
000001a0: c43e c33d 2ed2 2abe b8b0 dabd f57e b0bd
000001b0: 16a3 4e3e 29d6 3ebe f450 993d dc46 ddbd
000001c0: d6a8 e5bc dbda 5d3e 87e1 ba3d 28ba 093e
000001d0: 5cf9 993d 5ec5 88be 1964 8ebd 639b 873e
000001e0: 54e6 4b3d 7f0e 553e e528 8ebd 097d c83d
000001f0: f1fb 813d cfe5 89bc d555 00be 2423 a0bd
00000200: 2f91 f5bd a992 843d b894 d5bd 60aa a23e
00000210: 5fdd e53d 73fa 933d e2e9 903d b583 3ebd
00000220: d3f6 7e3e 57bc 1bbe 204c 403b 8493 41be
00000230: 507b 4a3e 0714 9bbd dcf8 57be ee0a 37bd
00000240: 6426 22be df7c c23c 2f89 42bd a55a f5bc
00000250: 149e 0e3d 1b29 20be ecb4 293d b096 e43a
00000260: 19d7 0c3e 8875 1d3e aa13 603e eda1 a9bd
00000270: dc24 a1bd 4754 73bd 1e59 edbd 4548 1d3d
00000280: 6321 d63d 8937 aa3d 91b4 ae3b d046 d3bd
00000290: f0d0 4e3d 490b 2e3e 85b1 df3d 6144 833e
000002a0: 213f 7c3c 8763 c3bc 0316 12be c9cd 8cbd
000002b0: 7f0c 9a3d 9c9f 493d c185 6fbd aff4 b1bd
000002c0: 1424 1a3c 7a2f 273e a22e 97be a7cf 353d
000002d0: c299 963e 3eaf 15be a95b 52be 49a1 6b3e
000002e0: b82b a33e ad1d d03c e696 b8bd 708a 6cbe
000002f0: 8059 a1b5 d3e8 243d c3a5 983c c972 313d
00000300: a82e 50be c677 963b 310b 53be c769 1b3e
00000310: 7d55 e23c 6a19 ba3d 4730 50be 00ba 023e
00000320: 2077 d6bb cd2d d43c 2fa6 3bbe c221 69bd
00000330: 4270 b93e fae4 ccbd 35c8 6dbe ce1b cbbe
00000340: 0feb 8bbd fbe7 133e a4b3 663d 38ad 193e
00000350: 859c 813d 8d8d 5ebe f330 b2be 9098 753d
00000360: b637 3eba 10c3 8e3e 997d f7bd ea0b 4abe
00000370: 73b4 90bc 9031 d3be 6c2f cd3d d2e5 cd3e
00000380: a7bb a3bd e4f7 ca3d 7f94 06be dce4 603d
00000390: f028 f93c 1ac9 41be af3e 073e d586 a2bd
000003a0: 577c 49bc 1f85 58bd fc31 06be 0f4f 0dbe
000003b0: ec0a 553e 8575 b4bd 5f6a 28be 0c21 cdbd
000003c0: 627e babe 1b0c eb39 fbe0 86bd 7ebc 053e
000003d0: cbdb 133c a238 e2bd c82b 0dbe 51e8 543c
000003e0: 9afe 093c c241 a13e 97e8 653e fb7d 39be
000003f0: f4fe 3a3e e320 4fbd 5a92 0fbe a106 5e3e
-0.1689902 0.049005628 -0.30991328 0.25993443 0.3042177 0.026236737 0.123425834 0.23770104
-0.05104414 0.062129684 -0.0015133125 0.07912025 0.098952025 -0.1805018 -0.16030623 -0.41434315
-0.16125135 0.2504893 -0.17659351 0.06929291 0.004978811 0.01419803 0.021840634 0.22058015
0.23354515 -0.06509492 0.06866701 -0.04320224 0.025817452 -0.060288727 -0.26725352 0.03702077
-0.16283675 -0.030846817 -0.11342603 0.15271662 0.17431124 0.11827359 -0.0095910225 0.19840541
-0.01802013 -0.03024707 -0.19437334 -0.23277956 0.17816138 -0.10542444 -0.35357752 -0.20012343
-0.33836827 0.045255013 0.08045128 0.057233483 -0.14061664 -0.22691168 -0.18992351 0.13638286
0.18294545 -0.06720397 0.021706231 -0.023191877 0.113320105 -0.1297455 0.046585087 0.08479492
0.13928892 0.052541588 -0.4051191 0.050063577 0.1950267 0.34781548 -0.121709734 0.27325818
-0.19162008 -0.30831775 0.042064156 -0.2577621 0.3749233 -0.24133092 -0.15567243 -0.30811104
-0.24147378 0.086595334 -0.12191562 0.27939603 -0.1543034 -0.21725649 -0.069421284 0.26377335
0.34779942 -0.016582254 -0.1208237 0.0035436784 0.21508731 -0.34252357 -0.17594872 0.40970275
0.038477845 0.118569456 -0.014386481 0.28084877 0.3654348 -0.0012175856 -0.013829774 0.10693105
0.09533456 -0.1668174 -0.10678238 -0.08617965 0.201794 -0.18636383 0.07486144 -0.10804531
-0.028034609 0.21665518 0.09125047 0.13449919 0.07518265 -0.2671308 -0.06952686 0.26485738
0.049780205 0.20806311 -0.06941394 0.097894736 0.06346882 -0.016833214 -0.12532742 -0.078192025
-0.11990582 0.06473286 -0.104287565 0.3177061 0.11223864 0.07225504 0.070758596 -0.046512324
0.24898843 -0.15208565 0.002934225 -0.18903929 0.19773602 -0.07572179 -0.21091026 -0.044688158
-0.15834957 0.023741184 -0.04749411 -0.02995045 0.034818724 -0.1564068 0.041432306 0.0017439928
0.13753928 0.15376866 0.21882501 -0.08282838 -0.078683585 -0.059406545 -0.115892634 0.038399
0.10455587 0.08311374 0.005331584 -0.10316241 0.050492227 0.16996492 0.10922531 0.25638106
0.0153959105 -0.02385117 -0.1426621 -0.06875188 0.07521915 0.04922448 -0.058477167 -0.08689248
0.009408016 0.16326705 -0.29527766 0.044387486 0.29414183 -0.14617631 -0.20542778 0.23010744
0.31869292 0.025404776 -0.090131566 -0.23099685 -1.2021483e-06 0.0402611 0.018633729 0.04332236
-0.20330298 0.004591915 -0.20609738 0.1517707 0.027628655 0.090868786 -0.20330916 0.12766266
-0.0065449625 0.025900746 -0.18325113 -0.05691696 0.36218458 -0.10004611 -0.23220904 -0.3966965
-0.06831943 0.14443962 0.056323662 0.15007484 0.06328682 -0.21733685 -0.3480297 0.059959948
-0.00072562264 0.27883196 -0.12084503 -0.19731107 -0.01766417 -0.4124875 0.10018811 0.402144
-0.07994776 0.09910563 -0.13142584 0.054905757 0.030415028 -0.1892437 0.13207506 -0.079358734
-0.012297711 -0.05286133 -0.13105005 -0.1379969 0.20804948 -0.088114776 -0.16446827 -0.10016069
-0.36424547 0.00044831712 -0.0658588 0.13060185 0.009024571 -0.11045958 -0.13786232 0.012994842
0.008422518 0.31495482 0.22452007 -0.18114464 0.1826132 -0.050568473 -0.14020672 0.21682216

lstm.weight_hh_l1 f4 [128, 32]
00000000: bf56 313e 1de6 4e3d 6166 b63d 1364 e63d
00000010: 0898 893e baec 5bbc 4c9a 85be fdf4 e43c
00000020: f01b 9e3e be18 9e3e b9f5 b53d a043 c33c
00000030: 95ac cb3d 0c7e 7dbd be3f fabd 0a40 6b3e
00000040: ccdb c33b 21ca 19bd 7890 373e 399a 7cbe
00000050: 981a 01be 5466 a0bd bd16 763e f11a 0bbc
00000060: 56ba 05be 0ce0 a33d 6b51 6b3d 9a34 79bd
00000070: 34f8 023e 45f8 353d dd69 e0bc 79ef 873e
00000080: c1f5 503e c204 763e 04d7 103d f2da 2bbe
00000090: baa5 9dbc e171 debd 0a36 41bd e35a 44be
000000a0: eef2 673e d7f2 2e3e 6aac 103c 0af6 14be
000000b0: 8f33 823e 2774 8dbe 1f43 26be 7afe 043e
000000c0: 4b2e 3e3e 83ae 31bd acdf 313e fb8d 0a3c
000000d0: e90e febd 2c17 f7bd 0340 3b3e f0b6 0b3e
000000e0: 0374 77bc e9ed 913d af41 78bd b4b7 99be
000000f0: 229e d4bd 5f98 f0bd 08aa aebd 330c 3c3e
00000100: 7fd3 753d 620e 84bd e505 41be d920 afbe
00000110: 654f dcbd 244d be3d f640 bcbc 0e20 533d
00000120: 730d ad3d 8ccc 3fbc 655b ce3c c14f 78be
00000130: 5138 503d ee82 b53d 1899 2ebc fb63 823d
00000140: 9fb8 f8bd e008 81bd 032c 39be e0ab 7dba
00000150: 425b b43d a06c c8bc 9cba 883d 2673 793e
00000160: 3c81 61be 50f4 01be 36cf 83be c16f 1cbc
00000170: 7dfc 49be e9c5 0c3e 43da b13d ec1d 7ebd
00000180: 06ca 823e d0de 393e ec28 b03e d236 29be
00000190: 0095 763d 6f0e 03be 3ff8 0ebd c2a1 19bd
000001a0: a32a 243e 88ef 3b3e 2310 c53d 26c8 14be
000001b0: 5e0e b93e 840c a5be 561b ddbd a5c5 c43d
000001c0: 86c0 8e3e 167a 39be ee7b a63e a1ce 33be
000001d0: bea8 88be 8c88 d8be f6fd 393e b96a 143d
000001e0: ec3a 98be f52b b03d ee85 803e dba7 debd
000001f0: b5a4 5ebe 48cb bfbe b786 68be ee64 843e
00000200: 1c14 0e3d 30b8 243d 777b dabc c619 023d
00000210: c5b8 233e e28c cabd 9d99 92bd 0d38 96bd
00000220: 94e2 cdbd 91ca 863e e9bb e43d a66e 66bd
00000230: d26e 2c3e d2a4 7b3d 1878 9fbd b1bc 973e
00000240: cba3 803e 349f 8bbd 78cb e83c 7724 3fbd
00000250: 6dd7 10be 7755 a3bc d3d6 c83d ef4a 7b3e
00000260: c143 643d 9501 a43e 264e 8a3e 3eaa 87be
00000270: 2327 a73c d5ce 5dbe 4037 99be 5ae1 0a3e
00000280: 4b6e 8c3e b571 6fbd 1690 8d3e 0c11 93bd
00000290: 970d d73d 5120 79bc de1b d5bd 4316 e5bd
000002a0: a334 6c3e 0de1 683c 5cf4 8f3d 7ced 863a
000002b0: 2bdc e7bd 1a9b 53bd 78ea 59bd fd67 203d
000002c0: e257 b3bd da5a adbc 059b 5e3e 2125 d3bd
000002d0: c017 a3bd 6af0 b13d 9a65 d43c dc8b 533d
000002e0: 8a57 62be 0b0e 7b3d 1727 bd3c db57 2bbe
000002f0: 8087 e13d 541a 07be 10a1 2abd 1151 41bd
00000300: d74f 433c ad0d de3c 7436 953d f821 bdbd
00000310: 19ec db3d ae05 893d f0ec 20be 4c4b 2ebe
00000320: a6ad 253e 1701 e63d 5d22 32be e30c 3bbe
00000330: 774d f9bd ae72 8f3d d9b1 38be ed00 2d3e
00000340: 87e8 d93d d918 09bd bf15 1a3e e776 b7bc
00000350: cc61 573d 5b1d f6bc 7b00 efbd 24ba 743e
00000360: 595d cfbd 226f c5bd b1d1 69be 3452 963b
00000370: 6a7a a53d 8524 4bbd 3bfc 82bd ea82 18be
00000380: fbf2 adbc 4c76 05bd 46e2 2e3e aa60 15bd
00000390: 7f8f 473e 1ae1 2bbe 992d 51be 585d 05be
000003a0: ff20 9abd c47c 903e 6ec1 383d 4064 e5ba
000003b0: 8216 883d cffe 3dbe ca4e 83be 1814 953c
000003c0: f9b7 353d 794c a63b d8b6 bcbd 1344 8abe
000003d0: 3924 18be b41e 5dbe 05e4 0b3d 1cc2 733e
000003e0: e018 a5bd c717 1c3e 529e 143e ea25 e7bd
000003f0: 91db 27bd e0e6 4fbd f28b 12be 7170 8e3d
0.17318247 0.050512422 0.08906246 0.112495564 0.26873803 -0.013423139 -0.26094282 0.02794885
0.3088069 0.30878252 0.088847585 0.023835957 0.09945027 -0.061887786 -0.12219189 0.22973648
0.0059771296 -0.03754628 0.17926204 -0.24668206 -0.12607801 -0.078320175 0.24032111 -0.00849031
-0.13059363 0.08001718 0.057450693 -0.06084118 0.12789994 0.04442622 -0.02739423 0.2654989
0.20406248 0.24025252 0.035361305 -0.1678274 -0.019244064 -0.108615644 -0.047170676 -0.19175296
0.22651264 0.17084824 0.008830169 -0.14546981 0.2542996 -0.2762768 -0.16236542 0.129877
0.18572347 -0.043379318 0.1737048 0.008456702 -0.12405188 -0.120649666 0.18286137 0.13644004
-0.015103343 0.07125456 -0.060609516 -0.30022967 -0.10381724 -0.117478125 -0.08528525 0.18364029
0.06001615 -0.06448056 -0.18849905 -0.34204748 -0.10757331 0.09292057 -0.022980195 0.05154424
0.08449831 -0.011706483 0.025190065 -0.24249174 0.050834958 0.088628635 -0.010656618 0.06366726
-0.12144589 -0.06300521 -0.18083195 -0.00096767955 0.088064685 -0.024465859 0.06676218 0.24360332
-0.22021955 -0.12690854 -0.25744027 -0.009548129 -0.19725223 0.13747372 0.08684208 -0.062040254
0.25544757 0.18151402 0.3440622 -0.16524819 0.06020069 -0.12798475 -0.034904715 -0.03750778
0.1603189 0.18353093 0.096222185 -0.14529476 0.36143774 -0.3223611 -0.107962295 0.0960801
0.2788126 -0.18112978 0.32516426 -0.17559291 -0.2669124 -0.42291677 0.18163285 0.03623459
-0.29732454 0.08602134 0.2510218 -0.1087186 -0.21742518 -0.3745978 -0.2270764 0.25858253
0.034687147 0.040214717 -0.0266702 0.03176286 0.15988453 -0.098901525 -0.07158206 -0.073349096
-0.10052982 0.2632642 0.111686535 -0.056257866 0.1683915 0.06143648 -0.07786578 0.29636148
0.25124964 -0.06817475 0.028417334 -0.046665635 -0.14144678 -0.019938214 0.098065995 0.24540304
0.055728678 0.32032457 0.27012748 -0.26497072 0.020404404 -0.21660931 -0.29924965 0.13562527
0.27427897 -0.05845805 0.2764899 -0.07180986 0.10500639 -0.015205459 -0.10405706 -0.11185887
0.23066954 0.014213813 0.0702903 0.0010294165 -0.113212906 -0.05166159 -0.053202122 0.03916167
-0.08756997 -0.021161485 0.21738823 -0.10309816 -0.07963514 0.086884335 0.025927354 0.051647052
-0.22103706 0.06129269 0.023089929 -0.16732733 0.11012173 -0.13193637 -0.041657507 -0.04719645
0.011920891 0.02710613 0.07285777 -0.09234995 0.107383914 0.066905364 -0.15715384 -0.17020911
0.16179523 0.112306766 -0.17395921 -0.18266635 -0.12172978 0.07004295 -0.18036593 0.16894884
0.10640054 -0.033470962 0.15047358 -0.022395564 0.0525835 -0.030043295 -0.116700135 0.23899132
-0.101252265 -0.096403375 -0.22833897 0.004587436 0.08079989 -0.049595375 -0.063957654 -0.1489369
-0.021234026 -0.03258352 0.17078504 -0.03646914 0.19488333 -0.16785088 -0.2042755 -0.13023889
-0.07525825 0.2822019 0.045106344 -0.001750119 0.06644918 -0.18554233 -0.2564605 0.018198058
0.044364903 0.005075034 -0.09214562 -0.27005062 -0.14857568 -0.21593744 0.034153003 0.23804516
-0.08061385 0.15243445 0.1451352 -0.112865284 -0.04098088 -0.05075729 -0.14311197 0.0695504

lstm.bias_ih_l1 f4 [128]
00000000: 7459 783e 1f79 e3bc 642a bebd 41d5 943e
00000010: 6447 3f3c ac76 023e 29b7 ffbd 9c40 8c3d
00000020: 1d39 d2bc 4066 d43d 11c8 843e 6fbe 123c
00000030: 3437 40bd 6c05 443e 1207 2b3e 3bf3 be3b
00000040: 9d9b acbb 4f7d a03c c361 35bd 84ee 9d3b
00000050: 5273 cfbd a795 873d 31ea a4bc ac84 57bd
00000060: ef6d 1cbd 49e1 5d3e 6205 0e3e 948f 5d3e
00000070: b221 0d3e dc93 703d fa6d c4bd a557 003d
00000080: 44f1 923d 7986 2f3e 2e4a 96bd 03b5 d9bd
00000090: d8f8 c63d 94c7 7b3e a96e 263e 26f8 593e
000000a0: 3819 143e 656b 1c3e c2a3 2fbe e42f 823e
000000b0: de2b a1bd 3049 3bbd 4b0f 223e f013 443c
000000c0: 3500 c83c d19e da3d 1eb5 933d 2465 913c
000000d0: 2db9 9ebc b852 14bd da76 f1bd 028e 10be
000000e0: 9d21 61be a44e 253e 5e62 6c3e b8f4 33bd
000000f0: 1235 13be c0a4 20be 970c 383e f107 a6bd
00000100: a3a8 c23d dd54 1e3d fd96 343e aadb 4b3d
00000110: 82b0 153e 2678 12be cb49 69bd 9d16 15be
00000120: 00ee 95bb 5f9b 9ebc 6f39 96bc 94ea 59be
00000130: 023d 503e 4c6c b4bb 8761 51bd 72fd 773d
00000140: 75e5 323e fde5 a6bc 317b 933d d0c8 43be
00000150: 6346 66bd 88b3 863c ae6d ff3b 8e99 573e
00000160: 3592 b9bb 2e98 8bbd 951c 9f3d 39a8 43be
00000170: ee81 4fbe f5f9 853d 93f5 87bd 021a 6a3d
00000180: 8419 093e f8ac 633d d969 07be b474 303e
00000190: bdb6 a1bd 5909 293e a0cb 493e 4a22 a1bd
000001a0: f082 293e a141 1f3d 4f19 de3d 43d0 5c3c
000001b0: 0533 133e 4376 2e3e 7b94 643e 2388 68bd
000001c0: 41c5 1d3e 7c6c 0d3e 2b71 a43d 03b9 843d
000001d0: 956f 773e 8745 34bc 02b6 69bd c80a 913e
000001e0: c3cd 43bc acd0 38bd 2e06 343e 159b 673e
000001f0: bf9d 2bbd fc0c 293e fcc2 143e 06a3 e5bc
0.24252874 -0.027767716 -0.09285429 0.2906895 0.011674736 0.12740582 -0.12486107 0.06848261
-0.025662 0.10371065 0.2593389 0.008956536 -0.046927646 0.19142693 0.16701916 0.005827335
-0.005267574 0.019591002 -0.044282686 0.004819693 -0.101294175 0.06620341 -0.020131202 -0.05261676
-0.03819078 0.2166797 0.13869241 0.21636802 0.13782385 0.05873476 -0.09591289 0.031333584
0.07174924 0.17141141 -0.073383674 -0.10630228 0.09715432 0.24587852 0.16253151 0.21286067
0.14462745 0.15275343 -0.17152312 0.25427163 -0.07869695 -0.045724094 0.15826146 0.011967644
0.024414161 0.10674823 0.0721228 0.017748423 -0.019375408 -0.0362117 -0.11790247 -0.14116672
-0.21985479 0.1614328 0.23084399 -0.043934554 -0.14375713 -0.15687847 0.17973553 -0.081069835
0.09504821 0.03865515 0.17635722 0.049770035 0.14618114 -0.14303645 -0.05695514 -0.14559408
-0.004575491 -0.019361196 -0.018337933 -0.2128089 0.20335773 -0.005506074 -0.0511184 0.06054444
0.17470343 -0.020373339 0.07201231 -0.19119573 -0.05621947 0.016443029 0.0077950573 0.2105467
-0.005663181 -0.06816135 0.077691235 -0.1910714 -0.20264408 0.06541816 -0.066386364 0.05715371
0.1338864 0.055584878 -0.13223971 0.17232019 -0.07896183 0.16507472 0.19706583 -0.07867868
0.16553855 0.038880948 0.10844671 0.013477388 0.14374931 0.17037301 0.22322266 -0.056770455
0.15407278 0.13810915 0.080293976 0.06480601 0.24163659 -0.011002905 -0.05705834 0.28328538
-0.011950913 -0.04512088 0.17580482 0.22617753 -0.041898485 0.1650886 0.14527506 -0.028031837

lstm.bias_hh_l1 f4 [128]
00000000: 7ac7 283e 0950 8b3c ed42 1bbb 879a f33c
00000010: 74ac 213e ce3e 663d 3a43 e2bd 30f4 0dbc
00000020: 97e3 873d d682 643e 8d37 42bc 93f1 213e
00000030: 8f99 543e a6ea 25bd 659b afbd a5ed 2a3d
00000040: e177 8b3c 7e7d cd3d f6d9 07be c4ba cb3b
00000050: 86a4 c5bb e38d 94bc 06bd 363e 2e8a a63d
00000060: 4ba8 213e 816d bcbd 6c48 503e 71f8 fc3d
00000070: b29e 1fbe 20d8 17be d51c 273e b912 83bd
00000080: b3dd 473e db35 703d 57b7 b23c 4ad8 633d
00000090: bf8b 0f3e b904 093e 5370 0ebe 9ee9 033e
000000a0: c08e 1b3e 7f7c 3a3e 79cb fa3c 8885 013e
000000b0: c40a e7bc 9206 cf3c 6c9a 94bd 98bf 6d3e
000000c0: 8d0d 5b3e ef51 4fbe f4b0 32be 6f53 963d
000000d0: 9dc9 b3bd 8a95 f43d c4b9 e83d 078c 0abe
000000e0: 7177 323d 1464 f5bd e2fd 2f3e a57d 8bbc
000000f0: 137e 0abe dd94 863d b7d2 d8bd d4e4 753e
00000100: 270c 993d eb47 6c3e 9787 473e 1b99 b0bd
00000110: 4c8e 533e 3787 31bd 8f99 46be e8a3 e1bd
00000120: b789 5b3e 0a0d 4c3d 769e 8a3d eae3 06be
00000130: 2692 3b3e b635 cebd 7c1a 0abe 9247 f03d
00000140: 4bf5 5c3e e27a 553c 89a2 8e3d d0e1 66be
00000150: 254c e43c 3da9 9dbd 702f 573d 5c9d 43bd
00000160: 1f71 d43d b82a ef3d c4c5 f1bd 6f07 69be
00000170: bfbb b73d fb74 94bc 5ec4 4ebe 2dec e83d
00000180: d112 d0bc 416f c8bc c5d8 dcbc 86ba 4c3d
00000190: 952c 393e 8200 63bc 2810 80bb 2c41 023e
000001a0: cee6 823e cd98 963d e70f b53c 92c6 7c3e
000001b0: b7ba 01be 6b66 7b3e 0724 993d f426 b2bb
000001c0: 558d 713d 17eb 9abd 5dc8 73be 6e29 8fbd
000001d0: c266 d7bd 0d18 61bc 1704 e2bd cf44 343e
000001e0: 71f1 113e bd36 bd3d 91ba e43d c3bf 553c
000001f0: 1772 523e 9ccc 0cbe 3ea7 113e a028 f0bd
0.16482344 0.017005937 -0.0023691014 0.02973677 0.15788442 0.05621224 -0.11047979 -0.008664176
0.06635206 0.22315535 -0.011854065 0.1581481 0.20761703 -0.04050698 -0.08574561 0.04173054
0.017024936 0.10033701 -0.13266739 0.0062173326 -0.0060315756 -0.018134063 0.17845544 0.081318244
0.15786855 -0.09200574 0.20340127 0.12352074 -0.15587881 -0.14828539 0.16319592 -0.064000554
0.19518165 0.05864511 0.021815939 0.05562619 0.14018153 0.13380708 -0.13910036 0.12882087
0.15191174 0.18211554 0.030614601 0.12648594 -0.028203376 0.025271688 -0.07256016 0.23217618
0.21391888 -0.20246099 -0.17450315 0.073401324 -0.08778689 0.11942585 0.11363557 -0.13529979
0.04357094 -0.11981979 0.17186692 -0.017027685 -0.13524656 0.06571362 -0.10587066 0.24013072
0.07473021 0.2307431 0.19485317 -0.086229526 0.2065975 -0.04334184 -0.19394515 -0.11017591
0.21439253 0.049817123 0.06768505 -0.1317288 0.1831747 -0.10068838 -0.13486665 0.11732401
0.21577947 0.013029786 0.06964595 -0.22547078 0.02786834 -0.07698295 0.052535474 -0.04775749
0.10373139 0.1167807 -0.11805299 -0.22756742 0.089713566 -0.018122187 -0.20192096 0.11373172
-0.025399597 -0.024467112 -0.026958833 0.04998257 0.18083413 -0.013855102 -0.003908176 0.12720174
0.25566715 0.07353363 0.02210231 0.24685124 -0.12668882 0.24550788 0.07477575 -0.0054367725
0.058972675 -0.07564371 -0.23806901 -0.06990324 -0.10517646 -0.013738644 -0.11035936 0.17604373
0.14252259 0.09238956 0.11168397 0.013046208 0.20551334 -0.13749927 0.14223954 -0.117264986

fc.weight f4 [3, 32]
00000000: ea5c cf3f db2c d03f 6bc2 c73f 4f9d bfbf
00000010: 69a2 bc3f 4269 cabf b0b4 c1bf fb66 b1bf
00000020: 8c68 cc3f bbe3 d23f 49ce b83f f3d4 bebf
00000030: 51d7 c13f 6ffd c8bf 99d7 aebf 0b24 d13f
00000040: e2f6 c13f 310e b7bf 6451 be3f 3d3a c9bf
00000050: 25c0 b4bf 781e d2bf df40 c33f f872 d33f
00000060: 6a36 cbbf e1ea cd3f 1f2a d03f f5f3 b2bf
00000070: e744 dabf 5487 cabf 4006 d3bf b52e d63f
00000080: cd8d cb3f 5f7b c93f 95ec c63f 73d8 d2bf
00000090: 9326 cc3f 65fa abbf 6b3c d0bf c722 d0bf
000000a0: 433a c83f 8fc6 d43f 93c7 d53f b3f9 cabf
000000b0: 880d b63f 0157 c8bf 3452 babf 7382 cd3f
000000c0: 342d ad3f 63ba d2bf 2069 c13f a2d7 c6bf
000000d0: a2bf c8bf 2c99 ccbf 7b00 c73f ff7e d13f
000000e0: ecc7 d8bf 6795 c43f 5015 c63f cb10 c9bf
000000f0: 6c38 c2bf c3cd d0bf e587 b3bf c607 d43f
00000100: 6c35 b63f 4c73 c13f 37ff ba3f b70b cfbf
00000110: 03c3 d03f fdb1 c4bf c518 c7bf 0dc3 d0bf
00000120: 463e d23f 49cd b03f 42bd d33f c090 d1bf
00000130: 2bea cc3f 741f b1bf e40a d0bf c7c2 aa3f
00000140: a917 be3f 5947 c1bf 1be1 c83f e5d2 cdbf
00000150: 6f10 d2bf 1cd4 cbbf d614 d23f c1b1 d73f
00000160: 6206 b7bf 5088 d43f c97c cb3f 3b1b cebf
00000170: ccaf c7bf f141 bfbf 194f b6bf 4b83 be3f
1.620023 1.6263689 1.5606207 -1.4969882 1.4737064 -1.5813372 -1.5133266 -1.3859552
1.5969405 1.6475748 1.4437953 -1.4908737 1.5143834 -1.5702342 -1.3659545 1.6339124
1.5153468 -1.4301206 1.4868588 -1.5720898 -1.4121138 -1.6415548 1.5254172 1.6519461
-1.5875981 1.6087304 1.6262854 -1.39807 -1.7052277 -1.5822549 -1.6486282 1.6733004
1.5902649 1.5740775 1.5540949 -1.6472305 1.5949272 -1.3435789 -1.6268438 -1.6260613
1.564278 1.6623095 1.670153 -1.5857452 1.422288 -1.5651551 -1.4556336 1.6055435
1.352942 -1.6463131 1.5110207 -1.5534556 -1.5683482 -1.5984244 1.5547022 1.6366881
-1.6936011 1.5358094 1.5475254 -1.570825 -1.5173469 -1.6312793 -1.4025847 1.6564872
1.4235053 1.5113311 1.4609135 -1.617545 1.6309513 -1.5366818 -1.5554434 -1.6309525
1.6425254 1.3812648 1.6542132 -1.6372299 1.6008962 -1.3837724 -1.6253324 1.3340691
1.485097 -1.5099899 1.5693697 -1.6079985 -1.6411265 -1.5924106 1.6412609 1.6851121
-1.4298823 1.6604099 1.5897456 -1.610206 -1.5600524 -1.4941999 -1.4242889 1.4883817

fc.bias f4 [3]
00000000: 8c17 9e3f 1c50 8f3f ea60 a73f
1.2350936 1.1196322 1.3076451
