models/cloud_ann_model.pth (torch, 27288 bytes, 6 tensors)

model.0.weight f4 [32, 154]
0	0xbe6879c1	-0.22702695
1	0x3c927da6	0.01788218
2	0xbe24e0b5	-0.16101344
3	0x3d38d322	0.045123227
4	0x3c971149	0.01844086
5	0x3d2920ab	0.04129092
6	0xbea79ad8	-0.32735324
7	0xbe493239	-0.19648065
8	0xbc197a7c	-0.009367581
9	0x3e3f8a80	0.18705177
10	0xbe04321d	-0.12909742
11	0x3e66f304	0.2255364
12	0xbbcda2c8	-0.0062755086
13	0xbe0bb6e8	-0.13643992
14	0xbed9ee59	-0.42564657
15	0x3ea55505	0.32291427
16	0x3e2f3f3b	0.17113964
17	0xbea87990	-0.32905245
18	0xbd9d71e8	-0.076877415
19	0xbd61028c	-0.05493407
20	0xbddc2738	-0.10749668
21	0x3d8f4720	0.06995988
22	0xbe5a389b	-0.21310656
23	0x3d5b4504	0.053532615
24	0xbd69ac09	-0.05704883
25	0xbe2a4501	-0.16627885
26	0x3e050582	0.12990382
27	0x3d91afc0	0.071136
28	0xbe801d3e	-0.2502231
29	0x3e1d5bc0	0.15367031
30	0x3e4a2d7d	0.19743915
31	0xbd7f7c8d	-0.06237464
32	0x3cdc6a4c	0.026906155
33	0x3dd0aed1	0.101895936
34	0xbeb72774	-0.35772288
35	0xbeaed940	-0.34150124
36	0xbecb71df	-0.39735314
37	0x3e574902	0.21023944
38	0xbd1849d6	-0.03717979
39	0xbe7ee72b	-0.24892871
40	0x3daedb14	0.085378796
41	0xbdb9cfe0	-0.09072852
42	0x3d8552fc	0.06509969
43	0x3e410e55	0.18853123
44	0xbcdd8875	-0.027042607
45	0x3d184494	0.037174776
46	0xbecda7c3	-0.40167055
47	0xbdcac06a	-0.09899981
48	0x3c808b41	0.015691401
49	0x3cdd2156	0.026993435
50	0xbe7162ff	-0.2357292
51	0x3d874b63	0.06606176
52	0x3e9456ee	0.28972572
53	0x3ca4f0a9	0.020134287
54	0x3e181569	0.14851917
55	0xbd834ed6	-0.06411521
56	0xbdb88293	-0.0900928
57	0xbdf2e8b8	-0.11860794
58	0xbe9062ab	-0.28200278
59	0x3ed4fc1b	0.4159859
60	0xbe1021de	-0.1407542
61	0xbd8377dd	-0.064193465
62	0x3e3c36ca	0.18380275
63	0x3b00f35e	0.0019676308
64	0x3de74ccd	0.112939455
65	0x3e28b29e	0.16474387
66	0xbd87c8a8	-0.06630069
67	0x3e8c8e1e	0.27452177
68	0xbeaeb6e9	-0.34123924
69	0xbd69e306	-0.057101272
70	0xbe0d512e	-0.13800499
71	0x3c93b5af	0.01803097
72	0xbe5a1e12	-0.21300533
73	0x3cbd3934	0.023098566
74	0x3e6ef243	0.23334603
75	0x3dd15497	0.10221212
76	0x3e48513d	0.1956224
77	0x3e57a0d5	0.21057446
78	0xbb88d4d2	-0.004175761
79	0xbd9e2ba3	-0.07723167
80	0xbe1a9ff4	-0.1510008
81	0x3e8581b1	0.2607551
82	0x3c61c5c8	0.013780065
83	0xbdd4f131	-0.10397566
84	0x3e20a12c	0.15686482
85	0xbbf4fc1e	-0.007476344
86	0x3e132872	0.14370897
87	0x3d28ec6a	0.041241087
88	0xbe0c50d6	-0.13702711
89	0xbe4f34a5	-0.20234926
90	0xbe90a588	-0.2825129
91	0x3e233b13	0.15940504
92	0xbc502a38	-0.012705378
93	0x3d9de23b	0.07709166
94	0xbdd9ed27	-0.10640936
95	0xbda66492	-0.08124651
96	0x3e0b83f8	0.13624561
97	0xbe84853c	-0.258829
98	0x3e3fb2b8	0.1872052
99	0xbdef3979	-0.11680884
100	0xbe159a11	-0.14609553
101	0xbe23909a	-0.1597313
102	0xbdeb0c5e	-0.11476968
103	0x3e93d53a	0.28873616
104	0xbca137e6	-0.019679975
105	0xbd850d6c	-0.06496701
106	0x3e34c4c2	0.17653182
107	0x3d1c1ea6	0.038115166
108	0x3d46e165	0.048554797
109	0x3d77a08a	0.060455836
110	0xbe4d2270	-0.20032668
111	0x3e370f10	0.1787684
112	0xbe9d928e	-0.30775875
113	0x3dd50776	0.10401814
114	0x3b01b11c	0.0019789403
115	0x3e26969b	0.16268389
116	0xbe886116	-0.2663657
117	0xbe66baec	-0.22532243
118	0x3d354832	0.044258304
119	0xbd26213d	-0.040559042
120	0x3d8cc600	0.06873703
121	0xbe500011	-0.20312525
122	0xbe06099b	-0.13089602
123	0x3e7a8028	0.2446295
124	0xbe6485e2	-0.22316697
125	0x3d8e5538	0.06949848
126	0x3e0be24a	0.13660541
127	0xbdeb567a	-0.114911035
128	0x3d71773d	0.058951605
129	0xbd51f494	-0.05125864
130	0xbd1259b2	-0.03573007
131	0xbd102d5c	-0.035199508
132	0xbde66e85	-0.11251549
133	0x3e2a58f9	0.16635503
134	0xbe453293	-0.19257574
135	0xbc5cdac9	-0.013479897
136	0x3d31b89d	0.04338895
137	0x3e90800e	0.28222698
138	0xbdedc94a	-0.116106585
139	0xbea52f9c	-0.32262886
140	0xbdca60a8	-0.09881717
141	0xbe351123	-0.17682318
142	0x3e486390	0.1956923
143	0xbe83e369	-0.25759438
144	0xbecf3361	-0.40468886
145	0x3dda28b5	0.106522955
146	0xbe3159e1	-0.17319442
147	0x3e105103	0.14093404
148	0x3e331dc5	0.17491825
149	0xbe0704b5	-0.1318539
150	0xbd74676a	-0.059668936
151	0x3daec386	0.08533387
152	0xbe058e43	-0.1304255
153	0xbdea20c6	-0.11432032
154	0x3e19bb95	0.15012963
155	0xbe4f24f1	-0.20228936
156	0xbe67f20e	-0.2265093
157	0x3e9b5d5f	0.30344674
158	0x3c59aa44	0.013285223
159	0x3dcb1fb9	0.0991816
160	0x3e3e49f0	0.18582892
161	0x3d10cae0	0.035349727
162	0xbeae8f05	-0.3409349
163	0x3da43c33	0.080192946
164	0xbdb065bd	-0.08613155
165	0xbef4a739	-0.4778383
166	0xbe04fa6e	-0.12986156
167	0xbeceb25c	-0.40370452
168	0xbbd1c2da	-0.006401402
169	0x3d9cb5e9	0.07651884
170	0x3e461eed	0.19347735
171	0xbec6fb5e	-0.38863653
172	0xbd751ac4	-0.05983998
173	0xbe601e0b	-0.2188646
174	0xbe72ffdb	-0.23730414
175	0xbd386285	-0.04501583
176	0x3d0f6539	0.035008643
177	0xbe61ab7e	-0.22038075
178	0xbe033b68	-0.1281563
179	0x3dd82f4f	0.105558984
180	0xbd217f6a	-0.039428152
181	0xbda1b756	-0.07896297
182	0x3e261dfd	0.16222377
183	0xbbcef987	-0.006316367
184	0xbe7a93ec	-0.2447049
185	0x3c753868	0.014967062
186	0xbe01e852	-0.1268628
187	0xbe89b5a4	-0.26896393
188	0xbe8b3564	-0.2718917
189	0xbeb5287c	-0.3538245
190	0xbe835346	-0.2564947
191	0x3e0d2c80	0.13786507
192	0x3da4c928	0.0804618
193	0xbe7699b1	-0.24082066
194	0x3c7b0f90	0.015323535
195	0xbd0c107f	-0.03419542
196	0xbc778f7f	-0.015109896
197	0xbd08100f	-0.03321844
198	0xbdb9f03b	-0.090790235
199	0xbe81a751	-0.25322965
200	0x3c8eaf5e	0.017417606
201	0x3dd0a8e5	0.10188464
202	0x3d58b4f3	0.05290694
203	0xbdaaf3df	-0.08347296
204	0x3d7cd7a8	0.061729103
205	0x3e1bfab1	0.1523235
206	0xbe150b7b	-0.1455516
207	0xbd8b48ee	-0.068010196
208	0x3d61c380	0.055118084
209	0xbe2e3e21	-0.17015888
210	0xbe89dc26	-0.26925772
211	0xbe3f31f0	-0.18671393
212	0xbe3a3ff6	-0.18188462
213	0x3cdba533	0.026812172
214	0x3d94caef	0.07265269
215	0xbdc64c7a	-0.096825555
216	0x3da9054e	0.08252965
217	0xbe005ce2	-0.12535432
218	0xbdd4ced1	-0.103910096
219	0x3d76bd75	0.060239274
220	0x3a96c675	0.0011503237
221	0xbe663014	-0.22479278
222	0xbdecacc8	-0.11556393
223	0x3e22da06	0.15903482
224	0x3d83d9fa	0.0643806
225	0xbd26f0d5	-0.04075702
226	0xbda7da64	-0.081959516
227	0x3d08d6ab	0.03340785
228	0xbe1206f7	-0.1426047
229	0xbe645f94	-0.22302085
230	0x3d84b7a6	0.06480341
231	0xbd368e0c	-0.04456906
232	0xbe359e69	-0.1773621
233	0xbe139270	-0.1441133
234	0xbe94854d	-0.2900795
235	0xbe468346	-0.19386014
236	0x3c5b2942	0.013376536
237	0xbdfc5ed0	-0.123227715
238	0x3e18ad1e	0.14909789
239	0xbe05cc64	-0.1306625
240	0xbd86d900	-0.06584358
241	0x3c846e89	0.016165989
242	0xbd7a44cc	-0.061100766
243	0xbde4a912	-0.1116506
244	0xbd2ae8a7	-0.04172578
245	0x3dee229b	0.11627694
246	0x3d499a44	0.049219385
247	0x3bcd3674	0.006262595
248	0x3da22a00	0.07918167
249	0x3c46bfaa	0.012130657
250	0xbe82c445	-0.25540367
251	0xbd180b94	-0.037120417
252	0x3e89fcb5	0.26950613
253	0xbde2b268	-0.110691845
254	0xbe3450e6	-0.17608985
255	0xbe438d9c	-0.19096988

model.0.bias f4 [32]
0	0xbf005fde	-0.5014628
1	0xbe1564e5	-0.1458927
2	0xbf29c759	-0.66319805
3	0xbe047fe9	-0.12939419
4	0x3e9846bc	0.29741466
5	0x3da0a746	0.07844405
6	0x3c666804	0.014062885
7	0x3ebdbeaa	0.37059528
8	0x3e8791ed	0.2647852
9	0x3e7c98be	0.24667642
10	0xbe1f4d5a	-0.15556851
11	0xbee07c56	-0.4384486
12	0x3e05bcfd	0.13060375
13	0xbde09c5e	-0.10967325
14	0x3c502189	0.012703308
15	0xbe813335	-0.2523438
16	0xbcbdd346	-0.023172032
17	0xbe31bddc	-0.17357582
18	0x3e20c446	0.15699872
19	0xbf14ec0a	-0.5817267
20	0xbdaee418	-0.08539599
21	0xbe3ee24b	-0.18641011
22	0x3e67794d	0.22604866
23	0xbe79cec2	-0.24395278
24	0xbed1d192	-0.40980202
25	0xbda14cc2	-0.078759685
26	0xbd6395ab	-0.055562656
27	0xbe92f785	-0.28704467
28	0x3e72d24f	0.23713039
29	0x3d9735ab	0.07383283
30	0xbe845eff	-0.25853726
31	0xbb598f18	-0.0033196863

model.3.weight f4 [32, 32]
0	0xbdf7ae2d	-0.12093768
1	0xbe08e1e3	-0.13367419
2	0x3d8e3aec	0.06944832
3	0xbcc1550e	-0.023600128
4	0x3e35a010	0.1773684
5	0xbe7db79e	-0.24777076
6	0xbe121c55	-0.1426862
7	0xbe243106	-0.16034326
8	0xbe949759	-0.2902172
9	0xbe251a16	-0.16123232
10	0xbdd8706c	-0.10568318
11	0xbc629191	-0.013828651
12	0xbeeb74e1	-0.4598761
13	0x3e9df7bb	0.30853066
14	0xbe7f2055	-0.24914677
15	0x3e93f30e	0.28896374
16	0xbe85b1f0	-0.26112318
17	0xbe2e9aa7	-0.17051183
18	0xbe4107e9	-0.18850674
19	0x3d5cec74	0.053936437
20	0x3e710e2e	0.23540565
21	0xbd5937ca	-0.05303172
22	0xbf2ba36c	-0.67046237
23	0xbf064b7d	-0.52458936
24	0x3e0a6403	0.13514714
25	0xbe6b11ec	-0.22956055
26	0x3eaa1644	0.33220112
27	0x3d424331	0.04742736
28	0xbec7480b	-0.38922152
29	0xbe2256fc	-0.15853494
30	0x3dcc10b3	0.099641226
31	0xbdcf4433	-0.1012043
32	0x3ed8580d	0.42254677
33	0xbedaf052	-0.42761475
34	0xbe7b8d15	-0.24565537
35	0xbf2f4a8d	-0.6847313
36	0xbf13b24b	-0.5769393
37	0x3e4fb344	0.20283228
38	0x3d6ec3d2	0.058292218
39	0x3eee21ea	0.4651025
40	0xbe128c4d	-0.14311333
41	0x3db3413a	0.08752675
42	0xbe57e08a	-0.21081749
43	0xbe7129fe	-0.23551175
44	0x3e1fbb88	0.15598881
45	0xbec34d1e	-0.38144773
46	0xbd0969eb	-0.033548277
47	0xbf0fac34	-0.56122136
48	0x3ed3963a	0.4132555
49	0x3d871b21	0.06596971
50	0x3e063c2f	0.13108896
51	0xbe513f55	-0.20434316
52	0xbf23396b	-0.6375949
53	0x3e2da26f	0.16956495
54	0x3eb92546	0.3616125
55	0x3df64aa4	0.12025955
56	0xbf154c40	-0.58319473
57	0xbea52f1f	-0.32262513
58	0xbf109c49	-0.5648847
59	0x3da28a76	0.079365656
60	0xbeca2808	-0.39483666
61	0xbdf93d27	-0.12169867
62	0xbd4ae2f3	-0.049532842
63	0x3e2b44ce	0.16725466
64	0xbeb72662	-0.3577147
65	0x3efc3136	0.49256295
66	0xbcd45cb3	-0.025923109
67	0xbd810d7d	-0.06301401
68	0xbca89b2a	-0.0205818
69	0xbee40f9d	-0.44543162
70	0xbea5be7b	-0.32371888
71	0xbf57dcba	-0.84321177
72	0x3e329d49	0.17442812
73	0xbeb75e30	-0.35814047
74	0x3e56c0dc	0.20972008
75	0x3e92899e	0.2862062
76	0x3b5459af	0.0032402088
77	0xbecaf26d	-0.3963808
78	0xbd0d66cb	-0.03452186
79	0xbecfaada	-0.40560037
80	0x3bd35552	0.00644938
81	0x3e60e293	0.21961431
82	0xbe894223	-0.2680827
83	0x3e55317c	0.20819658
84	0xbe888548	-0.26664186
85	0xbe80e0f0	-0.25171614
86	0xbea28e99	-0.31749418
87	0xbed31c37	-0.41232464
88	0xbe53d1bb	-0.20685475
89	0x3cc19b0f	0.023633508
90	0xbeae60d4	-0.3405825
91	0xbf09b660	-0.5379391
92	0x3f0a0e79	0.53928334
93	0xbe90e30c	-0.28298223
94	0xbebf332e	-0.37343735
95	0xbe5ebaae	-0.217509
96	0x3e8f4503	0.2798234
97	0x3c82ffe1	0.015991153
98	0xbbf90e19	-0.0076005575
99	0x3ecd694b	0.40119395
100	0xbe1aeaed	-0.1512868
101	0x3de1344e	0.109963045
102	0x3e839076	0.25696152
103	0x3e713051	0.23553587
104	0x3c11f0a7	0.008907474
105	0xbd23670d	-0.0398932
106	0x3e39110e	0.18072912
107	0x3eaac73e	0.33355135
108	0xbe04132c	-0.12897938
109	0x3e080c40	0.13285923
110	0x3ea4835c	0.3213147
111	0x3e983c7c	0.29733646
112	0x3e53dc8b	0.20689599
113	0xbd82693d	-0.06367729
114	0xbe1979b5	-0.14987834
115	0x3eb7576a	0.3580888
116	0x3e160dea	0.14653745
117	0x3e58fe1b	0.21190684
118	0xbd89bfe2	-0.06726052
119	0x3e986621	0.29765418
120	0x3e170f89	0.1475202
121	0x3e1f8535	0.15578158
122	0x3e37712f	0.1791427
123	0x3e8744a1	0.26419547
124	0x3e5378f7	0.20651613
125	0xbde44c51	-0.11147369
126	0x3cb46428	0.022020414
127	0x3e88f82a	0.26751834
128	0xbd34eb12	-0.044169493
129	0x3e60e9bf	0.21964167
130	0xbd8f44a8	-0.06995517
131	0x3e8f7977	0.28022358
132	0xbe3af25c	-0.18256515
133	0xbe996465	-0.29959407
134	0x3e32ae78	0.17449367
135	0xbdfda4f3	-0.12384977
136	0xbd6c6422	-0.05771268
137	0x3e09387f	0.13400458
138	0x3c96a505	0.018389234
139	0x3dbd8cd2	0.09255375
140	0xbe08d917	-0.13364063
141	0x3e147944	0.14499384
142	0x3dac616b	0.084170185
143	0xbd859c81	-0.065239914
144	0x3e3f1009	0.1865846
145	0xbd90309b	-0.07040521
146	0xbda24b1e	-0.07924484
147	0x3d67b586	0.0565696
148	0xbe91832b	-0.28420386
149	0x3dffbeac	0.1248754
150	0xbe3a4d2b	-0.181935
151	0x3eb951b3	0.36195144
152	0x3d873359	0.06601591
153	0xbdcc7789	-0.09983737
154	0x3df726d6	0.12067954
155	0x3e820f29	0.2540219
156	0xbd9a08ce	-0.075212106
157	0xbdf9bf9e	-0.12194751
158	0x3d61ae96	0.05509814
159	0x3dc5d095	0.096589245
160	0x3ce3e952	0.027821217
161	0x3db726d8	0.08942956
162	0x3ead60c8	0.338629
163	0x3d291f72	0.041289754
164	0x3e15c2d2	0.146251
165	0xbe8c42e6	-0.2739479
166	0x3cba89e3	0.022770828
167	0xbe17bff1	-0.14819314
168	0xbdeb16bf	-0.11478948
169	0x3e62ea0e	0.22159597
170	0xbdddf2ea	-0.10837348
171	0x3ebb15fd	0.36540213
172	0x3e4ba0f8	0.19885623
173	0x3e7e19a3	0.24814467
174	0xbd12620d	-0.03573804
175	0x3ed26f35	0.4110047
176	0x3d9502df	0.07275938
177	0x3cd7a0c0	0.026321769
178	0x3d85e365	0.06537513
179	0xbe0a4726	-0.13503703
180	0xbe124476	-0.14283928
181	0x3d926621	0.07148386
182	0x3e0e887e	0.13919255
183	0xbe68e425	-0.2274328
184	0x3ea5c1a7	0.32374308
185	0xbe6563e7	-0.22401391
186	0x3ebcd7c8	0.36883378
187	0x3eaa2d3a	0.3323763
188	0xbe90e8c1	-0.28302577
189	0xbe222400	-0.15834045
190	0xbd5d3c8c	-0.05401282
191	0x3e2c96da	0.1685442
192	0x3e9a8595	0.3018004
193	0x3eafbe84	0.3432504
194	0x3e8eb8a2	0.2787524
195	0x3e081780	0.13290215
196	0x3e7750ce	0.24151918
197	0xbe97e6e9	-0.29668358
198	0x3e886e41	0.26646617
199	0x3e527781	0.205534
200	0x3d351efe	0.04421901
201	0x3db3f887	0.08787637
202	0xbd10f15e	-0.035386436
203	0x3e688c0a	0.2270967
204	0x3d4306b8	0.04761383
205	0x3e78beeb	0.2429158
206	0x3d9422bf	0.0723319
207	0x3dab06fd	0.08350942
208	0x3e7ce0fe	0.24695203
209	0xbd861a7c	-0.0654802
210	0x3c77dda7	0.01512853
211	0x3da0798c	0.07835683
212	0xbe29c59e	-0.16579291
213	0x3d9711c1	0.07376433
214	0xbdbecb42	-0.09316112
215	0x3e18b09b	0.1491112
216	0x3e7fcf30	0.2498138
217	0xbecda646	-0.4016592
218	0x3e7da5bc	0.24770254
219	0x3e85da6a	0.261432
220	0x3e51dfe4	0.20495564
221	0xbdad31d1	-0.08456767
222	0x3e51a4e4	0.20473057
223	0x3e7f77fd	0.24948116
224	0x3e4ac420	0.19801378
225	0x3c54375c	0.012952652
226	0x3e7473b9	0.2387227
227	0x3de72063	0.11285474
228	0x3e915edd	0.28392687
229	0xbd8bee12	-0.06832518
230	0x3cbf904e	0.02338424
231	0xbd2770e0	-0.04087913
232	0xbd63490b	-0.05548958
233	0x3e8ba642	0.27275282
234	0x3de64b8f	0.112448804
235	0x3d90cbd7	0.07070129
236	0x3d8e9f47	0.069639735
237	0x3e870437	0.26370403
238	0x3e18814c	0.14893073
239	0x3e966cbb	0.2937983
240	0x3d5ef9fa	0.054437615
241	0xbd9f7a71	-0.07787026
242	0x3e8a21d6	0.2697894
243	0x3e846ce1	0.25864318
244	0xbc63cb9b	-0.013903524
245	0xbd4c1a2f	-0.049829658
246	0x3e10616e	0.14099666
247	0xbe180d58	-0.1484884
248	0x3dcec70b	0.10096558
249	0xbccbe29d	-0.024888331
250	0x3e15df56	0.14635977
251	0x3c6438c0	0.013929546
252	0x3d8822b6	0.066472456
253	0x3e7fdaff	0.24985884
254	0x3e245de0	0.16051435
255	0xbd57113d	-0.052506674

model.3.bias f4 [32]
0	0xbf65fae2	-0.8983594
1	0xbdff3c71	-0.124627
2	0xbfae7715	-1.3630091
3	0x3fca1b73	1.5789627
4	0x3fd2fa53	1.6482643
5	0x3f9d570e	1.2292192
6	0x3fb48ba5	1.4105116
7	0x3fc988e4	1.5744901
8	0x3fa32658	1.2746077
9	0xbf03afc3	-0.51440066
10	0x3fcc2831	1.5949765
11	0x3fc1a290	1.5127735
12	0xbf859eff	-1.0439147
13	0xbfda3975	-1.7048784
14	0x3fa2c9b8	1.271781
15	0x3fd779d6	1.6834056
16	0x3eb9eeaf	0.36314914
17	0x3fc862d8	1.5655165
18	0x3fcbca0b	1.5921034
19	0x3fb9a2ae	1.4502771
20	0x3fb8b79c	1.4431033
21	0x3fbf8489	1.4962322
22	0x3f4e255b	0.8052575
23	0x3fc2f258	1.5230207
24	0xbfaa250e	-1.3292558
25	0x3fd231af	1.6421412
26	0x3f15b7de	0.58483684
27	0x3fe0d1df	1.7564048
28	0x3fad1eb4	1.3524995
29	0x3fc575d8	1.5426588
30	0x3fb48ad8	1.4104872
31	0xbf9e159e	-1.2350347

model.5.weight f4 [3, 32]
0	0xbe85bf21	-0.26122382
1	0xbf32dcaf	-0.69867986
2	0xbf458cbc	-0.7716787
3	0x3e6a02c7	0.22852622
4	0x3e3b8ae8	0.18314707
5	0x3ebdd49d	0.37076274
6	0x3eb026ab	0.344045
7	0x3e911f6e	0.2834429
8	0x3eb747cd	0.35796967
9	0xbe9a3132	-0.30115658
10	0x3ead655f	0.33866403
11	0x3e836075	0.25659528
12	0xbeaaced0	-0.3336091
13	0xbf6cfd14	-0.92573667
14	0x3e7e76bc	0.24849981
15	0x3e8f8e7e	0.280384
16	0xbe95324b	-0.29139933
17	0x3f9a72d7	1.2066296
18	0x3ed94f33	0.42443237
19	0x3df12460	0.11774516
20	0x3edb88a6	0.42877692
21	0x3e954f2c	0.29161966
22	0x3f75b50a	0.9597937
23	0x3e635e54	0.22203952
24	0xbf568c32	-0.8380767
25	0x3dcc591e	0.09977935
26	0x3f2afe2e	0.667941
27	0x3e86ccf3	0.2632824
28	0x3e94675a	0.289851
29	0x3e85f186	0.2616083
30	0x3ebd3749	0.36956242
31	0xbf4a1eae	-0.78953063
32	0xbedf90f5	-0.4366528
33	0xbf1a9efc	-0.6039884
34	0xbf442c37	-0.76629966
35	0x3e086b11	0.13322093
36	0x3e5b74a0	0.21431208
37	0x3ea06a62	0.31331164
38	0x3e505b8e	0.20347425
39	0x3e6f9d91	0.2339995
40	0x3ebdc3dc	0.3706349
41	0xbecee060	-0.4040556
42	0x3e588bee	0.21147129
43	0x3e844d28	0.25840116
44	0xbef0232e	-0.4690184
45	0xbf4ef1f9	-0.8083797
46	0x3e7a0cd4	0.24418956
47	0x3e76cda7	0.24101888
48	0xbd53ee6f	-0.05174106
49	0x3fa2ca64	1.2718015
50	0x3ec646b6	0.38725823
51	0x3e8234be	0.25430864
52	0x3eae81bb	0.34083351
53	0x3e9e4d51	0.30918363
54	0x3f700fe3	0.9377424
55	0x3ec454cd	0.38345948
56	0xbf44d9ff	-0.76895136
57	0x3e93b111	0.28846028
58	0x3f2e5fac	0.68114734
59	0x3e5735d6	0.2101663
60	0x3eaf5e10	0.34251451
61	0x3e886003	0.2663575
62	0x3ead8db3	0.3389717
63	0xbf320e08	-0.6955266
64	0xbf083e65	-0.53220206
65	0xbf0a4869	-0.5401674
66	0xbf4bc263	-0.79593486
67	0x3e92bd1b	0.286599
68	0x3ec9f19b	0.39442143
69	0x3e313c2c	0.1730811
70	0x3e76a5ef	0.24086736
71	0x3e7c488a	0.24637046
72	0x3eb2f61d	0.34953395
73	0xbecc10f2	-0.39856678
74	0x3e064a7f	0.13114356
75	0x3e3f53ff	0.18684386
76	0xbef14c41	-0.4712849
77	0xbf5985d2	-0.8496982
78	0x3e9298bf	0.2863216
79	0x3e9b6c97	0.30356285
80	0x3ada8085	0.0016670382
81	0x3f9dab09	1.2317821
82	0x3ed8c1a1	0.42335227
83	0x3e9f9e62	0.31175524
84	0x3e94ad5b	0.2903851
85	0x3e8dc3ac	0.27688348
86	0x3f6dfd24	0.92964387
87	0x3e5f8327	0.21827374
88	0xbf087aab	-0.53312176
89	0x3eb13905	0.34613815
90	0x3f1aa652	0.60410035
91	0x3e86b750	0.2631173
92	0x3ec358de	0.38153738
93	0x3db56e8a	0.08858974
94	0x3eb182ed	0.346702
95	0xbf38f1e0	-0.7224407

model.5.bias f4 [3]
0	0x3f02a731	0.51036364
1	0x3f2e05ae	0.67977417
2	0x3f6bea94	0.9215481
