models/cloud_lstm_model.pth (torch, 66678 bytes, 10 tensors)

lstm.weight_ih_l0 f4 [128, 22]
-0.33105966 -0.26831773 -0.1836497 0.21270598 -0.0009030349 -0.024644049 -0.08869458 0.093540736
-0.024206148 -0.08889575 -0.18587463 0.07961658 -0.21138464 -0.18490776 0.0046355003 0.13069952
-0.050308473 -0.052034244 -0.10416876 0.18902066 0.12349978 0.23966512 0.05910305 -0.08901269
0.016481375 -0.1158743 0.016519278 0.16539803 0.09477299 -0.0008124005 0.09430494 -0.119749375
-0.43760917 0.13424267 0.13417704 -0.23411004 -0.13022964 -0.21705961 -0.15045469 -0.15248775
-0.18691942 0.11394758 0.23409942 -0.12688462 -0.4096542 0.0057963226 -0.20129322 0.30148345
0.24145989 -0.2422288 -0.5514722 -0.002747076 0.10313745 -0.3945516 -0.23192811 0.29513618
0.087391615 0.30720374 -0.20722775 -0.12225525 -0.10485047 0.31617147 -0.04520623 0.076133534
0.08752613 -0.004197273 0.21552123 -0.0085781 0.20917131 0.17917247 0.07500958 -0.09682707
-0.11365431 -0.13536656 -0.10503685 0.39614242 -0.17831965 0.04711085 0.15657341 -0.11655202
0.066616416 0.030764783 0.12079158 0.2053026 -0.1876281 0.13134758 0.114274174 0.21705276
-0.27342734 0.05153801 -0.09405176 0.30767778 0.15553765 -0.19757734 -0.18165118 0.0023600466
-0.15581955 0.22122642 0.039318636 -0.22256033 -0.28822327 -0.10068516 -0.03480783 0.06792112
0.08882331 -0.028541535 -0.008992438 -0.08225969 -0.1426518 0.09723002 0.16080959 0.095720604
0.107637174 0.040713344 0.20887542 0.070195206 0.039354905 0.053123433 0.26933113 0.21612436
-0.1947433 0.46539998 0.06702194 -0.08424898 0.08007064 0.11277639 0.17722401 0.2534924
0.081625104 -0.049844943 -0.043262485 -0.1254756 -0.20449725 -0.027219467 -0.05778053 0.00805454
-0.20397039 0.37824064 -0.17661344 -0.059033792 0.0023802186 0.27856854 0.071483195 0.04681082
-0.04220764 -0.26959562 0.07391079 -0.096706554 0.09996469 -0.14188336 -0.16767204 0.13149475
-0.070982635 0.10558227 -0.15187307 -0.05818084 0.09810094 0.5238692 0.12343587 -0.22471246
0.05816899 0.08162366 -0.10915414 -0.31411463 0.058342878 -0.2668695 0.14286973 0.14213581
0.023916082 -0.06656196 -0.2736501 0.17497867 -0.051668067 -0.17803702 0.12802877 -0.2113315
0.03183281 -0.04779757 -0.083178446 -0.19117504 0.028023874 0.44913703 0.10884815 0.032374125
-0.092365935 -0.1775643 0.24510393 -0.12124265 0.26393574 0.21852288 -0.06599511 0.078977026
0.023227582 -0.035280053 -0.2743884 0.077486396 -0.117076606 0.05857134 -0.11313873 0.45270523
-0.11173509 -0.06364891 0.23911317 0.47442052 0.07554282 0.068215705 0.22059587 0.04436863
-0.21433464 0.24309552 -0.09527603 -0.0013453104 0.14302316 0.19492039 0.18337297 -0.16606802
0.06970399 -0.070857875 0.06743847 0.06647508 0.027969796 0.040140916 -0.23073514 -0.24816097
-0.11177648 0.10114489 0.13019212 -0.30753958 0.03297227 -0.3582372 -0.11876805 -0.15724976
0.020933453 -0.2427031 0.06673338 -0.123522475 0.0069242674 -0.10459424 -0.23220097 0.21673416
-0.15558794 0.23317371 0.23411636 -0.08452268 -0.03381857 -0.36821985 -0.03613794 0.19084536
0.3654589 -0.36323348 0.16188191 -0.22804497 0.13410436 0.37857926 0.23853381 -0.21787551
00000000: a780 a9be f160 89be ab0e 3cbe 99cf 593e
00000010: a5b9 6cba 51e2 c9bc 81a5 b5bd 4992 bf3d
00000020: f94b c6bc fa0e b6bd eb55 3ebe 040e a33d
00000030: 3775 58be 7658 3dbe 65e5 973b 18d6 053e
00000040: 4210 4ebd dc21 55bd 6e56 d5bd a28e 413e
00000050: 74ed fc3d c66a 753e 0a16 723d 494c b6bd
00000060: f303 873c 814f edbd 7053 873c 1a5e 293e
00000070: 5718 c23d 46f7 54ba f322 c13d 293f f5bd
00000080: 4f0e e0be e976 093e b565 093e 8bba 6fbe
00000090: eb5a 05be e044 5ebe cb10 1abe c025 1cbe
000000a0: ce67 3fbe 595d e93d c2b7 6f3e 0bee 01be
000000b0: 32be d1be 14ef bd3b cf1f 4ebe 0a5c 9a3e
000000c0: 4341 773e d40a 78be 482d 0dbf 4a08 34bb
000000d0: ba39 d33d ab02 cabe 907e 6dbe 171c 973e
000000e0: 60fa b23d cf49 9d3e 8333 54be f660 fabd
000000f0: d8bb d6bd 3ae1 a13e 2b2a 39bd e6eb 9b3d
00000100: e640 b33d 4789 89bb 99b1 5c3e 298b 0cbc
00000110: 0131 563e fd78 373e 9f9e 993d 454d c6bd
00000120: 97c3 e8bd 889d 0abe 8f1d d7bd 2ed3 ca3e
00000130: 6d99 36be 4ff7 403d c854 203e d3b2 eebd
00000140: 306e 883d 6d06 fc3c 9361 f73d d83a 523e
00000150: 9521 40be fb7f 063e 9408 ea3d 1443 5e3e
00000160: abfe 8bbe 8519 533d 369e c0bd f187 9d3e
00000170: 4345 1f3e b751 4abe c402 3abe 03ab 1a3b
00000180: 298f 1fbe 2e89 623e 940c 213d dbe6 63be
00000190: 0092 93be 0534 cebd a892 0ebd 3a1a 8b3d
000001a0: ffe8 b53d f0cf e9bc 0555 13bc c577 a8bd
000001b0: 5013 12be 8820 c73d 45ab 243e 2a09 c43d
000001c0: e170 dc3d 09c3 263d 70e3 553e 81c2 8f3d
000001d0: 9c32 213d f597 593d c5e5 893e b44f 5d3e
000001e0: ca6a 47be e848 ee3e cd42 893d bb8a acbd
000001f0: 13fc a33d 4ff7 e63d 367a 353e c1c9 813e
00000200: 102b a73d 362a 4cbd 0134 31bd ad7c 00be
00000210: ba67 51be 5cfb debc 47ab 6cbd 30f7 033c
00000220: 9ddd 50be c2a8 c13e 27da 34be 6bcd 71bd
00000230: 71fd 1b3b 89a0 8e3e c865 923d b4bc 3f3d
00000240: ebe1 2cbd 7008 8abe 8a5e 973d 160e c6bd
00000250: 4aba cc3d df49 11be 38b2 2bbe 8fa6 063e
00000260: 585f 91bd 843b d83d 9d84 1bbe 084f 6ebd
00000270: 25e9 c83d 4b1c 063f f2cb fc3d 061b 66be
00000280: 9b42 6e3d 4e2a a73d 358c dfbd a2d3 a0be
00000290: f1f8 6e3d 1ea3 88be 714c 123e 0d8c 113e
000002a0: a9eb c33c a351 88bd de1b 8cbe 9c2d 333e
000002b0: e5a1 53bd 564f 36be f919 033e 4967 58be
000002c0: 1f63 023d 62c7 43bd 7659 aabd 64c3 43be
000002d0: 5392 e53c 4af5 e53e c7eb de3d bb9a 043d
000002e0: 5a2a bdbd 6ad3 35be 86fc 7a3e 114e f8bd
000002f0: 9622 873e 76c4 5f3e 7228 87bd b5be a13d
00000300: c547 be3c d181 10bd a37c 8cbe 30b1 9e3d
00000310: dcc5 efbd 80e8 6f3d 47b5 e7bd fbc8 e73e
00000320: 5ed5 e4bd 5c5a 82bd 15da 743e 3fe7 f23e
00000330: 32b6 9a3d adb4 8b3d e2e3 613e e1bb 353d
00000340: 8a7a 5bbe 08ee 783e 1420 c3bd 2055 b0ba
00000350: aa74 123e 3699 473e 20c6 3b3e bc0d 2abe
00000360: f7c0 8e3d ef1d 91bd 2e1d 8a3d 1624 883d
00000370: ea20 e53c cd6a 243d d545 6cbe e91d 7ebe
00000380: 11eb e4bd 0d25 cf3d 1551 053e d475 9dbe
00000390: ee0d 073d de6a b7be aa3c f3bd 1506 21be
000003a0: a27c ab3c 2987 78be 83ab 883d 5af9 fcbd
000003b0: f7e4 e23b 8135 d6bd 17c6 6dbe 8fef 5d3e
000003c0: 7252 1fbe 17c5 6e3e 33bc 6f3e 3a1a adbd
000003d0: 5785 0abd 5087 bcbe 6005 14bd f76c 433e
000003e0: 6e1d bb3e bdf9 b9be 5fc4 253e 9f84 69be
000003f0: a752 093e 24d5 c13e 3542 743e c21a 5fbe

lstm.weight_hh_l0 f4 [128, 32]
0.06313538 -0.20462008 -0.06326086 0.12176972 -0.001807629 0.15667483 -0.17051251 0.13403271
0.051137567 0.056901112 0.06413712 -0.43426323 -0.06030013 0.17777866 -0.2106332 -0.23569818
-0.039249793 -0.06467273 -0.19127405 -0.33181867 -0.046667524 -0.021578584 0.35441154 0.23545747
-0.050101735 0.27235115 0.2940977 0.23895611 0.21116696 -0.029263156 -0.205092 0.13113366
-0.038631696 0.2902088 -0.07104201 0.18565094 0.0406619 -0.33122998 -0.037993956 -0.020815255
-0.2659847 0.16603655 -0.17450036 0.29059651 0.26688752 0.10755054 0.44798708 0.015219355
-0.23837973 0.55212367 -0.49892563 0.039955933 0.123306096 0.24154079 -0.32126883 0.06533444
-0.03269945 -0.15210223 0.10099758 -0.33498588 -0.009123367 0.3449083 -0.22682643 -0.1027161
0.51642257 0.31441653 -0.24995075 -0.14432642 -0.34142312 -0.34211004 0.09275836 0.40669936
-0.31658405 0.2501979 -0.61293346 0.15469298 0.06746282 0.15757954 0.35337117 -0.20453295
0.02699272 -0.16040531 0.14513801 -0.20949067 0.36691368 0.4712512 -0.49504834 0.1359105
0.21526538 -0.06132324 0.23238131 -0.34044576 0.098222114 0.19057418 -0.31150928 0.2069229
0.35321426 0.2019225 -0.36431473 -0.020807311 -0.46501356 -0.05038506 -0.29505634 0.14806002
-0.12837853 0.2870943 -0.2040279 0.11970558 0.10840229 0.2030581 0.51614314 -0.14809392
-0.09766486 -0.115432136 0.13836733 -0.13205193 0.23420462 0.024310423 -0.36020717 0.1737034
-0.00857114 -0.2358303 0.33236772 -0.36503333 0.119234435 0.10033236 0.023724329 0.48361742
0.22321016 -0.08118112 -0.33223432 0.3885832 -0.2529506 -0.15313119 -0.28684133 -0.13075307
-0.20627737 0.055239484 -0.10533466 0.040779293 -0.13452461 0.4529402 0.09930018 0.07104446
-0.3162098 0.008346954 0.19132157 0.20002033 0.06193595 -0.07539382 -0.05822862 0.041273117
-0.26646045 0.066523634 0.09039206 0.12661843 -0.014681042 -0.07291872 -0.39647576 -0.19058284
-0.20709676 0.07908707 0.12657036 0.05538321 0.21669184 0.12963037 0.11066042 0.033751007
0.09221893 -0.088324994 -0.06129885 -0.12968518 0.14071175 0.09024237 0.12527773 -0.06994057
-0.52725196 0.08256028 -0.17378044 0.0451347 0.055686165 0.12962385 -0.257097 0.39470205
0.04906106 -0.2930877 0.14337221 0.07213273 0.23569512 0.06144192 0.0048462264 0.0005029171
0.16119553 0.28841716 -0.17726988 -0.016013203 -0.33684096 -0.04318098 -0.30125818 -0.25649565
-0.20095405 0.31348947 -0.21454962 0.30936554 0.1657118 -0.17164296 0.31760177 -0.29149187
-0.17073378 -0.16327338 -0.33548477 -0.16793188 0.3880463 0.039287 -0.35087952 -0.046161298
-0.08115955 0.06571699 0.15192458 -0.24153396 0.032373242 0.535856 0.13423169 0.33792537
0.28187215 0.3520891 -0.35005975 -0.033560928 -0.045147594 -0.004969348 -0.030693414 0.14683592
-0.60077167 0.34423923 -0.14675531 -0.05030469 0.25423348 0.11702933 0.36875537 -0.037201196
0.13653591 0.06859928 0.1737143 0.18961953 0.113161035 0.011810288 -0.075937554 0.19570515
0.1509793 -0.17739032 0.025461242 -0.26535156 -0.27423322 0.07041759 -0.3466865 0.07140281
00000000: 1f4d 813d ed87 51be e98e 81bd 6762 f93d
00000010: f7ed ecba 5e6f 203e d59a 2ebe df3f 093e
00000020: a075 513d 2411 693d 535a 833d c057 debe
00000030: 45fd 76bd 9c0b 363e 3bb0 57be dd5a 71be
00000040: 64c4 20bd 2373 84bd 58dd 43be 23e4 a9be
00000050: 7226 3fbd 92c5 b0bc 6e75 b53e c31b 713e
00000060: 7a37 4dbd 9c71 8b3e f993 963e e9b0 743e
00000070: 273c 583e 49b9 efbc a303 52be e747 063e
00000080: 453c 1ebd 3f96 943e 797e 91bd 481b 3e3e
00000090: 188d 263d fa96 a9be 8d9f 1bbd c184 aabc
000000a0: 262f 88be 7c05 2a3e 39b0 32be 11c9 943e
000000b0: 7ba5 883e 7543 dc3d 905e e53e 9a5a 793c
000000c0: d119 74be fa57 0d3f 2e73 ffbe d5a8 233d
000000d0: e887 fc3d 7856 773e 597d a4be 10ce 853d
000000e0: dcef 05bd b0c0 1bbe d2d7 ce3d 4583 abbe
000000f0: 2d7a 15bc d297 b03e 3045 68be d25c d2bd
00000100: 4534 043f 34fb a03e 17f3 7fbe 4eca 13be
00000110: 03cf aebe 0c29 afbe 18f8 bd3d e63a d03e
00000120: 4e17 a2be f019 803e 35e9 1cbf d667 1e3e
00000130: f229 8a3d 885c 213e 11ed b43e 1671 51be
00000140: d61f dd3c 4a41 24be 0f9f 143e b984 56be
00000150: 1cdc bb3e d647 f13e fa76 fdbe 1f2c 0b3e
00000160: 876e 5c3e 142e 7bbd 5ef5 6d3e e84e aebe
00000170: ad28 c93d e125 433e 257e 9fbe 99e3 533e
00000180: 80d8 b43e c6c4 4e3e 7687 babe 1874 aabc
00000190: 4216 eebe 9160 4ebd a011 97be 0c9d 173e
000001a0: a975 03be 06fe 923e b1ec 50be 3328 f53d
000001b0: 0502 de3d 76ee 4f3e f521 043f efa5 17be
000001c0: 8404 c8bd af67 ecbd 2ab0 0d3e 9f38 07be
000001d0: 56d3 6f3e a726 c73c 136d b8be 4edf 313e
000001e0: f76d 0cbc 807d 71be 1a2c aa3e a6e5 babe
000001f0: 2f31 f43d 0d7b cd3d 8659 c23c b49c f73e
00000200: 3491 643e 4942 a6bd 9e1a aabe 61f4 c63e
00000210: be82 81be 6cce 1cbe dedc 92be 22e4 05be
00000220: 603a 53be cc42 623d b3b9 d7bd 3008 273d
00000230: d2c0 09be c7e7 e73e e55d cb3d c27f 913d
00000240: 40e6 a1be aac1 083c cde9 433e 21d2 4c3e
00000250: 8db0 7d3d 1368 9abd 2281 6ebd 000e 293d
00000260: 816d 88be 8b3d 883d 791f b93d 43a8 013e
00000270: c188 70bc 6956 95bd dffe cabe 2628 43be
00000280: 2c11 54be 67f8 a13d a99b 013e 81d9 623d
00000290: 77e4 5d3e d3bd 043e eea1 e23d 7f3e 0a3d
000002a0: 47dd bc3d bce3 b4bd 8114 7bbd 31cc 04be
000002b0: be16 103e fed0 b83d ce48 003e 003d 8fbd
000002c0: fcf9 06bf 5d15 a93d 80f3 31be 2adf 383d
000002d0: 2d17 643d 1dbc 043e 38a2 83be 6316 ca3e
000002e0: 40f4 483d 970f 96be 2ad0 123e 53ba 933d
000002f0: 105a 713e 86aa 7b3d 18cd 9e3b 32d6 033a
00000300: 7110 253e 6aab 933e 3c86 35be 1f2e 83bc
00000310: 6b76 acbe 8ade 30bd 833e 9abe 6653 83be
00000320: e6c6 4dbe b181 a03e e5b2 5bbe 2965 9e3e
00000330: 5bb0 293e 2cc3 2fbe b39c a23e 6c3e 95be
00000340: d6d4 2ebe 2331 27be a9c4 abbe 56f6 2bbe
00000350: 01ae c63e 68eb 203d 7ba6 b3be a113 3dbd
00000360: fa36 a6bd a196 863d 1e92 1b3e ae54 77be
00000370: ce99 043d dc2d 093f 0874 093e 8e04 ad3e
00000380: 8c51 903e 0645 b43e 083b b3be 2f77 09bd
00000390: afec 38bd ead5 a2bb c170 fbbc 285c 163e
000003a0: 2ccc 19bf 2040 b03e 0647 16be 4a0c 4ebd
000003b0: e42a 823e 13ad ef3d 81cd bc3e 4860 18bd
000003c0: 12d0 0b3e c87d 8c3d 29e2 313e 9f2b 423e
000003d0: f9c0 e73d f07f 413c 2685 9bbd ee66 483e
000003e0: 519a 1a3e cfa5 35be 1894 d03c 29dc 87be
000003f0: 4c68 8cbe 1937 903d e580 b1be a33b 923d

lstm.bias_ih_l0 f4 [128]
0.19321178 0.26889992 0.10192856 0.4108253 0.11193712 0.10706206 -0.03924443 0.23102067
0.11316239 -0.020222222 0.279519 -0.10987676 0.2570344 0.28135303 -0.009892325 -0.008774041
0.26113197 0.06661738 0.16607559 0.10784962 -0.009889505 -0.039986353 0.029570958 -0.099264055
0.038706716 -0.0062661753 0.13021185 0.25797954 0.02461957 0.029363433 0.009484826 0.04472835
0.087935984 0.047839053 0.020433184 0.028200377 0.38394412 0.1258042 0.06809316 0.0045229536
-0.009742703 -0.031504076 -0.043940753 0.19110325 0.15424755 0.024737518 -0.08448448 -0.008276611
0.052200448 -0.00035737216 0.247979 0.12144538 0.16556354 0.0026053574 0.22557703 0.11633723
0.4131567 0.20749518 0.31806746 0.07630425 0.2996202 0.10440673 0.12015272 0.06464176
-0.1303978 0.16748963 -0.017680053 0.16140595 -0.23381986 -0.18359679 -0.060577285 0.034020547
-0.07457319 0.005116692 0.00161069 0.20682703 0.12806068 0.1095762 0.08457204 0.12172983
-0.0010753568 -0.012161368 0.08552534 0.03313815 0.21166572 0.21608847 -0.18707313 -0.10091153
-0.006731608 0.044614427 0.080502935 -0.14112397 0.07190696 0.00075203116 -0.11633043 0.2285247
-0.044699732 0.27077952 0.2797553 0.289842 0.41449273 0.17333238 0.07581974 0.043695778
-0.035365496 0.05953428 0.058789812 0.24960433 0.033564817 0.15492804 0.12108829 0.119503655
0.12600644 0.066908754 0.26515082 0.13144113 0.17736293 0.21012498 0.13720398 0.09161628
0.061555933 -0.0209023 0.21833849 0.14949803 -0.030261116 0.20551243 0.2142171 -0.05628436
00000000: 4fd9 453e 40ad 893e ecbf d03d b257 d23e
00000010: 4a3f e53d 5a43 db3d c4be 20bd af90 6c3e
00000020: afc1 e73d 13a9 a5bc 1d1d 8f3e 1107 e1bd
00000030: 039a 833e 810d 903e 6b13 22bc ffc0 0fbc
00000040: 17b3 853e b16e 883d b80f 2a3e 43e0 dc3d
00000050: 9707 22bc bbc8 23bd cb3e f23c f44a cbbd
00000060: ef8a 1e3d 7d54 cdbb 4156 053e e515 843e
00000070: fbae c93c 958b f03c 3e66 1b3c 1335 373d
00000080: c817 b43d e2f2 433d 7e63 a73c 7a04 e73c
00000090: 5394 c43e d1d2 003e 6d74 8b3d 4935 943b
000000a0: dc9f 1fbc 6b0a 01bd 38fb 33bd 92b0 433e
000000b0: 12f3 1d3e 56a6 ca3c 3306 adbd 9f9a 07bc
000000c0: 23d0 553d ae5d bbb9 35ee 7d3e 5bb8 f83d
000000d0: 7d89 293e a5be 2a3b aafd 663e 3742 ee3d
000000e0: 4689 d33e 9e79 543e bdd9 a23e 6745 9c3d
000000f0: d267 993e 32d3 d53d a112 f63d e662 843d
00000100: 0087 05be 6782 2b3e c2d5 90bc 9a47 253e
00000110: 796e 6fbe cc00 3cbe e31f 78bd 2159 0b3d
00000120: d4b9 98bd eca9 a73b ca1d d33a 77ca 533e
00000130: 5722 033e 7d69 e03d 1b34 ad3d 7d4d f93d
00000140: fdf2 8cba 7940 47bc e927 af3d debb 073d
00000150: e6be 583e 4c46 5d3e 1990 3fbe b4aa cebd
00000160: d294 dcbb 9ebd 363d b9de a43d cd82 10be
00000170: f543 933d f523 453a a63e eebd 6102 6a3e
00000180: 1117 37bd 9da3 8a3e 163c 8f3e 2c66 943e
00000190: 6438 d43e 0b7e 313e 6147 9b3d 58fa 323d
000001a0: 69db 10bd 38da 733d 96cd 703d 4798 7f3e
000001b0: 437b 093d 75a5 1e3e 23fd f73d 55be f43d
000001c0: d507 013e 7507 893d d9c1 873e 8198 063e
000001d0: a19e 353e 012b 573e 337f 0c3e 51a1 bb3d
000001e0: 1322 7c3d 4d3b abbc 2094 5f3e 0316 193e
000001f0: 29e6 f7bc da71 523e ba5b 5b3e 6e8a 66bd

lstm.bias_hh_l0 f4 [128]
-0.01639442 0.2577238 0.21298948 0.07929626 0.16730809 0.15532319 0.16450348 0.2911063
-0.033676356 0.1833482 0.11843045 0.21467641 0.06574452 0.20517388 0.00011658826 0.30820826
0.050570384 -0.050112482 0.28246933 0.08973162 0.3028108 0.07061345 0.077732675 -0.000898793
0.17491703 0.1482351 0.057461154 0.17035009 0.26463562 0.024035316 0.04822969 0.044344362
-0.03967011 0.20485783 -0.03803511 0.13787086 0.32850292 0.085567884 0.18657593 0.0694669
-0.008743077 0.011957558 0.03873144 0.07762143 0.24736722 0.104054525 0.11833067 -0.06495147
0.28495315 -0.082124755 -0.060388464 0.088676095 0.23883896 -0.016309373 0.23025095 0.17287385
0.15971753 0.21987897 0.24746269 0.2588889 0.15324698 0.09648742 -0.09815118 0.0088577
0.09398787 0.2349843 -0.2127703 -0.037894733 -0.2524849 -0.22148985 -0.032561235 -0.054425262
-0.20878838 0.1184243 -0.22014982 0.1066499 0.042978615 0.06915039 0.13854839 -0.10960927
-0.100932546 0.05578994 -0.055113673 -0.07573222 0.098983884 0.25720972 0.014204885 0.18599148
0.012951304 -0.12701035 0.065729976 -0.107530974 -0.029157447 0.13515233 -0.13161176 -0.06865328
0.16151604 0.276777 0.22770312 0.11532273 0.2914089 0.16245112 -0.045980442 0.04174521
0.07573217 0.22120677 0.28763884 0.17009422 0.15348841 0.08615197 0.17060407 0.29130322
0.009177098 0.0053516445 -0.002192687 0.25898567 0.14327608 0.11737727 0.28663188 0.22853312
-0.007994056 0.008014073 0.17306742 0.315591 0.06312266 0.23741223 0.050384928 0.01293189
00000000: 974d 86bc 60f4 833e ea19 5a3e 1466 a23d
00000010: d052 2b3e 0b0d 1f3e 9a73 283e e30b 953e
00000020: 38f0 09bd a1bf 3b3e aa8b f23d 22d4 5b3e
00000030: 10a5 863d 1a19 523e d880 f438 79cd 9d3e
00000040: e422 4f3d bf42 4dbd d29f 903e 36c5 b73d
00000050: 040a 9b3e c99d 903d 4f32 9f3d fa9c 6bba
00000060: 731d 333e f1ca 173e 635c 6b3d 4170 2e3e
00000070: 527e 873e b6e5 c43c 7f8c 453d 6fa2 353d
00000080: 207d 22bd 40c6 513e b4ca 1bbd 052e 0d3e
00000090: 8931 a83e 373e af3d c30d 3f3e a944 8e3d
000000a0: 1f3f 0fbc a2e9 433c dca4 1e3d fcf7 9e3d
000000b0: d54d 7d3e 8a1a d53d 5a57 f23d 4705 85bd
000000c0: 61e5 913e 0631 a8bd e559 77bd d09b b53d
000000d0: 3392 743e 3c9b 85bc e8c6 6b3e d805 313e
000000e0: fe8c 233e f427 613e dc66 7d3e 168d 843e
000000f0: c7ec 1c3e 329b c53d 7c03 c9bd e31f 113c
00000100: b67c c03d b99f 703e 75e0 59be 8237 1bbd
00000110: b345 81be 3cce 62be ee5e 05bd 06ed 5ebd
00000120: 9fcc 55be 7088 f23d f46e 61be 436b da3d
00000130: 580a 303d b89e 8d3d a1df 0d3e d37a e0bd
00000140: b9b5 cebd fe83 643d e0be 61bd 7f19 9bbd
00000150: 10b8 ca3d feb0 833e 9bbb 683c 8d74 3e3e
00000160: b531 543c 000f 02be 709d 863d 3339 dcbd
00000170: 99db eebc 5f65 0a3e 3cc5 06be 179a 8cbd
00000180: 7664 253e b7b5 8d3e 022b 693e 532e ec3d
00000190: 8c33 953e 9659 263e fd55 3cbd 06fd 2a3d
000001a0: 7819 9b3d 0784 623e 6645 933e 2e2d 2e3e
000001b0: 112c 1d3e 7270 b03d d5b2 2e3e b225 953e
000001c0: 8a5b 163c d95c af3b 2fb3 0fbb c599 843e
000001d0: f7b6 123e 7e63 f03d 6ac1 923e 9604 6a3e
000001e0: 80f9 02bc 754d 033c 9638 313e 2595 a13e
000001f0: 7446 813d 311c 733e 6d60 4e3d 47e0 533c

lstm.weight_ih_l1 f4 [128, 32]
0.056415107 0.17782111 0.0059174504 -0.01558364 -0.11721428 -0.13362688 -0.19242588 0.07711014
-0.2963391 0.06717309 0.121478744 0.032246456 0.11841448 0.038041733 0.17380184 -0.15704224
-0.25605264 0.24054404 -0.22545934 -0.15232395 0.044013537 0.040539496 -0.2446191 0.27418858
-0.055695683 -0.32320887 0.100766525 0.040904753 0.04385636 0.16210772 -0.10643617 0.24340078
0.012783931 0.022639971 0.023496399 0.0066268328 -0.028520139 -0.32006824 -0.24301805 0.03764206
0.01513994 0.17774604 0.09370899 0.06213766 0.051600866 0.08655026 0.19386634 0.035367437
0.03367964 0.26250276 -0.24903697 -0.0028290714 0.18991736 0.23115012 -0.12885208 0.16332139
-0.09261909 -0.2788047 0.08058528 0.04866894 0.031209333 0.052945547 -0.27086857 -0.01813076
0.11262642 0.11790181 -0.18220997 0.28306487 0.00014013132 -0.33483422 -0.31809717 0.0134859495
-0.39721513 0.17007923 -0.31759408 0.29423973 0.27959725 0.11548766 0.16973276 -0.22250134
0.04948306 0.4075613 -0.32597548 0.036088727 -0.13436323 0.2669187 -0.0634221 0.036421154
0.0753868 -0.124806814 0.21362528 -0.29715183 0.16073008 0.30071166 0.04721369 0.11914185
0.14425667 0.041080553 -0.39816636 0.28663856 0.075087436 -0.107865594 -0.27122438 -0.10264325
-0.15344106 0.12719315 -0.16614094 -0.023241786 0.25810626 0.31824327 0.08425433 -0.35689294
-0.18502977 0.3825914 -0.32160214 -0.29274142 0.0648606 -0.13227452 0.046508607 0.14544715
0.38509953 -0.17198443 0.045538116 -0.1891313 0.4591363 0.47590846 -0.15725313 0.10698431
0.29927552 -0.07805013 0.16128899 0.11382483 -0.112656824 -0.18306147 -0.12475805 -0.01526871
-0.27664378 -0.052504115 -0.34971744 -0.030126056 0.1697076 -0.05627598 0.18039903 -0.18480107
0.21083233 0.26466045 -0.53493613 -0.33852392 0.19144605 0.16825932 -0.40246382 0.27274656
0.30249488 0.018331919 0.21258824 -0.08038849 0.011190494 0.22829777 -0.30654252 0.40366775
0.19727863 0.12659475 -0.36819097 0.32421374 -0.0022154944 -0.058755223 -0.35250098 -0.13936156
-0.09107867 0.10125019 -0.1307701 0.009248606 0.21186239 0.2307232 0.12326097 -0.39754727
-0.19394177 0.31161103 -0.08778561 -0.2496021 0.0708222 -0.098063275 0.028512143 0.2891945
0.2213903 -0.1455047 0.15418631 -0.09203225 0.15954477 0.2042141 -0.17776082 0.1787121
0.15811588 0.2307132 0.14410612 0.010727836 -0.12788713 -0.14494371 0.0374188 0.022534646
-0.18873225 -0.01189878 0.13748358 0.22801097 0.10606645 -0.13130234 0.1503784 -0.044462986
-0.1920443 0.22942111 0.022967977 0.0415964 0.13186423 0.20980394 -0.27243292 0.14030792
-0.028603468 0.00452845 0.32946938 -0.13508217 -0.039879136 -0.09900306 0.055542644 0.15727088
0.14603502 0.21623151 0.030443618 0.06697499 -0.13935858 -0.13758075 -0.21555977 0.16475074
-0.23422812 0.12449779 -0.11282602 0.2746103 0.10480802 0.136905 0.06531349 -0.12656614
-0.01680154 0.18421511 -0.17890623 0.03514785 0.26969436 0.2594882 -0.19782898 -0.12377198
-0.11746622 -0.39447814 0.12239104 -0.20910747 -0.13185836 0.10339913 -0.02560963 0.21892992
00000000: 8713 673d bd16 363e 2ce7 c13b 8652 7fbc
00000010: 0a0e f0bd 7cd5 08be 4a0b 45be eceb 9d3d
00000020: c2b9 97be 0c92 893d d9c9 f83d dc14 043d
00000030: 4a83 f23d a6d1 1b3d 1cf9 313e aecf 20be
00000040: 5519 83be 2d51 763e d0de 66be cffa 1bbe
00000050: 8a47 343d be0c 263d 6e7d 7abe 7262 8c3e
00000060: 2821 64bd a27b a5be ae5e ce3d be8b 273d
00000070: baa2 333d 91ff 253e 35fb d9bd 0e3e 793e
00000080: b173 513c 7677 b93c 857b c03c e725 d93b
00000090: 11a3 e9bc fcdf a3be b9d9 78be 902e 1a3d
000000a0: 830d 783c 0f03 363e 80ea bf3d 0f84 7e3d
000000b0: 6e5b 533d 4341 b13d e684 463e 72dd 103d
000000c0: aaf3 093d c366 863e 8c03 7fbe f167 39bb
000000d0: b279 423e 9eb2 6c3e cdf1 03be b93d 273e
000000e0: 14af bdbd 7dbf 8ebe e509 a53d 1559 473d
000000f0: b7aa ff3c 6edd 583d 49af 8abe f686 94bc
00000100: aea8 e63d 8176 f13d 4095 3abe e1ed 903e
00000110: 37f0 1239 646f abbe a2dd a2be 2cf4 5c3c
00000120: c85f cbbe 4029 2e3e b19b a2be 97a6 963e
00000130: 5f27 8f3e cb84 ec3d 6dce 2d3e 64d7 63be
00000140: c0ae 4a3d e0ab d03e 42e6 a6be c6d1 133d
00000150: 8496 09be 91a9 883e 72e3 81bd 592e 153d
00000160: 6564 9a3d b79a ffbd 96c0 5a3e 4924 98be
00000170: 6d96 243e e1f6 993e 2463 413d a400 f43d
00000180: 05b8 133e 1544 283d 76dc cbbe 4ac2 923e
00000190: 71c7 993d a3e8 dcbd ecdd 8abe a036 d2bd
000001a0: a71f 1dbe ec3e 023e da20 2abe 8f65 bebc
000001b0: 8126 843e c8f0 a23e 898d ac3d acba b6be
000001c0: 7278 3dbe 05e3 c33e 09a9 a4be 34e2 95be
000001d0: a2d5 843d f972 07be cf7f 3e3d 19f0 143e
000001e0: c42b c53e b01c 30be 2d86 3a3d a3ab 41be
000001f0: ea13 eb3e 46aa f33e f706 21be 971a db3d
00000200: a43a 993e bfd8 9fbd f128 253e fe1c e93d
00000210: 9fb8 e6bd 7774 3bbe 2681 ffbd 9d29 7abc
00000220: 41a4 8dbe 8e0e 57bd 2a0e b3be ebca f6bc
00000230: d4c7 2d3e a481 66bd 86ba 383e 7e3c 3dbe
00000240: 6ee4 573e 9381 873e 93f1 08bf 0253 adbe
00000250: 6f0a 443e 2c4c 2c3e bd0f cebe 70a5 8b3e
00000260: 9ce0 9a3e d22c 963c bbb0 593e b8a2 a4bd
00000270: 5558 373c e4c6 693e 24f3 9cbe 8aad ce3e
00000280: 6903 4a3e 0ea2 013e 8783 bcbe 58ff a53e
00000290: d431 11bb 51a9 70bd 027b b4be ccb4 0ebe
000002a0: 7487 babd 425c cf3d 99e8 05be 7787 173c
000002b0: 74f2 583e b442 6c3e 3f70 fc3d 518b cbbe
000002c0: ac98 46be 7b8b 9f3e f1c8 b3bd b197 7fbe
000002d0: 3b0b 913d 66d5 c8bd 4c92 e93c 4d11 943e
000002e0: 24b4 623e 2fff 14be 04e3 1d3e 677b bcbd
000002f0: b45f 233e 801d 513e ef06 36be 4e00 373e
00000300: 21e9 213e 1540 6c3e 8e90 133e cec3 2f3c
00000310: d8f4 02be 206c 14be 7544 193d 949a b83c
00000320: 0743 41be 1af3 42bc 7fc8 0c3e b57b 693e
00000330: 5e39 d93d 1f74 06be ccfc 193e d21e 36bd
00000340: 43a7 44be 5eed 6a3e 5727 bc3c fd60 2a3d
00000350: 6b07 073e d8d6 563e 547c 8bbe e1ac 0f3e
00000360: d251 eabc 6463 943b 36b0 a83e fb52 0abe
00000370: 4e58 23bd 1ec2 cabd af80 633d 9e0b 213e
00000380: 348a 153e cb6b 5d3e e564 f93c 2f2a 893d
00000390: 04b4 0ebe f8e1 0cbe b3bb 5cbe 6bb4 283e
000003a0: 7fd9 6fbe b3f8 fe3d 5411 e7bd b999 8c3e
000003b0: 96a5 d63d d330 0c3e 14c3 853d 8e9a 01be
000003c0: 62a3 89bc e3a2 3c3e 3233 37be 31f7 0f3d
000003d0: 6115 8a3e a3db 843e ae93 4abe 2a7c fdbd
000003e0: 2192 f0bd 0af9 c9be 27a8 fa3d 4520 56be
000003f0: e105 07be ecc2 d33d 49cb d1bc 2a2f 603e

lstm.weight_hh_l1 f4 [128, 32]
0.044194877 -0.10763679 -0.032919865 0.13712251 -0.044914324 0.03974324 -0.12481933 -0.021866545
0.059728883 0.15891422 -0.0947312 -0.10372655 -0.04670588 0.13235469 0.08892665 0.0066158595
-0.1830524 0.1290187 0.038344912 -0.031830758 0.17627619 -0.07724323 0.10070158 -0.14165853
0.05324929 0.14228082 0.11406059 -0.036600646 -0.11926531 -0.12520555 -0.02616466 0.13916023
-0.25126675 -0.003797678 -0.046097733 0.09336453 0.009957068 -0.00030973987 -0.027030142 -0.070324175
0.12298806 -0.0508541 0.19182357 0.03793629 0.11657951 -0.18588993 -0.059217766 -0.015593009
-0.14903335 0.13987257 -0.2446339 0.21699195 0.04868727 -0.04184915 0.25840017 0.14056988
-0.14950946 0.067416355 0.24855718 -0.003138989 -0.0110769905 -0.1759287 0.039111227 0.18901701
0.020003814 0.17154172 -0.04235637 -0.11672846 -0.014053233 0.14493288 0.057417084 0.041730836
0.055246532 0.076654054 0.008948816 0.15906379 0.11530737 0.17533053 -0.09949804 0.08329147
0.055283736 -0.0337535 -0.120536506 -0.085617095 0.16556782 -0.14561728 0.07082358 0.0067101913
0.13530388 0.041992154 0.16784456 0.1193177 -0.13736202 0.016287215 0.16850488 -0.1399474
0.11538072 -0.122610815 0.027687065 -0.080957 0.09411858 0.120893925 -0.1444211 0.16945136
0.12024589 -0.02521031 -0.010214014 0.070813894 -0.14923975 -0.11907737 0.10487732 -0.05283438
-0.016921937 0.15703551 0.18943395 -0.05270684 0.10132694 0.19562958 -0.09275864 0.013238759
0.23657148 0.114040524 0.077149235 -0.14119801 -0.08330605 -0.024689924 -0.025902914 -0.142744
-0.19570218 0.11988812 -0.2762464 -0.3358761 0.020310363 -0.004904413 -0.15389273 -0.13396356
0.07809284 0.118252024 0.28869015 -0.050766606 0.11102125 0.019790564 -0.03750677 0.022102464
-0.005000642 0.11519825 -0.22415556 0.010438526 0.2373626 -0.1802479 0.20364045 0.10560577
0.07721183 0.12068963 0.099621356 0.18166433 -0.014279221 -0.09009516 0.19570842 0.17164193
-0.10910526 -0.030365214 0.2718773 -0.07159337 -0.060259026 0.101630494 0.10060405 0.11785623
-0.053130202 -0.15509698 0.053393517 0.025845524 0.060644984 0.007176055 0.014655313 0.008644491
0.033845678 -0.20327866 -0.15013252 -0.07461073 0.037770018 0.11275107 -0.14558259 0.19712906
0.058787115 0.08524871 -0.15086424 -0.18484212 0.051326495 0.1531325 0.16226915 -0.096706495
0.06670342 0.21513075 0.19507568 -0.052715696 -0.11146765 -0.120221406 -0.17002341 -0.10406799
0.03845989 0.02899232 -0.018484911 0.12619068 0.09745174 -0.19545676 -0.14416224 0.118784055
-0.09524258 0.19547777 0.047244787 -0.056081574 0.1655051 0.072539836 0.1895036 0.19697614
0.095532216 0.18731739 0.0364529 0.11386958 -0.10935481 -0.14098357 0.13103142 0.0357444
-0.010467352 0.18772672 0.19535723 -0.116142 0.16176423 -0.18310483 -0.16227847 -0.07237621
-0.017298548 0.045121793 -0.10810487 -0.006508852 0.015448888 -0.09377224 0.020187788 0.05452129
-0.09423257 -0.08795082 0.0036907606 -0.12676232 0.1466729 0.059434954 0.0019164932 0.085840225
-0.1978222 0.09744432 0.18030074 -0.07427389 -0.1929347 -0.16031997 0.1973124 0.018991569
00000000: b005 353d ad70 dcbd fbd6 06bd d869 0c3e
00000010: 15f8 37bd cfc9 223d 47a1 ffbd 7821 b3bc
00000020: 46a6 743d 69ba 223e 6e02 c2bd 966e d4bd
00000030: aa4e 3fbd fd87 073e 2d1f b63d dac9 d83b
00000040: 1772 3bbe 7a1d 043e 8e0f 1d3d f860 02bd
00000050: bf81 343e b331 9ebd a13c ce3d ef0e 11be
00000060: ed1b 5a3d 10b2 113e 9998 e93d 8fea 15bd
00000070: 5f41 f4bd e235 00be 4557 d6bc 0580 0e3e
00000080: 09a6 80be 77e2 78bb fad0 3cbd e735 bf3d
00000090: f822 233c 9564 a2b9 516e ddbc 1f06 90bd
000000a0: 2ae1 fb3d 644c 50bd 666d 443e 1563 1b3d
000000b0: 3dc1 ee3d ee59 3ebe 548e 72bd d279 7fbc
000000c0: 339c 18be c13a 0f3e 4f81 7abe 2333 5e3e
000000d0: 4e6c 473d 046a 2bbd 074d 843e 8df1 0f3e
000000e0: 0219 19be 9611 8a3d c685 7e3e 7fb7 4dbb
000000f0: 447c 35bc a726 34be 1833 203d ad8d 413e
00000100: 0adf a33c a2a8 2f3e df7d 2dbd 550f efbd
00000110: 883f 66bc 4969 143e 2d2e 6b3d f4ed 2a3d
00000120: 304a 623d cdfc 9c3d 0e9e 123c 9ee1 223e
00000130: 4526 ec3d d989 333e a1c5 cbbd b894 aa3d
00000140: 3371 623d 1c41 0abd d8db f6bd 0458 afbd
00000150: 9c8a 293e b21c 15be f40b 913d 2ae1 db3b
00000160: 1a8d 0a3e f7ff 2b3d 72df 2b3e d75c f43d
00000170: a1a8 0cbe c46c 853c 8b8c 2c3e 5f4e 0fbe
00000180: ba4c ec3d 611b fbbd fccf e23c c9cc a5bd
00000190: 3ec1 c03d 3c97 f73d 20e3 13be a884 2d3e
000001a0: 7a43 f63d da85 cebc ae58 27bc e006 913d
000001b0: 4ed2 18be d6de f3bd ecc9 d63d dd68 58bd
000001c0: e09f 8abc ebcd 203e f9fa 413e 21e3 57bd
000001d0: 8084 cf3d 1f53 483e 3ef8 bdbd 61e7 583c
000001e0: cb3f 723e 148e e93d 6b00 9e3d 3696 10be
000001f0: 5d9c aabd 8642 cabc 5932 d4bc 7c2b 12be
00000200: 2766 48be e787 f53d 2b70 8dbe f4f7 abbe
00000210: eb61 a63c 33b5 a0bb 0e96 1dbe be2d 09be
00000220: 24ef 9f3d 1e2e f23d 32cf 933e a5f0 4fbd
00000230: 1c5f e33d d21f a23c b3a0 19bd 3a10 b53c
00000240: 6ddc a3bb 0fed eb3d 0989 65be 5a06 2b3c
00000250: 2e0f 733e e892 38be 1f87 503e d747 d83d
00000260: 3c21 9e3d 202c f73d 4806 cc3d 3706 3a3e
00000270: 65f3 69bc d083 b8bd ca67 483e e7c2 2f3e
00000280: 9472 dfbd 78c0 f8bc 8033 8b3e 8b9f 92bd
00000290: 2bd2 76bd a623 d03d 7f09 ce3d 9b5e f13d
000002a0: 0e9f 59bd bed1 1ebe 29b3 5a3d feb9 d33c
000002b0: e066 783d 1d25 eb3b d71c 703c a0a1 0d3c
000002c0: c4a1 0a3d 4828 50be 57bc 19be 83cd 98bd
000002d0: bcb4 1a3d 08ea e63d 9a13 15be 33dc 493e
000002e0: c2ca 703d e096 ae3d 287c 1abe 4147 3dbe
000002f0: bb3b 523d c4ce 1c3e e229 263e 0e0e c6bd
00000300: cd9b 883d 3c4b 5c3e ebc1 473e 6aec 57bd
00000310: 2749 e4bd a436 f6bd 9e1a 2ebe 9921 d5bd
00000320: 1e88 1d3d 4d81 ed3c ab6d 97bc 2138 013e
00000330: c794 c73d d125 48be 449f 13be 0e45 f33d
00000340: 8b0e c3bd 532b 483e c083 413d cbb5 65bd
00000350: 2b7a 293e c48f 943d 3b0d 423e 1db4 493e
00000360: 65a6 c33d 21d0 3f3e a34f 153d 7434 e93d
00000370: 6af5 dfbd ff5d 10be 1a2d 063e b868 123d
00000380: 427f 2bbc 6f3b 403e ba0b 483e dbdb edbd
00000390: 86a5 253e d57f 3bbe 542c 26be fa39 94bd
000003a0: afb5 8dbc a1d1 383d 1666 ddbd 3548 d5bb
000003b0: 551d 7d3c a90b c0bd dc60 a53c b751 5f3d
000003c0: 01fd c0bd 8f1f b4bd b0e0 713b fbcd 01be
000003d0: 6c31 163e 1172 733d d732 fb3a 00cd af3d
000003e0: e791 4abe e390 c73d c2a0 383e e91c 98bd
000003f0: ad90 45be eb2a 24be 430c 4a3e 3594 9b3c

lstm.bias_ih_l1 f4 [128]
0.08888777 0.13823372 0.07832263 0.03413805 0.028519394 0.15868649 0.1453385 0.08603149
0.23308085 0.0045809164 -0.071468666 -0.13301405 -0.09141179 0.0008518532 -0.12881671 0.097357
0.17192332 -0.026350828 0.047635734 0.038805827 -0.020464359 0.07328067 -0.06637125 0.23264971
0.14546844 0.110716246 -0.029425714 -0.04327004 0.0022631888 0.10875271 0.14241813 0.04091427
0.082881704 -0.090203755 0.07895252 -0.10352867 -0.11715924 -0.06247769 0.14531668 -0.07699093
0.076666884 -0.056016132 0.12451376 0.14195332 0.2239516 0.0011644576 0.015874112 0.14312813
0.1431837 -0.08689589 0.026235783 -0.059534077 0.1825366 -0.005778078 -0.1028088 -0.20526248
-0.16685207 0.13870974 0.016813459 0.049861435 0.1462173 -0.043397456 0.15427276 0.07612235
-0.14534357 0.23872297 0.02545123 0.0035356064 0.14344078 -0.075929634 -0.09381338 -0.1270587
0.17887734 0.16281362 -0.06071323 -0.13309295 0.23315287 0.10480571 -0.021610413 0.060483612
-0.16681449 0.22607505 -0.1828422 0.07025101 0.15778412 0.021109514 0.0034256368 0.018409092
-0.06170844 0.07728939 0.08999415 0.061701797 0.033721764 -0.074944265 0.17932887 0.056583535
0.083022736 -0.1366869 0.24597505 0.016692156 -0.06767282 -0.10897387 0.15038168 -0.046571415
0.14587116 0.15106142 -0.14701962 -0.024140965 0.025252933 -0.022214971 -0.07951002 0.07245278
-0.122025296 0.0131941065 0.109070644 -0.029972252 0.07766256 -0.06987565 -0.08932722 0.27012578
0.29904723 0.15169896 0.063354604 -0.041644637 -0.15132211 -0.013209634 0.12343678 0.1578143
00000000: cb0a b63d 248d 0d3e 9d67 a03d 57d4 0b3d
00000010: 81a1 e93c b67e 223e 9ed3 143e 4731 b03d
00000020: bfac 6e3e 831b 963b 2a5e 92bd d634 08be
00000030: 1b36 bbbd e74e 5f3a 87e8 03be 1b63 c73d
00000040: ab0c 303e b1dd d7bc b01d 433d dcf2 1e3d
00000050: dfa4 a7bc 2d14 963d a6ed 87bd ba3b 6e3e
00000060: aef5 143e 33bf e23d 320e f1bc ed3b 31bd
00000070: 0252 143b beb9 de3d 0fd6 113e b995 273d
00000080: e2bd a93d bfbc b8bd dcb1 a13d d706 d4bd
00000090: 2ff1 efbd 9be8 7fbd e5cd 143e 6cad 9dbd
000000a0: 8703 9d3d 2c71 65bd 1201 ff3d 365c 113e
000000b0: 9153 653e b7a0 983a 6d0a 823c 2e90 123e
000000c0: bf9e 123e 79f6 b1bd 6dec d63c 01da 73bd
000000d0: e0ea 3a3e 0856 bdbb 6c8d d2bd 5430 52be
000000e0: 45db 2abe ed09 0e3e 61bc 893c 813b 4c3d
000000f0: fdb9 153e 88c1 31bd aef9 1d3e 09e6 9b3d
00000100: f2d4 14be cb73 743e 197f d03c a2b5 673b
00000110: 24e2 123e ff80 9bbd 3b21 c0bd ad1b 02be
00000120: 9f2b 373e 9db8 263e 70ae 78bd 8549 08be
00000130: a0bf 6e3e 60a4 d63d 5208 b1bc aabd 773d
00000140: 6bd1 2abe 3880 673e fc3a 3bbe c3df 8f3d
00000150: 2992 213e dced ac3c a680 603b aace 963c
00000160: fdc1 7cbd e649 9e3d da4e b83d 06bb 7c3d
00000170: d51f 0a3d 617c 99bd fda1 373e 23c4 673d
00000180: d307 aa3d a7f7 0bbe e2e0 7b3e fdbd 883c
00000190: 0c98 8abd b12d dfbd a8fd 193e abc1 3ebd
000001a0: 405f 153e d8af 1a3e 508c 16be 46c3 c5bc
000001b0: 3ddf ce3c 2cfc b5bc 26d6 a2bd 2062 943d
000001c0: 66e8 f9bd 182c 583c 6e60 df3d 5e88 f5bc
000001d0: 8c0d 9f3d f71a 8fbd 31f1 b6bd ed4d 8a3e
000001e0: b81c 993e f956 1b3e 0fc0 813d 9193 2abd
000001f0: 2ff4 1abe 396d 58bc 6ccc fc3d 129a 213e

lstm.bias_hh_l1 f4 [128]
-0.013181119 0.15081567 -0.07968504 0.13032423 -0.124436736 0.1752558 -0.09886916 0.085151576
0.06305591 0.055522848 0.15161206 -0.11291594 0.07385292 -0.022007303 -0.09725678 0.017354596
0.06553781 0.022614682 -0.033325393 0.03402289 0.06805691 0.029706586 0.0832695 -0.07946969
0.05753218 0.12034566 0.20431869 -0.015223735 0.0013769978 0.16039911 0.2315019 0.119713195
-0.1109267 -0.055622857 -0.1382073 -0.04439685 -0.07964427 -0.096996896 0.21210138 0.059435915
-0.06918398 0.19837004 0.05428691 0.18420425 0.09694435 -0.1839377 -0.24009842 0.11458839
0.06301193 0.103792824 0.19890842 -0.013431926 0.07005776 0.10131358 -0.09768835 -0.04569621
0.073820196 0.17257188 -0.00027289387 -0.017484311 0.15587036 0.07135531 0.11146256 0.14520888
-0.22542265 0.11251382 -0.08047533 -0.19317937 -0.09700644 -0.13573925 -0.17014599 -0.18737032
0.2006395 0.1287948 0.11392287 0.07173116 0.25936458 -0.21712467 0.17257337 0.21802272
0.022265058 -0.047165472 -0.175697 0.019522961 0.21336986 -0.14730465 0.18131661 0.09277729
0.09321716 -0.045538392 0.1653383 0.016632989 -0.07116082 -0.019145519 0.13915865 0.06594289
0.060599662 0.13503633 0.016960206 -0.12749684 0.14223444 0.1876275 -0.042440575 0.030093096
0.17491204 -0.10226631 -0.06544036 0.07978696 -0.003880996 -0.082742944 0.0683368 -0.0936621
-0.044460215 0.082179666 0.1813369 0.09123557 -0.11639315 -0.10200972 0.121202454 -0.029516865
-0.02008016 -0.039669298 0.12600671 0.1294752 0.12859832 0.08848392 0.12617163 0.14303723
00000000: 9ff5 57bc 6c6f 1a3e e931 a3bd b773 053e
00000010: b0d8 febd 4276 333e ea7b cabd f363 ae3d
00000020: 7523 813d ed6b 633d 3140 1b3e 7940 e7bd
00000030: 3340 973d a948 b4bc 902e c7bd 3a2b 8e3c
00000040: b038 863d 6d42 b93c 3580 08bd 965b 0b3d
00000050: 6c61 8b3d 3a5b f33c 3389 aa3d 01c1 a2bd
00000060: dda6 6b3d c977 f63d eb38 513e f96c 79bc
00000070: 617c b43a aa3f 243e d60e 6d3e 312c f53d
00000080: 8a2d e3bd cbd4 63bd 3786 0dbe 79d9 35bd
00000090: 891c a3bd 4fa6 c6bd 1b31 593e 1373 733d
000000a0: 55b0 8dbd 8421 4b3e f35b 5e3d 0aa0 3c3e
000000b0: c28a c63d 2a5a 3cbe 5cdc 75be 51ad ea3d
000000c0: 660c 813d 5591 d43d a6ae 4b3e 9511 5cbc
000000d0: 717a 8f3d 7f7d cf3d d410 c8bd f32b 3bbd
000000e0: 0b2f 973d afb6 303e 3213 8fb9 423b 8fbc
000000f0: 7b9c 1f3e bc22 923d 7c46 e43d a3b1 143e
00000100: 32d5 66be a56d e63d 40d0 a4bd d0d0 45be
00000110: 50ab c6bd 3bff 0abe c03a 2ebe 01de 3fbe
00000120: 7174 4d3e c9e2 033e 6550 e93d c9e7 923d
00000130: 6fcb 843e ee55 5ebe 13b7 303e 5941 5f3e
00000140: 3665 b63c 9530 41bd eae9 33be 9eee 9f3c
00000150: a17d 5a3e 08d7 16be 10ab 393e 0502 be3d
00000160: a3e8 be3d 7786 3abd 714e 293e e841 883c
00000170: c4bc 91bd 10d7 9cbc 9b7f 0e3e 110d 873d
00000180: 5a37 783d f746 0a3e 21f0 8a3c 888e 02be
00000190: e8a5 113e 6c21 403e 2bd6 2dbd cc85 f63c
000001a0: 241c 333e 0071 d1bd 9805 86bd 5867 a33d
000001b0: 4f58 7ebb 2275 a9bd 2af4 8b3d ead1 bfbd
000001c0: ea1b 36bd d04d a83d 61b0 393e b7d9 ba3d
000001d0: 885f eebd 79ea d0bd fe38 f83d 5acd f1bc
000001e0: 267f a4bc 467c 22bd e707 013e 2695 043e
000001f0: 47af 033e 0f37 b53d 2333 013e 5a78 123e

fc.weight f4 [3, 32]
-1.5865703 1.5146308 -1.6200953 -1.6043547 1.7419776 -1.5415826 -1.577678 -1.5281096
1.4765625 1.5925634 1.6971205 -1.5767044 1.5949881 -1.4776748 1.5096262 1.5598416
-1.684697 1.5880017 -1.3611201 1.6621006 1.6425112 -1.4306188 1.5904425 1.7311928
1.5560892 1.6451824 1.3943794 1.6110107 -1.4599426 -1.7083539 1.6281389 1.6380365
-1.5157297 1.5640343 -1.6946734 -1.4881377 1.5254061 -1.4153094 -1.4564162 -1.6616852
1.5397555 1.4563433 1.7064255 -1.6116301 1.6691492 -1.7620455 1.5842769 1.7070085
-1.5099189 1.6258094 -1.5936879 1.6007402 1.5433269 -1.6878009 1.6780688 1.4521391
1.5955755 1.6870706 1.5236859 1.5693654 -1.5721638 -1.4260004 1.4088324 1.445889
-1.4775821 1.5258045 -1.4350019 -1.6814399 1.4866041 -1.6425611 -1.5669432 -1.4926945
1.6466893 1.5157455 1.5408714 -1.4557294 1.3624587 -1.4697208 1.6101205 1.4606823
-1.6572822 1.6159604 -1.6617846 1.4544959 1.3716953 -1.677355 1.614395 1.652426
1.7002692 1.6607195 1.6254919 1.721749 -1.6446398 -1.6775384 1.5445247 1.5854423
00000000: bc14 cbbf 6cdf c13f 485f cfbf 7f5b cdbf
00000010: 1ff9 de3f 9452 c5bf 5af1 c9bf 1899 c3bf
00000020: 0000 bd3f 1ed9 cb3f 3f3b d93f 73d1 c9bf
00000030: 9228 cc3f 7324 bdbf 6e3b c13f e4a8 c73f
00000040: 27a4 d7bf a443 cb3f 2f39 aebf b6bf d43f
00000050: cf3d d23f 841e b7bf 9f93 cb3f ba97 dd3f
00000060: ee2d c73f 5695 d23f 067b b23f 9935 ce3f
00000070: 66df babf 57ab dabf db66 d03f 2eab d13f
00000080: 6e03 c2bf 4732 c83f 0feb d8bf 4c7b bebf
00000090: 8240 c33f dc28 b5bf d96b babf 1ab2 d4bf
000000a0: b516 c53f 7569 ba3f 276c da3f e549 cebf
000000b0: aea6 d53f b58a e1bf 96c9 ca3f 417f da3f
000000c0: 0645 c1bf 861a d03f f7fd cbbf 0ee5 cc3f
000000d0: bc8b c53f dc09 d8bf f5ca d63f b2df b93f
000000e0: d13b cc3f eef1 d73f 2408 c33f f7e0 c83f
000000f0: aa3c c9bf 2e87 b6bf 9f54 b43f e412 b93f
00000100: 6921 bdbf 904d c33f 24ae b7bf 6c39 d7bf
00000110: 0b49 be3f 713f d2bf 9891 c8bf 9d10 bfbf
00000120: b7c6 d23f f303 c23f 463b c53f 5755 babf
00000130: 0c65 ae3f d01f bcbf 6e18 ce3f a3f7 ba3f
00000140: d321 d4bf cad7 ce3f 5cb5 d4bf ec2c ba3f
00000150: b693 af3f 92b3 d6bf 7fa4 ce3f b282 d33f
00000160: 6ca2 d93f 7592 d43f 1e10 d03f 4562 dc3f
00000170: 8f83 d2bf 94b9 d6bf fcb2 c53f c6ef ca3f

fc.bias f4 [3]
1.1375577 1.0910732 1.1921802
00000000: 7e9b 913f 49a8 8b3f 5c99 983f
