models/cloud_ann_model.pth (torch, 27288 bytes, 6 tensors)

model.0.weight f4 [32, 154]
000000 1f 74 24 3e 5b 65 d5 3d e2 54 9f be c7 56 4d 3f
       0.16059922 0.10419723 -0.31119448 0.80210537
000010 f4 9a 0d bd 9f 07 9a bd ac 73 99 3d 8a 3c 87 3a
       -0.034571603 -0.07520985 0.07492766 0.0010317725
000020 f4 ab aa 3e 67 56 98 bd 1e e9 0d 3d ad cd 3b 3e
       0.33334315 -0.07438355 0.034646146 0.18340178
000030 53 9e 12 3d 1b e5 94 3e bc 17 68 be ff 98 01 3e
       0.03579552 0.29081044 -0.22665304 0.1265602
000040 f7 eb 2a 3e 12 b9 36 bb 7a 7e 21 be 75 79 8e 3c
       0.16691576 -0.0027881307 -0.15770903 0.0173919
000050 cd 3a e6 3d 42 ad eb 3d 9f fb 8f 3e af 7f 3d 3e
       0.11241684 0.11507656 0.2812166 0.18505739
000060 bc 67 7e be 5c a8 d4 3e 2d 1d 9a bc 3e e6 b5 bc
       -0.24844259 0.41534698 -0.01881274 -0.022204515
000070 1b 2b f8 3d 0d b4 4e 3d 54 50 a2 3e 4b 8b d7 bb
       0.12117597 0.05046468 0.3170191 -0.0065778843
000080 81 47 2b bd 96 46 78 3e 36 35 d3 3d dc 97 da 3d
       -0.04181624 0.24245676 0.103128836 0.10673496
000090 fe ca eb bd fe 2f e1 3d 9e da 49 3d 9e 3c 75 3d
       -0.11513327 0.10995482 0.049280755 0.059872262
0000a0 5b fe 72 3b a2 b5 5d 3c 56 b4 7b 3d 3f 2d 0d 3d
       0.0037077877 0.013532074 0.06145128 0.03446698
0000b0 6a 38 67 3e 4f bb 94 bb 78 6f b5 be ce d0 0d 3f
       0.22580114 -0.0045389305 -0.35436606 0.55396736
0000c0 c3 c0 fc bc 6e 03 e5 bc 8c 37 7f bc 9e 35 68 3e
       -0.030853635 -0.027955737 -0.015577208 0.22676703
0000d0 16 3e a4 3e 67 76 ea 3d c3 a6 42 bb 1e 5b e2 3d
       0.32078618 0.11448365 -0.0029701449 0.110525355
0000e0 e2 d9 17 3c 64 7b 3d bd 6b 8f 82 be 9e 05 69 3e
       0.009268256 -0.046260253 -0.25500044 0.22756049
0000f0 68 c7 b6 3d 12 0b de 3d e4 a3 af 3c c0 dd c1 bd
       0.089247525 0.10841955 0.021440454 -0.094661236
000100 61 34 a1 bc 5f 84 e2 bc b9 9d 17 3e 6f 9c fc 3b
       -0.019678297 -0.02765101 0.1480626 0.007709078
000110 f4 d2 a1 be 79 24 72 3e 5c 42 dd bd f1 99 f2 3c
       -0.31606257 0.23646726 -0.10803673 0.02961442
000120 5a 01 65 bd 54 5e 41 3e da 78 8f 3e 08 ef 39 3d
       -0.055909492 0.1888364 0.2802189 0.045393974
000130 ff e4 5b bd 28 76 8b bc 89 cb 1c 3e b8 e4 b2 bd
       -0.053685185 -0.017024115 0.15312018 -0.08735031
000140 4f fa 8b bd 3f 24 9d 3d 6e ff fa 3d b0 ea d4 3a
       -0.06834852 0.07672929 0.122557506 0.0016244259
000150 69 d2 1f bc 85 63 a2 bd 82 1d 8e bd 1a 88 ea 3b
       -0.0097547555 -0.07929138 -0.06939222 0.007157338
000160 4b fd 97 3d ea 85 05 3e c5 0b da bc 42 5a 6e 3e
       0.07421359 0.13039365 -0.02661694 0.23276618
000170 74 63 89 bd 48 a7 e6 3e 29 9a ad bc e2 95 35 3e
       -0.06708422 0.450495 -0.021191673 0.17732957
000180 4b b7 30 3e 13 1c ec bd eb 8d 58 3d 2d fc 94 bc
       0.1725742 -0.11528792 0.05286972 -0.018186653
000190 0a cb 94 3e 5c 54 41 be ec 39 2a bd cf e0 85 3d
       0.29061157 -0.18879837 -0.041559145 0.065370195
0001a0 3c ca 83 3e 06 84 13 3d c6 61 31 3d fb aa 79 bc
       0.2574023 0.03601458 0.043306135 -0.015238519
0001b0 a7 86 e1 3c 5d d7 bb bc cd 4c ec 3d 7c e5 36 3e
       0.027530028 -0.022929842 0.11538086 0.17860979
0001c0 18 2c 93 be 0b 6d 43 3d a5 7b bf 3d d6 92 9e 3e
       -0.28744578 0.047711413 0.09349755 0.30971402
0001d0 f8 e2 8f bd 68 eb 30 be ae a3 59 3c 2f 52 08 be
       -0.07025713 -0.172773 0.013283653 -0.133126
0001e0 06 8d fc 3d 9b e2 eb bb 2c 8f 82 3e 27 16 5f bd
       0.123315856 -0.0071986443 0.25499856 -0.054464485
0001f0 7e 46 d6 bd 9b a1 8d bd 59 d3 56 3e be 15 92 3c
       -0.10462664 -0.069155894 0.2097906 0.017832633
000200 20 f8 19 3c 54 49 e0 bd 34 82 0e be ed a8 0e be
       0.0093975365 -0.10951486 -0.13916856 -0.13931628
000210 85 af 87 3e 8a ed 3f 3d c2 6b ae be 14 ae e4 3d
       0.26501098 0.046857394 -0.34066588 0.11166015
000220 54 33 a6 bc b4 c7 e2 3e 0a b6 88 3d b3 c9 8d be
       -0.020288147 0.44292986 0.06675346 -0.27692947
000230 8b ec 8b bd a7 fa 2e 3e ed 12 88 3e 43 ea 51 bd
       -0.06832226 0.17087804 0.2657694 -0.0512488
000240 b0 a6 11 3e 40 3d 4e 3d ae 18 34 bd 6c 4a 70 3d
       0.14223742 0.05035138 -0.04396885 0.058664724
000250 c4 96 90 3c c7 79 2b bd ae 07 34 3c f8 f6 12 be
       0.017650016 -0.041864183 0.010988159 -0.14352024
000260 db b6 60 be a2 30 ea bd 3c 94 80 be 8d e1 6f bc
       -0.21944754 -0.11435057 -0.25113094 -0.014641178
000270 af 27 70 be 04 09 01 3e 04 cf fd 3d a5 64 3f bd
       -0.23452638 0.12601095 0.12393001 -0.04672684
000280 8f 63 6b be ff 08 08 3b 34 a7 ba 3c b0 ed 56 bd
       -0.22987197 0.0020757315 0.022784807 -0.05247277
000290 b2 51 b1 3c d1 23 ca 3c 69 3f 02 3e 1b 62 f0 be
       0.0216454 0.024675282 0.12719502 -0.4694985
0002a0 06 14 72 be 9b 7d 2c 3e 1c 22 33 3e ae 60 b3 be
       -0.23640451 0.1684479 0.1749348 -0.35034698
0002b0 c8 86 1a be c6 64 40 3d ac c9 50 bd 5e ac 80 3c
       -0.15090477 0.046971105 -0.05097358 0.015707191
0002c0 c3 cc cb bd c7 57 7d 3d 7a 6f 58 be 4f e3 d6 bc
       -0.099511646 0.06185129 -0.21136275 -0.026231436
0002d0 88 ea c1 3d 2f 0e 5c 3d 0c 9a 47 be 00 73 c2 3d
       0.094685614 0.053724464 -0.19492358 0.09494591
0002e0 90 8a a9 3d 91 0d 4b bc a5 f8 8b 3d c8 74 80 3d
       0.08278382 -0.012393371 0.068345346 0.06272274
0002f0 9e 27 46 3e 99 ab 14 be c7 19 51 be f1 c8 8e 3e
       0.1935105 -0.14518584 -0.2041999 0.2788768
000300 32 9c 9a 3d da 59 56 be d9 a6 42 bd 73 62 4f bb
       0.07549323 -0.20932713 -0.0475224 -0.0031644374
000310 08 98 a9 3d 67 47 12 3e aa 65 4a be de 96 e7 3d
       0.08280951 0.1428505 -0.19765344 0.113080725
000320 73 9c 80 be e6 06 fc bd b9 9b 21 3d 07 70 4f bd
       -0.2511936 -0.12306003 0.03945515 -0.050643947
000330 db ff 9a bd 70 98 5b 3e 48 06 08 3e cc 51 d2 3d
       -0.07568332 0.21444869 0.13283646 0.10269508
000340 83 d2 c3 3d 10 c5 9c 3c ad 3e 09 3e 02 a7 9a be
       0.09561636 0.019136935 0.13402815 -0.30205542
000350 36 b2 69 be a1 7d 9e 3e e7 a7 f7 3d 77 b4 48 be
       -0.22821888 0.30955222 0.12092572 -0.19600092
000360 1b 11 e5 3d e6 e8 6d bd ba d5 16 3e 30 22 e1 3d
       0.11184903 -0.058083437 0.14729968 0.10992849
000370 e1 86 de bd 6e 83 a9 3d 02 1e 70 be b8 81 a5 3c
       -0.1086557 0.08277021 -0.23448947 0.020203456
000380 48 b3 33 3d 31 1f 26 3e e3 31 27 be d6 ec b0 3d
       0.043872148 0.16222836 -0.16327624 0.08638923
000390 c4 87 33 3e c3 3d 11 be 46 fb b2 3d f7 9c 97 3d
       0.17532259 -0.14183716 0.08739333 0.074029855
0003a0 56 3c 87 3e dd 9a 80 be 17 03 89 3c b1 4a 8a 3e
       0.2641322 -0.2511815 0.016725106 0.2701011
0003b0 b9 9c a3 3e 28 e7 d7 bd 91 bb 09 3e 94 f9 12 be
       0.31955507 -0.105421364 0.13450457 -0.14353019
0003c0 96 22 08 3e 6f 45 08 3e 37 2f 76 be 3f fe 71 3d
       0.13294443 0.13307737 -0.24041449 0.05908036
0003d0 92 7c 2b be 2c be 66 3d 7a c5 3f 3d 35 f2 39 3e
       -0.16746739 0.056333706 0.046819188 0.18158801
0003e0 d3 2c 48 be 6d d7 44 be d1 8f b4 3d d9 c4 6b be
       -0.19548349 -0.19222803 0.08816493 -0.2302431
0003f0 5f 4b 59 3d f4 b7 92 bd ad 3b 8f 3d 50 35 8d be
       0.053050395 -0.071639925 0.06993804 -0.27579737

model.0.bias f4 [32]
000000 99 2e 37 bf 50 e6 0c bf 7b 35 0e 3e b1 14 08 3e
       -0.7155548 -0.5503893 0.13887589 0.13289143
000010 70 92 54 bf e8 9b a5 be 8c 48 85 be ce 0f 60 be
       -0.83035946 -0.3234551 -0.2603191 -0.21881029
000020 8a 9e ff bd 42 1a da bc ae 91 50 3e 52 7c ac be
       -0.12481411 -0.026623849 0.20368072 -0.336886
000030 a4 5a e5 bd f9 6c 52 be d0 69 fa 3e a3 0d 32 be
       -0.11198929 -0.20549382 0.48908854 -0.17388014
000040 25 c8 45 be bb f3 69 3d a1 ad 5d be ad 46 67 3d
       -0.1931463 0.057117205 -0.21648265 0.056463886
000050 90 33 78 3e 75 2e c9 bd c7 a2 20 bd 61 78 70 3c
       0.2423842 -0.09823314 -0.039217737 0.014677138
000060 01 8f 3e 3e dd 4d 8d be cd b8 c9 bd 08 ca b4 bd
       0.18609239 -0.27598467 -0.09849701 -0.08827597
000070 da b0 2c 3e 77 ac 19 3e da a6 38 be 61 08 76 be
       0.16864339 0.15007196 -0.18032399 -0.24026634

model.3.weight f4 [32, 32]
000000 29 a4 c2 3d 61 ea e6 3d 39 8e ae 3e 2c 12 91 3e
       0.09503967 0.11275173 0.34092882 0.28334177
000010 91 90 94 3d b8 95 07 3d ce c4 be bd b9 09 50 bc
       0.07254136 0.033101767 -0.09314881 -0.012697631
000020 7e 3c b8 bd 48 b1 aa 3b a5 39 82 bd 75 af 64 3e
       -0.08995913 0.005209122 -0.06358651 0.22332557
000030 14 88 5b 3d 08 2e 20 3d a3 3a 8d 3e e0 ff 10 3e
       0.05359657 0.0391064 0.275838 0.14160109
000040 a1 e4 e0 3d 9c 26 27 3e a1 ce 41 3e 5c 7e 53 3e
       0.109811075 0.16323322 0.18926479 0.20653671
000050 be 16 26 3e 47 88 90 3c a2 a7 fe 3d dc ee 3c 3e
       0.16219613 0.017643107 0.12434317 0.18450493
000060 b3 72 ed 3d da 16 72 3e 8d bf 28 3e c0 ea be 3d
       0.11594143 0.2364153 0.16479321 0.09322119
000070 72 56 47 3e 0f 3c 8e 3c ae d1 49 3e b1 0d 2d 3e
       0.1946657 0.017362623 0.19708893 0.16899754
000080 c4 54 95 3e a2 7d 82 3e 07 51 ac 3c 7f f6 e9 3c
       0.29166234 0.25486475 0.02103473 0.028559921
000090 f1 1d 9e bd 83 c1 3d bd 61 a6 cb 3d 03 c1 54 3e
       -0.077205546 -0.046327125 0.09943844 0.20776753
0000a0 a1 f5 ad 3e 01 28 35 3e f1 5f 67 3e 47 13 86 3d
       0.33976462 0.17691042 0.22595192 0.065466456
0000b0 a6 12 0b 3e 3a d1 91 bd 83 3f 0d 3e f7 3c 59 3e
       0.13581333 -0.07119985 0.13793759 0.21214662
0000c0 a9 5f 90 3e 45 6b bd bb a3 a6 87 3d 5d 1b 9f 3d
       0.28197983 -0.00578061 0.0662358 0.07768891
0000d0 52 fe 65 3d 5a 9a 8b 3e b1 3f d3 bd 58 ff 0c 3c
       0.056150742 0.27266198 -0.103148825 0.008605801
0000e0 8d fb 6d bd 37 25 c3 bd 24 ad 04 b8 4b 3c 48 3e
       -0.058101226 -0.095285825 -3.1632502e-05 0.1955425
0000f0 8c b3 88 3d 01 e0 46 3e c9 8d 37 3e 87 43 6f 3e
       0.06674871 0.19421388 0.1792518 0.23365603
000100 0c d4 31 be 6e 61 c2 bd 48 8b c7 be cb 86 aa 3d
       -0.17366046 -0.094912395 -0.3897345 0.08326491
000110 26 53 1c bf ae 39 0e be 27 4d 5d be dc c2 42 be
       -0.61064374 -0.1388919 -0.21611463 -0.19019645
000120 f0 25 29 be 98 5d 81 be b1 01 5c be c3 f4 1b be
       -0.16518378 -0.2526672 -0.2148502 -0.15230088
000130 64 83 b8 bd 48 91 8f bd 46 7e 98 3e 67 2d eb bd
       -0.09009436 -0.07010132 0.2978384 -0.11483269
000140 70 39 65 3d 1f 50 7b be fb b8 82 bc ac 7d dc be
       0.05596298 -0.24542283 -0.015957346 -0.4306463
000150 fb 76 94 be 63 47 91 bd 0f 27 de bd 93 3a e5 bd
       -0.28997025 -0.07093694 -0.108472936 -0.11192813
000160 aa 50 59 be 65 b8 f5 3e f4 54 e3 be a9 2a a0 bd
       -0.21222177 0.47992244 -0.44400752 -0.07820637
000170 cc 99 64 3e 62 b3 3f be e7 df ea bd f9 7d ee 3d
       0.22324294 -0.18720773 -0.11468487 0.11645121
000180 25 74 40 3e cf 9c 14 bd 9c d3 89 3e ec 4f 63 3e
       0.18794306 -0.036282357 0.26919258 0.22198457
000190 1f a5 fe 3c 4b 87 28 3c 9a ff ab 3d 6f fb 1d 3e
       0.031084595 0.010286163 0.083983615 0.15427946
0001a0 60 2e 5f 3e 7f d7 42 be 46 a0 62 3d 9b 27 40 3e
       0.21795034 -0.19027518 0.05532863 0.18765108
0001b0 03 0e 02 3e 0c 79 84 3e 87 b8 d0 3d bb c5 12 3e
       0.12700658 0.258736 0.10191446 0.1433324
0001c0 6c 59 0c 3d 0a 90 45 3c b4 e6 a3 3e 3d f7 bc 3d
       0.034264967 0.012058267 0.3201195 0.092268445
0001d0 44 62 e7 3d 1f aa 6f 3e 89 2d 4c 3e 6b 68 9f 3e
       0.112980396 0.2340474 0.19939245 0.31134352
0001e0 05 69 0a be 79 e6 be 3e db d5 3e 3e 40 bf 88 3d
       -0.13516624 0.37285212 0.18636267 0.06677103
0001f0 36 3e 8e 3e e2 b7 fb be 98 9e 84 3e fb 25 6b 3e
       0.27781838 -0.4916373 0.25902247 0.22963707
000200 56 f1 08 3a 2a 61 31 3e 60 f6 23 3e dc 0f a3 3d
       0.000522395 0.17322221 0.16011953 0.07962009
000210 75 ad 89 bd 68 d7 5b 3e db 07 96 3d f2 0c d1 bd
       -0.067225374 0.2146889 0.07325717 -0.10207547
000220 f9 23 db bd e1 b9 10 3e c7 88 4d bd 8e ff 4a 3e
       -0.107002206 0.14133407 -0.05017927 0.19824049
000230 5f 90 5a 3d c0 00 ee 3c 2c cb 8f 3e 61 60 07 3e
       0.05336034 0.029053092 0.28084695 0.1322036
000240 8c ac af 3e f6 c3 fe 3d f6 39 6a 3e 01 ba ab 3d
       0.3431133 0.1243972 0.22873673 0.08385087
000250 dc b1 02 bd 3c 09 7b 3e 3a 34 8f bb 36 45 65 3e
       -0.0319079 0.24515241 -0.0043702396 0.22389683
000260 d1 a3 49 3e a7 a6 b6 3e 74 c7 81 3d b0 a2 08 3e
       0.19691397 0.3567402 0.06336871 0.1334331
000270 5b 2d 2e 3e 2e 7d 57 3e 5e b6 2f 3e 56 6f 49 3e
       0.17009489 0.21043846 0.17159411 0.19671378
000280 26 ef 7f be 5c 9c a1 3e 6d b5 a1 3d 0d 5d 86 3d
       -0.24993572 0.31564605 0.07895932 0.06560717
000290 68 59 61 be 3b 23 37 3e 96 7d 46 3e fd 63 bd 3e
       -0.22006762 0.17884533 0.19383845 0.36990348
0002a0 0d e1 4a bf 86 43 bc 3e 95 80 00 be ac 74 ad 3d
       -0.7924965 0.36770266 -0.1254905 0.08469519
0002b0 e4 f9 ad 3e 36 95 21 3d b1 bf 28 3e 76 3a 97 3e
       0.33979714 0.03944894 0.16479374 0.2953679
0002c0 34 41 83 3e 3e aa 1f bd ef 1b 4b 3e 53 1f f4 3b
       0.25635684 -0.038980715 0.19834875 0.007450023
0002d0 1f 1d 19 3e a8 1b d6 3d 4c 0d ca be b4 20 84 bd
       0.14952515 0.10454494 -0.3946327 -0.0645155
0002e0 e8 23 01 3d b1 8d 54 bd 34 3d df bd e1 bc 4b 3e
       0.031528383 -0.05189294 -0.109003454 0.1989627
0002f0 8f 71 a3 3e e0 9b 73 be a0 71 2b 3e 7d f7 9c 3e
       0.31922576 -0.2378993 0.16742563 0.3065757
000300 a5 73 62 3e 8f ce 50 3e 8d 35 d1 3d b5 09 b6 3d
       0.22114427 0.20391296 0.10215292 0.0888857
000310 4e b4 81 3e e8 6e 78 3e fd a2 37 3d 3a a7 9a 3e
       0.25332874 0.24261057 0.044833172 0.3020571
000320 1c 7e 05 3e 4f c5 b6 3e e0 30 46 3d 2a 0f 07 3e
       0.13036388 0.3569741 0.048386455 0.13189378
000330 da 99 64 3e 03 0f 72 3e 9e c7 ea bb 56 81 4d 3e
       0.22324315 0.23638539 -0.0071649095 0.20068869
000340 c5 9a 91 3e 43 e6 50 3d e4 0b 5b 3e 56 13 ca 3d
       0.28438392 0.051000845 0.21391255 0.09866969
000350 78 9b 89 3d b2 6f 8e 3e 33 c5 8c bc 6d 38 6c bc
       0.067191064 0.27819592 -0.017183876 -0.01441775
000360 de 92 e5 bc fc 17 56 3e ee de f3 bc 31 a6 33 bd
       -0.028024133 0.20907587 -0.029769387 -0.043859664
000370 9a 1e 96 3e 36 d0 80 3e 31 f1 ee 3d 32 22 fd 3d
       0.29320222 0.25158852 0.11667097 0.12360038
000380 69 4a cd be ba f4 2e bd ab 22 58 be ce 58 f0 3d
       -0.40095833 -0.04271386 -0.21106975 0.11735688
000390 ea e6 58 bf d0 6c d1 3d 45 16 db be fc cc bc be
       -0.84727347 0.102258325 -0.42790428 -0.3687514
0003a0 27 18 cb be 9a ba c6 be 3c ad 9e be b5 bd 8b bd
       -0.39666864 -0.3881424 -0.30991542 -0.06823293
0003b0 c8 f8 db bd 38 95 89 3d 81 a3 ad 3e f4 4a 80 be
       -0.10740811 0.06717914 0.33913806 -0.25057185
0003c0 c0 d3 8a 3e a5 f0 95 3d 20 2c ad 3d 86 d0 03 bf
       0.27114677 0.0732129 0.08455682 -0.51490057
0003d0 3e 93 b1 be 2f 2d 82 be f9 2d eb 3d a7 39 10 bd
       -0.3468265 -0.25425097 0.11483378 -0.03521123
0003e0 65 3c 05 bf e8 fa e1 3e d9 49 0f bf 8d 09 0b be
       -0.5204528 0.4413674 -0.5597206 -0.13577862
0003f0 ef eb e0 3e 98 b8 36 be bc 5c 8c be 28 0d 44 3e
       0.43930003 -0.17843854 -0.274145 0.19145644

model.3.bias f4 [32]
000000 cf 03 cd 3f 1b 63 a3 3f c4 43 64 bf ec 3b 94 3f
       1.6016787 1.276462 -0.891659 1.1580787
000010 ec f9 c2 3f cb c6 98 3f 7b c1 bf 3f bc ab be bf
       1.523252 1.1935667 1.498092 -1.4896159
000020 48 ee d0 3f 47 4e 9b 3f ff 58 7c bf 03 9b b2 3f
       1.6322718 1.2133263 -0.985733 1.3953556
000030 f6 80 c2 3f d0 7c f8 3f 56 a1 ac bf 9e 13 c3 3f
       1.5195606 1.941309 -1.3486736 1.5240362
000040 67 f3 e2 3f 74 92 c7 3f 11 80 00 bf 50 82 95 bf
       1.773053 1.5591569 -0.50195414 -1.1680393
000050 55 f9 de 3f 80 86 b4 bf 1a 36 c7 3f 98 c5 bd 3f
       1.741984 -1.4103546 1.5563385 1.4825926
000060 09 4f d3 3f fd 09 d6 3f 3f 6d b8 3f 01 5c dd 3f
       1.6508495 1.6721798 1.4408339 1.7293702
000070 87 3a dc 3f e3 69 a9 bf a7 1a ad 3f a9 8c cd 3f
       1.7205361 -1.3235439 1.3523759 1.6058551

model.5.weight f4 [3, 32]
000000 b6 f4 ac 3e 40 cc 5b 3e e7 01 fb be fb bd 77 3e
       0.3378045 0.21464634 -0.4902489 0.24193566
000010 10 37 9d 3e c4 3b fc 3e 7c d4 56 3e f1 be 30 bf
       0.30706072 0.49264348 0.20979494 -0.69041353
000020 d2 85 e1 3e 6d 70 8d 3e 11 03 31 bf 9e 3a bb 3e
       0.4404741 0.27624837 -0.69145304 0.3656816
000030 b7 f1 a6 3e c7 1b ea 3c cd 7c aa 3a 82 1b b8 3e
       0.3260629 0.028577698 0.0013007164 0.35958487
000040 36 41 3f 3e f1 b4 48 3f 99 0b a5 3d 9c 51 1e bf
       0.1867722 0.78401095 0.08058853 -0.61843276
000050 25 06 27 3e 01 c9 c2 be 1b ed af 3e cc 10 a0 3e
       0.16310938 -0.3804398 0.34360585 0.31262815
000060 b4 f8 3d 3e 49 af a6 3e ca fd dd 3e 61 8f 50 3e
       0.18551904 0.32555607 0.43357688 0.20367195
000070 23 2d 6c 3e d5 82 37 bf 4b ff 8c 3e 33 6e ce 3e
       0.23064093 -0.7168401 0.27538523 0.4031845
000080 0d b6 2b 3e 16 4a a9 3e 2b 53 08 bf b3 e4 a5 3e
       0.16768666 0.33064336 -0.53251904 0.32401046
000090 3d b1 b0 3e 27 81 aa 3e 90 c9 83 3e 82 fd 42 bf
       0.34510222 0.3330166 0.25739717 -0.7616807
0000a0 eb 5b ea 3e aa 2c cd 3e 82 97 05 bf bb 3d cd 3e
       0.45773253 0.40073138 -0.5218431 0.4008616
0000b0 61 1e 4c 3e b1 fb af 3e 19 8f 65 be ab 9a 4e 3e
       0.19933464 0.34371713 -0.22417869 0.20176189
0000c0 ee 3a 64 3e 00 a7 5e 3f ef 6b 25 bd ff e6 32 bf
       0.22288105 0.8697357 -0.040386137 -0.6988372
0000d0 f9 3b 85 3d b8 af a5 be 01 b6 ca 3e 8a df 7a 3e
       0.065055795 -0.32360625 0.39591983 0.24499336
0000e0 da b8 de 3e 0c ec 08 3e 81 12 ad 3e fc fa 8e 3e
       0.43500406 0.13371295 0.3380318 0.2792586
0000f0 65 3d 88 3e 74 73 33 bf 57 2f 6a 3e 38 b0 93 3e
       0.2660934 -0.7009804 0.22869621 0.28845382
000100 5b 37 88 3e ae cd 17 3e 37 03 ed be 01 1b a2 3e
       0.26604733 0.14824554 -0.46291515 0.31661227
000110 54 f7 8c 3e bf 01 c4 3e d7 63 74 3e 39 9e 45 bf
       0.27532446 0.38282582 0.23866211 -0.77194554
000120 da 38 3f 3e bc 1c b0 3e 7c 9d 38 bf f4 af af 3e
       0.18674031 0.34396923 -0.721153 0.3431393
000130 1b 3f a0 3e 04 d8 f7 3e 02 b5 8d be 50 9b 60 3e
       0.31298146 0.48406994 -0.2767716 0.21934247
000140 8e 8f 49 3e a9 85 71 3f 58 5d 97 bd 45 bf 00 bf
       0.19683668 0.94344574 -0.07390851 -0.50291854
000150 03 82 bd 3e 9a f8 0c be 07 81 8e 3e 13 b9 24 3e
       0.37013254 -0.13766709 0.27832815 0.16086225
000160 25 83 ce 3e 3e cf a2 3e b5 4c 4b 3e a6 42 92 3e
       0.4033443 0.31798738 0.1985348 0.28566474
000170 ea b5 5f 3e ec b0 29 bf 91 05 41 3e 55 8e af 3e
       0.21846738 -0.66285586 0.1884978 0.34288278

model.5.bias f4 [3]
000000 13 87 5a 3f 56 62 4f 3f 0c ef 9f 3f
       0.85362357 0.81009424 1.2494826
