models/humidity_ann_model.pth (torch, 27318 bytes, 6 tensors)

model.0.weight f4 [32, 154]
-0.34020618 -0.0091556255 -0.055470567 -0.08771189 0.04056345 -0.07421814 0.090224944 -0.12946919
0.36090526 0.1335659 -0.2780723 -0.011924743 0.11454304 -0.07198578 0.14990841 -0.13580823
0.050369266 -0.2745831 0.11597356 0.18559755 0.10474899 -0.27307734 -0.37207553 -0.051398456
-0.005252282 -0.1116244 -0.008135348 0.08345314 0.1834122 -0.082740776 0.28917283 0.12567545
-0.22341132 -0.12993655 0.06518521 -0.123687245 0.14979161 -0.020748382 -0.0654807 -0.20883396
0.09600097 0.24531305 0.09234949 -0.02811057 -0.25425845 0.009207301 0.07851749 -0.12013506
0.019324737 0.05883045 0.11263153 0.062188245 0.19046254 -0.043115336 -0.09838569 -0.231285
-0.053853683 -0.2951732 0.16474581 0.027886791 0.07244465 -0.14858213 0.06820294 0.25189114
-0.001012618 0.017079333 -0.2612847 0.023567164 0.09202846 -0.02712127 0.015283896 0.013410007
0.15786402 0.09602421 0.18856466 0.02122379 -0.210969 -0.13357326 0.17392634 -0.24562424
0.14087929 -0.06905344 -0.037978742 -0.061941545 0.026839329 0.090838514 0.03216495 0.1449665
-0.23138323 0.022821499 -0.05743079 -0.01084962 0.16640376 0.0010629299 0.21501909 0.16008326
0.093730204 -0.040345956 -0.2714487 -0.020091986 -0.0152614815 -0.2452078 0.21085677 0.057922468
0.048729453 0.020971458 -0.019066097 0.13059592 0.12661034 0.14751819 -0.22887889 -0.014534039
-0.012722148 0.037908994 0.26820773 0.09443696 0.19098638 0.07919462 -0.04212175 -0.059046008
-0.26855153 -0.07079406 -0.07844175 -0.30288145 0.1898099 0.0032145374 0.27590585 0.051263116
-0.14438762 0.035784535 0.111859836 0.37140632 -0.39133757 -0.121443674 0.0705696 0.17250009
0.19555557 0.07259358 0.2562837 -0.16650209 -0.14938942 -0.07115003 -0.17735666 -0.31974283
-0.07149216 -0.24628457 0.32454023 0.09185858 0.12675391 -0.077356845 -0.24544924 0.0045541422
0.11745699 0.41342768 -0.60602576 0.0029259943 0.1613593 -0.1210797 0.046725903 0.25917575
0.34508136 -0.041615695 -0.011726252 0.016907642 0.0034167215 -0.21955648 -0.014029245 0.20385008
-0.01008833 -0.10344263 0.09732398 0.066402964 0.33359215 0.21464685 0.067625634 -0.015018969
-0.589995 -0.035961486 0.15877905 -0.3930874 0.0057745534 0.09736614 0.32206273 -0.097861424
-0.16852851 0.114549175 0.05263013 -0.20447639 -0.0347451 0.06974672 -0.069659814 -0.11878152
0.14857796 0.11935393 0.3837962 0.05211493 0.053643763 -0.00015918765 -0.5094991 -0.019242471
0.06434005 -0.37430957 0.08283786 0.1390717 0.3306035 -0.10175462 -0.14107758 -0.065248236
0.052360114 -0.17673795 -0.13582988 0.06562107 0.0912293 -0.18414481 0.13921727 0.075856514
0.3098587 -0.095228635 0.0105139725 0.017258143 -0.3868595 0.038430426 -0.07958143 -0.19272889
0.08425142 0.1482921 0.47223124 -0.25972497 -0.2596935 -0.028142992 0.009764885 -0.10764323
0.057923533 -0.08610933 0.11474581 -0.13511793 0.16199817 0.1270045 0.13897349 -0.06574805
-0.020032812 -0.035017446 -0.4391395 -0.23317063 -0.0044294912 -0.12949476 0.08736613 0.18647364
0.46117157 -0.2199967 -0.32765627 -0.038595952 -0.05779572 -0.2031055 0.14976457 -0.025211878
00000000: 812f aebe 7a01 16bc 1b35 63bd 4ba2 b3bd
00000010: dc25 263d aeff 97bd dbc7 b83d 9293 04be
00000020: 93c8 b83e 80c5 083e 7e5f 8ebe ff5f 43bc
00000030: 8b95 ea3d 486d 93bd 9781 193e 5011 0bbe
00000040: 0150 4e3d 2896 8cbe 8c83 ed3d 490d 3e3e
00000050: a386 d63d cbd0 8bbe af80 bebe 3087 52bd
00000060: 561b acbb 559b e4bd 1f4a 05bc 7be9 aa3d
00000070: 68d0 3b3e ff73 a9bd 760e 943e 11b1 003e
00000080: f0c5 64be 160e 05be d37f 853d bd4f fdbd
00000090: f962 193e 83f8 a9bc bf1a 86bd 92d8 55be
000000a0: 289c c43d 5833 7b3e bb21 bd3d 2348 e6bc
000000b0: 2a2e 82be 38da 163c c7cd a03d 5f09 f6bd
000000c0: e94e 9e3c 33f8 703d 5cab e63d 1ab9 7e3d
000000d0: 9d08 433e b599 30bd 707e c9bd fad5 6cbe
000000e0: ae95 5cbd f120 97be 20b3 283e d772 e43c
000000f0: dc5d 943d ea25 18be fcad 8b3d e0f7 803e
00000100: d2b9 84ba f5e9 8b3c 1cc7 85be ed0f c13c
00000110: 6b79 bc3d 6d2d debc 4e69 7a3c a5b5 5b3c
00000120: 1ba7 213e 57a8 c43d 1817 413e 83dd ad3c
00000130: 4208 58be 6ec7 08be bf19 323e ec84 7bbe
00000140: a942 103e e46b 8dbd 998f 1bbd 6bb6 7dbd
00000150: 27de db3c 8b09 ba3d 65bf 033d 1972 143e
00000160: baef 6cbe 27f4 ba3c 8c3c 6bbd 9bc2 31bc
00000170: bf65 2a3e 0252 8b3a f72d 5c3e deec 233e
00000180: 9ff5 bf3d cd41 25bd 53fb 8abe f397 a4bc
00000190: 4b0b 7abc c117 7bbe d6ea 573e 1c40 6d3d
000001a0: 8998 473d 56cc ab3c 8130 9cbc f0ba 053e
000001b0: 24a6 013e 020f 173e 3a5f 6abe 2e20 6ebc
000001c0: 8e70 50bc 7646 1b3d 8652 893e 2a68 c13d
000001d0: ef91 433e ca30 a23d db87 2cbd 3ada 71bd
000001e0: 967f 89be 7afc 90bd 11a6 a0bd 4713 9bbe
000001f0: 875d 423e fdaa 523b 8843 8d3e 46f9 513d
00000200: 59da 13be ce92 123d c516 e53d f828 be3e
00000210: 665d c8be 76b7 f8bd cb86 903d dda3 303e
00000220: b83f 483e f1ab 943d 9e37 833e 867f 2abe
00000230: 8af9 18be 1bb7 91bd fc9c 35be 55b5 a3be
00000240: 7b6a 92bd 0632 7cbe 232a a63e 5a20 bc3d
00000250: c7cb 013e 446d 9ebd 0c57 7bbe ea3a 953b
00000260: 4a8d f03d cbac d33e 8124 1bbf 0ac2 3f3b
00000270: 5f3b 253e a2f8 f7bd a963 3f3d afb2 843e
00000280: 81ae b03e 3875 2abd 771f 40bc e581 8a3c
00000290: 13eb 5f3b 6ad3 60be ebda 65bc 13be 503e
000002a0: 8649 25bc bbd9 d3bd cb51 c73d 47fe 873d
000002b0: 97cc aa3e 62cc 5b3e 4f7f 8a3d 1f12 76bc
000002c0: ea09 17bf 5a4c 13bd fa96 223e c042 c9be
000002d0: 7738 bd3b e667 c73d 68e5 a43e 926b c8bd
000002e0: bd92 2cbe c298 ea3d b192 573d 4262 51be
000002f0: e150 0ebd 5ed7 8e3d cea9 8ebd ba43 f3bd
00000300: d224 183e d56f f43d ef80 c43e 7776 553d
00000310: 90b9 5b3d 9ceb 26b9 886e 02bf 63a2 9dbc
00000320: b7c4 833d 81a5 bfbe e5a6 a93d d068 0e3e
00000330: dd44 a93e ba64 d0bd a476 10be dea0 85bd
00000340: 8f77 563d cbfa 34be fd16 0bbe 5764 863d
00000350: 6dd6 ba3d 7590 3cbe f98e 0e3e a95a 9b3d
00000360: cda5 9e3e 3b07 c3bd cc42 2c3c f360 8d3c
00000370: 7312 c6be 3969 1d3d 97fb a2bd b95a 45be
00000380: 028c ac3d e2d9 173e 4bc8 f13e acfa 84be
00000390: 8cf6 84be 228c e6bc e5fc 1f3c 0e74 dcbd
000003a0: 3a41 6d3d 175a b0bd daff ea3d 5b5c 0abe
000003b0: d9e2 253e 780d 023e 114f 0e3e eaa6 86bd
000003c0: da1b a4bc 746e 0fbd e4d6 e0be 48c4 6ebe
000003d0: 4425 91bb 469a 04be 03ed b23d f2f2 3e3e
000003e0: ae1e ec3e d146 61be 90c2 a7be ca16 1ebd
000003f0: 34bb 6cbd e3fa 4fbe e25b 193e 2489 cebc

model.0.bias f4 [32]
0.23794109 0.34019196 0.557184 0.35385495 1.0321345 0.7779974 0.51842594 0.36138734
0.54327166 0.48885345 0.32426262 0.7007389 0.072501116 0.050833315 0.8208745 0.17914635
0.64707166 0.7750341 0.47654617 -0.05229107 0.6327097 0.4747311 0.4444045 0.22519886
-0.116260804 -0.10483793 1.2321755 0.5405972 0.24955516 1.0747616 0.3110462 0.36768806
00000000: d4a6 733e a42d ae3e 9ca3 0e3f 7a2c b53e
00000010: fc1c 843f d62a 473f 90b7 043f c307 b93e
00000020: da13 0b3f 004b fa3e c005 a63e a063 333f
00000030: 777b 943d 9836 503d d524 523f 2472 373e
00000040: 7da6 253f a368 463f dcfd f33e 292f 56bd
00000050: 43f9 213f f40f f33e fd88 e33e 889a 663e
00000060: 251a eebd 45b5 d6bd edb7 9d3f 9464 0a3f
00000070: 638b 7f3e ca91 893f 7341 9f3e 9c41 bc3e

model.3.weight f4 [32, 32]
0.0032274488 0.14174734 0.24662247 -0.2445195 -0.52277744 -0.19722502 0.34012482 0.23158368
0.2518293 -0.4772135 -0.15830094 0.21122131 0.18057835 -0.059173997 0.27439007 0.07411343
-0.14751181 0.39021423 -0.041220427 -0.26202387 -0.11033255 -0.108964 0.19670178 -0.24190149
0.024349242 -0.24110968 0.10326323 -0.27136204 0.07198179 -0.3382819 -0.47285962 0.0063212835
0.13074993 0.043173227 0.3167763 0.07090988 0.25246066 -0.039921217 0.12382134 0.2868096
0.2554411 0.4479666 0.26890948 0.10812907 0.344597 0.3410095 0.16142622 0.17423888
-0.07869376 0.09402788 0.14241223 0.28049687 0.2580179 0.1722703 0.14350314 0.54973954
0.35126358 -0.09628103 0.18416986 0.35257837 0.02068824 0.050624155 0.40805447 0.40849072
0.02244973 0.13573185 0.15539356 0.12449693 0.19640966 0.17545287 -0.09022957 0.3461924
0.048254743 0.19753304 0.41918448 0.24474247 0.25762695 0.26271585 0.13031404 0.022267781
-0.07950092 0.1584498 0.26929414 0.32669035 -0.025756074 -0.007531756 0.10150561 0.45420045
0.22905795 -0.025623329 -0.22780326 0.08917 0.09616648 0.20423135 0.22255708 0.303128
0.10785368 -0.117411025 0.40562642 0.029962119 0.19156912 -0.17279378 -0.21303098 0.06588441
0.24501047 0.31728753 0.092246264 0.0140460795 0.17836152 0.24069442 0.26029363 0.24266738
-0.07033289 0.30278853 -0.15848836 0.15738451 0.3517357 0.012662184 0.28536484 0.35835934
0.14240006 -0.065625824 0.09546691 0.37089494 0.33623704 -0.078875996 0.16179799 0.44020298
-0.12502351 -0.54836196 -0.04770576 0.3103259 -0.28210846 0.0023983794 0.016147383 -0.33266294
0.14121151 0.010399001 0.15947236 0.51345825 0.33760193 0.071145006 0.0510045 0.16351761
-0.08347426 0.17509498 0.2611753 -0.4439219 0.11344707 0.05589314 0.21205604 0.035585374
-0.09699756 0.0020498054 -0.9037061 -0.09131614 0.08553245 0.20722665 0.013935437 -0.08712377
0.001833401 -0.069763355 -0.0740761 -0.028208094 -0.05575987 0.094946235 0.048775483 -0.3207041
0.014023806 -0.15228091 -0.32209462 -0.23125422 -0.11152985 -0.15009852 -0.24544452 0.018110825
-0.048945002 -0.1182929 -0.1794952 -0.33410245 -0.25468722 0.21541889 -0.21015759 -0.29838908
-0.13659348 -0.033653498 0.10564551 0.08118524 0.0030336075 -0.26444808 -0.20502874 -0.14285998
-0.035542835 0.052749313 0.123891674 0.114640385 0.11304749 0.08347674 -0.06757546 0.10638155
0.19310226 0.17743602 0.39579356 0.2660562 0.2578483 0.26755983 0.026815718 0.1790484
0.07063565 -0.019515945 0.13352908 0.17531106 0.1606805 0.025364108 0.022742387 0.42960042
0.2416279 -0.062387638 -0.06897846 0.014444809 0.1782458 0.3344506 0.2052409 0.36156064
0.0076159947 0.0924575 0.0843696 0.18490787 0.075607434 0.117732525 0.1629299 0.021524886
0.3190162 0.4875584 0.10777415 0.25479132 0.18012121 0.17151225 0.23905051 0.14524445
-0.16314389 -0.002457995 0.04076263 0.32745036 0.18667589 0.11147076 0.1138732 0.50403285
0.36234733 0.1537735 0.0629297 0.3781981 0.22987199 0.12379521 0.20679797 0.18805969
00000000: 9b83 533b 3726 113e 9a8a 7c3e 5263 7abe
00000010: bed4 05bf 5bf5 49be d724 ae3e 4624 6d3e
00000020: c5ef 803e 5455 f4be a419 22be 664a 583e
00000030: 88e9 383e 6f60 72bd db7c 8c3e c8c8 973d
00000040: 560d 17be 29ca c73e c0d6 28bd fe27 86be
00000050: 08f6 e1bd 8528 dfbd 316c 493e 06b5 77be
00000060: 1078 c73c 75e5 76be ac7b d33d f7ef 8abe
00000070: 306b 933d 4933 adbe a81a f2be c522 cf3b
00000080: 4fe3 053e 69d6 303d 8130 a23e 3339 913d
00000090: 8642 813e 6e84 23bd 0b96 fd3d b5d8 923e
000000a0: 2dc9 823e e15b e53e 81ae 893e c672 dd3d
000000b0: 056f b03e cc98 ae3e ea4c 253e ad6b 323e
000000c0: 322a a1bd b091 c03d 83d4 113e 499d 8f3e
000000d0: ec1a 843e a067 303e 7df2 123e bbbb 0c3f
000000e0: d2d8 b33e fd2e c5bd 0697 3c3e 2785 b43e
000000f0: 627a a93c 465b 4f3d 84ec d03e b225 d13e
00000100: 7fe8 b73c 4afd 0a3e 7d1f 1f3e 3ff8 fe3d
00000110: 9d1f 493e eba9 333e 48ca b8bd 2140 b13e
00000120: c4a6 453d 1a46 4a3e 599f d63e c59d 7a3e
00000130: aee7 833e b182 863e 0b71 053e ec6a b63c
00000140: 61d1 a2bd aa40 223e ece0 893e f543 a73e
00000150: 67fe d2bc f3cc f6bb 2ce2 cf3d f68c e83e
00000160: 2b8e 6a3e 04e8 d1bc 4245 69be c39e b63d
00000170: eef2 c43d 0622 513e 01e6 633e 9833 9b3e
00000180: 64e2 dc3d 3175 f0bd 44ae cf3e 1e73 f53c
00000190: b22a 443e daf0 30be cb24 5abe 68ee 863d
000001a0: 06e4 7a3e 8373 a23e 9ceb bc3d 8721 663c
000001b0: 67a4 363e 9978 763e 3545 853e cc7d 783e
000001c0: b10a 90bd 1907 9b3e c64a 22be 6829 213e
000001d0: b416 b43e 0d75 4f3c 571b 923e e07a b73e
000001e0: 52d1 113e d566 86bd 2884 c33d f1e5 bd3e
000001f0: 4327 ac3e bd89 a1bd 5fae 253e 4962 e13e
00000200: 2a06 00be 7361 0cbf 1d67 43bd 09e3 9e3e
00000210: 8570 90be 212e 1d3b 8447 843c cc52 aabe
00000220: c099 103e 9260 2a3c b94c 233e 0072 033f
00000230: 29da ac3e 79b4 913d 18ea 503d 2971 273e
00000240: 8ef4 aabd 194c 333e c5b8 853e bb49 e3be
00000250: f056 e83d 35f0 643d 3825 593e f8c1 113d
00000260: a8a6 c6bd 0756 063b 4859 67bf f503 bbbd
00000270: a32b af3d 3933 543e 7651 643c f26d b2bd
00000280: bb4e f03a 17e0 8ebd 36b5 97bd a914 e7bc
00000290: 7664 64bd 2c73 c23d cdc8 473d 5433 a4be
000002a0: 1bc4 653c 87ef 1bbe 96e9 a4be e8cd 6cbe
000002b0: c369 e4bd 6db3 19be cf55 7bbe 275d 943c
000002c0: 8e7a 48bd 8c43 f2bd 97cd 37be 7a0f abbe
000002d0: 5d66 82be c596 5c3e 8d33 57be 74c6 98be
000002e0: 29df 0bbe 40d8 09bd ac5c d83d 7244 a63d
000002f0: 7dcf 463b bd65 87be 0ef3 51be e349 12be
00000300: 5d95 11bd aa0f 583d ebba fd3d 94c8 ea3d
00000310: 7185 e73d daf5 aa3d 0165 8abd 92de d93d
00000320: 99bc 453e cab1 353e 74a5 ca3e 8538 883e
00000330: b104 843e 9afd 883e a3ac db3c 7758 373e
00000340: 6ca9 903d e7df 9fbc d9bb 083e be84 333e
00000350: 6e89 243e 64c8 cf3c 3e4e ba3c 96f4 db3e
00000360: 4e6d 773e 2e8a 7fbd 9444 8dbd eca9 6c3c
00000370: 1186 363e 1c3d ab3e ac2a 523e 7a1e b93e
00000380: 988f f93b 5c5a bd3d f8c9 ac3d 7d58 3d3e
00000390: 12d8 9a3d c01d f13d 19d7 263e f554 b03c
000003a0: 1756 a33e 41a1 f93e b2b8 dc3d 0274 823e
000003b0: b271 383e e8a0 2f3e a8c9 743e f6ba 143e
000003c0: 310f 27be 5016 21bb b7f6 263d 93a7 a73e
000003d0: f727 3f3e c84a e43d 5a36 e93d 4c08 013f
000003e0: 9785 b93e cd76 1d3e 49e1 803d 2ea3 c13e
000003f0: 9063 6b3e 5888 fd3d d9c2 533e b892 403e

model.3.bias f4 [32]
-2.8963459 2.5828123 2.0061462 2.4741013 1.3768072 -2.5073853 3.1312518 2.7677052
2.8938773 1.7966708 -3.990897 2.5397542 -3.7174504 2.025067 2.6147177 3.1195304
2.5367947 2.458452 1.9896249 2.8517888 -2.1739595 1.9746554 -3.073603 2.1897943
2.3426187 2.6602416 2.4005957 2.7280877 0.06956188 -3.2932453 1.9671164 2.5880733
00000000: bb5d 39c0 cc4c 2540 b364 0040 ad57 1e40
00000010: 383b b03f 0079 20c0 6e66 4840 1522 3140
00000020: 4935 3940 4ff9 e53f db6a 7fc0 558b 2240
00000030: b5ea 6dc0 b39a 0140 8957 2740 63a6 4740
00000040: d85a 2240 4757 1d40 07ac fe3f b583 3640
00000050: 2722 0bc0 82c1 fc3f e9b5 44c0 9725 0c40
00000060: 77ed 1540 6641 2a40 5ca3 1940 fd98 2e40
00000070: 7576 8e3d 88c4 52c0 78ca fb3f fea2 2540

model.5.weight f4 [3, 32]
-0.69775164 0.36430556 0.5343317 0.49693874 0.94430953 -0.6483756 0.7428616 0.55607456
1.1999377 1.6093854 -2.923929 0.59944606 -2.484545 1.9292178 0.53315586 0.5992042
0.40966228 0.50272065 0.48665518 0.45704907 -0.56421524 0.44872868 -0.42479792 0.5865057
0.30631945 0.55389506 0.32502848 0.38094515 0.92346686 -1.3686048 0.6385517 0.3974427
-0.7580928 0.56736773 0.43801796 0.49356022 1.0440006 -0.38526505 0.53161204 0.383953
1.2353139 1.5536578 -2.9909947 0.61228955 -2.5293207 1.9256318 0.42886296 0.63759255
0.4813677 0.60463166 0.45058948 0.43879235 -0.5462699 0.27158204 -0.49096227 0.49717087
0.3998575 0.43713644 0.58650136 0.549316 1.0044715 -1.250562 0.69353294 0.3979975
-0.80750394 0.2907861 0.42094803 0.5141641 0.98767596 -0.44112903 0.56629384 0.5344536
1.2527219 1.5868206 -2.9544823 0.38760576 -2.4870677 1.959305 0.3634444 0.45481583
0.5438 0.46274337 0.44993213 0.6033399 -0.2676247 0.46234164 -0.65651935 0.46064132
0.5712643 0.61805224 0.48874724 0.53740025 0.969304 -1.3595582 0.7017323 0.41019997
00000000: da9f 32bf 4286 ba3e f6c9 083f c16e fe3e
00000010: 45be 713f f1fb 25bf 2e2c 3e3f e75a 0e3f
00000020: 8f97 993f 5700 ce3f a721 3bc0 4c75 193f
00000030: c902 1fc0 9cf0 f63f e77c 083f 7265 193f
00000040: 41bf d13e 4db2 003f de2a f93e 5602 ea3e
00000050: 6970 10bf c4bf e53e 1d7f d9be 3d25 163f
00000060: e7d5 9c3e 11cc 0d3f 226a a63e 3e0b c33e
00000070: 5368 6c3f 712e afbf 2078 233f 9c7d cb3e
00000080: 5f12 42bf 033f 113f e443 e03e edb3 fc3e
00000090: d0a1 853f 7641 c5be ba17 083f 7d95 c43e
000000a0: c41e 9e3f 42de c63f 756c 3fc0 02bf 1c3f
000000b0: 64e0 21c0 1a7b f63f ed93 db3e 4439 233f
000000c0: d475 f63e 24c9 1a3f aab3 e63e 64a9 e03e
000000d0: 58d8 0bbf cd0c 8b3e 685f fbbe 2e8d fe3e
000000e0: 1fba cc3e 59d0 df3e f424 163f f99f 0c3f
000000f0: 8692 803f 6a12 a0bf 608b 313f 54c6 cb3e
00000100: 94b8 4ebf eae1 943e 8086 d73e 42a0 033f
00000110: 55d8 7c3f aadb e1be a2f8 103f f3d1 083f
00000120: 3159 a03f f01c cb3f 3d16 3dc0 4374 c63e
00000130: 1e2c 1fc0 82ca fa3f 6215 ba3e 9fdd e83e
00000140: 7a36 0b3f b3ec ec3e 815d e63e 7c74 1a3f
00000150: 1b06 89be 0bb8 ec3e a711 28bf 2ed9 eb3e
00000160: 613e 123f ac38 1e3f 143d fa3e 1093 093f
00000170: 4f24 783f 0106 aebf baa4 333f bb05 d23e

model.5.bias f4 [3]
1.1554753 1.2874573 1.4556452
00000000: 9de6 933f 67cb a43f 9552 ba3f
