models/humidity_ann_model.pth (torch, 48822 bytes, 6 tensors)

model.0.weight f4 [32, 322]
00000000: 85c8 b5be 0e28 babc 21fd 3d3d 6ed0 49bd
00000010: a066 aebb 0cfe 643d 843e b73e e939 3abc
00000020: bfca 863d 2421 a73d a4a1 1dbf 73da 02be
00000030: a246 1a3d 81ed b6bd 1801 0b3e 903c 883d
00000040: 583a 21bc 9251 51bd 469f 183e f319 123e
00000050: 70c8 ca3d 6f91 463b 8380 b43e 780d 123e
00000060: 604a 373d 4ac6 16bd e38a bc3d 816e f03b
00000070: f33c 99bd 7105 713e 3edb 663e 627b 7e3e
00000080: 7109 91bc 9e11 0e3e 8710 8d3e 3af7 ae3d
00000090: 568a 453e b5a2 aa3d 7297 ce3d 4ab1 1e3e
000000a0: e98c 40be b38f b43e 86ad fe3c 714a e23c
000000b0: 7538 2b3e 406c 713e 1163 8dbe 5670 42bd
000000c0: 9638 fc3c 824e e6bc d340 bbbc ebef cc3d
000000d0: 302f a13e b29b f2bc fa1f 8c3c 3b55 013c
000000e0: 1894 15bf cc83 31bd 5ecd 213d de27 36be
000000f0: 8bef 1d3e dec1 7abc 834e db3c d135 2d3c
00000100: 2dea 6b3d 7ff4 7f3d 9254 be3d abba babc
00000110: 2921 513e b40c 433e 97d5 f63d 2d8d 2b3d
00000120: ab01 8a3e 1936 60bb 8220 f3bd 3ec8 233d
00000130: 20c5 7d3e fbb9 2e3e c01b 8cbb 6dc5 433e
00000140: 2334 0a3d 6287 933d f74e 0e3e 8adc 0f3d
00000150: d95f 7e3e 07b2 933e 5f5f 8abc 77ad 913e
00000160: 4beb f53c 5bd3 923d 1936 bc3d 316c 203e
00000170: 1753 d2be dee0 8fbd 2534 183c e581 2e3d
00000180: ea6c 683d 8cef 7a3d 82d5 943e ba5e d9bd
00000190: 59c9 b33c d858 d43b 33f1 cfbe 102d cfbd
000001a0: 73a2 a23b 8453 3fbe c492 a63e 5599 31bd
000001b0: a300 7e3b 6776 813d 077d 733d 7197 09bd
000001c0: be2c a53d 4063 bc3c 482c 9c3e ef65 e93d
000001d0: 30ee 5a3e c21b 473e 652f 2f3e 8c48 cb3d
000001e0: 473d 02be 5acb c23c 76f0 953e c19a 1f3e
000001f0: 8eeb 05be 64ed 383e 761b 4bbd c66d c03d
00000200: 9ba7 063e b797 e03d 7576 353e afc4 903e
00000210: d729 8d3d bc6b bd3e 7774 8abc 59f4 6f3d
00000220: af38 59bc 2172 7d3e 5e1d 96be fa24 c9bc
00000230: 716a 173d 663d a83d 0f16 883d 10fa e83c
00000240: 9ac4 3b3e 8b6d 14be 63ae 5cbd 6705 8a3c
00000250: 9542 eabe ef5c 5abd c2b3 d3bd dbc5 93be
00000260: dbd6 723e 999a a3bd bf9b 3dbc daa6 b33d
00000270: c5ea 90bc c26e 9e3c 6e6a ff3c 4127 c53d
00000280: 09fd 8d3e d53c 3b3e ec4d 943e 12c0 b23e
00000290: 1f05 293d e118 18bd 4708 e23c 6b04 053e
000002a0: f594 433d 3d19 1e3e 3695 70bd d6a8 f13d
000002b0: 476e cf3d 99b5 65bb c4a8 0b3e 6c6b 013e
000002c0: e7c1 343e c199 483e 6662 863e e459 a63e
000002d0: 9d3b be3c 59de 623c ad90 a7bb dd31 973e
000002e0: 41a0 69be ff79 5cbd d680 063e d271 af3d
000002f0: 81d9 743d a03e 063e 1265 a03e 648d 77be
00000300: 5199 723b 1dea f7ba ada3 c5be 4c7d f5bd
00000310: f28b c2bb 24ba 30be ba41 b33e cb47 c0bd
00000320: 94c8 0b3d cb8c 9c3d 9974 f2bc 5b78 9f3d
00000330: 2846 993d 51c1 b5bc a25f 753e 40bb bb3d
00000340: 2926 743e 6602 923d 0109 8c3d 9752 a3bd
00000350: e4a5 b63d 2672 9b3e db05 eb3d 61f5 8d3d
00000360: 7f9e 763d cd3f d13d aae5 d23d 0278 253e
00000370: cebc f53c 1ff9 5a3e d768 e93d be5c 8e3e
00000380: 04cc 453e f38d 503e d196 8f3d 2a17 993c
00000390: ba47 813d 3ff9 0d3e 3500 7abe 89dc f4bc
000003a0: bb2e 1f3e adde 103e b3b0 433d d652 993d
000003b0: ce82 7b3e 36c4 f8bd fb78 29be 6a28 0a3e
000003c0: d325 debe e4b6 31be 4007 9b3c a48d b7bd
000003d0: fbcd 273e db86 3bbe e5f8 1d3c 3342 c13d
000003e0: 942a dcbd cbbb d13d 50c1 d43c 79d8 bf3c
000003f0: 4791 843e 9570 2d3d 4b21 6d3e 7a6f b63d
-0.35504547 -0.022724178 0.04638398 -0.04927104 -0.0053222924 0.05590634 0.35789883 -0.011366346
0.065816395 0.08160618 -0.6157477 -0.12778644 0.037665017 -0.08932019 0.13574636 0.066521764
-0.00984057 -0.051103182 0.14904508 0.14267711 0.09901512 0.0030299088 0.35254297 0.1426295
0.044748664 -0.036810197 0.09206178 0.007337392 -0.07482328 0.23537232 0.22544572 0.24851754
-0.017704697 0.13873908 0.27551672 0.085432485 0.19291052 0.08331815 0.1008748 0.15497318
-0.18803753 0.35265884 0.031088602 0.027623387 0.16720755 0.2357645 -0.27614644 -0.047470413
0.030788701 -0.028113607 -0.022858059 0.10006698 0.31481314 -0.029615257 0.017105091 0.007893856
-0.584291 -0.043338582 0.039502494 -0.17788646 0.1542341 -0.015305011 0.026770836 0.010571913
0.057596374 0.06248903 0.09293474 -0.022794088 0.20422806 0.19047815 0.12052458 0.041882683
0.26954398 -0.0034211932 -0.11871435 0.039985888 0.24782228 0.17063133 -0.004275769 0.1911828
0.033741128 0.072035566 0.1389731 0.03512243 0.2484125 0.28846762 -0.01689118 0.28452656
0.030019423 0.07169219 0.09190006 0.15666272 -0.41079018 -0.07025312 0.009289776 0.042604346
0.056744494 0.061263606 0.29069144 -0.10613771 0.021946596 0.0064803176 -0.40613708 -0.10116017
0.004963213 -0.18684202 0.32533848 -0.04335912 0.0038757704 0.063214116 0.059445407 -0.03359169
0.080651745 0.022996545 0.30502534 0.113963954 0.21379924 0.19444183 0.17107923 0.099259466
-0.12718688 0.023778606 0.2928502 0.15586378 -0.13078138 0.18059307 -0.049586736 0.093959376
0.13149874 0.10966437 0.17720969 0.28275058 0.06892746 0.36996257 -0.016901238 0.058582637
-0.013258143 0.24750568 -0.2931928 -0.024553765 0.036966745 0.08214836 0.06644832 0.028439552
0.18336716 -0.14494912 -0.053877246 0.01684828 -0.45753923 -0.053311285 -0.103370205 -0.2886189
0.23714773 -0.079884715 -0.011572777 0.08772059 -0.017690072 0.019339923 0.03117868 0.09626628
0.27732113 0.18284924 0.289657 0.34912163 0.04126465 -0.0371331 0.027591838 0.12989967
0.04774948 0.15439315 -0.05873605 0.11799781 0.101284556 -0.0035050868 0.13638598 0.12638634
0.17652093 0.19589902 0.26246947 0.32490456 0.023221785 0.013846957 -0.0051136822 0.2953023
-0.22815038 -0.053827282 0.13135085 0.085666314 0.05977774 0.13109827 0.3132711 -0.2417503
0.0037017653 -0.0018914376 -0.38601437 -0.11986789 -0.005937093 -0.17258507 0.35011083 -0.093886934
0.034126833 0.07644042 -0.029596614 0.07786628 0.07484084 -0.022186907 0.23962262 0.091665745
0.23842682 0.07129364 0.06837655 -0.07974737 0.0891836 0.30360526 0.11475726 0.06931568
0.060209747 0.10217247 0.10297711 0.1615906 0.029997256 0.21384095 0.1139695 0.27805132
0.19316107 0.2036665 0.07011188 0.018687803 0.06312509 0.13864611 -0.24414141 -0.029890316
0.1554517 0.14147444 0.047775935 0.07486503 0.24561617 -0.12146799 -0.16550057 0.13491979
-0.43388233 -0.17354923 0.018924356 -0.08962563 0.16387169 -0.18313162 0.009641861 0.094364546
-0.10750309 0.10240897 0.025971085 0.023418652 0.25892088 0.042343695 0.23157232 0.08907981

model.0.bias f4 [32]
00000000: 92ff 173c d484 a1be 8b8e babe bc97 2ebe
00000010: 6cba 5ebe 9f33 c0bd a665 903d a49d 19bf
00000020: cd2d 65be 62dd 8dbe d597 17be 7054 053d
00000030: 9a8a 1abd 7b5f 07bd 6b46 b6be 10e3 0cbd
00000040: fd6c 6fbd 4ec2 bebe e5f1 18be 6bf6 013e
00000050: e792 793d d74c 8fbe 2251 3cbe 7879 1ebd
00000060: 8627 6ebd 7152 093e 6064 23be b829 4bbe
00000070: 4625 31be 53fc 86bc 0c2e 25be 0398 d33c
0.009277241 -0.31546652 -0.36436877 -0.1705007 -0.21750802 -0.09384846 0.07050638 -0.60006166
-0.22380753 -0.27707964 -0.14804013 0.03255123 -0.037729837 -0.03305004 -0.356006 -0.03439623
-0.05845355 -0.37257618 -0.14936025 0.12691657 0.060931113 -0.27988312 -0.18390325 -0.03869006
-0.05814316 0.13410355 -0.15956259 -0.19840133 -0.17299375 -0.01647774 -0.16130847 0.02582932

model.3.weight f4 [32, 32]
00000000: 2bdb 553e 300d f33d 6115 f8bd 99a2 2c3d
00000010: 6aea 50bd 39c7 163d 5237 833e ae40 aa3d
00000020: c4d6 c33d ff59 3d3e 6be8 1fbb 443a 7a3e
00000030: 3d71 e83c 14d6 dcbe 50e1 423b 0079 1e3e
00000040: 86b0 5c3d 63de 383e 7bd4 ea3d 4170 0d3e
00000050: a526 7d3e 4baa 1e3c b546 993c 6f39 b53d
00000060: c6b7 c6bd 16cd 003e 73da 16bc 3a19 a33d
00000070: 5101 4c3d 2f22 c43d db3d 563d 7d86 d03d
00000080: c1cb 173e 2128 2b3e 9f4e 48be b574 7a3d
00000090: f793 d03d 4203 d43d 9858 173e 2f98 1c3d
000000a0: 02e2 653e 51df 193d f02e 1c3e 36f1 2a3d
000000b0: 7d54 323e b44a 81be 47ea 1a3b 13a8 9f3d
000000c0: a498 433d 49a2 0c3e ebda f43b fd95 313e
000000d0: 5100 a23d 2e67 c5bd a69c 1a3e 6192 9fbd
000000e0: c8aa 8fbe 2309 553e b570 983e 5cd7 303e
000000f0: 6b5e d13d 9a53 373c fe6b c53c 5589 8f3d
00000100: 0030 abbc 6939 51bd 70ed 14bf 73b2 0f3e
00000110: 78e1 85bd 0f96 453d c9f5 a43d 30b0 c9be
00000120: 6065 de3d ff19 b33d 57e8 e23d 37e7 bebd
00000130: e631 c63d ebd2 89bf 0687 ba3e aa7e 21be
00000140: 7a67 3c3e 3c04 e8bd 594a 503e 0768 343e
00000150: ed12 913d 4530 3d3d 588d ac3d 5fce 893d
00000160: de1a 67bf a4c3 033e c24f 253d 3ee8 843d
00000170: 7a35 ee3d 1626 3c3d ad27 293d 587e ef3d
00000180: a43c 6b3e 877b e1bd 3b96 09bf f6d7 0b3e
00000190: 98fa 923d f254 d93d b61b 863d 128c 05be
000001a0: 9977 a53e 6d20 f9bc e972 0d3e ca9e 353b
000001b0: 92aa f13d 36a1 86bf 2f3d 7a3e b94b ff3d
000001c0: f1fb 7b3c 51ed cabd 7523 003e be14 273d
000001d0: a73c 2c3e f281 603e 6d8e 403e 899e 333d
000001e0: 5449 4cbf cf7f e3bd b434 3e3e ea01 b1bc
000001f0: d1cf 87bd a06f a9bd f20a 9abd 1eb7 eebd
00000200: 6758 50bd 4704 a33e 0d65 eb3d 53f4 913e
00000210: f946 c5be a7ef 43be fb6d 513e 3934 5e3e
00000220: 901d 633e ea60 d63d b585 8ebe cf72 163e
00000230: cb17 a4be b746 753e 3a2d 2dbe eb34 ca3d
00000240: 2ba1 1ebe af22 f53e 1413 7cbe 56e6 533e
00000250: 43e8 7ebd fe67 cc3e 9b39 35bf 1ed6 0f3e
00000260: 388e 7c3e eeb0 0bbd 47a0 b9bf 510a 103f
00000270: 4c18 073c a40d 803e 0c99 fc3e 5b34 083e
00000280: d829 0abe 04bb c63d 670d 19be 1b3f 45bd
00000290: 5711 593e f550 833e 3f11 2f3e 231a eb3d
000002a0: f55e 023e 3136 5b3e d9f5 263e 3a4e 99bd
000002b0: 0fb4 ae3d 93c9 43bf 593f 8a3e fb84 a7bd
000002c0: ab18 10be 6ae0 383d fcfb 8a3d cc1e df3b
000002d0: 9923 bc3d 77b6 333e 7357 6a3e 146c 383e
000002e0: 8963 eabe 35be 2a3d 2371 313d b767 c23d
000002f0: 0111 053d d4ed af3d bdee be3d fff2 a3bd
00000300: 3d4b 1fbe 52aa 09be 6c94 46be 9733 0cbe
00000310: 1163 36be d555 18be acac 86bb 205f e2bd
00000320: d5bd 81be 223a a0bd 55fe 3abd 11ca 6abd
00000330: 4e1b b43d 1e7a c03e 9cef 51be 190d c03d
00000340: 853c 79bd 75b9 cfbd 4d2f 2ebe 2092 913d
00000350: d480 5bbd e36f b63d eda6 cabc d684 c8bc
00000360: b2ef 1b3b 2f25 d9bd 7f84 fdbd a744 b6bd
00000370: e4c7 273e 6440 26be cbb8 b7bc aaf0 77bd
00000380: 7dfb b8bd da34 49be 8339 a03d 00f7 48be
00000390: ac85 08be d9b4 14be af7b 3bbd 9372 fc3d
000003a0: fad2 36be 2b92 55bd ab31 84be f7e9 353d
000003b0: 061d ddbd 80d1 ee3e ccd8 263b ad4c cebc
000003c0: ad0a 28be cb57 c33c a6dd 4ebe e66b 65be
000003d0: df50 1ebe 7d2c 01be e07e b7be 2800 1abe
000003e0: fe9a 973e 5ac2 9dbd 7c3e 7cbe 453c 1cbe
000003f0: 6df9 5dbd a9c9 02be 9979 21be 03e8 a03d
0.20884387 0.1186775 -0.12113453 0.042147253 -0.051004805 0.036811087 0.25628144 0.08313118
0.09562448 0.18491362 -0.0024400007 0.24436289 0.028374309 -0.4313208 0.0029736347 0.15475845
0.053879283 0.18053584 0.11466309 0.13812353 0.24721773 0.009684156 0.018710474 0.08848845
-0.09703021 0.12578234 -0.009207356 0.07963796 0.049805943 0.095768325 0.052305084 0.101819016
0.1482382 0.16714527 -0.19561242 0.061146457 0.10184472 0.10352184 0.1477989 0.03823107
0.22449496 0.037566487 0.1525228 0.041733943 0.17415042 -0.25252306 0.0023638175 0.077957295
0.04775299 0.13733782 0.007472386 0.17342372 0.079102166 -0.096388206 0.15098819 -0.077915914
-0.28059983 0.20804267 0.2977349 0.17269653 0.10223087 0.011189366 0.024099346 0.07008616
-0.020896912 -0.05108014 -0.581748 0.14032917 -0.065371454 0.04823881 0.08054692 -0.39392233
0.108591795 0.08745193 0.110794716 -0.093214445 0.09677486 -1.0767492 0.3643114 -0.15770975
0.18398848 -0.11328933 0.20340861 0.17617808 0.07083688 0.04618861 0.08425397 0.06728815
-0.9027537 0.128676 0.040359266 0.06489609 0.116312936 0.04593476 0.041297603 0.1169402
0.22972351 -0.11009889 -0.5374486 0.13656601 0.07176703 0.10611905 0.06548254 -0.13041714
0.32317808 -0.03041097 0.13813366 0.0027713054 0.11800112 -1.0517948 0.24437402 0.12465615
0.015379892 -0.09908546 0.12513526 0.040791266 0.16820012 0.2192457 0.18804331 0.043852363
-0.7979939 -0.11108362 0.18574792 -0.021607358 -0.06631435 -0.08273244 -0.07521619 -0.116560206
-0.050865557 0.318392 0.11493883 0.28506717 -0.3853071 -0.19134389 0.2045211 0.21699609
0.22179246 0.10467704 -0.27836385 0.14692234 -0.32049403 0.23952757 -0.16911784 0.098733746
-0.15491168 0.47878024 -0.24616653 0.20693335 -0.06223322 0.3992309 -0.70791024 0.14046523
0.24663627 -0.03410428 -1.4502038 0.5626574 0.008245539 0.25010407 0.49335515 0.13301222
-0.13492525 0.09703639 -0.14946519 -0.048155885 0.21198021 0.25647703 0.17096423 0.114795946
0.12731536 0.21407391 0.16304721 -0.07485624 0.08530437 -0.7647945 0.27001455 -0.08179661
-0.1407191 0.045135893 0.067863435 0.006809091 0.09186477 0.17550074 0.22884922 0.18009979
-0.45779064 0.0416853 0.043320786 0.09492438 0.03248692 0.08590284 0.093228795 -0.08005332
-0.15556045 -0.13443878 -0.19392556 -0.13691555 -0.17811228 -0.14876492 -0.0041099396 -0.110533
-0.25340143 -0.07823588 -0.045652706 -0.05732161 0.087942705 0.37593168 -0.2050156 0.09377498
-0.06084873 -0.10142795 -0.17010231 0.07107949 -0.053589657 0.089080594 -0.0247378 -0.024477404
0.0023793993 -0.10602795 -0.12378787 -0.08899813 0.16384846 -0.162355 -0.022426983 -0.06053225
-0.090323426 -0.19649068 0.078234695 -0.19625473 -0.13332242 -0.14522113 -0.04577225 0.12326541
-0.17853919 -0.05214135 -0.25819144 0.04441258 -0.107965514 0.4664421 0.002545881 -0.025183046
-0.16410322 0.023845574 -0.2020174 -0.22404441 -0.15460537 -0.12614627 -0.35838985 -0.15039122
0.29610437 -0.07703085 -0.24633211 -0.15257366 -0.05419295 -0.1277224 -0.15769042 0.07856753

model.3.bias f4 [32]
00000000: 63ab 46c0 2d9b 4f40 a962 5240 4aa9 5a40
00000010: 506c c23f f351 4840 f14b 30c0 dab0 4ec0
00000020: 874d 48c0 5a89 4740 221c 7240 4ce0 65c0
00000030: cd1a 45c0 e5b2 45c0 2d75 4240 945b 6d40
00000040: f337 6bc0 3eed 6840 87eb 4f40 069d 3b40
00000050: af5f 4940 a25f 65c0 57c7 13c0 3fb3 c9bf
00000060: 8f8c 6640 0188 7140 e45e 5440 83e1 4ec0
00000070: b0ab 42c0 fe9d 5cc0 8a01 4c40 8730 5040
-3.1042106 3.2438462 3.2872717 3.4165826 1.5189304 3.1300018 -2.754635 -3.2295442
-3.129732 3.1177583 3.782967 -3.591815 -3.0797608 -3.0890439 3.0384018 3.7087145
-3.6752899 3.63948 3.2487504 2.931459 3.146465 -3.583962 -2.3090417 -1.5757827
3.602329 3.773926 3.3182917 -3.2325141 -3.041729 -3.447143 3.187594 3.2529619

model.5.weight f4 [3, 32]
00000000: 58a6 86bf 83ea 063f 696b 1a3f 5204 4d3f
00000010: 42b1 d83f 8ce9 1d3f 6ae4 0ebf 4c1f d2be
00000020: 7ab6 38bf d9d4 313f a0b7 5e3f 16bc c9bf
00000030: 6ebf 04bf 017e 44bf 1a45 053f b39d 363f
00000040: 7492 01bf 99cd d73e 0d44 113f f80b 233f
00000050: 18da 1c3f ff31 fabe ab37 05bf 4444 c5bf
00000060: 76d3 c03e 5310 413f 1493 503f 31d4 77bf
00000070: 38c1 20bf b8eb d2bf d383 073f 437f 203f
00000080: 8cb5 8bbf 1eb7 e23e ed1d 2c3f c237 233f
00000090: dbf2 de3f 5952 183f 6c5f e6be 5c3b c6be
000000a0: 7035 1ebf a217 053f 2e26 753f 4bb8 c3bf
000000b0: 20a7 b4be c4d8 13bf 83a9 0f3f fba3 3f3f
000000c0: dcbc 28bf f08a 233f 6642 d13e 1b6b 393f
000000d0: 6ff7 283f 977a 20bf 59e9 b0be 1dd0 c7bf
000000e0: 682b 193f ff44 553f c02b 413f f224 72bf
000000f0: cf8a 0dbf 4997 d2bf e556 1d3f 7a6b c03e
00000100: 768a 7dbf 66f0 113f 37bb 143f e207 2f3f
00000110: 4b40 de3f b9ac 123f 41b6 8dbe ac0b 78be
00000120: ae0e 40bf 06a8 1d3f bcb9 833f 9b44 c3bf
00000130: 17f0 afbe e090 1ebf 6121 103f 0c6d 6f3f
00000140: 7211 edbe 8f08 233f 441a 803e c86d 363f
00000150: 7e11 1b3f 0179 f4be e124 aebd 7285 ccbf
00000160: dd89 2e3f d764 293f 81f3 433f 4cb0 90bf
00000170: bd78 b0be 8b2f c4bf 76d1 033f 4cd6 173f
-1.0519514 0.52701586 0.60320145 0.8008472 1.6929095 0.6168449 -0.5581728 -0.41039503
-0.7215344 0.69465405 0.8699894 -1.5760524 -0.518546 -0.76754767 0.52058566 0.7133438
-0.50614095 0.42149046 0.5674446 0.6369014 0.61270285 -0.4886627 -0.5203807 -1.5411458
0.37661332 0.75415534 0.81474423 -0.96808153 -0.6279483 -1.6478186 0.5293552 0.62694186
-1.0914779 0.44280332 0.67233163 0.63756955 1.7417864 0.5950065 -0.44994676 -0.38717163
-0.6180029 0.51989186 0.9576138 -1.5290617 -0.35283756 -0.57752633 0.5611803 0.7485959
-0.65913177 0.63883877 0.4087097 0.72429055 0.66002554 -0.6268706 -0.3455303 -1.5610386
0.5983186 0.83308405 0.7545738 -0.94587624 -0.5528993 -1.6452419 0.61460716 0.37581998
-0.990394 0.57007444 0.5809817 0.68371403 1.7363371 0.57294804 -0.2767811 -0.24223202
-0.750224 0.6158451 1.0291057 -1.5255312 -0.34362862 -0.6193981 0.5630093 0.9352577
-0.46302372 0.63684934 0.2502004 0.7126126 0.60573566 -0.4774857 -0.08503128 -1.5978224
0.6817911 0.66169494 0.7654343 -1.1303802 -0.34467116 -1.5327009 0.5149149 0.59311366

model.5.bias f4 [3]
00000000: 7707 fa3f 5d8a 0a40 0181 1740
1.9533528 2.164695 2.3672488
