models/humidity_lstm_model.pth (torch, 79008 bytes, 10 tensors)

lstm.weight_ih_l0 f4 [128, 46]
-0.010557674 -0.06420957 0.20093442 0.12026293 0.0035663184 -0.042340487 0.10927184 0.14551595
-0.0447565 -0.16885298 -0.2261321 0.21339291 -0.13606972 0.057728063 0.12211221 -0.030030675
-0.21473387 -0.06804425 0.12172126 -0.08791083 0.010998429 0.077666916 -0.05325053 0.4138034
0.22583568 0.48646477 -0.29171586 0.06228215 0.20728265 -0.11782458 -0.37669608 0.10623462
-0.18446827 -0.1636223 0.49637535 0.17731465 0.110701986 0.15945874 0.15785514 0.016476024
0.4041892 0.23424973 0.0601397 0.018968185 0.1157579 0.07302356 0.031740367 -0.1358435
0.0416769 -0.37262908 0.11302114 0.22227001 0.36685973 0.0029457384 0.005308025 -0.07618417
-0.08648418 -0.07083731 -0.19671828 -0.035387896 0.11125581 -0.093302265 0.14390042 -0.122092746
0.3350817 -0.03620747 0.06014155 -0.15903433 0.19403395 0.2848267 0.11459226 0.17996718
-0.2803456 -0.08857912 -0.079595454 -0.076922186 -0.12520672 -0.25560546 0.07486561 -0.14766821
0.01323137 0.06753563 -0.12876749 -0.0018897309 -0.1215543 0.15792741 -0.04797579 0.06998032
-0.13263886 -0.048151452 -0.12865229 -0.1394701 0.13475713 0.16089201 0.0068202578 -0.12970953
-0.36486304 0.019128801 -0.1749091 0.0158707 0.18674766 0.2182546 -0.14074966 -0.1321744
-0.25019494 -0.2983823 -0.112896 -0.031227948 -0.08482312 0.0010086915 -0.16186954 -0.0074100425
-0.15151171 0.070569 0.092520155 0.106610514 0.311801 -0.13760294 0.29637498 0.26590085
0.40533122 0.08201438 0.11695359 0.06975019 0.086013645 0.19946219 0.14684215 0.0361017
0.0016749827 0.108541176 0.13738942 0.11977008 -0.047035187 0.08599012 0.029811192 0.046591885
0.32545823 -0.05852872 -0.18170533 -0.22643875 0.12969093 0.20611401 -0.05607479 0.14966363
-0.2290116 0.13356777 -0.35322 0.20349148 -0.1230897 0.28586042 0.00018507504 0.044470403
-0.09188645 -0.21805438 -0.10123176 0.18002304 -0.14918019 0.16996937 0.075801164 0.079668365
-0.11520266 -0.19194098 -0.020186862 -0.015173555 0.044755764 0.23046753 0.04229045 0.25613734
0.4188259 -0.022850737 0.030924166 0.12087029 -0.44256425 0.33642742 0.2832316 0.1888055
0.24085191 -0.013341852 0.09722938 -0.10222394 0.12050612 0.07556869 0.21166463 0.0733724
0.06858149 0.25209084 0.15405339 -0.23850177 0.11393132 0.55506957 0.0534262 -0.045414098
0.14466585 0.017793817 -0.028349763 0.14891432 -0.33444166 -0.15665351 -0.012087313 -0.032398384
-0.12960033 0.16952054 0.16026019 -0.046632417 -0.15448691 0.07561114 -0.12822917 0.15724333
-0.008694885 0.09825666 0.18960483 -0.018517632 0.06118413 0.03795812 0.056075204 0.24644591
0.23110755 -0.20719777 -0.3427825 0.21219623 -0.01243462 0.42865327 0.038205307 0.00079266075
0.0037055784 -0.09686611 0.01588202 0.2271183 0.17738642 -0.022639137 -0.12913094 -0.01600253
-0.047722917 -0.047375444 0.07551806 0.10217553 -0.09201001 -0.043813493 0.004667299 -0.19033039
0.13014583 -0.33393344 0.065940395 -0.33366078 -0.0041478397 -0.17187805 -0.006550183 0.05213128
0.25055426 0.09212192 0.109631404 -0.10540486 0.19551344 0.21313496 -0.14516005 0.098072186
00000000: 18fa 2cbc 4f80 83bd c1c1 4d3e 694c f63d
00000010: e5b8 693b 386d 2dbd eac9 df3d 2202 153e
00000020: 9752 37bd cce7 2cbe 2c8f 67be ac83 5a3e
00000030: dc55 0bbe 4374 6c3d f715 fa3d e402 f6bc
00000040: 32e3 5bbe c95a 8bbd ff48 f93d 980a b4bd
00000050: c132 343c d50f 9f3d 3a1d 5abd 0ade d33e
00000060: 7841 673e e911 f93e c85b 95be 911b 7f3d
00000070: e741 543e 034e f1bd 4fde c0be 8991 d93d
00000080: 40e5 3cbe 9b8c 27be e924 fe3e f991 353e
00000090: b9b7 e23d 2749 233e c7a4 213e baf8 863c
000000a0: e3f1 ce3e 29df 6f3e 0c55 763d 2b63 9b3c
000000b0: 7a12 ed3d 608d 953d 3002 023d 8f1a 0bbe
000000c0: 66b5 2a3d 3dc9 bebe a177 e73d c09a 633e
000000d0: 0ad5 bb3e 4a0d 413b f1ee ad3b 7206 9cbd
000000e0: 9e1e b1bd 2713 91bd 8470 49be e6f2 10bd
000000f0: 16da e33d 4215 bfbd a25a 133e c30b fabd
00000100: d48f ab3e 494e 14bd fc56 763d e5d9 22be
00000110: d6b0 463e ced4 913e 59af ea3d 5149 383e
00000120: 7589 8fbe f868 b5bd f102 a3bd 6189 9dbd
00000130: 3136 00be b8de 82be 2453 993d 5636 17be
00000140: 63c8 583c 1f50 8a3d a0db 03be d9b0 f7ba
00000150: 76f1 f8bd b9b7 213e 4382 44bd d851 8f3d
00000160: 7bd2 07be 753a 45bd 6dbd 03be 40d1 0ebe
00000170: c6fd 093e e0c0 243e 787c df3b 93d2 04be
00000180: 54cf babe 01b4 9c3c 5f1b 33be 4503 823c
00000190: c73a 3f3e 227e 5f3e ae20 10be ba58 07be
000001a0: 8d19 80be 91c5 98be 0536 e7bd c1d1 ffbc
000001b0: beb7 adbd 1236 843a 21c1 25be f1cf f2bb
000001c0: e325 1bbe 7b86 903d 357b bd3d 9d56 da3d
000001d0: 61a4 9f3e c9e7 0cbe 76be 973e 2824 883e
000001e0: 9387 cf3e 28f7 a73d 5d85 ef3d 30d9 8e3d
000001f0: ec27 b03d d13f 4c3e ca5d 163e 60df 133d
00000200: 188b db3a d64a de3d d0af 0c3e 044a f53d
00000210: f8a7 40bd 971b b03d 9a36 f43c 22d7 3e3d
00000220: 76a2 a63e d0bb 6fbd f610 3abe 8fdf 67be
00000230: b3cd 043e 8d0f 533e aeae 65bd 6c41 193e
00000240: 0482 6abe fdc5 083e 40d9 b4be 1260 503e
00000250: 7416 fcbd 4c5c 923e b410 4239 9926 363d
00000260: f72e bcbd a649 5fbe 9952 cfbd f657 383e
00000270: b1c2 18be 730c 2e3e a43d 9b3d 2b29 a33d
00000280: 5fef ebbd 2d8c 44be eb5e a5bc 819a 78bc
00000290: d251 373d aeff 6b3e c038 2d3d 6f24 833e
000002a0: 5970 d63e 7831 bbbc ad54 fd3c d88a f73d
000002b0: c897 e2be 3740 ac3e bb03 913e 3b56 413e
000002c0: e2a1 763e c997 5abc 3220 c73d c95a d1bd
000002d0: eacb f63d c2c3 9a3d 9dbe 583e 4544 963d
000002e0: 7474 8c3d 0d12 813e 2cc0 1d3e cf39 74be
000002f0: d354 e93d 0a19 0e3f 6ed5 5a3d 2204 3abd
00000300: 4923 143e 57c4 913c c33d e8bc ff7c 183e
00000310: f03b abbe c769 20be de09 46bc 2bb4 04bd
00000320: f3b5 04be cb96 2d3e 3f1b 243e a201 3fbd
00000330: d131 1ebe 03da 9a3d 824e 03be 6504 213e
00000340: fe74 0ebc ca3a c93d c527 423e 4ab2 97bc
00000350: 369c 7a3d f979 1b3d 1daf 653d 515c 7c3e
00000360: 75a7 6c3e a72b 54be 3081 afbe f849 593e
00000370: 94ba 4bbc 7178 db3e 2b7d 1c3d 90ca 4f3a
00000380: 4ad9 723b bd61 c6bd 031b 823c b391 683e
00000390: c9a4 353e b675 b9bc e73a 04be bd17 83bc
000003a0: 1b79 43bd c10c 42bd 36a9 9a3d 6741 d13d
000003b0: be6f bcbd c775 33bd 24f0 983b f8e5 42be
000003c0: f344 053e 53f9 aabe c20b 873d 96d5 aabe
000003d0: 9aea 87bb cd00 30be eba2 d6bb 9c87 553d
000003e0: a648 803e 6baa bc3d 6e86 e03d 81de d7bd
000003f0: ad34 483e 0d40 5a3e d6a4 14be 12da c83d

lstm.weight_hh_l0 f4 [128, 32]
-0.30787402 -0.21082358 0.09740183 -0.10087504 0.028503042 0.19005612 0.10249309 0.13408825
0.2340292 -0.19763194 -0.19466512 -0.048392158 -0.08442144 0.06983843 0.032412153 0.15601626
0.080209754 0.20144296 -0.0011637846 -0.032935124 -0.14087018 0.09452233 -0.116731934 -0.28018218
-0.1751049 0.09845353 -0.08063875 0.33336845 -0.061033912 -0.16576555 0.06536609 -0.15044294
-0.22999434 0.0061936784 0.0071648825 -0.19484922 0.04921221 0.024116285 -0.10143545 0.042619012
-0.04599419 -0.13542876 -0.081959546 -0.01851916 -0.11513512 0.38395834 -0.01497691 0.10253263
0.13613273 0.08339535 -0.10501149 0.36884284 -0.25888202 0.213224 0.10217274 -0.12408575
0.0060303938 0.15526766 -0.28629363 0.26388326 0.11987301 0.13840152 0.15082468 0.30023494
-0.028899303 0.118369974 0.08964287 -0.41735795 -0.3191617 0.07432595 -0.047025964 0.121056244
0.03870235 0.18468575 -0.24119484 -0.09797786 0.09940981 -0.03883816 0.44125468 0.097225636
0.018713688 0.15996867 0.009505897 0.010427376 -0.10663906 0.26001847 0.06478277 -0.10322801
-0.0011514379 -0.32460332 -0.127828 -0.19033611 -0.23471662 -0.2639922 0.12855978 -0.0015246989
0.26408228 -0.029749181 0.15827955 -0.35256764 -0.2630821 0.0029928498 0.005833241 0.15434913
-0.011843274 0.46022898 -0.26127887 -0.09209394 0.23272793 0.09822705 0.24548645 0.13446397
0.02773152 0.12832479 0.19972576 -0.01101227 -0.076684766 -0.018793141 -0.073675774 -0.02500505
0.35869652 -0.32046485 -0.27598035 0.21504681 0.018526379 0.0038338043 -0.15549202 -0.19032897
-0.03933755 -0.13887738 0.3318376 0.03569941 -0.08677195 0.046304815 -0.12637241 0.03069172
0.21802875 0.023503805 -0.31060186 -0.017607246 -0.010325764 0.049709298 -0.08317571 0.03357931
0.09402004 -0.10054479 0.025911089 0.11025062 -0.008785356 0.09853037 0.062153377 -0.22374591
0.06273782 -0.0675122 -0.11370253 0.22309777 -0.3206112 0.004023321 0.09756107 -0.058146957
0.06666574 0.050126947 0.15877089 -0.15616584 -0.19358125 0.051110823 0.010896736 -0.08019834
0.022629673 -0.04345721 -0.091575444 -0.14419296 0.24280366 0.15704882 0.15079512 0.054775413
0.14108558 0.015438766 0.13468668 -0.013633144 -0.02521343 -0.1910159 0.14715366 -0.13505816
0.2508484 -0.009665181 0.0006159602 -0.06107437 0.04209229 -0.015561506 -0.07280187 0.14945863
-0.3071206 -0.4172703 0.21563226 -0.2622024 -0.039176855 -0.0029557887 0.13892652 -0.029644793
0.080515265 -0.12405717 -0.13935106 -0.12743306 0.4650871 0.2248326 0.052780308 -0.11411516
-0.053278584 -0.019621694 0.13169417 0.17176329 -0.16860509 0.43094167 0.21876284 -0.25455278
0.07291595 -0.037964005 -0.45696786 -0.068953246 -0.11750317 -0.30642337 0.06582172 -0.15522978
-0.089278735 -0.13691613 -0.056438312 -0.33141106 0.25021473 0.16963632 -0.23069662 -0.058538295
0.030124439 -0.29136622 0.063768 0.17158899 0.2264798 0.17155494 0.13328122 0.18460573
0.114272796 0.09835913 0.12298487 0.20187983 0.061990883 0.09792091 -0.14520064 -0.39408937
-0.020539435 0.039227154 -0.14965954 0.31058294 -0.024001762 -0.012630936 0.076197326 -0.03589332
00000000: aaa1 9dbe 23e2 57be 9c7a c73d 9397 cebd
00000010: 367f e93c 129e 423e e6e7 d13d 6e4e 093e
00000020: 5aa5 6f3e 0760 4abe 4b56 47be db36 46bd
00000030: 26e5 acbd 7307 8f3d 9bc2 043d bac2 1f3e
00000040: 0345 a43d 1047 4e3e 228a 98ba fbe6 06bd
00000050: 4640 10be ec94 c13d 2711 efbd 0a74 8fbe
00000060: b34e 33be 01a2 c93d ee25 a5bd 45af aa3e
00000070: b2fe 79bd 72be 29be a8de 853d b70d 1abe
00000080: a383 6bbe 57f4 ca3b 64c7 ea3b 8e86 47be
00000090: be92 493d 848f c53c 64bd cfbd 4691 2e3d
000000a0: 6764 3cbd d6ad 0abe 68da a7bd 7eb5 97bc
000000b0: f6cb ebbd 3096 c43e b761 75bc a1fc d13d
000000c0: 6166 0b3e 2ecb aa3d 4410 d7bd f8d8 bc3e
000000d0: 2f8c 84be 6457 5a3e f13f d13d ab20 febd
000000e0: 9c9a c53b 7cfe 1e3e 1495 92be b51b 873e
000000f0: fb7f f53d 21b9 0d3e c971 1a3e 65b8 993e
00000100: 3bbe ecbc f56b f23d ae96 b73d f1af d5be
00000110: 2a69 a3be 3438 983d 4c9e 40bd 56ec f73d
00000120: 5b86 1e3d 431e 3d3e c8fb 76be 9ea8 c8bd
00000130: 5f97 cb3d c314 1fbd 22ec e13e 3c1e c73d
00000140: 734d 993c d4ce 233e 9fbe 1b3c 96d7 2a3c
00000150: 9465 dabd 2421 853e d4ac 843d 3569 d3bd
00000160: d8eb 96ba 6832 a6be 58e5 02be 78e7 42be
00000170: 8e59 70be fc29 87be 2da5 033e 68d8 c7ba
00000180: cb35 873e 8eb4 f3bc 0914 223e bf83 b4be
00000190: b2b2 86be b023 443b c624 bf3b b30d 1e3e
000001a0: 4b0a 42bc 22a3 eb3e 58c6 85be bf9b bcbd
000001b0: 3b50 6e3e 432b c93d cd60 7b3e ecb0 093e
000001c0: 362d e33c 9367 033e e984 4c3e cf6c 34bc
000001d0: e70c 9dbd 13f4 99bc 53e3 96bd 64d7 ccbc
000001e0: 12a7 b73e f813 a4be 4c4d 8dbe 3b35 5c3e
000001f0: a2c4 973c 9040 7b3b 4d39 1fbe 99e5 42be
00000200: 6920 21bd df35 0ebe 9ee6 a93e 8b39 123d
00000210: 7eb5 b1bd 1eaa 3d3d c567 01be 346d fb3c
00000220: ee42 5f3e 0d8b c03c 3507 9fbe 123d 90bc
00000230: 652d 29bc fa9b 4b3d 0758 aabd 758a 093d
00000240: 948d c03d 6dea cdbd 7e43 d43c 14cb e13d
00000250: 74f0 0fbc 4aca c93d 8a94 7e3d a61d 65be
00000260: b07c 803d d643 8abd dfdc e8bd be73 643e
00000270: 2727 a4be 10d6 833b 19ce c73d 812b 6ebd
00000280: 0c88 883d ea51 4d3d d694 223e f0e9 1fbe
00000290: 2a3a 46be 9559 513d 3988 323c 073f a4bd
000002a0: dd61 b93c 3000 32bd e88b bbbd 52a7 13be
000002b0: 86a1 783e 68d1 203e 096a 1a3e 2f5c 603d
000002c0: bd78 103e e1f2 7c3c 4eeb 093e 8d5d 5fbc
000002d0: 658c cebc ac99 43be 73af 163e b04c 0abe
000002e0: 346f 803e b55a 1ebc 6478 213a 1e29 7abd
000002f0: f768 2c3d b0f5 7ebc 2619 95bd af0b 193e
00000300: e93e 9dbe 74a4 d5be b4ce 5c3e 653f 86be
00000310: e977 20bd e8b5 41bb c142 0e3e a3d9 f2bc
00000320: 30e5 a43d af11 febd 0bb2 0ebe d07d 02be
00000330: e51f ee3e 843a 663e 2a30 583d 36b5 e9bd
00000340: a53a 5abd adbd a0bc d6da 063e b7e2 2f3e
00000350: d0a6 2cbe 63a4 dc3e 5e03 603e be54 82be
00000360: f554 953d 2580 1bbd b1f7 e9be 5c37 8dbd
00000370: 81a5 f0bd 86e3 9cbe 8acd 863d 8ef4 1ebe
00000380: c5d7 b6bd be33 0cbe dc2b 67bd b6ae a9be
00000390: 251c 803e 25b5 2d3e bc3b 6cbe dac5 6fbd
000003a0: 87c7 f63c f42d 95be cc98 823d 06b5 2f3e
000003b0: 52ea 673e 19ac 2f3e df7a 083e 4909 3d3e
000003c0: db07 ea3d 8370 c93d 7edf fb3d 96b9 4e3e
000003d0: 27ea 7d3d c28a c83d 7aaf 14be 15c6 c9be
000003e0: 5142 a8bc a7ac 203d 5a40 19be ba04 9f3e
000003f0: 589f c4bc fcf1 4ebc 580d 9c3d e004 13bd

lstm.bias_ih_l0 f4 [128]
-0.070282966 -0.24554347 0.003015296 -0.027342696 0.030810509 0.18119183 0.019302983 -0.1110819
0.12417834 -0.15063377 -0.019435806 0.16850577 0.0045065684 0.045584533 -0.034048103 -0.09582523
-0.06850106 0.06484503 0.018358108 -0.2088354 -0.027956137 -0.020844681 -0.0040657674 0.063870996
0.09746884 -0.10619675 0.0033414082 0.2257875 -0.024484297 -0.007600321 -0.010888987 0.17660052
0.16930799 0.037442733 0.14868526 0.07019732 0.09416919 -0.06801448 -0.055625614 0.08094544
0.067113124 0.17141032 -0.011006583 0.11200783 0.10597422 0.08430172 -0.011554671 0.20459951
-0.20236814 0.14249705 0.10700262 0.16243745 -0.08413168 0.0064831707 -0.012857082 0.023271387
-0.030546803 0.03727011 -0.15018483 0.112697065 -0.123328455 0.041496623 -0.024729095 0.11053005
-0.027705368 -0.037273854 0.096278 0.052348506 -0.10849979 0.12252414 0.069129474 -0.053035073
0.039941505 0.1979829 -0.03818464 -0.118434526 0.18223026 -0.017844427 0.050107513 -0.07191409
-0.10814707 0.11001426 -0.00095526583 0.118069775 0.14859135 0.15803708 -0.044834845 -0.076342374
-0.0770017 -0.09722779 -0.09952331 0.058172487 -0.0061652656 -0.02098309 -0.084627815 -0.07532349
-0.027646879 0.03235395 0.16794775 -0.06868562 -0.108299024 0.2602031 0.25619522 0.19168732
-0.03470295 0.09819912 -0.06682969 0.13295725 0.039062306 0.09362785 -0.0614027 0.10709567
0.011138877 -0.10019743 -0.09311075 -0.1395422 0.09639205 -0.0702824 -0.02116726 0.3016259
0.117837965 0.06473389 0.22251953 -0.0033811466 0.16574028 -0.14880823 0.14054869 0.21143042
00000000: 84f0 8fbd bf6f 7bbe 469c 453b cafd dfbc
00000010: 5266 fc3c 5a8a 393e 4a21 9e3c e87e e3bd
00000020: 3751 fe3d bd3f 1abe d737 9fbc c78c 2c3e
00000030: d6ab 933b d9b6 3a3d 0676 0bbd 0540 c4bd
00000040: 494a 8cbd 79cd 843d be63 963c f2d8 55be
00000050: 4504 e5bc 77c2 aabc 213a 85bb ccce 823d
00000060: be9d c73d af7d d9bd 87fb 5a3b d734 673e
00000070: 4b93 c8bc 1d0c f9bb b967 32bc c4d6 343e
00000080: 135f 2d3e 8d5d 193d f340 183e 9dc3 8f3d
00000090: c7db c03d 2d4b 8bbd afd7 63bd b9c6 a53d
000000a0: 9b72 893d 3086 2f3e f554 34bc 5c64 e53d
000000b0: 0309 d93d 61a6 ac3d ce4f 3dbc 8982 513e
000000c0: 9839 4fbe bfea 113e 3124 db3d 0156 263e
000000d0: 3b4d acbd c770 d43b 83a6 52bc a3a3 be3c
000000e0: 4a3d fabc 8ba8 183d 0dca 19be b8cd e63d
000000f0: a193 fcbd 5df8 293d ac94 cabc 945d e23d
00000100: 5ef6 e2bc 78ac 18bd 662d c53d 636b 563d
00000110: 2335 debd f0ed fa3d c193 8d3d 4e3b 59bd
00000120: b499 233d 08bc 4a3e 7f67 1cbd cd8d f2bd
00000130: 929a 3a3e 7a2e 92bc 893d 4d3d b247 93bd
00000140: 367c ddbd 284f e13d ce6a 7aba 91ce f13d
00000150: 5528 183e 79d4 213e bea4 37bd 6459 9cbd
00000160: 11b3 9dbd 5d1f c7bd e1d2 cbbd 4646 6e3d
00000170: ff05 cabb bbe4 abbc 5951 adbd 3443 9abd
00000180: b57b e2bc 9385 043d 7ffa 2b3e 0cab 8cbd
00000190: e1cb ddbd 5739 853e 052c 833e ae49 443e
000001a0: ae24 0ebd 9f1c c93d 01de 88bd f225 083e
000001b0: ccff 1f3d f5bf bf3d 6681 7bbd fa54 db3d
000001c0: d67f 363c 4f34 cdbd d9b0 bebd 27e4 0ebe
000001d0: 3269 c53d 38f0 8fbd f666 adbc b66e 9a3e
000001e0: 0855 f13d 3493 843d 29dc 633e 3a96 5dbb
000001f0: d2b7 293e 2f61 18be ffeb 0f3e 3781 583e

lstm.bias_hh_l0 f4 [128]
0.030179821 -0.10238676 0.22579135 0.03880518 0.16441315 0.116973646 0.10829002 0.11420384
-0.0016934314 0.0930634 0.108245425 0.1789731 0.24963026 0.09206568 0.07490647 -0.0855361
0.14884664 0.16432224 0.07855274 -0.043424793 0.013169125 0.020214206 0.07817056 0.15685765
0.21337403 0.08419394 -0.103780136 -0.052189708 -0.01773013 0.055944502 -0.064707264 0.013552915
0.013617077 -0.081167266 -0.036690407 0.18522562 0.17800502 -0.04469654 0.14373247 -0.10171663
-0.0444625 0.22978616 0.19876154 -0.0760149 0.16148913 0.04003249 0.14717121 0.29690242
0.13123482 -0.0469205 0.067567945 0.19658054 0.14913008 -0.044549465 0.0504795 0.06996364
0.26445115 0.1573564 -0.16585903 0.26449782 0.0061490806 0.09130405 0.1038409 0.20718305
-0.015658533 -0.10408062 0.08944759 0.08269367 -0.1800414 0.08917038 0.12956011 0.0036906516
0.06324943 0.14310357 0.13720855 0.03518051 0.079601675 -0.071846694 -0.054710764 0.09622271
0.09049094 0.12244757 0.19102398 -0.04105734 -0.057088718 -0.12914114 0.09992448 0.01318921
-0.010655555 -0.056497462 -0.08180127 0.1349819 -0.13457666 -0.093110465 0.14566617 -0.07973917
0.13162944 0.06472256 0.057763934 0.14560297 -0.035334595 0.18705937 0.22065796 0.08491314
0.18705864 0.041314747 0.19492513 0.04349139 0.009596325 0.084574096 -0.10043799 0.21383667
-0.081975706 -0.11473804 0.007587657 0.0496344 0.015278173 0.044976804 0.25470838 0.029878158
0.081072904 -0.070838444 0.17211853 -0.04970929 0.17596918 0.054497045 0.16384412 -0.015363939
00000000: ac3b f73c 26b0 d1bd d935 673e 2ef2 1e3d
00000010: ec5b 283e e18f ef3d 28c7 dd3d b4e3 e93d
00000020: 21f6 ddba 0698 be3d c7af dd3d b944 373e
00000030: 139f 7f3e ee8c bc3d 9068 993d 8d2d afbd
00000040: 416b 183e 1744 283e 42e0 a03d 32de 31bd
00000050: 50c3 573c 4398 a53c e317 a03d 4b9f 203e
00000060: b97e 5a3e df6d ac3d ae8a d4bd e0c4 55bd
00000070: c73e 91bc 1026 653d 3e85 84bd 0c0d 5e3c
00000080: 291a 5f3c 063b a6bd ae48 16bd c9ab 3d3e
00000090: f346 363e b813 37bd 9b2e 133e cf50 d0bd
000000a0: 4f1e 36bd 104d 6b3e 2588 4b3e b3ad 9bbd
000000b0: 685d 253e 1cf9 233d 0db4 163e 9803 983e
000000c0: 6c62 063e b62f 40bd 1061 8a3d 694c 493e
000000d0: 8eb5 183e 8079 36bd 98c3 4e3d 1949 8f3d
000000e0: 2466 873e 0922 213e f3d6 29be 426c 873e
000000f0: 3a7e c93b 9efd ba3d 8aaa d43d cb27 543e
00000100: 5346 80bc 3828 d5bd 4c30 b73d 4d5b a93d
00000110: c65c 38be f69e b63d 68ab 043e dcde 713b
00000120: eb88 813d be89 123e 6680 0c3e 7019 103d
00000130: 3406 a33d 5c24 93bd 6518 60bd 6a10 c53d
00000140: 5053 b93d cbc5 fa3d ca9b 433e be2b 28bd
00000150: dcd5 69bd 933d 04be 35a5 cc3d 8e17 583c
00000160: a394 2ebc e269 67bd 6d87 a7bd b238 0a3e
00000170: 77ce 09be b3b0 bebd 8329 153e 4a4e a3bd
00000180: dec9 063e 438d 843d e099 6c3d f218 153e
00000190: 02bb 10bd 7e8c 3f3e 29f4 613e f1e6 ad3d
000001a0: 4d8c 3f3e a739 293d 749a 473e 0724 323d
000001b0: e839 1d3c 2f35 ad3d 6fb2 cdbd 00f8 5a3e
000001c0: e1e2 a7bd c7fb eabd e1a1 f83b 714d 4b3d
000001d0: 4d51 7a3c 9939 383d 2369 823e 0ac3 f43c
000001e0: 8d09 a63d bf13 91bd d73f 303e f89b 4bbd
000001f0: 4431 343e 4b38 5f3d c1c6 273e 08b9 7bbc

lstm.weight_ih_l1 f4 [128, 32]
-0.22137444 -0.14411747 0.1433637 -0.16086447 -0.21795206 0.14483856 -0.14022651 -0.175245
-0.061918817 0.12347792 -0.16462839 -0.10495615 0.119123526 0.07582531 0.15572669 0.04215601
0.0056435526 -0.03685094 0.052387513 0.12707397 0.035058808 -0.14239125 -0.087765865 0.1316317
0.013334977 0.0102023445 0.1534502 0.2526367 -0.09935008 -0.23175433 0.20582177 0.034711555
0.13321471 0.06262415 0.07405456 0.20376801 -0.22732583 0.042804725 -0.022884874 -0.070540726
0.0691954 0.16659904 -0.19869305 -0.0034097973 -0.018993437 -0.018403586 -0.036695633 0.015525562
-0.020800237 0.25321835 0.08761598 -0.09831148 -0.080536895 0.0066732024 0.055465516 0.0064240275
-0.029500091 -0.16335534 0.078487925 0.12052577 -0.043543406 -0.17904337 0.26523945 0.0488587
-0.2137254 0.03919138 0.124043345 -0.23006323 -0.06892948 0.2902569 0.1945195 0.10298226
0.19090877 0.053976417 0.022617193 -0.27877986 0.21732609 0.036342755 0.13249463 0.077820554
0.07151495 0.10806187 -0.009060858 0.15077719 -0.06170568 -0.1034249 0.017280431 -0.14571026
0.34309524 -0.012678064 0.12587163 -0.042168323 0.006806664 -0.2848454 0.23049352 -0.07266159
-0.025602136 0.0650478 0.2205833 -0.04344918 0.040675845 0.23341915 0.07598186 0.23119482
0.11885311 -0.1277899 -0.008918757 -0.041504435 0.02458625 0.31170958 0.12236645 0.33159888
0.4848055 -0.042855535 0.27869186 -0.0044875997 -0.22100605 0.18949018 0.24072455 -0.35642058
0.35035843 0.024340136 -0.017485376 0.18793242 -0.07670102 -0.13207653 0.36125585 -0.30796704
-0.1805453 -0.19624999 0.07768744 0.09720997 -0.059036747 0.23429483 0.11043562 0.19460528
0.17687508 0.13716298 -0.08868875 -0.18085761 0.063255094 -0.056414198 -0.06439715 -0.037291665
0.15067635 0.038367994 0.047037423 0.0602112 -0.090173915 0.0064924248 0.23876257 0.054373723
0.007062816 -0.033987496 0.04024269 0.20122191 -0.0984065 -0.10865514 0.05340255 -0.14618976
-0.1807528 0.11737462 0.04171308 0.063504085 -0.1856938 0.02910584 -0.20929077 -0.06823908
0.1434867 0.08786094 -0.08173285 -0.14307229 0.14514151 0.19216438 0.01133918 -0.119462445
0.22347295 0.104293816 0.166054 -0.037730366 0.03586227 -0.16033264 -0.09630158 -0.12999643
0.00077750336 0.04458444 -0.05190934 -0.026153574 0.085907966 -0.13445443 0.17390019 -0.06392143
0.020363202 -0.110860236 0.34214982 -0.12055334 0.205688 -0.012027614 0.21738812 0.29837826
0.26806983 0.2798411 -0.099404976 -0.0140339425 0.19601038 0.20021254 0.1270894 0.32078704
0.13885815 0.1449174 0.1602808 0.270025 -0.14314497 0.054865655 0.27937406 -0.3158722
0.3973793 -0.097001866 -0.04393216 0.07742736 0.085108034 0.048409145 0.28565904 -0.095700055
-0.08650518 -0.0131215835 0.2182965 0.1788498 0.016726593 0.076486535 0.027354423 -0.06968788
0.07651592 -0.09781415 -0.3254121 -0.0430131 -0.023741819 -0.0573031 0.2932834 0.124801
0.3289852 -0.08111643 -0.058608606 -0.13812254 -0.36185357 -0.1575978 0.2965793 -0.014707542
0.111086145 -0.00052820926 0.13173115 0.21752758 -0.25247607 -0.055731345 0.19864757 -0.090508886
00000000: fbaf 62be 8893 13be efcd 123e a8b9 24be
00000010: d32e 5fbe 8f50 143e 8a97 0fbe 6d73 33be
00000020: 969e 7dbd fee1 fc3d 5894 28be 40f3 d6bd
00000030: 09f7 f33d 4d4a 9b3d d176 1f3e c8ab 2c3d
00000040: 8ded b83b 03f1 16bd 4a94 563d ae1f 023e
00000050: d399 0f3d 03cf 11be 97be b3bd 76ca 063e
00000060: f37a 5a3c bc27 273c 0d22 1d3e 9959 813e
00000070: 0e78 cbbd 0251 6dbe f1c2 523e b42d 0e3d
00000080: 7069 083e 1741 803d eba9 973d 90a8 503e
00000090: 1ac8 68be 0254 2f3d 0f79 bbbc a877 90bd
000000a0: 51b6 8d3d f098 2a3e 3176 4bbe e876 5fbb
000000b0: 2098 9bbc 1ec3 96bc 294e 16bd ed5e 7e3c
000000c0: 4265 aabc d6a5 813e 0270 b33d 8757 c9bd
000000d0: 87f0 a4bd e1aa da3b cf2f 633d a680 d23b
000000e0: 2daa f1bc 9f46 27be 47be a03d 37d6 f63d
000000f0: 925a 32bd 2557 37be 77cd 873e 0f20 483d
00000100: d5da 5abe 2487 203d 700a fe3d b295 6bbe
00000110: e62a 8dbd 8d9c 943e 1f30 473e 5de8 d23d
00000120: 977d 433e 6016 5d3d b147 b93c 3cbc 8ebe
00000130: bb8a 5e3e 24dc 143d acac 073e 6260 9f3d
00000140: 6e76 923d 8b4f dd3d fe73 14bc 5665 1a3e
00000150: 18bf 7cbd 6fd0 d3bd b18f 8d3c 1235 15be
00000160: 2eaa af3e a8b7 4fbc 7ee4 003e b1b8 2cbd
00000170: 700a df3b 42d7 91be 7e06 6c3e 9acf 94bd
00000180: 92bb d1bc c837 853d 97e0 613e c4f7 31bd
00000190: b79b 263d 6e05 6f3e 619c 9b3d 56be 6c3e
000001a0: 4269 f33d 5bdb 02be fa1f 12bc 8e00 2abd
000001b0: 1a69 c93c 6698 9f3e 439b fa3d 54c7 a93e
000001c0: 6d38 f83e 4989 2fbd b3b0 8e3e b70c 93bb
000001d0: 694f 62be b709 423e 7f80 763e c27c b6be
000001e0: 2e62 b33e f764 c73c 7e3d 8fbc 5b71 403e
000001f0: 6d15 9dbd 123f 07be 87f6 b83e dbad 9dbe
00000200: dee0 38be c2f5 48be 981a 9f3d 0516 c73d
00000210: 84d0 71bd fcea 6f3e 122c e23d 9b46 473e
00000220: be1e 353e 7474 0c3e 73a2 b5bd bd32 39be
00000230: e38b 813d 9312 67bd a7e2 83bd 25bf 18bd
00000240: e74a 1a3e c227 1d3d 50aa 403d 05a0 763d
00000250: 1aad b8bd 68be d43b 2d7e 743e fbb6 5e3d
00000260: 326f e73b 7936 0bbd 85d5 243d 1e0d 4e3e
00000270: 5989 c9bd 9686 debd a2bc 5a3d c5b2 15be
00000280: 4317 39be 1b62 f03d 56db 2a3d 6e0e 823d
00000290: 8426 3ebe 5f6f ee3c 5250 56be eec0 8bbd
000002a0: 2dee 123e 70f0 b33d 8d63 a7bd 8b81 12be
000002b0: fa9f 143e bdc6 443e f8c7 393c baa8 f4bd
000002c0: 18d6 643e ff97 d53d 0f0a 2a3e 288b 1abd
000002d0: 51e4 123d 3d2e 24be c339 c5bd c91d 05be
000002e0: 5ed1 4b3a 2c9e 363d e39e 54bd 0540 d6bc
000002f0: 84f0 af3d 6cae 09be e412 323e 3de9 82bd
00000300: bbd0 a63c b10a e3bd 432e af3e abe4 f6bd
00000310: e09f 523e 780f 45bc fe9a 5e3e 09c5 983e
00000320: 7340 893e 5547 8f3e d694 cbbd 9fee 65bc
00000330: f2b6 483e 8404 4d3e b923 023e 333e a43e
00000340: d530 0e3e 3a65 143e a620 243e b840 8a3e
00000350: 9894 12be cfba 603d 1e0a 8f3e 00ba a1be
00000360: 4d75 cb3e eaa8 c6bd 35f2 33bd 3c92 9e3d
00000370: 1f4d ae3d ab48 463d e741 923e 64fe c3bd
00000380: a129 b1bd e9fb 56bc 1e89 5f3e 6724 373e
00000390: 3506 893c f9a4 9c3d 6216 e03c 85b8 8ebd
000003a0: 61b4 9c3d c952 c8bd 6a9c a6be 812e 30bd
000003b0: 347e c2bc a8b6 6abd 3e29 963e ab97 ff3d
000003c0: c070 a83e 5f20 a6bd 940f 70bd ff6f 0dbe
000003d0: df44 b9be 5161 21be 3ed9 973e e7f7 70bc
000003e0: 2281 e33d 8677 0aba 88e4 063e 8dbf 5e3e
000003f0: 8b44 81be 8d46 64bd 456a 4b3e b95c b9bd

lstm.weight_hh_l1 f4 [128, 32]
0.15789776 -0.005751597 0.08600189 0.11907721 0.1792576 -0.0035632658 -0.061682686 -0.24372193
-0.17361331 0.2826889 0.021396503 0.23655504 -0.05252599 0.08618788 -0.07765489 -0.15183161
0.02405167 -0.079238646 0.04858395 0.20172064 0.04784567 0.1528752 -0.13993715 0.15095784
0.1501705 0.16878928 -0.017774029 -0.16469276 0.18113764 -0.23116507 0.035108045 -0.047012284
0.11020829 0.043119233 0.046281487 0.2199013 0.06304167 -0.11451732 0.06497058 -0.049449287
-0.19658944 0.03289785 0.11974265 0.27275014 0.21615635 0.081899546 0.019806378 -0.22489445
-0.037846416 0.13442269 0.1356538 0.03987664 0.120232634 0.027292492 -0.23357709 0.15782608
-0.004482292 0.009283281 -0.10365443 0.0053613926 -0.030711979 -0.11176848 -0.041222863 -0.26058605
-0.013950731 0.23419222 0.27356747 0.1356191 0.083984144 0.027171815 0.020767832 -0.07057467
0.013021895 0.122674 0.2006735 0.16641194 -0.047899842 0.10660037 -0.038824867 0.008061034
0.015205675 0.010685991 -0.03847588 -0.024414152 -0.23072764 -0.044346042 0.01460103 0.06900696
0.1974515 0.042904932 -0.2085272 -0.045518737 -0.2944313 -0.17983705 -0.055584002 -0.21631259
-0.12319144 -0.014983283 0.17904063 -0.062132265 0.084550716 -0.15459104 0.010823886 -0.24561135
-0.11505073 0.03077364 0.09278216 -0.09293436 -0.1050416 -0.08403337 0.6960833 -0.2165715
-0.12660603 0.17619002 0.13824828 0.024026794 -0.19889374 0.016101645 0.0073504825 0.033521466
0.20591512 0.066175744 0.059701182 0.08790227 0.0050419443 -0.041028764 0.04453158 -0.08819805
0.18621066 -0.045976568 0.02461655 -0.08443111 0.08452835 0.07591802 0.16886567 -0.20442317
-0.030848006 0.09589496 0.12753832 0.07772674 -0.08066292 0.19986618 -0.17836364 0.13031882
-0.17179635 -0.009462676 0.092537895 0.13737486 -0.12244757 0.12098069 0.14652193 0.13181175
-0.0593993 0.013569789 0.030709669 -0.19406587 0.108280145 -0.08778807 0.27143884 0.0940941
0.16840327 0.26511705 0.26128757 0.20463298 0.19081475 -0.00533968 -0.07477835 -0.16130124
0.0053376607 -0.060787912 0.0708545 0.15302068 0.25571755 0.16093604 0.014816957 -0.13267563
-0.09157004 -0.17201686 -0.20126955 0.16443488 -0.13490538 -0.003158939 -0.11562738 -0.0326133
0.30535167 0.18668921 0.041117616 -0.026745044 -0.072922856 -0.23189458 0.039307136 -0.021895971
0.0459218 -0.11272864 0.14881723 0.05185154 -0.17068191 -0.15157688 -0.008400816 -0.044925008
0.015262687 0.14566593 -0.019413246 -0.037072107 0.0021082098 0.14654179 0.27986765 -0.18224043
0.03737598 -0.1401314 0.031756137 -0.04029352 -0.06862537 -0.036749214 -0.17331623 -0.060441103
0.012514588 0.011100411 -0.11370294 -0.08384821 -0.07545097 -0.01878137 0.04800998 0.034425225
0.06836587 0.07865451 0.14280222 0.19037987 0.061010387 -0.21914212 0.07877252 0.040014237
-0.105401374 -0.00021668998 0.03737052 0.041111577 0.21653408 0.09057787 0.2780018 -0.1743217
-0.21853854 0.015039669 -0.139355 0.11216218 0.17048278 0.12122918 -0.10459 0.23839131
0.0025773316 -0.058322765 -0.09422042 -0.1745987 0.01985195 -0.23112309 -0.10105363 -0.086929895
00000000: f3af 213e e577 bcbb c221 b03d c1de f33d
00000010: 4e8f 373e ae85 69bb fca6 7cbd 3e92 79be
00000020: b0c7 31be 99bc 903e b847 af3c 7c3b 723e
00000030: 7e25 57bd 4583 b03d 8709 9fbd bf79 1bbe
00000040: 0208 c53c df47 a2bd f7ff 463d db8f 4e3e
00000050: d2f9 433d 518b 1c3e af4b 0fbe b194 1a3e
00000060: 4cc6 193e 19d7 2c3e d79a 91bc 38a5 28be
00000070: 257c 393e 89b6 6cbe 74cd 0f3d f48f 40bd
00000080: e2b4 e13d cb9d 303d a891 3d3d ce2d 613e
00000090: fe1b 813d 0f88 eabd 4c0f 853d 568b 4abd
000000a0: be4e 49be e5bf 063d a23b f53d e8a5 8b3e
000000b0: 1758 5d3e f3ba a73d fc40 a23c bb4a 66be
000000c0: d804 1bbd 1aa6 093e d4e8 0a3e b055 233d
000000d0: 873c f63d 8194 df3c d52e 6fbe 299d 213e
000000e0: 31e0 92bb e718 183c c648 d4bd 9fae af3b
000000f0: b097 fbbc dfe6 e4bd 4ed9 28bd 896b 85be
00000100: 9b91 64bc 16d0 6f3e 0911 8c3e bcdf 0a3e
00000110: e1ff ab3d 6d97 de3c 4d21 aa3c 7489 90bd
00000120: c959 553c 823c fb3d 5b7d 4d3e e467 2a3e
00000130: a032 44bd 4b51 da3d d306 1fbd 6d12 043c
00000140: 3921 793c 4b14 2f3c e298 1dbd 3000 c8bc
00000150: de43 6cbe 32a4 35bd 2939 6f3c 8553 8d3d
00000160: ba30 4a3e 15bd 2f3d 2888 55be db71 3abd
00000170: b3bf 96be 3427 38be 0dac 63bd 0c81 5dbe
00000180: cb4b fcbd 727c 75bc 6d56 373e 677e 7ebd
00000190: ed28 ad3d 1d4d 1ebe ab56 313c 8b81 7bbe
000001a0: b89f ebbd 0019 fc3c 9304 be3d 5f54 bebd
000001b0: 0d20 d7bd b019 acbd 8432 323f ebc4 5dbe
000001c0: 03a5 01be 286b 343e f590 0d3e d7d3 c43c
000001d0: cdaa 4bbe 99e7 833c 51dc f03b ce4d 093d
000001e0: 6adb 523e 2687 873d 3a89 743d 1b06 b43d
000001f0: e536 a53b c70d 28bd bf66 363d 2ea1 b4bd
00000200: 02ae 3e3e ed51 3cbd a6a8 c93c 38ea acbd
00000210: 331d ad3d e87a 9b3d 1feb 2c3e 4f54 51be
00000220: f5b4 fcbc 9464 c43d 6899 023e 322f 9f3d
00000230: 9a32 a5bd b8a9 4c3e f5a4 36be 4c72 053e
00000240: 62eb 2fbe 5709 1bbc 8284 bd3d ffab 0c3e
00000250: cbc5 fabd b9c4 f73d d809 163e a9f9 063e
00000260: ae4c 73bd d253 5e3c d892 fb3c 34b9 46be
00000270: fbc1 dd3d 3bca b3bd 08fa 8a3e 68b4 c03d
00000280: e871 2c3e 6cbd 873e 7cc7 853e 4f8b 513e
00000290: f164 433e 7bf8 aebb 6425 99bd 272c 25be
000002a0: 8be7 ae3b bffc 78bd 2a1c 913d 74b1 1c3e
000002b0: 69ed 823e 6bcc 243e d2c2 723c 1fdc 07be
000002c0: 1389 bbbd 3025 30be 9b19 4ebe 9e61 283e
000002d0: a324 0abe 3406 4fbb 0cce ecbd 8695 05bd
000002e0: 0e57 9c3e 752b 3f3e f26a 283d 6c18 dbbc
000002f0: 9458 95bd c675 6dbe 8500 213d 2e5f b3bc
00000300: 7f18 3c3d 46de e6bd 8b63 183e 4862 543d
00000310: 3dc7 2ebe f836 1bbe 93a3 09bc 4903 38bd
00000320: 5910 7a3c 7329 153e 8708 9fbc ecd8 17bd
00000330: e429 0a3b 0d0f 163e d04a 8f3e 3c9d 3abe
00000340: 8e17 193d 9b7e 0fbe b912 023d d10a 25bd
00000350: 758b 8cbd 5886 16bd cf79 31be 1791 77bd
00000360: fd09 4d3c 80de 353c 16dd e8bd 9cb8 abbd
00000370: 0a86 9abd 63db 99bc 1da6 443d 7701 0d3d
00000380: 6803 8c3d 9e15 a13d bf3a 123e f1f2 423e
00000390: 07e6 793d cb66 60be 7d53 a13d f8e5 233d
000003a0: addc d7bd 4637 63b9 d511 193d 9d64 283d
000003b0: 1cbb 5d3e e480 b93d 4056 8e3e 6381 32be
000003c0: 91c8 5fbe f268 763c 14b3 0ebe 49b5 e53d
000003d0: 0a93 2e3e 0147 f83d 4833 d6bd da1c 743e
000003e0: 73e8 283b dae3 6ebd a3f6 c0bd 00ca 32be
000003f0: 8fa0 a23c 88ab 6cbe 35f5 cebd 4d08 b2bd

lstm.bias_ih_l1 f4 [128]
-0.0012751088 0.25429392 0.088684015 -0.057478514 0.14907105 0.1894379 0.09718229 0.0625376
0.119849995 0.01800974 -0.0026578486 0.032909475 0.2722146 0.17910622 -0.03378603 -0.14413607
0.036536343 -0.018988447 -0.09947128 -0.039050955 -0.00990623 0.082637064 0.13302554 0.13187033
0.10388107 0.14866175 0.14240077 -0.01909175 0.08433201 0.10635909 0.060732808 0.2264602
0.28378522 -0.001455374 0.06983285 -0.07514299 0.15457332 0.10057653 -0.0075750174 0.22133826
0.029229086 0.03363627 -0.0005069588 0.116428144 0.064502575 -0.1300878 -0.3155576 0.14103463
0.06740763 0.081358746 0.047114197 -0.03834449 -0.14501004 0.0014421617 0.26214907 0.101144254
0.11909201 0.119981825 0.16389264 -0.0020502112 -0.16123573 -0.005695898 0.042845927 0.24496156
0.14773525 0.075339325 0.07421217 -0.04562254 0.11353466 -0.1902517 0.046680335 -0.0027991775
-0.28620306 0.11246201 0.24194245 0.1386684 0.15132572 0.26487935 -0.104752116 0.05867126
-0.05386202 -0.08669202 0.124813184 -0.03452077 -0.045031182 -0.046880707 -0.055995315 0.23777324
0.24780443 0.30671576 0.10525413 -0.29471907 0.0042412234 -0.15386842 0.2152937 -0.0045865066
-0.05792631 0.093621194 0.0014915055 0.020279309 0.18798487 0.15418778 -0.09952261 0.058840368
0.3627601 -0.06309996 0.23476575 0.023675991 0.25165275 0.12754251 0.027051587 -0.1900546
-0.13437587 -0.11317799 0.106039874 -0.06401032 -0.07574906 0.16148663 -0.015367711 0.03871413
0.2695215 0.102750935 -0.14847791 0.25552315 0.17398192 -0.040427096 0.23482175 0.0072768135
00000000: 8d21 a7ba d032 823e f79f b53d 976e 6bbd
00000010: 15a6 183e 02fc 413e 8207 c73d b713 803d
00000020: ea73 f53d 2a89 933c 4d2f 2ebb 16cc 063d
00000030: b65f 8b3e 9f67 373e 3863 0abd 6898 13be
00000040: 22a7 153d a98d 9bbc 99b7 cbbd e5f3 1fbd
00000050: bd4d 22bc 9f3d a93d d937 083e 0409 073e
00000060: 99bf d43d c93a 183e 82d1 113e 4d66 9cbc
00000070: 43b6 ac3d cbd2 d93d f7c2 783d 2fe5 673e
00000080: 4c4c 913e 3fc2 beba 8604 8f3d 91e4 99bd
00000090: 7848 1e3e 11fb cd3d da37 f8bb 7fa6 623e
000000a0: d671 ef3c 2fc6 093d 6ee5 04ba e171 ee3d
000000b0: ed19 843d bc35 05be c490 a1be 626b 103e
000000c0: 030d 8a3d 6a9f a63d d1fa 403d 1d0f 1dbd
000000d0: 837d 14be eb06 bd3a 6738 863e b824 cf3d
000000e0: 83e6 f33d 08b9 f53d 79d3 273e d65c 06bb
000000f0: fb1a 25be a8a4 babb 367f 2f3d 34d7 7a3e
00000100: e947 173e 814b 9a3d 8dfc 973d b3de 3abd
00000110: dc84 e83d 57d1 42be e133 3f3d 6872 37bb
00000120: 3589 92be 7b52 e63d c3bf 773e 17ff 0d3e
00000130: 21f5 1a3e 449e 873e 4788 d6bd 4651 703d
00000140: 6c9e 5cbd 968b b1bd 0e9e ff3d a765 0dbd
00000150: 9e72 38bd fc05 40bd 585b 65bd d47a 733e
00000160: 72c0 7d3e d909 9d3e 7a8f d73d 6be5 96be
00000170: f6f9 8a3b af8f 1dbe f475 5c3e 684a 96bb
00000180: 2344 6dbd 78bc bf3d 9f7e c33a cb20 a63c
00000190: 1b7f 403e 67e3 1d3e 83d2 cbbd 9902 713d
000001a0: b1bb b93e 8d3a 81bd 6f66 703e 27f4 c13c
000001b0: a1d8 803e 819a 023e 4a9b dd3c ac9d 42be
000001c0: d499 09be ddc9 e7bd 6f2b d93d d817 83bd
000001d0: 5322 9bbd c05c 253e dac8 7bbc b592 1e3d
000001e0: b9fe 893e 156f d23d 980a 18be eed3 823e
000001f0: 5128 323e e296 25bd 1d75 703e 5672 ee3b

lstm.bias_hh_l1 f4 [128]
0.28220093 0.20225021 -0.06147514 0.15108874 0.15935375 0.038702317 0.08034365 -0.07577418
0.057721976 -0.051854543 0.06365216 0.23520845 0.09119803 0.08459496 -0.2112708 0.08605446
-0.12280912 0.1760428 -0.18381612 -0.016514722 0.09554083 0.19316435 0.06489002 0.12999952
0.06571495 0.020295974 -0.11165245 0.24719337 -0.080433 -0.04931734 0.19836947 -0.013200706
0.2719225 0.23708785 0.14611751 0.06974707 0.23835927 0.13471599 -0.12444268 0.22372492
0.08732961 0.04416519 -0.010147863 0.15717417 -0.0511983 -0.09464412 -0.29326776 0.12655078
0.008047273 -0.15859005 -0.23163573 0.16280131 -0.14417183 0.14857423 0.13276216 -0.044413365
0.27926853 0.21182555 0.07746114 0.04224512 -0.15121119 -0.09763106 0.0325028 0.26839808
0.25698322 0.066073574 0.2624026 0.06984409 0.20890927 -0.084952205 0.047396716 -0.181489
-0.28961846 0.24445094 0.17837457 0.044327676 0.10761266 0.07437605 0.045373976 0.10406721
0.104258016 -0.13822395 -0.0683444 0.28184983 -0.087285034 0.24607383 -0.0575214 0.0171349
-0.035704754 0.14765683 -0.10362756 -0.08649119 -0.083530955 0.013244579 0.25153378 -0.2115389
0.120031886 0.24919836 0.05233972 0.08396549 0.106419995 0.050750356 -0.026270447 -0.15149766
0.037804034 0.08994381 0.08345523 0.120425895 0.043406755 0.1853923 -0.022304885 0.075693175
-0.1909158 0.027196761 -0.15591614 -0.12446703 -0.057752103 0.07881795 0.21725951 -0.11040295
0.08892645 -0.002345905 0.07278194 0.28659338 -0.07738496 0.14907505 0.22689013 0.092024416
00000000: a47c 903e ae1a 4f3e 5bcd 7bbd 02b7 1a3e
00000010: a12d 233e 5286 1e3d 368b a43d 7e2f 9bbd
00000020: e16d 6c3d 6e65 54bd 105c 823d 7cda 703e
00000030: 08c6 ba3d 1f40 ad3d 5f57 58be 523d b03d
00000040: 5983 fbbd 9044 343e 4b3a 3cbe e249 87bc
00000050: e9aa c33d e0cc 453e 0fe5 843d 981e 053e
00000060: 8f95 863d be43 a63c 0aaa e4bd 4220 7d3e
00000070: 0fba a4bd fb00 4abd 5e21 4b3e c647 58bc
00000080: 6d39 8b3e 28c7 723e d49f 153e 8dd7 8e3d
00000090: 7414 743e fdf2 093e cedb febd 2518 653e
000000a0: ded9 b23d 8fe6 343d 3943 26bc 44f2 203e
000000b0: 4fb5 51bd c7d4 c1bd 3127 96be 8796 013e
000000c0: b6d8 033c 6e65 22be eb31 6dbe 63b5 263e
000000d0: c8a1 13be d823 183e cef2 073e caea 35bd
000000e0: 49fc 8e3e cce8 583e f2a3 9e3d 3809 2d3d
000000f0: 1bd7 1abe cbf2 c7bd a821 053d 796b 893e
00000100: 4e93 833e 9551 873d a259 863e 6b0a 8f3d
00000110: 50ec 553e 6cfb adbd 0f23 423d 41d8 39be
00000120: df48 94be 5951 7a3e d3a7 363e f090 353d
00000130: 0764 dc3d 7852 983d 10da 393d 3021 d53d
00000140: 3a85 d53d 948a 0dbe 26f8 8bbd 9f4e 903e
00000150: 7fc2 b2bd c7fa 7b3e 8f9b 6bbd 7d5e 8c3c
00000160: 263f 12bd 5a33 173e b03a d4bd 4b22 b1bd
00000170: 4712 abbd caff 583c 09c9 803e a79d 58be
00000180: 47d3 f53d db2d 7f3e 2d62 563d 19f6 ab3d
00000190: baf2 d93d 9bdf 4f3d 1f35 d7bc 3422 1bbe
000001a0: 67d8 1a3d 7634 b83d 93ea aa3d daa1 f63d
000001b0: 48cb 313d 7bd7 3d3e bcb8 b6bc 0605 9b3d
000001c0: 6e7f 43be becb de3c 7ba8 1fbe 92e8 febd
000001d0: 788d 6cbd 4e6b a13d 4779 5e3e f11a e2bd
000001e0: 121f b63d c1bd 19bb b30e 953d 5ebc 923e
000001f0: 027c 9ebd 21a7 183e e355 683e 4c77 bc3d

fc.weight f4 [3, 32]
2.4481163 2.484421 2.4140644 2.4135866 2.4985301 -2.4321444 -2.4710813 -2.2642884
-2.3929145 2.4996426 2.2613156 2.2463567 2.4758103 2.3809583 2.4840333 -2.3826876
-2.2981784 2.5048182 2.4558747 2.3267987 -2.4805691 2.5263608 -2.5137615 2.4822736
2.4099233 2.4808922 -2.4822505 -2.3518653 -2.5348399 -2.4650764 2.198536 -2.455233
2.3545763 2.500137 2.4856791 2.4829798 2.3415422 -2.3109727 -2.4435754 -2.5180848
-2.5435917 2.242254 2.397847 2.5353506 2.2273884 2.389265 2.5328698 -2.4077647
-2.5396848 2.4595048 2.4668953 2.4247625 -2.2447748 2.5552316 -2.299498 2.4442098
2.2950096 2.2850854 -2.3193371 -2.4576085 -2.5133882 -2.461212 2.376742 -2.5248024
2.4060078 2.3083718 2.2613325 2.3342755 2.3966322 -2.423749 -2.3174236 -2.4798517
-2.3011096 2.4750338 2.4621127 2.4571629 2.522424 2.4023128 2.3800118 -2.5381198
-2.4956443 2.2566495 2.490965 2.5058806 -2.4457197 2.4006035 -2.5008287 2.2564433
2.498446 2.3698509 -2.5230289 -2.4233882 -2.2911353 -2.5277977 2.477523 -2.3998652
00000000: f0ad 1c40 c100 1f40 0880 1a40 3478 1a40
00000010: ebe7 1f40 41a8 1bc0 3226 1ec0 1aea 10c0
00000020: 8325 19c0 25fa 1f40 65b9 1040 4fc4 0f40
00000030: ad73 1e40 9f61 1840 67fa 1e40 f47d 18c0
00000040: 5b15 13c0 f14e 2040 0d2d 1d40 45ea 1440
00000050: a5c1 1ec0 e5af 2140 78e1 20c0 92dd 1e40
00000060: 2f3c 1a40 f0c6 1e40 31dd 1ec0 f684 16c0
00000070: d13a 22c0 d0c3 1dc0 d0b4 0c40 8a22 1dc0
00000080: 61b1 1640 3f02 2040 5e15 1f40 24e9 1e40
00000090: d4db 1540 fae6 13c0 8a63 1cc0 4d28 21c0
000000a0: 35ca 22c0 1781 0f40 5376 1940 2f43 2240
000000b0: 888d 0e40 b8e9 1840 8a1a 2240 d118 1ac0
000000c0: 328a 22c0 8768 1d40 9de1 1d40 4f2f 1b40
000000d0: 64aa 0fc0 ea88 2340 fa2a 13c0 ef6d 1c40
000000e0: 70e1 1240 d73e 1240 0570 14c0 7549 1dc0
000000f0: 5adb 20c0 7f84 1dc0 8a1c 1840 5d96 21c0
00000100: 08fc 1940 5dbc 1340 acb9 1040 c564 1540
00000110: 6c62 1940 b41e 1bc0 ab50 14c0 e4b5 1ec0
00000120: 6145 13c0 f466 1e40 4193 1d40 2842 1d40
00000130: 656f 2140 7ebf 1940 1d52 1840 8e70 22c0
00000140: a3b8 1fc0 f26c 1040 f86b 1f40 5960 2040
00000150: ac86 1cc0 7da3 1940 940d 20c0 9169 1040
00000160: 8ae6 1f40 a3ab 1740 4e79 21c0 cb18 1bc0
00000170: f6a1 12c0 70c7 21c0 bd8f 1e40 6497 19c0

fc.bias f4 [3]
2.0105166 2.1545064 2.0433145
00000000: 4eac 0040 6fe3 0940 aac5 0240
