models/humidity_ann_model.pth (torch, 27318 bytes, 6 tensors)

model.0.weight f4 [32, 154]
-0.26746842 0.044836488 0.1111673 0.08876806 0.04093973 0.22671905 0.16861002 0.18495072
0.10070128 0.08138156 -0.45293474 -0.2277287 -0.06759836 0.04636158 0.054495137 -0.37691668
0.037037905 -0.074773066 -0.054829985 0.095886104 0.09873403 -0.08904943 -0.16223802 -0.008024461
0.22193652 0.14342444 -0.06644823 0.2017769 0.21366116 0.032517835 0.1149681 0.16907272
-0.34533432 -0.23962077 0.03010467 0.080801606 0.10390345 -0.27359203 -0.08247595 -0.17082585
0.02286907 0.026583428 -0.1443087 -0.06690214 -0.18796147 0.05582067 0.14317341 0.077116154
0.008875812 0.04321221 0.11853711 0.057226766 0.14113456 -0.000119398326 -0.2919463 -0.2671751
-0.11320585 0.09561935 0.26001716 -0.25246298 -0.057252884 -0.13430361 -0.020104595 0.16443089
-0.176461 0.020830665 -0.22731733 -0.091069095 0.077037334 0.028357536 -0.037843846 -0.03907065
0.18753408 -0.061363366 0.15831862 0.053782072 -0.3429581 -0.08342626 -0.08342641 -0.087721035
0.26165012 -0.09233262 0.044613708 -0.0035298753 -0.1426899 0.10528678 -0.1475591 0.061680946
-0.12284582 -0.13871059 -0.06455895 0.06729106 0.11436459 0.10769198 0.08793536 -0.008585999
0.0010809982 -0.0605049 -0.25745893 -0.18466106 -0.13071884 -0.18613216 0.23253521 -0.05857709
-0.0725547 -0.08532931 -0.2902754 -0.0075632585 -0.088850714 0.069130935 -0.11630358 -0.15035237
-0.10416765 0.12217938 0.18633337 0.042444747 0.23033799 -0.001332573 -0.19059186 0.099602506
-0.32111323 -0.11188487 -0.030865937 0.0049285013 0.2279483 -0.23779112 -0.021576146 -0.12644574
-0.314911 -0.11472274 -0.010582062 -0.064008564 -0.29707417 -0.14618121 -0.13399917 0.026590629
0.09453635 0.121905476 0.20681486 -0.20873202 -0.17775358 -0.03345892 -0.19240151 -0.24569461
-0.017235812 -0.09191862 0.38160655 -0.12898855 0.249967 -0.0774616 -0.39561334 -0.086219296
0.070398524 0.00078190747 -0.32502297 0.053230464 0.042435326 0.5021291 -0.04672913 0.039487865
0.3794977 -0.13978198 0.059944455 -0.14417073 -0.1383424 -0.30099922 -0.07195988 0.048259653
0.031550977 -0.1032816 0.16955087 -0.15398516 0.23781966 0.25175837 0.10852196 -0.04853469
-0.15747248 0.19431171 0.09987612 0.29143116 -0.081700966 0.061053567 0.3011998 -0.23745377
0.09749896 -0.11312924 -0.11373738 -0.19193758 -0.15712239 -0.069354385 -0.025240108 -0.13069038
0.14619298 -0.19674866 0.17802595 0.15434301 0.09939042 -0.0744038 -0.24563777 0.15560816
0.16947562 0.3336204 -0.10034249 -0.061030548 0.2547791 -0.33781424 0.15227471 -0.16934913
-0.01980274 -0.1968608 -0.09339651 -0.13507253 0.00044425082 -0.041232273 0.0695377 -0.12723781
0.041387863 0.08001497 -0.004277478 0.0055905995 -0.27504513 0.19657329 0.14623092 0.29651415
-0.0993829 -0.010460218 0.21632229 -0.031332865 0.19217029 -0.09123958 -0.10323507 -0.14450905
0.0076307664 -0.06457933 0.05279005 -0.062490474 0.06982432 -0.14611605 0.0817603 -0.04458398
-0.05415168 0.06762176 -0.3173122 0.23023541 0.15683524 0.25079817 -0.049351927 0.09949118
0.30048335 -0.22023289 0.10391666 -0.123200424 -0.015715072 -0.2668031 0.0027253286 -0.08659024
00000000: 9ff1 88be 77a6 373d aeab e33d 07cc b53d
00000010: 6bb0 273d 0a29 683e 1ba8 2c3e b963 3d3e
00000020: 793c ce3d 60ab a63d 10e7 e7be b631 69be
00000030: 0271 8abd a4e5 3d3d 4b36 5f3d 39fb c0be
00000040: 0fb5 173d 9f22 99bd 6895 60bd ef5f c43d
00000050: 1135 ca3d 8c5f b6bd b921 26be 0779 03bc
00000060: 5443 633e dbdd 123e 0216 88bd 9b9e 4e3e
00000070: fec9 5a3e 6c31 053d 6574 eb3d 6621 2d3e
00000080: a9cf b0be 265f 75be 129e f63c 507b a53d
00000090: 55cb d43d 4114 8cbe 27e9 a8bd f9ec 2ebe
000000a0: ea57 bb3c 7dc5 d93c a9c5 13be fd03 89bd
000000b0: f978 40be 37a4 643d 0d9c 123e 13ef 9d3d
000000c0: db6b 113c 49ff 303d 96c3 f23d 9d66 6a3d
000000d0: 9485 103e 7d65 fab8 fc79 95be 2dcb 88be
000000e0: 78d8 e7bd 14d4 c33d f820 853e d442 81be
000000f0: 0082 6abd e386 09be 64b2 a4bc 9260 283e
00000100: 31b2 34be 12a5 aa3c e0c5 68be 6f82 babd
00000110: c0c5 9d3d 104e e83c 2602 1bbd 8c08 20bd
00000120: ef08 403e 2758 7bbd 471e 223e 974a 5c3d
00000130: 3498 afbe 63db aabd 77db aabd 16a7 b3bd
00000140: 01f7 853e e218 bdbd ddbc 363d 7b55 67bb
00000150: 4d1d 12be 98a0 d73d bc19 17be 29a5 7c3d
00000160: 9796 fbbd 260a 0ebe 7c37 84bd e5cf 893d
00000170: fb37 ea3d 9d8d dc3d 7417 b43d 4aac 0cbc
00000180: 48b0 8d3a fcd3 77bd a8d1 83be ca17 3dbe
00000190: 29db 05be 6e99 3ebe b61d 6e3e 88ee 6fbd
000001a0: 8f97 94bd 22c1 aebd fa9e 94be 36d5 f7bb
000001b0: 5df7 b5bd 8594 8d3d 9230 eebd f9f5 19be
000001c0: d955 d5bd 2f39 fa3d 2dce 3e3e 8bda 2d3d
000001d0: b9dd 6b3e bba9 aeba 832a 43be 66fc cb3d
000001e0: f468 a4be e523 e5bd 90da fcbc 447f a13b
000001f0: 476b 693e 847f 73be 75c0 b0bc fe7a 01be
00000200: 043c a1be c2f3 eabd 6360 2dbc ec16 83bd
00000210: 1b1a 98be 87b0 15be 1437 09be 97d4 d93c
00000220: 469c c13d 94a9 f93d 46c7 533e d9bd 55be
00000230: 0905 36be 380c 09bd e704 45be 5e97 7bbe
00000240: 1e32 8dbc d43f bcbd ef61 c33e 9315 04be
00000250: 59f7 7f3e 30a4 9ebd d58d cabe be93 b0bd
00000260: 1a2d 903d ecf8 4c3a 6969 a6be 3008 5a3d
00000270: aad0 2d3d 888b 003f 0b67 3fbd 07be 213d
00000280: 864d c23e 0223 0fbe 5188 753d 7ea1 13be
00000290: a1a9 0dbe 921c 9abe b45f 93bd eaab 453d
000002a0: 993b 013d 4e85 d3bd be9e 2d3e 49ae 1dbe
000002b0: ff86 733e 79e6 803e c340 de3d 50cc 46bd
000002c0: 7740 21be a6f9 463e da8b cc3d 7736 953e
000002d0: d652 a7bd 4e13 7a3d dc36 9a3e 1527 73be
000002e0: 89ad c73d 4eb0 e7bd 25ef e8bd 498b 44be
000002f0: b1e4 20be ac09 8ebd 58c4 cebc b3d3 05be
00000300: 9db3 153e 7b78 49be 6f4c 363e 180c 1e3e
00000310: 348d cb3d 0561 98bd 7888 7bbe bf57 1f3e
00000320: 048b 2d3e 4bd0 aa3e 5d80 cdbd 2bfb 79bd
00000330: 6872 823e fdf5 acbe e7ed 1b3e dc69 2dbe
00000340: 5b39 a2bc e195 49be ab46 bfbd 7450 0abe
00000350: 56ea e839 2ce3 28bd c869 8e3d a14a 02be
00000360: 5286 293d e3de a33d 162a 8cbb 5931 b73b
00000370: b7d2 8cbe 824a 493e 8fbd 153e b4d0 973e
00000380: 4389 cbbd 5661 2bbc 9783 5d3e e456 00bd
00000390: 4ac8 443e d1db babd e96c d3bd 2efa 13be
000003a0: 820b fa3b 2b42 84bd 613a 583d 03f6 7fbd
000003b0: 0e00 8f3d 729f 15be f271 a73d b19d 36bd
000003c0: 27ce 5dbd 477d 8a3d bf76 a2be d5c2 6b3e
000003d0: 6b99 203e 9e68 803e 3f25 4abd 08c2 cb3d
000003e0: f4d8 993e bb84 61be 42d2 d43d 8150 fcbd
000003f0: e5bc 80bc 6a9a 88be 6d9b 323b 3956 b1bd

model.0.bias f4 [32]
0.49251047 -0.29883367 1.1385906 0.69637215 0.266763 0.25034156 0.11678045 0.7987034
0.5315094 -0.092512086 0.30761635 0.5102014 0.5604152 1.2452165 0.10966798 0.770796
0.36550298 -0.09211979 0.09914346 0.5772075 1.1168634 -0.061223306 0.9765184 1.0475146
1.29635 0.2260969 0.1324972 0.5541247 0.2090006 0.7167197 0.5460728 0.30819002
00000000: 552a fc3e ba00 99be 56bd 913f 7245 323f
00000010: 2995 883e c52c 803e 972a ef3d d377 4c3f
00000020: 0011 083f fa76 bdbd e47f 9d3e 8f9c 023f
00000030: 5f77 0f3f 4163 9f3f 9b99 e03d e352 453f
00000040: 3523 bb3e 4da9 bcbd ba0b cb3d dfc3 133f
00000050: 61f5 8e3f 4ac5 7abd 1cfd 793f f514 863f
00000060: ccee a53f f285 673e 59ad 073e 1edb 0d3f
00000070: 4104 563e f17a 373f 6dcb 0b3f 15cb 9d3e

model.3.weight f4 [32, 32]
-0.049138576 -0.22060655 -0.11204507 0.48229158 0.63933784 -0.71005976 0.04072782 -0.016358623
0.090441346 -0.34730485 0.036334436 -0.29469648 0.43109953 -0.32504272 0.103537776 0.30037996
0.14265788 0.444257 -0.029084686 -0.08249336 -0.25787684 -0.06880296 0.4078211 0.3302389
0.30226138 -0.22017673 -0.050678812 -0.020183459 -0.042445846 0.27092993 0.66510123 -0.09935301
0.03243976 0.2043857 -0.10554483 0.16264895 0.28647 0.08883526 0.3276569 0.5463555
0.24629575 0.23942772 0.13178483 -0.010054131 0.16330428 -0.16908973 0.30860764 -0.009175525
0.63395303 0.35926932 0.07937594 -0.030474436 -0.098551236 0.20362265 0.17959577 0.10758509
-0.10304801 0.23781139 0.29058507 0.25575688 0.26122293 0.33753154 0.33118618 0.22021109
-0.35015327 0.5935951 -0.11946673 0.23179077 -0.060086433 0.2652374 0.1430789 0.20203766
-0.13337469 0.105867416 -0.20331514 0.42555708 0.05557358 0.00013611004 -0.02866216 -0.5292343
-0.043007724 -0.0717993 -0.7057721 -0.20261696 -0.63854426 -0.14996216 -0.70669055 0.45064634
0.14968424 -0.052968733 -0.010883591 -0.0075651244 0.05565962 0.17485379 0.46535352 0.13090768
-0.26624084 -0.33088157 -0.23813087 0.020795004 -0.28616586 -0.47832042 -0.9179762 -0.322033
-0.7400167 -0.5212741 -0.25970748 0.056471087 -0.022051943 -0.31382322 -0.7363689 0.5078535
-0.5578902 -0.39026198 -0.6370351 -0.7424589 -0.28298274 -0.5521587 0.09471557 0.1215502
-0.16397916 -0.43120486 -0.6560968 -0.40630138 -0.79668313 -0.12254029 -0.010235739 -0.71475184
0.22100869 -0.040326755 -0.28378144 -0.09273804 0.08386037 0.140333 -0.30931926 0.44184417
0.19056104 0.18759538 0.54814947 0.15690102 0.47224155 -0.0701799 -0.055139687 -0.8792817
0.35143486 -0.37918782 -0.27031368 0.31535837 -0.02799404 -0.059075177 0.13350467 -1.0761606
0.062065255 0.5124149 -0.082366824 0.40901655 -0.3921091 -0.15352295 -0.069145836 -0.123222664
0.06965585 0.07489196 -0.099649146 0.02757683 -0.099851616 0.19322878 0.14430994 0.023377363
0.20658256 -0.044969622 0.12832771 0.16501564 -0.10168077 0.019305848 0.2643321 -0.12188355
0.1736205 0.25646618 0.2121248 0.15535195 0.17047645 0.266488 -0.0841637 0.09738375
0.011943438 0.29841056 0.17966276 0.06270649 0.015825314 0.080238506 -0.055563137 0.13969013
0.2008519 0.17148924 0.08017537 0.21242376 -0.030292999 -0.15644607 0.20701027 0.29252517
0.140347 0.18245305 0.16975515 -0.034584768 0.15187143 -0.038546067 0.18250218 -0.062899545
0.19891389 0.18883583 0.08284507 0.21312192 0.19852626 0.29221156 0.21077426 0.087712
0.24000956 0.33216012 0.3636249 0.29803556 0.055275988 0.24514815 0.18933222 0.11652566
-0.03334458 -0.077904925 0.08358487 -0.00087950774 0.14117695 -0.018065495 -0.3280867 -0.27815947
-0.25960174 0.09528218 -0.009391886 0.066536546 -0.02684839 -0.012433948 -0.061568145 0.012410713
-0.096703604 -0.067728214 -0.07895738 -0.17917196 -0.14097613 -0.04557881 -0.10989595 0.06206582
-0.025494587 -0.2939905 -0.20673774 -0.28996798 -0.13574632 0.06080395 0.16991867 -0.08277641
00000000: 8845 49bd afe6 61be e377 e5bd ecee f63e
00000010: a5ab 233f 7ac6 35bf 37d2 263d 8502 86bc
00000020: 5039 b93d f1d1 b1be 6bd3 143d 75e2 96be
00000030: 14b9 dc3e 006c a6be 9d0b d43d 67cb 993e
00000040: e814 123e a775 e33e 0243 eebc 47f2 a8bd
00000050: 6f08 84be 91e8 8cbd edcd d03e 1315 a93e
00000060: 01c2 9a3e 0276 61be 9694 4fbd c857 a5bc
00000070: b2db 2dbd 54b7 8a3e 1344 2a3f 9779 cbbd
00000080: 8edf 043d 7c4a 513e e327 d8bd 728d 263e
00000090: 32ac 923e 43ef b53d a5c2 a73e f4dd 0b3f
000000a0: f434 7c3e 8a2c 753e 9af2 063e 15ba 24bc
000000b0: 3d39 273e dc25 2dbe d201 9e3e f154 16bc
000000c0: bf4a 223f 26f2 b73e da8f a23d 86a5 f9bc
000000d0: 3bd5 c9bd 7582 503e f4e7 373e 9255 dc3d
000000e0: d60a d3bd d484 733e 91c7 943e 91f2 823e
000000f0: 03bf 853e efd0 ac3e 3c91 a93e 047f 613e
00000100: 4a47 b3be d9f5 173f f9aa f4bd 8f5a 6d3e
00000110: 311d 76bd 32cd 873e 4683 123e f6e2 4e3e
00000120: 6093 08be 04d1 d83d d831 50be 9ee2 d93e
00000130: 1fa1 633d c3b8 0e39 e8cc eabc e67b 07bf
00000140: de28 30bd 830b 93bd 7bad 34bf d27a 4fbe
00000150: a377 23bf ae8f 19be ace9 34bf 1ebb e63e
00000160: d346 193e bef5 58bd 1751 32bc dde4 f7bb
00000170: 57fb 633d df0c 333e d142 ee3e aa0c 063e
00000180: b850 88be 4f69 a9be 94d8 73be 495a aa3c
00000190: 5584 92be 6ae6 f4be 7d00 6bbf 82e1 a4be
000001a0: bc71 3dbf 3872 05bf 61f8 84be 3a4e 673d
000001b0: 47a6 b4bc 70ad a0be ac82 3cbf b002 023f
000001c0: e4d1 0ebf 6bd0 c7be bb14 23bf c911 3ebf
000001d0: 1de3 90be 465a 0dbf 3dfa c13d 50ef f83d
000001e0: 27ea 27be e2c6 dcbe f6f5 27bf bc06 d0be
000001f0: 6df3 4bbf 67f6 fabd cdb3 27bc faf9 36bf
00000200: 1a50 623e ab2d 25bd cd4b 91be 71ed bdbd
00000210: fcbe ab3d 74b3 0f3e 185f 9ebe 6639 e23e
00000220: 6f22 433e 0119 403e 8653 0c3f a9aa 203e
00000230: a5c9 f13e 7bba 8fbd 27da 61bd 9b18 61bf
00000240: 45ef b33e e824 c2be 8e66 8abe a776 a13e
00000250: c253 e5bc d0f8 71bd 73b5 083e a1bf 89bf
00000260: 2338 7e3d 9f2d 033f f0af a8bd 9e6a d13e
00000270: 86c2 c8be 1f35 1dbe 559c 8dbd 2a5c fcbd
00000280: baa7 8e3d f560 993d da14 ccbd cee8 e13c
00000290: 017f ccbd c4dd 453e fcc5 133e e281 bf3c
000002a0: 618a 533e 1132 38bd 5768 033e dcf9 283e
000002b0: 023e d0bd 4c27 9e3c 8956 873e 159e f9bd
000002c0: 93c9 313e 894f 833e 3e37 593e 9514 1f3e
000002d0: 6191 2e3e 1d71 883e 055e acbd 2271 c73d
000002e0: 69ae 433c 45c9 983e 84f9 373e 436c 803d
000002f0: 17a4 813c 1654 a43d 2c96 63bd ee0a 0f3e
00000300: 1fac 4d3e e09a 2f3e fc32 a43d 9d85 593e
00000310: 0629 f8bc 6633 20be 80fa 533e dcc5 953e
00000320: 20b7 0f3e f9d4 3a3e 4bd4 2d3e c2a8 0dbd
00000330: 2f84 1b3e 7be2 1dbd dae1 3a3e 7ad1 80bd
00000340: 15b0 4b3e 2e5e 413e adaa a93d a23c 5a3e
00000350: 784a 4b3e c19c 953e 35d5 573e 59a2 b33d
00000360: 11c5 753e e410 aa3e 0b2d ba3e 1e98 983e
00000370: 1369 623d 1e08 7b3e 4ee0 413e 01a5 ee3d
00000380: 5494 08bd 9e8c 9fbd 8b2e ab3d c48e 66ba
00000390: b190 103e 17fe 93bc fbfa a7be eb6a 8ebe
000003a0: 85ea 84be 4e23 c33d 6de0 19bc 5044 883d
000003b0: 28f1 dbbc c2b7 4bbc e12e 7cbd 4e56 4b3c
000003c0: 8a0c c6bd 17b5 8abd 68b4 a1bd db78 37be
000003d0: 0c5c 10be d9b0 3abd 2111 e1bd bb38 7e3d
000003e0: 06da d0bc ec85 96be 0fb3 53be af76 94be
000003f0: 1501 0bbe 900d 793d 29ff 2d3e ae86 a9bd

model.3.bias f4 [32]
2.5220056 -3.2741535 1.1143376 -0.28645575 2.5724196 3.2675958 2.9050877 -2.9323466
2.7386637 2.3912063 0.2567174 2.8572767 -3.6971993 2.3535552 2.6486766 2.8781786
2.512376 -4.010478 2.5741587 2.6790297 2.9555264 2.8613377 3.0844917 3.3062744
2.6498795 3.1164274 0.7468747 2.579625 3.1834412 -2.4405417 3.1920023 2.644248
00000000: 8a68 2140 bb8b 51c0 9da2 8e3f 54aa 92be
00000010: 86a2 2440 4a20 5140 f5ec 3940 91ab 3bc0
00000020: 4446 2f40 8609 1940 7770 833e 9fdd 3640
00000030: ea9e 6cc0 a6a0 1640 eb83 2940 1434 3840
00000040: c5ca 2040 d655 80c0 04bf 2440 3975 2b40
00000050: 5827 3d40 2820 3740 5068 4540 009a 5340
00000060: a097 2940 8c73 4740 2e33 3f3f 9318 2540
00000070: 80bd 4b40 d631 1cc0 c449 4c40 5c3b 2940

model.5.weight f4 [3, 32]
0.719576 -1.6357659 1.2419995 -0.8128511 1.478279 0.5393505 0.4001306 -0.6480183
0.37968472 0.4775878 -0.573897 0.4871323 -2.3723557 0.37811244 0.40386704 0.45042607
0.40770966 -1.4117976 0.49561897 0.35437566 0.47909635 0.69190633 0.53185666 0.6479839
1.2427102 0.6174809 1.2372422 0.37499222 0.61879426 -0.74792874 0.47517613 0.70229185
0.7570684 -1.5496039 1.2705029 -0.7534863 1.4776938 0.5610126 0.45186964 -0.5371773
0.6149502 0.3306327 -0.3041853 0.65249914 -2.4255407 0.3945521 0.4300836 0.65806705
0.5725371 -1.3964771 0.3972745 0.5201443 0.5120149 0.35605803 0.45752704 0.4102359
1.2473466 0.51142645 1.2403636 0.45203343 0.63194394 -0.77799326 0.5726517 0.5305513
0.77778924 -1.4969603 1.2939955 -0.7213568 1.4830393 0.6509087 0.4261031 -0.34977582
0.48523527 0.47449535 -0.02952573 0.5779048 -2.4402418 0.38164976 0.43880734 0.53805923
0.43067774 -1.3390923 0.4310167 0.4552488 0.59213084 0.53375286 0.43080544 0.5671551
1.2236981 0.67573816 1.2574145 0.48919824 0.40957677 -0.73337656 0.5775938 0.4766573
00000000: 2236 383f c760 d1bf d7f9 9e3f 0217 50bf
00000010: 3f38 bd3f e012 0a3f ebdd cc3e 87e4 25bf
00000020: 0966 c23e 6386 f43e eaea 12bf 6869 f93e
00000030: add4 17c0 f497 c13e a9c7 ce3e 3f9e e63e
00000040: 52bf d03e c9b5 b4bf c5c1 fd3e ba70 b53e
00000050: 1e4c f53e c620 313f c227 083f 46e2 253f
00000060: 2111 9f3f 3a13 1e3f f45d 9e3f fbfe bf3e
00000070: 4d69 1e3f 4278 3fbf 494a f33e 66c9 333f
00000080: 3ccf 413f 6c59 c6bf d79f a23f 7ae4 40bf
00000090: 1225 bd3f 869e 0f3f 755b e73e 7484 09bf
000000a0: 606d 1d3f b048 a93e 2dbe 9bbe 2f0a 273f
000000b0: 0f3c 1bc0 bc02 ca3e eb33 dc3e 1577 283f
000000c0: cb91 123f c3bf b2bf 9067 cb3e 2d28 053f
000000d0: 6913 033f 3d4d b63e fc40 ea3e 710a d23e
000000e0: 0ea9 9f3f d8ec 023f 3cc4 9e3f ed70 e73e
000000f0: 14c7 213f 912a 47bf 4d99 123f 36d2 073f
00000100: 321d 473f 659c bfbf a5a1 a53f d7aa 38bf
00000110: 3bd4 bd3f f4a1 263f 2f2a da3e d115 b3be
00000120: c270 f83e 0ef1 f23e f2df f1bc 92f1 133f
00000130: ec2c 1cc0 9967 c33e 5bab e03e 40be 093f
00000140: cb81 dc3e 6067 abbf 39ae dc3e 5f16 e93e
00000150: e395 173f 07a4 083f 8892 dc3e 1431 113f
00000160: 24a2 9c3f 2dfd 2c3f f5f2 a03f 3178 fa3e
00000170: 0cb4 d13e 91be 3bbf 30dd 133f 6d0c f43e

model.5.bias f4 [3]
1.2118226 1.4002658 1.3248749
00000000: 011d 9b3f e93b b33f 8095 a93f
