models/humidity_model.pth (torch, 78938 bytes, 10 tensors)

lstm.weight_ih_l0 f4 [128, 46]
000000 35 6a 85 3e 4c 41 f2 3d 3b e3 9b 3e 81 1c 14 3e
       0.26057592 0.11828861 0.304468 0.14463998
000010 27 86 50 3d 13 d8 90 be 9c 6c c7 3d e6 32 48 be
       0.050909188 -0.28289852 0.097375125 -0.19550666
000020 eb 8e 89 3b d4 4c 1b bd 83 8b da 3c 4d 83 64 be
       0.0041979454 -0.037915066 0.026677852 -0.22315712
000030 58 30 97 be 6b 07 87 be 80 dc 2b 3d b0 ce 03 3d
       -0.2952907 -0.26372847 0.041958332 0.032179534
000040 da b0 7a 3e 49 f6 05 be f4 30 21 3e 60 5d 4c 3d
       0.24481526 -0.13082232 0.1574133 0.049893737
000050 ce ef 31 bd e7 e4 4b be ab 53 22 be 7d 41 91 bd
       -0.043441586 -0.19911538 -0.1585223 -0.07092569
000060 a7 cc 18 3e 6b 61 f4 3d 36 be 03 be a1 c9 a0 3d
       0.14921819 0.119326435 -0.12865528 0.07850958
000070 b1 7c 11 3e 26 30 c1 3d 39 2e ab 3e de 5e 4c bc
       0.14207722 0.09433012 0.33433703 -0.01247379
000080 a1 94 84 3e 82 09 d9 3d 20 20 44 3e 0a 53 2c bd
       0.25894645 0.105975166 0.1915288 -0.04207138
000090 48 97 21 3a 61 44 1b bd be 6c 0f 3d ac 2d 8a 3c
       0.0006164205 -0.037907008 0.035015814 0.016867481
0000a0 12 29 e7 3e 92 6e a5 bc 69 06 85 3e b3 3a 23 bd
       0.45148522 -0.020194326 0.25981453 -0.0398509
0000b0 1e 83 a8 3c 01 ce d1 bc 29 70 a2 3d 81 d9 7e 3e
       0.020570334 -0.025610926 0.07931549 0.24887659
0000c0 ad 8d 61 be e8 a8 3c 3d 98 1d 6a be 70 bc fc bc
       -0.22026701 0.04605952 -0.22862852 -0.030851573
0000d0 df 80 99 3e 85 3d 5c 3e 22 60 88 bd 26 bd a9 3e
       0.29981133 0.21507843 -0.06658961 0.3315212
0000e0 02 12 3f be 28 a3 1a be cb 5d 5d be b9 e4 8f be
       -0.18659213 -0.15101302 -0.2161781 -0.2810419
0000f0 6f fe 0f 3e a8 03 62 bd 66 55 eb 3c 2d 72 54 3e
       0.14061902 -0.055179268 0.028727245 0.2074668
000100 b1 a9 c3 3b c5 42 69 3e f1 9d ea bd 56 b9 c6 3d
       0.0059711565 0.22779377 -0.11455906 0.09703319
000110 4b 3f 86 3e 40 2d ba bc 11 3c 0b 3d 26 17 52 3e
       0.26220164 -0.022726655 0.03399283 0.20516643
000120 98 7f 03 3f 28 80 86 3e 3e 81 5d 3c ae 18 22 3d
       0.5136657 0.2626965 0.013519583 0.039574318
000130 c9 98 c9 3e 03 de ed 3c 93 12 87 3d 1c 80 c0 3d
       0.39374378 0.029036527 0.065953396 0.09399435
000140 11 78 3d be 5a 2d cd bc 64 a0 47 3e 4d bc e9 bd
       -0.18502833 -0.02504604 0.19494778 -0.11412869
000150 db 7a a1 3d d8 ac 75 3e 67 b3 b1 3d d7 a4 23 be
       0.07884761 0.23991716 0.086767964 -0.1598085
000160 3d aa 34 3a d5 22 ae ba 5a ba 78 3c bd 6c 92 3e
       0.00068918226 -0.0013285527 0.015181148 0.28598586
000170 e9 f1 d2 bd c4 70 14 3e 0c 6f b8 bd 08 7b c4 bd
       -0.10300047 0.14496142 -0.090055555 -0.09593779
000180 82 e5 41 be f0 ab d3 be 75 45 12 3e f3 20 f3 bd
       -0.18935207 -0.41342115 0.14284308 -0.11871519
000190 a5 ce 46 bd 9c 19 64 3e 70 be d6 3d de a5 8b be
       -0.048536915 0.22275394 0.10485542 -0.27274984
0001a0 97 83 f7 bd c4 08 b2 be f4 39 0d 3d 10 7c 31 3d
       -0.12085646 -0.34772313 0.034479097 0.043331206
0001b0 cf b5 48 3d 5f 86 8c 3e 01 f2 bf 3d 44 b2 9c 3d
       0.04900151 0.27446267 0.093723305 0.07651189
0001c0 d7 77 ab 3d da 0b 19 3e 0b ef 92 bd 54 4f 27 bc
       0.08372467 0.14945927 -0.071745 -0.010211784
0001d0 5d a7 a7 3e 7d 9e 97 3d aa d6 85 3d d9 47 9c 3e
       0.32744876 0.07403276 0.065350845 0.30523565
0001e0 29 47 9c 3e b9 66 07 bd f6 a8 60 3e b7 30 cc bd
       0.3052304 -0.03305695 0.21939453 -0.09970229
0001f0 c5 e4 f6 3d 84 82 ce 3c 11 1d e3 3c c7 8e 88 3d
       0.12055353 0.02520872 0.02772382 0.066678576
000200 26 43 e9 bd dc 59 14 3e 6e c1 bf bd fb de 1f 3e
       -0.11389761 0.14487404 -0.09363066 0.15612404
000210 00 b0 37 bc f8 7c 00 3e ea 15 4f be c9 2d 0c 3e
       -0.011211395 0.12547672 -0.20223203 0.1368934
000220 4d e3 aa 3e 87 9b 02 be 8d a9 33 be ad 87 a8 bd
       0.33376542 -0.12754641 -0.17545147 -0.08229003
000230 23 5b 52 3e 8c 46 48 3e fb 81 ab 3e a3 58 00 be
       0.20542578 0.19558161 0.33497605 -0.12533812
000240 a0 05 64 3e 92 69 22 3e f0 ec d0 bd 02 20 9e be
       0.22267771 0.15860584 -0.10201442 -0.30883795
000250 eb e2 8b be 3b ea d7 3d c3 6d 06 bd 89 9b 65 be
       -0.27321562 0.10542723 -0.03281952 -0.22422613
000260 df 68 17 3c af 7c 0d 3e ea cd 52 3d 9e 10 51 3e
       0.009241312 0.13817094 0.051465906 0.20416495
000270 23 ea e4 3d e4 35 67 bd 06 71 65 3d f0 ba fc bb
       0.111774705 -0.05644788 0.05601599 -0.0077127144
000280 1a 49 c6 3d 46 c3 64 bd 2f cb 90 3d 92 d7 be 3e
       0.09681912 -0.05585029 0.07070004 0.37273842
000290 be c0 3f bb 22 56 dd bd a9 7f 9a bd a6 bd 93 bd
       -0.002925917 -0.10807444 -0.075438805 -0.07213907
0002a0 d9 1f 3f be 87 cb 84 be 0d 7c f8 3d d7 c0 3c be
       -0.18664493 -0.2593653 0.12133036 -0.18432938
0002b0 0b 3d 42 3e bb 90 8c 3b 6a 9c 13 3e e9 7d 84 3e
       0.18968599 0.004289714 0.14415136 0.25877312
0002c0 9c f9 8f 3d a7 ee a4 3c 76 19 98 3c 66 ce dc 3d
       0.07030031 0.02013333 0.018566828 0.10781555
0002d0 91 f3 ea bd c4 86 72 3e 45 47 44 3e 94 d9 82 bc
       -0.11472238 0.23684222 0.19167812 -0.01597289
0002e0 00 85 d8 3c d9 b9 29 3e 1d c7 87 3e 1f 30 8d be
       0.026430607 0.16574802 0.265191 -0.27575776
0002f0 ba 8c c4 3a d2 23 95 bc 45 7e 6b 3e 39 b6 a8 3d
       0.0014995553 -0.018205557 0.22997387 0.08237881
000300 b7 54 da bc 2d 52 75 3e 40 cb 81 3e 43 6c bd be
       -0.026651723 0.23957129 0.2535038 -0.3699666
000310 5c be 21 be 4a 7b ea be 8c 52 82 3e 25 53 4a 3e
       -0.15795273 -0.45797187 0.25453603 0.1975828
000320 50 13 01 3e ea 82 b5 3d d0 5a c5 3e 97 3c 0c 3e
       0.12605023 0.088628605 0.38545847 0.13694988
000330 a1 41 15 3e 03 a0 c3 bd b9 69 58 3c 9a 67 44 3e
       0.14575817 -0.09552004 0.0132088 0.19180146
000340 3f 68 ff 3d 78 c5 5a 3e c2 87 7d be ef 96 5b be
       0.12471055 0.21364391 -0.24758819 -0.21444295
000350 5a e4 e6 bd f8 de 50 bd 22 28 81 3d cb c6 bd bc
       -0.11274023 -0.05099389 0.06306483 -0.023166081
000360 2b ec 10 bd ee 7c a5 bd 9f 6e a7 3e 7b f4 df 3d
       -0.035381477 -0.08080469 0.32701585 0.10935303
000370 43 a5 3a 3e 89 f7 07 be af ed 0f 3e 90 27 21 3e
       0.18227105 -0.13278021 0.14055513 0.15737748
000380 46 d5 a5 3e ac 3b 12 bd 60 39 02 3e af 7e b2 bd
       0.32389277 -0.03570144 0.127172 -0.08715569
000390 7e bd 8c 3d f1 26 b7 3d 26 1f 74 bd 76 4d ac be
       0.0687208 0.08942974 -0.059600018 -0.33652848
0003a0 ca dc bf 3d 2f 65 2d bd 0a f9 52 be 85 99 ef bd
       0.09368284 -0.042332824 -0.20602813 -0.116992034
0003b0 db 2f 01 3e 9d 02 4b 3d 4f f5 d8 bd c2 22 3f 3d
       0.12615912 0.04956304 -0.10593664 0.046664007
0003c0 75 84 30 3e a9 e3 1d 3e 39 b2 75 3d 00 1f 4a be
       0.17238028 0.15418877 0.05998442 -0.19738388
0003d0 3f 8a 81 be ab e6 3a 3d 06 d3 e3 bd 9c 04 a4 bd
       -0.25300786 0.04563014 -0.11124234 -0.08008692
0003e0 83 43 17 be 06 ba 16 bd a8 48 18 3e b8 2e 75 be
       -0.14771847 -0.0367985 0.14871466 -0.23943603
0003f0 c7 48 62 be 0a c9 5c 3e a9 52 62 3e 66 a0 9b 3e
       -0.22098075 0.21561065 0.22101845 0.30395812

lstm.weight_hh_l0 f4 [128, 32]
000000 45 c2 b0 3e c4 10 23 3d 0f 9a fe 3d 49 77 95 3d
       0.34523216 0.03981091 0.12431728 0.072981425
000010 3a 09 3f 3e 97 63 83 3e 18 b5 fe 3b 09 0a 80 3e
       0.18655863 0.2566192 0.007773053 0.25007656
000020 53 a3 3c bd da 18 9f 3e 37 f5 b3 bd a2 85 0a 3e
       -0.046054196 0.31073648 -0.087870054 0.1352754
000030 19 3b 88 3d c9 e3 14 3e 5b f8 94 3e d0 12 3d be
       0.06651897 0.14540018 0.2909573 -0.18464208
000040 50 04 a3 3e 24 28 05 3d 92 de 89 3d 04 2b 9e bc
       0.31839228 0.032508984 0.06731905 -0.01930762
000050 81 e4 58 be 0e 39 25 bd 88 ca 1b be 5e ca 28 3d
       -0.21180917 -0.040337615 -0.15213978 0.041208617
000060 2f 7c 94 bd b6 84 15 3b eb 3b b2 be e5 45 0f be
       -0.07250249 0.0022814698 -0.3481134 -0.13991506
000070 02 5e 03 bc 2c 78 03 3e 73 14 b0 be a4 5f 43 3d
       -0.008018019 0.1283881 -0.34390602 0.047698632
000080 81 c4 0f be 53 33 90 bd 20 b6 c9 bd 56 26 ba 3d
       -0.14039804 -0.07041039 -0.09849191 0.09089343
000090 33 fa 4e bd c6 53 63 3d 32 59 3d 3c a6 8a a5 3e
       -0.050531577 0.055499814 0.01155691 0.32332343
0000a0 17 dd 4c be 4f ef 02 3d 44 59 e3 bd 1b 5c e0 bd
       -0.20006214 0.031966504 -0.111010104 -0.10955068
0000b0 fb db 25 3d 52 31 ae be 31 66 a8 3d a7 eb b6 3d
       0.040492993 -0.34022003 0.082226165 0.08931666
0000c0 d2 5a 53 3d 8e 58 d7 bd d4 fe a7 be 59 21 64 3e
       0.051600285 -0.10514937 -0.32811606 0.22278346
0000d0 5e 28 a6 3c 44 92 19 be fb f2 7e bd 16 3a 09 be
       0.02028292 -0.14997202 -0.062243443 -0.13401064
0000e0 05 d9 28 be 0f 30 1c 3e 40 1d 0e be 37 7a 4e 3d
       -0.16489036 0.15252708 -0.13878345 0.050409522
0000f0 10 25 36 3e 2e 13 ca bc da 7c 37 bd e6 a0 cb bb
       0.17787576 -0.024667349 -0.044796802 -0.006214249
000100 75 77 c6 bc 13 b9 c3 bd 9f 3e 97 be 47 ad a1 3d
       -0.024226883 -0.095567845 -0.29539964 0.07894378
000110 ad 26 0b 3e c8 21 26 be 95 80 e2 bd 12 cf d0 3e
       0.13588972 -0.16223824 -0.11059681 0.40782982
000120 1e 6f 9e bb 3e 4b 1f 3e 24 67 09 be fd fe 49 3e
       -0.0048350235 0.15556046 -0.13418251 0.19726177
000130 1b 1c 7c be c2 e8 2e be 2e 90 69 3d 97 1c 6c 3e
       -0.24620096 -0.17080978 0.057022266 0.23057781
000140 fa 2c 6d 3e 9d 9a 05 bd c4 62 2c 3d 24 c9 f6 3d
       0.23161688 -0.032618154 0.042086378 0.12050083
000150 5b a3 b1 bd 7b 74 a3 3d 19 00 93 bd 80 74 09 bd
       -0.08673736 0.07981201 -0.07177753 -0.03355837
000160 6a 31 d6 3d 5c a7 13 be 79 1f 89 be b0 c7 36 3e
       0.10458644 -0.14419311 -0.26781824 0.17849612
000170 dc 48 77 bc 8c 15 62 be 9c 4a ac be 57 ba 0d 3e
       -0.015093055 -0.22078532 -0.33650672 0.13840614
000180 b4 79 8b 3e 69 d1 e7 3c ae a3 f2 bc dd e4 47 3e
       0.2724129 0.028298097 -0.029619064 0.19520898
000190 ec ff 42 bd 5f 69 82 bd af 3a 0d be fb a4 ee 3d
       -0.047607347 -0.06367754 -0.13791917 0.11652561
0001a0 bb f6 40 3e 0a e9 8f 3e 5a a9 2e 3d cd f5 e1 bc
       0.1884412 0.28107482 0.042641975 -0.027583027
0001b0 29 2d 91 bd 8f 4e 43 be 32 79 62 3e dd 9d 46 3e
       -0.07088692 -0.19072936 0.22116545 0.19396158
0001c0 5c a6 c8 3c f8 1c 92 be 72 2e e8 3d 32 db 36 3e
       0.024493389 -0.28537726 0.11336984 0.17857054
0001d0 2f fa 1d be 12 66 ea 3d f2 a0 9a 3e af 88 fe 3d
       -0.15427469 0.114452496 0.30200917 0.12428414
0001e0 18 c4 3d 3e 4d 09 3c be 78 ff 9c be d8 73 1a be
       0.18531835 -0.18362923 -0.30663657 -0.15083253
0001f0 a5 84 3b be ab c3 97 be 1d 48 23 be 05 5d a6 3e
       -0.18312319 -0.2964147 -0.15945478 0.32492843
000200 ce 26 35 bd 1a da 5d 3e ce 16 22 bd 50 43 76 be
       -0.04422646 0.2166523 -0.03957253 -0.24049115
000210 1b ce 09 be 4e fa aa bd 37 22 c6 bd 02 f0 19 3e
       -0.13457529 -0.08348523 -0.09674495 0.15032962
000220 b4 b9 73 3d a6 c1 7c 3e 3f aa 5b be ab 0e a3 3e
       0.059503272 0.24683246 -0.21451662 0.31847128
000230 82 5b 99 3d 3f 7a b9 bd 02 83 f0 3c 86 15 9f 3e
       0.07488157 -0.0905652 0.029359344 0.3107111
000240 2b 24 61 3e da da 63 3d 19 e3 81 be 00 bf 17 3e
       0.21986453 0.055628635 -0.25368574 0.14818954
000250 5e 65 3e 3d 24 b5 cd 3b 40 4d 4c be ff c9 8f bd
       0.04648339 0.006277697 -0.19951344 -0.070209496
000260 95 bf 9f be be 7b 36 be d3 41 fa be f8 79 1a 3d
       -0.31200853 -0.17820641 -0.48878345 0.037713975
000270 4b 9c 07 bd fc e5 03 bd 5e b7 58 bd 18 00 ef bd
       -0.033108037 -0.032201752 -0.052909248 -0.1166994
000280 85 2f e0 3d e3 ad 1a 3d b5 8a 8f bd 25 1e e5 3e
       0.10946564 0.037763488 -0.07008878 0.4474956
000290 c8 11 02 3e 8c 13 b3 be a7 24 83 bd b0 68 e6 bc
       0.12702096 -0.3497585 -0.06403475 -0.02812609
0002a0 2a 20 b4 3b 0e e2 9b 3e de 9e ad 3d 42 81 14 3e
       0.0054969983 0.30445904 0.08477567 0.14502433
0002b0 c4 64 30 be 36 45 a8 3e e5 75 89 3d fb cc 80 bb
       -0.17225939 0.32865304 0.0671194 -0.0039306856
0002c0 90 2e d2 be 1c 70 9e be 03 c2 da 3e 8c 2b 75 3e
       -0.4105115 -0.30944908 0.42726144 0.23942393
0002d0 9f 54 f6 bd 5a c4 fa bc 95 d6 43 3e b9 d9 82 bc
       -0.12027859 -0.030611206 0.19124825 -0.015972959
0002e0 ad a1 9f bd 16 1b 6e be a1 26 37 3e 0d bc 9a 3d
       -0.07794509 -0.2325252 0.1788583 0.07555399
0002f0 e4 6a 5e 3e e6 c0 f1 bc db 91 c8 bd e7 b5 01 3b
       0.21720463 -0.029510926 -0.09793445 0.001979226
000300 5b 2c dc bd 1d b0 14 bd 4e 67 c6 bd 26 dc 82 be
       -0.10750648 -0.036300767 -0.096876726 -0.25558585
000310 c1 ef b4 3d cd f5 46 3e e6 89 52 bd 95 45 8b 3e
       0.08834792 0.19429703 -0.05140104 0.27201524
000320 3a d3 a1 3d e5 3d 05 be a3 01 9e bd 60 21 b0 3a
       0.079016164 -0.13011892 -0.07715156 0.0013437681
000330 f2 f2 e8 3d ee 01 1c be a1 76 b5 3d eb 2e 99 3e
       0.11374463 -0.15235111 0.08860517 0.29918608
000340 38 b1 24 3e df 3e f3 bd 60 1e 77 bd a7 29 68 be
       0.16083229 -0.11877226 -0.060331702 -0.22672139
000350 3d aa 1a be ad 28 cf 3d 2c 07 0e 3e c8 9f f0 3c
       -0.15104003 0.1011518 0.13869923 0.029373065
000360 64 b6 eb bd 55 8e 89 bd 04 fd d2 be d0 99 08 3e
       -0.115093976 -0.06716601 -0.4120866 0.13339925
000370 2e 2c 35 3e 36 5f 9f bd 91 a5 06 be 1a 33 08 3d
       0.17692634 -0.07781832 -0.13149096 0.03325186
000380 74 b2 e9 bd 21 37 63 3d 30 8c 1d 3e 6e 76 84 bd
       -0.1141099 0.055472497 0.15385509 -0.06467901
000390 0e 0a 0d 3e 31 8b 14 be f9 ab 9b be 54 a1 1f 3e
       0.13773367 -0.14506222 -0.30404642 0.15588886
0003a0 f9 c9 68 3e 61 e6 77 bc 0f 66 67 3e b9 8d 45 3e
       0.22733296 -0.01513061 0.22597526 0.19292344
0003b0 86 e8 11 be 75 71 54 be a0 9f 5d 3d ca a3 32 3e
       -0.14248857 -0.20746405 0.05410731 0.17445293
0003c0 45 55 a5 bc 85 63 d0 be bf e9 41 3e 50 5b c2 bd
       -0.020182261 -0.40700927 0.18936823 -0.09490073
0003d0 96 b6 a4 be f9 66 96 3e 32 e0 b6 3d 27 65 10 be
       -0.32170552 0.29375437 0.089294806 -0.14101087
0003e0 96 cd 6a 3d 23 ff 95 bd ba 9b 8d be 4a 50 9a 3e
       0.05732497 -0.07324054 -0.27657872 0.3013938
0003f0 c6 fe ae 3e ec 38 17 3e 83 c2 11 be 03 f4 8b be
       0.34178752 0.14767808 -0.14234357 -0.27334604

lstm.bias_ih_l0 f4 [128]
000000 82 f9 ae bd 47 20 6b 3e c0 d8 92 bc 87 da 88 bd
       -0.085436836 0.22961532 -0.01792562 -0.06682306
000010 13 0c d1 3c b1 a6 0b bc 04 e2 92 ba 74 9b f6 3d
       0.025518453 -0.008523629 -0.0011206274 0.12041369
000020 c4 b2 ee 3c 42 86 a9 3d c9 6f 42 be 52 92 9b 3e
       0.029137976 0.08277561 -0.18987955 0.3038507
000030 11 6d 51 bd ed 32 03 3d 88 66 c2 3d 57 51 d8 bc
       -0.051129404 0.03203099 0.094922125 -0.026405973
000040 38 46 8b 3b 4c 45 b6 3c ae 1e 0a 3e 31 3a 23 bd
       0.004250314 0.02224984 0.13488266 -0.039850418
000050 7b 82 50 bd 69 4b f0 bc 60 cc 2f 3e 44 eb 06 be
       -0.050905686 -0.029332833 0.17167807 -0.13175684
000060 00 c3 c2 bd c2 05 3a 3d 5a 76 f7 3c 14 66 e4 3d
       -0.095098495 0.045415647 0.030207802 0.11152282
000070 44 bd 6f bd e1 80 84 3e d6 90 dd bd 29 0c ec 3d
       -0.058530107 0.25879577 -0.10818641 0.11525757
000080 df 0a d3 bd b8 bc 13 3e 52 67 f6 bc 6a 28 3d 3e
       -0.10304808 0.14427459 -0.030078564 0.18472448
000090 44 dc 48 3c 43 64 96 3e 34 1c c5 3d 2d 54 d9 3d
       0.012259547 0.2937337 0.0962452 0.106117584
0000a0 20 9e b7 bd 00 ec 01 be 84 25 48 3d 92 a7 3a be
       -0.08965707 -0.12687683 0.048863903 -0.18227986
0000b0 19 31 2d 3e 3c 42 94 3c 84 7f ba bd 45 2c 8a 3d
       0.1691326 0.01809799 -0.09106353 0.06746725
0000c0 d6 88 08 3e 9b ee 8d 3e 1e 8d c3 bd e2 ae 3a 3e
       0.13333449 0.27721104 -0.095484 0.18230775
0000d0 e8 16 d5 bc be cf c4 3d 16 e7 bf bd e5 58 e4 3d
       -0.0260119 0.09609936 -0.09370248 0.11149768
0000e0 ef 4a 39 3c d6 ed 29 be 59 e6 c5 3d 1a b3 d1 3d
       0.0113093695 -0.16594633 0.09663076 0.10239239
0000f0 a2 be 85 bd eb cd 4f 3e c5 73 d9 3c 0b e4 1c be
       -0.06530501 0.20293395 0.026544461 -0.15321366
000100 8e a3 0d 3e 90 43 6f be 58 db 2a be ca 14 0e 3e
       0.13831922 -0.23365617 -0.16685236 0.13875118
000110 7a eb 36 3e f0 94 19 be cf 3c 1b 3d ca 16 8e 3c
       0.17863265 -0.14998221 0.03789979 0.017344851
000120 ec 4a 57 3d cd 07 06 3e b4 bd ad bd e6 a0 95 3d
       0.052561685 0.13088913 -0.084834486 0.073060796
000130 2c 38 8f 3d 78 c8 32 be da 28 73 3d 61 77 f9 3d
       0.06993136 -0.17459285 0.05936513 0.12180973
000140 bf c6 8f be 45 c0 42 be 14 89 96 3d 8b 15 f4 3d
       -0.2808132 -0.19018658 0.07350364 0.119181715
000150 36 7d 72 bd 84 00 29 3e 14 74 cb 3c 3e 2f 66 3e
       -0.05920144 0.16504103 0.024835624 0.22478959
000160 56 22 4d 3e 1b 6d 0b be 57 21 b2 bd 4d 3a 9b 3d
       0.2003263 -0.13615839 -0.08697765 0.07579479
000170 41 1f 12 3d 56 31 c0 bd ec 1d 43 be f1 b6 f5 bc
       0.035674337 -0.0938441 -0.19054383 -0.02999446
000180 f8 e5 17 3c 9d e5 0f bc 3a 22 cb 3d 41 0a ae 3d
       0.009271137 -0.008782771 0.099186376 0.084980495
000190 3d 1c a3 ba a3 d9 7e 3e 3b e7 c6 3c 61 3f 8e 3e
       -0.0012444329 0.2488771 0.024280181 0.2778273
0001a0 1e e9 bf bd e5 51 15 3c 45 a1 0a be a8 23 9b 3d
       -0.093706354 0.009113763 -0.13538082 0.0757516
0001b0 77 57 a5 bd 12 cf d1 bc 51 16 da 3d 27 c2 66 3d
       -0.08073323 -0.025611434 0.10648788 0.0563375
0001c0 d6 03 ef 3d 63 b1 a7 3e 8b 0c 30 3e eb ce ae 3d
       0.116706535 0.32752523 0.17192285 0.0853556
0001d0 2d 5e ec bc cd 06 4e 3e bd 28 5c 3e dc 41 bb 3d
       -0.0288535 0.20119782 0.21499915 0.09143421
0001e0 5b 69 4e bd 85 6a 16 3c 8e 3c 41 3e a8 23 1e 3d
       -0.050393444 0.00918067 0.18870756 0.038608223
0001f0 05 6d a7 3d ab c6 2f bd e4 99 7c bd df 6a 58 bd
       0.08175091 -0.042914074 -0.0616702 -0.052836295

lstm.bias_hh_l0 f4 [128]
000000 4c ac cc bd 87 5e 4d 3d e2 f0 57 3e 55 47 0d be
       -0.099938005 0.050138976 0.21087983 -0.13796742
000010 d2 7d 58 3d c1 1f 7e 3e 51 00 ad bc 63 93 38 3e
       0.052854367 0.248168 -0.021118315 0.18024974
000020 f3 cc 69 bd 44 92 f7 3d f9 3e 81 3c 89 8a 0c 3e
       -0.05708022 0.12088445 0.015777098 0.13724722
000030 5b 0b e5 bd 12 26 74 3d e3 9a 45 3e fd e3 34 3e
       -0.111838065 0.05960662 0.19297366 0.17665096
000040 19 42 8c 3e 90 35 47 3e 66 96 34 3e a2 64 05 3e
       0.27394179 0.19454026 0.17635497 0.1302667
000050 eb fa 0f bd 2c 29 c9 3d be df aa bd fc d4 06 be
       -0.035151403 0.09822306 -0.08343457 -0.13167185
000060 d8 2d 26 be 00 3a 7c bc 41 3f 5c bc f8 81 46 3e
       -0.16228426 -0.015394688 -0.013442815 0.19385517
000070 f8 ad 05 3d c4 f7 90 3e 1e a5 fd bd 20 bb f1 bd
       0.032636613 0.2831403 -0.12385009 -0.118032694
000080 90 78 34 3c 8a a2 2f 3d 75 39 10 3d 62 46 b5 bb
       0.011015072 0.04287962 0.035211045 -0.005532072
000090 89 bf 4a 3d cf 8c 42 3d ef 4b 43 3d aa 3a 7e 3e
       0.04949907 0.047497567 0.047679838 0.24827066
0000a0 c9 57 c9 3c 3c 89 ec 3d 30 f3 4c 3d c1 d8 04 be
       0.024577992 0.11549613 0.05003661 -0.1297331
0000b0 c3 12 60 3b e0 0b 7d 3e 51 66 1e be 3c f1 5d bc
       0.003419087 0.24711561 -0.15468718 -0.013546284
0000c0 36 5f 73 3e 76 90 08 3e 65 5c 54 3d cd 10 47 bd
       0.23766789 0.13336357 0.051845927 -0.048600007
0000d0 71 e5 31 be 2a 9d 3d bd a5 bc 15 bd 53 f4 f5 3d
       -0.17372681 -0.04629246 -0.03655686 0.12009492
0000e0 10 fe 5d be 38 f1 7c 3d e3 c9 3a bd c9 38 85 bd
       -0.21678948 0.06175348 -0.04560269 -0.065049715
0000f0 2e 3b 5e 3d 6d 55 25 3e f8 11 3e bd 36 10 ea bd
       0.054255657 0.16145869 -0.046403855 -0.11428873
000100 8a 44 dd bd 35 6a aa bd e3 be bf bd 78 91 3c 3e
       -0.108040884 -0.08321039 -0.093625806 0.18414867
000110 c9 f3 90 bd fe 0e 17 be b9 a2 2b be a0 f1 bc bd
       -0.07077748 -0.14751813 -0.16761293 -0.09225774
000120 45 f9 e5 bd 32 db 85 bd 97 54 16 3e 59 2d 09 be
       -0.11229185 -0.06535949 0.14680706 -0.13396205
000130 12 32 5f be 00 0a ae 3d 84 cd 33 3c 16 c9 a0 bb
       -0.21796444 0.08498001 0.010974292 -0.004906784
000140 18 92 67 be 7c 67 aa bd a2 e6 3b 3e c0 de 96 3c
       -0.22614324 -0.08320519 0.18349698 0.018416762
000150 aa 74 af 3b 9f 0c 74 3e ef 74 49 3e a7 47 91 3d
       0.0053544836 0.2383294 0.19673513 0.07093745
000160 4a c7 2b 3e 82 7a f0 bc 56 8c 11 bb f5 ff 69 3e
       0.16775241 -0.029355291 -0.002220889 0.22851546
000170 73 c0 0a 3e 83 e3 ad bc 49 74 d0 bd b2 30 06 3e
       0.13549976 -0.02122665 -0.1017843 0.13104513
000180 9e 61 4f bc f4 31 fb 3c e8 7f cf 3d a5 e2 15 3d
       -0.012657551 0.030663468 0.10131818 0.0365931
000190 28 62 8b bd 2d 4c 87 bb ba 15 7d 3c 03 5f 8e 3e
       -0.06805831 -0.004128954 0.015447075 0.27806863
0001a0 d4 3b 53 3d f0 20 07 3e 7b 2b 4e 3d 91 9b e3 3d
       0.05157073 0.13196158 0.050334435 0.11113656
0001b0 cf b2 8c bd 72 37 ba bb 66 64 0d 3e 5a cd db 3d
       -0.068700425 -0.005682879 0.1380783 0.10732527
0001c0 16 0b 74 3e b9 1c 93 3d 59 5e 47 3e e3 6c 3a be
       0.23832354 0.07183213 0.19469585 -0.182056
0001d0 2c 64 13 bc 8f 03 52 3e 4d 62 1c 3d 76 30 dc 3c
       -0.008996051 0.2050917 0.038179684 0.026878577
0001e0 da 6c 3e bc c7 3a ef 3c 1a b3 6c 3e 58 12 11 bd
       -0.011622632 0.029202832 0.23115197 -0.035417885
0001f0 6c 1f f1 3d 37 3f e1 3d 35 36 96 3d e0 bb c8 3d
       0.11773571 0.109983854 0.07334558 0.09801459

lstm.weight_ih_l1 f4 [128, 32]
000000 5e 47 0b 3e cf 89 2f be 98 11 47 be 59 c2 35 3e
       0.13601443 -0.17142414 -0.19440305 0.17749919
000010 ed 26 0a 3d 94 3f a8 3d fd 01 5c be d4 df cb bc
       0.03372853 0.082152516 -0.21485133 -0.024887003
000020 ab 61 75 3e d8 e9 1c 3e 86 a0 30 be f4 e1 21 3e
       0.23963039 0.1532358 -0.17248735 0.1580885
000030 3c 80 d2 3d 39 24 23 3d db 3a b0 3d 9e 03 e7 3d
       0.10278365 0.039829466 0.08604976 0.11279987
000040 ea 65 b5 bc 5b d8 44 3c ec 0d 48 bd f5 9e a5 3c
       -0.022143323 0.012014474 -0.048841402 0.020217398
000050 db 98 a8 bd e6 8f 95 3c c0 f6 af bd 58 0d 7d bd
       -0.0823228 0.018257093 -0.08591986 -0.061780304
000060 d4 4c a8 3c ed cf f6 bd d9 4e 5e be 85 2e 54 3e
       0.020544447 -0.120513774 -0.21709765 0.20720871
000070 36 ce 7a 3b 3c a3 8d bc 6a ab bd 3c 85 01 a3 bd
       0.0038269884 -0.01728975 0.023153026 -0.07959274
000080 f2 ed 76 3e 5a 3e 88 be 9d 25 81 be b1 93 c0 3d
       0.24114206 -0.2661007 -0.2522401 0.0940317
000090 35 00 ab 3e 0d bc 92 be 41 95 6c be da 54 77 3e
       0.33398595 -0.28659096 -0.23103811 0.24153462
0000a0 75 48 54 3e b1 d9 5f 3e 65 17 4e 3c dd 13 3a 3e
       0.20730765 0.21860386 0.01257882 0.1817164
0000b0 b4 22 24 be ef d6 cc 3b 5c 8c 90 3e 1a 53 ab 3c
       -0.16028863 0.006251208 0.28232086 0.02091365
0000c0 b9 f7 ff bd 22 f6 f6 be a6 5b bc 3e fd 5a b5 3b
       -0.12498421 -0.4823466 0.36788672 0.0055345283
0000d0 02 ee 97 be 56 0d 0a 3e 22 16 bc 3e 75 c6 0a 3e
       -0.29673773 0.1348165 0.36735636 0.13552268
0000e0 2f 81 26 3e 43 a6 a5 be 82 14 ff 3c ee 50 3b 3e
       0.16260217 -0.3235341 0.031137709 0.18292591
0000f0 b2 2b 09 be 47 bd 29 bd bf 20 8c 3d 99 a0 81 3e
       -0.13395575 -0.041440275 0.06842183 0.2531784
000100 d3 f5 3e 3d 4f c2 04 be a6 29 a2 be 04 5e 56 3e
       0.046621155 -0.12964748 -0.316724 0.20934302
000110 32 a8 17 3e 0b a8 83 3d f7 26 a8 be 4e 61 b3 3d
       0.14810255 0.06428536 -0.32842228 0.08758794
000120 f7 04 33 3e 52 72 bf 3a dd e3 13 3d fb 47 02 3e
       0.17482363 0.0014606214 0.03610598 0.12722771
000130 c0 82 f2 bd e1 b0 64 be 33 3d 0b 3d e4 89 c3 3e
       -0.11841345 -0.22333099 0.03399391 0.3819114
000140 d7 5e 4e 3b da 4a 51 be 2d 9b 18 3e d5 89 3c 3e
       0.0031489634 -0.2043871 0.14902945 0.18411954
000150 c0 5c dd bd a6 00 13 3e 54 a3 2b 3e ab 31 80 3e
       -0.10808706 0.14355716 0.16761523 0.25037894
000160 bc b3 11 be f6 95 fb bd 19 75 65 be 53 a3 52 bd
       -0.1422872 -0.12284462 -0.2240795 -0.05142529
000170 60 58 03 be 6a 11 a7 bd 6f f8 47 bc 4d 3f 2b 3e
       -0.12826681 -0.08157618 -0.012205227 0.16723366
000180 95 f0 3b 3e ce dd 95 bc 1d bd 40 be c1 ae c6 3d
       0.18353494 -0.018294241 -0.18822141 0.097013004
000190 7d 38 0e 3e 18 aa e0 bb e8 15 e0 bd 16 bc ba 3d
       0.13888736 -0.0068562143 -0.10941678 0.09117906
0001a0 66 58 aa 3d 42 46 33 bd be a7 86 be 27 53 a9 bc
       0.08317642 -0.043768175 -0.26299852 -0.020669533
0001b0 f1 aa 28 be fa 41 39 be 87 f2 06 3e c9 81 71 3e
       -0.16471459 -0.18091574 0.13178454 0.23584665
0001c0 36 c4 0e bd f2 c6 df 3d bc 71 40 3e 7e 27 89 3c
       -0.03485509 0.10926618 0.18793386 0.016742464
0001d0 f6 f7 b6 bd 86 3b 57 3e 29 c7 8a bd 4d 13 4e 3e
       -0.089340135 0.210188 -0.06776268 0.2012455
0001e0 3e 4a 06 3e 3d fd ad bd b3 5d 38 be 16 2a 48 bd
       0.13114259 -0.08495567 -0.18004493 -0.04886826
0001f0 a3 dd 24 3e cb e5 35 3d 94 51 d1 3c 52 64 d0 bd
       0.16100173 0.0444086 0.025551595 -0.101753846
000200 f9 4e a1 3e b0 8f 0a be 2d 64 90 be 2b b2 88 3e
       0.31505564 -0.13531375 -0.28201428 0.2669843
000210 33 c2 20 3d c9 ab 8f bc 91 83 c0 bd 1d 54 96 3e
       0.039247703 -0.017537968 -0.09400094 0.29361048
000220 b2 47 87 3e fc 21 59 3e b1 a4 8a be 76 fd f0 bb
       0.26421887 0.2120437 -0.27078775 -0.0073544336
000230 a2 3d 37 be 47 40 c2 be 14 e4 4b 3e fb fd 65 3e
       -0.17894605 -0.37939665 0.19911224 0.22460167
000240 6d 9a 51 be e1 9a c7 bc 6c 2a ae 3e 3e e0 a3 3d
       -0.20469065 -0.024365844 0.3401674 0.08001755
000250 29 b5 aa be 97 4b 28 3e d1 34 a8 3e 25 5c 3d 3e
       -0.3334134 0.16435085 0.32852796 0.18492182
000260 4b ce 00 3e 70 fd 5f be 09 e2 8d be 73 fc 1a 3d
       0.12578695 -0.21874022 -0.27711514 0.03783841
000270 87 86 a0 3e a8 ed 8c be db 04 b5 be 06 b0 a6 3c
       0.31352636 -0.27525067 -0.35355267 0.020347606
000280 b1 1c df 3d 76 4e b6 3d 21 63 34 bd 6a 2a 54 3d
       0.10894144 0.08901684 -0.04403985 0.05179826
000290 0d c9 9a 3e 40 bb 07 be 8b d9 ca bd d6 a2 51 bc
       0.30231515 -0.13255024 -0.09904774 -0.012795171
0002a0 de 72 72 3d 2a 66 b3 3c 47 ae a0 3d 46 35 e9 bc
       0.059191577 0.021899302 0.07845741 -0.028467786
0002b0 10 c7 e2 3d 77 b3 94 3c b8 8c 89 3b 16 3a 6a 3e
       0.110731244 0.018151982 0.004197683 0.2287372
0002c0 8a 8a 04 bb 8d b7 25 bc cb 6b 17 bd 94 b6 05 3e
       -0.0020224177 -0.010114563 -0.036968034 0.1305793
0002d0 e4 df 64 be c0 3f a0 3c f8 ee 46 3e d5 7c 70 3d
       -0.22351032 0.019561648 0.19427097 0.0587128
0002e0 b5 02 e8 3d 6b ac 39 3d 5d 9c 8a 3d 88 13 ff 3c
       0.11328641 0.045330446 0.06768105 0.031137243
0002f0 6c 9c 04 3e 72 53 47 3d bb 88 99 3e ce 5b 66 be
       0.12950295 0.048663564 0.2998713 -0.22495958
000300 1f 45 94 3d c0 63 71 bd 0c 8e 9f 3d 5f 9b 10 3e
       0.07239746 -0.05893302 0.07790765 0.1412177
000310 75 ea 90 3d 70 34 69 bd ef 74 30 bd 15 bd ee 3d
       0.07075969 -0.056934774 -0.043080267 0.11657158
000320 f2 1b 3a 3e 62 31 7a bc 92 6f 1b bd cf ad 45 3e
       0.18174723 -0.015270563 -0.0379482 0.19304584
000330 6c 32 f3 3d 49 32 57 be 6a 51 96 3e 52 52 46 3d
       0.118748516 -0.21015276 0.2935899 0.04841835
000340 d8 4b 94 be a2 b8 24 be ce 18 a6 3e 54 9d 18 be
       -0.28964114 -0.16086057 0.324408 -0.14903766
000350 a8 cc cc bb c1 ea 8c 3e 94 88 a3 3d ab 04 aa bc
       -0.006249983 0.27522853 0.079850346 -0.020754179
000360 de 65 c8 3c 7b 67 7b bc a4 2e c8 bd cb 7c 3c 3d
       0.024462637 -0.015344496 -0.09774521 0.04601745
000370 85 75 13 bd bf 26 14 bd c9 51 b7 3d 01 be 63 be
       -0.036000747 -0.036169764 0.08951146 -0.2224045
000380 35 b7 5a 3e 99 6f 56 be ca 80 94 be 65 30 4c 3e
       0.2135895 -0.20941009 -0.29004508 0.19940336
000390 46 b5 5d 3e ca 58 79 be 05 af 39 be 96 60 86 3e
       0.21651182 -0.24350277 -0.18133171 0.26245564
0003a0 06 43 10 3e 84 0f 48 3e 2b 13 3a bd 44 14 85 bd
       0.14088067 0.19537169 -0.045428436 -0.06498006
0003b0 8f 4e c3 bc 22 cf 4b be bf b2 0f 3e 65 a8 45 3d
       -0.02384117 -0.19903234 0.1403303 0.048256297
0003c0 ec 45 f1 bd 2b a8 9b be 84 58 9b 3c 2d 8e c3 3e
       -0.11780915 -0.3040174 0.018963106 0.3819441
0003d0 df 17 b2 bc 81 89 4e 3d 84 bb cf 3e 39 10 17 3b
       -0.021739898 0.050424103 0.4057275 0.002305044
0003e0 17 76 60 3e 21 fb 1d 3d 0f 12 e0 be 2f 32 ed bd
       0.21920048 0.038569573 -0.43763778 -0.115818374
0003f0 e5 1f 3e 3e 96 a7 2e bd fd fd a4 be b0 9c 94 3e
       0.18566854 -0.04264029 -0.32225028 0.29025793

lstm.weight_hh_l1 f4 [128, 32]
000000 7f ad 9d bd 47 37 00 3c d0 c6 4c 3e a4 cb 9c 3d
       -0.076991074 0.007825679 0.19997716 0.07656029
000010 f1 93 78 3d 0e 1f 5f 3d 63 2a 0b 3e 55 56 ac 3c
       0.060687963 0.054472975 0.13590388 0.02103726
000020 8f ab 0a bd f6 87 f9 3b 97 a5 ef bd 24 26 1e 3e
       -0.033855017 0.0076150848 -0.11701506 0.15444237
000030 f0 52 c9 bd 36 94 55 3e b7 1f d6 3d 4a d4 08 3e
       -0.09830272 0.20857319 0.10455268 0.13362232
000040 52 10 59 bd e5 e8 3b 3e c9 75 bf bc f0 43 83 be
       -0.05299408 0.18350561 -0.023371594 -0.2563777
000050 ae 7c e9 3d c1 f6 42 be b2 36 62 bd 67 af 13 3d
       0.11400734 -0.19039442 -0.055227943 0.03605595
000060 d9 29 43 3c d1 0d 43 3c 9c 46 87 3d f9 2d 06 3e
       0.011911833 0.01190515 0.066052645 0.13103475
000070 f8 ef c5 bd 1a b9 a5 bd 62 6d fb bc ab 76 e9 3b
       -0.09664911 -0.08091946 -0.030691806 0.007124742
000080 48 53 36 be f2 bc f0 bd c4 23 23 bd 8e 57 00 bd
       -0.17805207 -0.117547885 -0.03982903 -0.0313335
000090 b0 35 9b 3d 92 20 d2 bd 0f 8c 3f bd 8a c8 81 3e
       0.075785995 -0.102601185 -0.04676443 0.25348312
0000a0 ba bf 55 bd d1 36 69 be cc da 0d be 44 7c e7 bd
       -0.052184798 -0.22774817 -0.13852996 -0.11302999
0000b0 2f 29 ec b9 36 08 8a bb 05 cd 86 3d 59 35 8f b9
       -0.00045044112 -0.0042124046 0.06582073 -0.00027314833
0000c0 aa 3e 66 be 22 a1 d6 3d 0b aa bb 3c 8f cb 1a be
       -0.22484842 0.104799524 0.022908231 -0.15116714
0000d0 6c d9 88 3d ec ff 80 be aa 08 e3 3c 04 c4 d3 3d
       0.06682095 -0.25195253 0.027714092 0.103401214
0000e0 6e 92 70 bd f6 16 1b 3e a1 86 55 bd f9 5a e9 bc
       -0.058733396 0.15145478 -0.052130345 -0.028485762
0000f0 f9 7b ed bd bf b4 0c bd 6f 6a 04 3e b4 a4 13 3e
       -0.115959115 -0.03435206 0.12931226 0.14418298
000100 48 30 40 be ee 0d 89 3d ee b5 a0 bd 13 e8 42 be
       -0.18768418 0.0669211 -0.078472 -0.19033842
000110 dd 5d 0b be 9e b1 52 3e 38 8a e3 bc 2f c3 44 3e
       -0.13610025 0.20575568 -0.027775869 0.19215082
000120 6d 42 6b 3d cb 7e 97 3d a8 ee eb bd 8d 06 2f 3e
       0.057436395 0.07397231 -0.115201294 0.17092343
000130 f9 aa 7a 3c 24 ad 62 bd 88 b0 11 be 95 28 d0 3c
       0.015299552 -0.0553409 -0.14227498 0.025409976
000140 7e f4 09 be e6 9f 2c 3e 99 7b 7d 3d ce 60 48 3b
       -0.13472173 0.16857871 0.06188545 0.0030575278
000150 32 1f 8b bd be 72 88 be 52 7e 88 bc df f0 e3 bd
       -0.067930594 -0.2665004 -0.016661797 -0.11129927
000160 70 d9 89 bd 9e 50 45 3e fa 74 9f 3d b5 e7 b7 bd
       -0.06730926 0.19269034 0.077859834 -0.089797415
000170 57 c8 5e 3d 9d c5 69 3d e9 78 6d 3c 2f cb e5 bd
       0.054390278 0.057073224 0.014494159 -0.11220395
000180 c8 c4 98 3d b9 0f e0 bd 5b 12 63 3d 33 d6 78 be
       0.07459408 -0.10940499 0.055437427 -0.2430046
000190 29 fc 55 3e 2a 6c be 3c 4f 64 67 3e 1c 40 4a 3c
       0.20896973 0.023244936 0.22596858 0.012344386
0001a0 ef 84 a2 bc 37 db 2e be e0 1f 73 be f9 83 92 bd
       -0.019838778 -0.17075811 -0.23742628 -0.07154078
0001b0 3a 0d e5 bd c3 41 5a 3e d6 01 25 3e c2 9e 7d 3e
       -0.111841634 0.21314149 0.16113982 0.24767593
0001c0 9a e3 ed bc 36 c3 36 3d 1a aa 95 bd 0c ce dd bd
       -0.029039193 0.04461976 -0.07307835 -0.10830316
0001d0 45 09 58 3d f8 c0 eb bd 69 f0 cf 3d 3c 23 a0 3a
       0.052743215 -0.11511415 0.101532765 0.0012217532
0001e0 ea 8d c7 3d 70 cd 6a 3d cb 78 5d bd aa ad aa bd
       0.09743865 0.057324827 -0.054070275 -0.08333905
0001f0 12 1a 1c bd 13 79 28 bd 56 81 12 3e 7c 53 d2 3d
       -0.0381108 -0.04113109 0.1430715 0.1026983
000200 b8 7e 68 3c 67 db 2e 3e c0 7b dd bd d4 e0 43 3d
       0.014190368 0.17075883 -0.10814619 0.047821835
000210 18 b8 39 3e 4d ab 66 3c dc 4f 20 3e e3 08 9a bd
       0.18136632 0.014078927 0.15655464 -0.07521226
000220 3b e8 72 bd fc 03 4a be 8c 8b 85 bd 40 8c d1 3d
       -0.059303503 -0.19728082 -0.06520757 0.10231829
000230 8c 2f 52 3d 34 67 f6 3c 46 af 3c 3e 8f f9 02 3e
       0.051314875 0.030078508 0.18426237 0.12790512
000240 3e 28 e3 be ca 98 93 bd 7d 56 cb 3d 88 6e 69 be
       -0.4436664 -0.072068766 0.09928606 -0.2279607
000250 8e 0b f3 3d f0 f2 70 be 5a 76 ff 3c 77 aa 24 be
       0.11867438 -0.23530173 0.031184364 -0.16080652
000260 9f 22 1a 3e 9a 94 fe 3d fd 3c 15 be d1 d2 da 3d
       0.1505227 0.12430687 -0.14574046 0.10684741
000270 6f 08 8e bd b9 c2 a9 3e 11 d0 59 bc 63 35 5e bd
       -0.06935202 0.33156374 -0.013294236 -0.054250132
000280 09 60 e0 bd bf 9b b0 3d 49 03 57 bd 12 ae 56 be
       -0.10955817 0.08623456 -0.052493367 -0.2096484
000290 50 69 fb bd 19 49 87 3e 64 62 aa 3d 85 cb 2a 3e
       -0.12275946 0.26422957 0.08319548 0.16679199
0002a0 18 5d 2e be db 6e c2 bd 3d 7c 05 3d 38 18 d1 3d
       -0.170277 -0.094938 0.032589186 0.102096975
0002b0 1f 61 84 be cc 1f 20 3e 59 3b f5 bd 61 46 48 3c
       -0.25855348 0.1563713 -0.1197421 0.012223811
0002c0 8c 54 03 be 4c 6a 15 3d d8 cc 53 be 56 b4 34 be
       -0.12825221 0.036478326 -0.2068361 -0.17646918
0002d0 5b 85 b1 3d 0e 67 ba be 39 7c c7 bc 25 6c e8 3d
       0.08668014 -0.3640675 -0.024351226 0.11348752
0002e0 1f 45 8f bd ea 21 41 3e 45 59 12 bc e0 e8 67 3e
       -0.06995606 0.18860593 -0.008932416 0.22647429
0002f0 4d d3 33 3e 06 cb f4 3d 44 c6 56 3d 8f 26 e1 3d
       0.17561074 0.11952786 0.052435175 0.109936826
000300 35 bc 49 be 31 f8 8e 3c e1 b2 d1 3d 64 20 11 bc
       -0.19700702 0.017452331 0.102391966 -0.00885782
000310 ce 7a 02 bb d4 76 84 3e 39 41 a3 3d 7b 32 77 bd
       -0.0019909623 0.2587191 0.079714246 -0.060350876
000320 2b 5d 25 be 7f 8e 0b be d8 09 94 be 58 f9 46 3e
       -0.16148822 -0.13628577 -0.2891376 0.19431055
000330 c2 89 96 be 1f ea 23 3e 20 24 05 3e e6 a7 a1 3e
       -0.29401976 0.16007279 0.13002062 0.3157341
000340 66 85 5c be cc 8b a3 bc 44 bc 96 be 73 1c e1 bc
       -0.21535262 -0.019964121 -0.2944051 -0.027479386
000350 ec 9e 93 3e 2c 26 bd be fc 57 e8 bc c1 39 d7 3d
       0.28832185 -0.36943185 -0.028362267 0.105090626
000360 4d db 91 3e 09 40 06 3e 90 60 c4 bb 18 76 0a 3e
       0.28487626 0.13110365 -0.0059929565 0.13521612
000370 6a 25 7f 3e ed 6d 23 be 4c 27 07 3e 43 79 3e 3e
       0.24916616 -0.15959902 0.13198584 0.18600945
000380 59 f1 52 3d 20 23 bf 3d b6 02 19 bd 9b b2 0a 3e
       0.0514997 0.093328714 -0.0373561 0.13544695
000390 ad c1 6c 3e 19 18 8b bd 1f a7 4e bc da 40 32 3e
       0.23120756 -0.06791706 -0.012613087 0.17407551
0003a0 d2 d8 42 be c4 87 0c 3e 07 e0 f6 bd e2 b5 37 bd
       -0.19028023 0.13723665 -0.120544486 -0.04485119
0003b0 c9 7c 24 be 9c df 29 bd 50 20 ef bc 09 7b 02 bc
       -0.16063227 -0.041473016 -0.029190212 -0.007963904
0003c0 fa f0 62 be 79 4a 98 3d 5d f6 0b 3e da 26 c7 3d
       -0.22162238 0.074360795 0.13668199 0.09724207
0003d0 c6 7e ff bb 8d 4d a0 be 59 9b db bd 51 f9 5b 3d
       -0.007797095 -0.31309167 -0.107229896 0.053704564
0003e0 8b b4 03 3e 87 08 91 bd ca 36 9b bd 8e a5 f2 3d
       0.1286184 -0.070817046 -0.075788096 0.11847983
0003f0 44 92 0a be 7f b3 d0 3d 06 de 17 3d ec cd ff 3c
       -0.13532358 0.10190486 0.037076972 0.03122612

lstm.bias_ih_l1 f4 [128]
000000 0f 90 88 3e 47 7a 3b bd 23 73 38 3e 24 63 7f bd
       0.26672408 -0.04577091 0.18012671 -0.062350407
000010 15 f3 35 3e 47 a8 90 3e 33 95 bf 3d 25 de 58 bc
       0.1776851 0.28253385 0.09354629 -0.013236557
000020 1e ff 8b 3c 87 0b 23 3e d4 7b 3a 3b c6 63 34 3d
       0.017089423 0.15922366 0.0028455155 0.044040464
000030 a3 e3 6a 3e 75 af 62 3e 69 a5 e0 bd 51 63 6b 3e
       0.22938399 0.22137244 -0.109690495 0.22987105
000040 21 0d b2 3d 16 dc 0f be 3b 1a 9e 3e e0 79 3f 3e
       0.086939104 -0.140488 0.30879387 0.18698835
000050 46 57 8d bb 6d 91 72 bd 34 5c b2 3d 38 e1 f5 bd
       -0.0043133823 -0.05922072 0.087089926 -0.12005848
000060 85 99 60 3d e7 36 87 bd a6 f3 c7 3d 9e 19 35 bb
       0.054833908 -0.06602269 0.09763269 -0.0027633677
000070 70 64 0d 3d ad 17 79 bd b2 3a f6 bd 9b 0c 56 3e
       0.034519613 -0.060813595 -0.12022914 0.20903246
000080 d9 f6 fc 3c d5 70 40 bd 9f b0 5c 3e 00 1b 11 3e
       0.030879425 -0.046982605 0.2155175 0.14170456
000090 fa 1f 55 bd 6a f0 b9 bc cf e6 64 3e 7e 76 34 be
       -0.05203245 -0.022697646 0.22353671 -0.17623326
0000a0 0e d3 03 3e c4 5c 3e be fd b1 55 3e 3a b5 0a 3e
       0.1287348 -0.18590075 0.20868678 0.13545695
0000b0 9d 6c 74 bb 3f d4 9e 3e 44 0a 19 3d aa 10 5e 3e
       -0.0037296184 0.31021306 0.037363306 0.21686044
0000c0 7d 45 94 3d ed 65 36 3e 31 49 49 3e 24 04 af 3e
       0.07239816 0.17812319 0.19656827 0.34182847
0000d0 33 7b 22 3e 91 44 15 3e 19 6a 30 bc ac e1 2b bd
       0.1586731 0.14576937 -0.010767483 -0.041963264
0000e0 3b 1b 7d 3e e5 69 81 3e 90 f4 19 be 47 41 a3 3c
       0.24717419 0.25276104 -0.150347 0.019928588
0000f0 0a 8b 52 3b 37 d3 9e bd 2a f6 8c be 90 34 c2 3d
       0.003212633 -0.0775513 -0.27531558 0.09482682
000100 2c b0 44 be 9c 06 f3 3c b3 f6 96 3e 8c ae 19 be
       -0.19207829 0.029666238 0.29485092 -0.1500799
000110 61 91 a4 3d ce 9b 85 3a b4 96 06 3e 9a ae dc bc
       0.08035541 0.0010193528 0.13143426 -0.026938725
000120 b2 63 90 3d 25 83 05 3e 59 66 bd bc 3f 4c 92 3c
       0.07050265 0.13038309 -0.023120092 0.017858623
000130 f3 17 8d be d3 92 95 3e 98 8f 35 bd 95 ef 85 3e
       -0.27557334 0.2921358 -0.044326395 0.2615935
000140 c8 8a 82 3d e4 af bc 3c 8a 76 79 be 74 16 a4 be
       0.06374127 0.02303309 -0.24361625 -0.3204838
000150 3a 39 81 3e 06 20 ba bd 4b 6f 33 be c2 15 66 bd
       0.25238973 -0.09088139 -0.17522924 -0.056173094
000160 a8 09 7c bd 03 59 59 3e d8 cd 49 be 74 d9 2c 3e
       -0.061532646 0.21225362 -0.1970743 0.16879827
000170 6d 40 8e 3e 15 8c 85 3e 38 ee 97 3d b4 33 b6 3d
       0.27783528 0.26083437 0.074184835 0.0889658
000180 c1 cb 30 bb 4c f0 c3 bd be 8b 86 bd 7d f8 25 3d
       -0.0026976916 -0.09567317 -0.065696225 0.04052018
000190 85 26 bd bd 05 62 a4 3e 04 6d bf 3d 12 76 a0 bd
       -0.09235863 0.32106033 0.09346965 -0.0783502
0001a0 bb 37 3c be fa 39 23 3e 9d 2d 80 bd b3 66 93 3d
       -0.18380634 0.15940085 -0.062587 0.07197323
0001b0 84 f8 e0 3d c4 35 1f 3e 40 b8 c4 3a 85 0a ad 3e
       0.109849006 0.15547854 0.0015008524 0.33797088
0001c0 ca 07 7e be 65 25 3f bc b5 14 59 3e ff f4 96 3e
       -0.24807659 -0.01166663 0.21199305 0.29483792
0001d0 f7 cc ac bc ab 53 ee 3d 09 e3 04 be f4 6d 88 3d
       -0.021093829 0.11637052 -0.12977232 0.06661597
0001e0 e8 15 8c bd c9 0b 65 3e 5f 2b a8 bd a0 ac 0a 3d
       -0.06840116 0.22367777 -0.082113974 0.033856034
0001f0 04 78 3a bd 3d 7d 92 3d 79 85 07 bc d6 54 80 bd
       -0.045524612 0.071527936 -0.008271568 -0.06266181

lstm.bias_hh_l1 f4 [128]
000000 6a 8d 3f 3e c8 2b e2 bc de 7e 03 bc 66 7b 82 3e
       0.18706289 -0.027608767 -0.008025853 0.2548477
000010 a3 51 11 3e bf 13 8f 3e 85 8a 3b 3e 2e 9f 35 3e
       0.14191298 0.27944753 0.1831456 0.17736503
000020 de 21 1b 3e ff 1d 80 3d 45 9e de 3d 2b ad b3 bc
       0.15149638 0.06255721 0.10870031 -0.021933159
000030 c4 44 8b 3e b9 0b f9 bc 24 c3 94 3c 4e a9 ae 3d
       0.27200902 -0.030401098 0.018159457 0.08528386
000040 7d b5 92 bd 96 72 be 3c 7a ae 7d bc a0 9f f9 ba
       -0.071635224 0.023247998 -0.015483493 -0.0019044764
000050 37 85 c9 3c cd 5e 74 3d 56 a6 00 be 5f d5 64 3d
       0.024599655 0.05966072 -0.12563452 0.05586755
000060 01 9a 01 3e 84 bd 10 3d b4 c0 d4 3d ae 39 79 bd
       0.12656404 0.035336986 0.10388318 -0.060846023
000070 6c a5 3b 3d b8 40 56 3d 1a 46 a3 3d aa a7 ad bd
       0.045812055 0.052307814 0.07972355 -0.08479245
000080 62 d7 28 3e ab 40 be bd ea 3b 0d 3e dc 2f 8a 3e
       0.16488412 -0.09289678 0.13792387 0.2698964
000090 9a 26 24 be e2 fd b7 bc 7d 71 5b 3e 48 e9 2a be
       -0.1603035 -0.022459928 0.21430011 -0.16690552
0000a0 06 bb 8b bd 4c c5 86 be de 3d c2 3d 64 0f 60 3d
       -0.06822781 -0.263224 0.094844565 0.054702178
0000b0 f5 91 25 3e 2f 76 b4 3b 06 c8 be bd f4 40 08 3e
       0.1616896 0.0055072526 -0.09315495 0.13306028
0000c0 bd 59 17 bc 09 b9 65 bd 1b 61 d2 3c e1 40 93 3e
       -0.009237704 -0.056084666 0.02568107 0.28760436
0000d0 08 17 82 3e 5b a3 5d 3d 2d e6 ab bd a4 32 ee 3d
       0.25408196 0.054110866 -0.08393512 0.11630753
0000e0 90 f0 44 bd 80 49 d0 3d 54 22 a2 3d c2 cb 33 3e
       -0.04808098 0.10170269 0.07916704 0.17558196
0000f0 6f 4f 94 3d ef db 14 be d0 09 56 3d 5c 57 62 3e
       0.07241713 -0.14537023 0.05225545 0.22103637
000100 b2 a5 a5 b9 92 01 26 3e 4d 7e c7 bb 5d 5c 32 bc
       -0.00031594705 0.16211537 -0.0060880543 -0.010886279
000110 2f c7 72 3e 16 67 58 3e 48 fe 3c 3e f4 f7 e1 3d
       0.23708795 0.21133074 0.18456376 0.110336214
000120 50 82 9f bd d8 63 be bb c3 ed 84 be 7e 11 3b 3e
       -0.07788527 -0.005810242 -0.25962648 0.18268391
000130 62 2b 1e bd 6b d9 01 3e 00 a6 08 3d a8 f8 6f 3e
       -0.03861559 0.12680595 0.033361435 0.23434699
000140 6a c8 c9 bc a5 ab 47 3e 36 6d 31 be 6c 0c 4f be
       -0.024631698 0.19499071 -0.17326817 -0.20219582
000150 6f a2 bc 3d 68 93 d3 bd f3 b9 ea bb ff 73 da bd
       0.09210669 -0.1033085 -0.00716328 -0.10666656
000160 9f b4 2f 3e e3 55 13 3e b2 81 22 be 8f c5 99 3e
       0.17158745 0.14388232 -0.15869787 0.30033538
000170 f7 f8 82 3e e2 95 ef 3d 76 29 3c bd e9 ec d3 bc
       0.2558057 0.1169851 -0.045937978 -0.025869804
000180 df 4e 50 3d f5 44 24 be f0 d1 22 3e b9 b5 93 3d
       0.050856467 -0.1604193 0.15900397 0.07212395
000190 93 43 67 3e 93 85 ac 3d a9 e8 80 3e f6 92 f9 bd
       0.22584371 0.08423915 0.25177506 -0.12186234
0001a0 b0 76 b1 bd 16 88 18 3e b1 34 1b 3e ed e3 2a 3e
       -0.08665216 0.14895663 0.15156819 0.1668851
0001b0 22 70 e8 3d 4b f0 89 3e 78 35 97 bd ef 4a cb 3e
       0.11349513 0.2694114 -0.07383245 0.39705607
0001c0 9b ad 0e 3d 1b d3 c8 bb 27 75 97 3e ee 3c db 3d
       0.03483353 -0.0061286814 0.29581568 0.10704981
0001d0 f5 00 5d 3e a2 ef 55 3e 2c 8f 18 3e f6 3f cd bd
       0.21582396 0.20892194 0.14898366 -0.10021965
0001e0 81 a3 99 3d c6 fe a3 3d cd de 2a 3e ec b0 09 3e
       0.07501889 0.080075786 0.16686554 0.13446397
0001f0 8e 34 2f 3e 87 c0 7a 3d 6a 6c b3 bd d1 67 3f 3b
       0.17109892 0.061218765 -0.08760913 0.0029206167

fc.weight f4 [3, 32]
000000 13 09 1c c0 44 9c 1c 40 91 b9 17 40 62 7e 1d c0
       -2.4380538 2.4470377 2.370701 -2.4608388
000010 ed 63 1f 40 dd a3 0e 40 87 04 17 40 8c 98 21 40
       2.490474 2.2287514 2.3596513 2.5249357
000020 83 b3 16 c0 52 e9 1f c0 f1 2b 0e c0 e3 c1 20 40
       -2.3547065 -2.4986157 -2.221432 2.511834
000030 4c 79 19 c0 5c 12 19 40 81 51 1c 40 67 b3 11 40
       -2.3980284 2.3917456 2.4424746 2.2765749
000040 27 5b 1a c0 64 78 16 40 13 c4 11 c0 4b b0 1e c0
       -2.4118135 2.351098 -2.2775924 -2.47951
000050 14 3e 1e 40 66 63 20 c0 a7 e1 1d c0 21 29 11 40
       2.472539 -2.5060668 -2.4668977 2.2681353
000060 c1 3b 1e 40 cb ff 1a 40 94 c3 1c c0 8b 83 15 40
       2.472397 2.4218624 -2.4494371 2.3361537
000070 eb 80 18 40 f5 9c 1e 40 b2 4b 10 c0 5c 5c 19 40
       2.3828685 2.47833 -2.25462 2.3962622
000080 c0 28 13 c0 79 0f 18 40 a6 35 1c 40 e1 a4 14 c0
       -2.2993622 2.3759444 2.4407744 -2.3225634
000090 6c a6 18 40 b5 56 1a 40 3f 4c 12 40 d7 0d 1f 40
       2.3851576 2.4115422 2.2859037 2.4852197
0000a0 7f f1 1f c0 02 56 18 c0 76 e9 20 c0 dd e5 12 40
       -2.4991148 -2.3802495 -2.5142493 2.2952797
0000b0 b5 8f 16 c0 79 d1 13 40 1e 22 1f 40 c8 4e 11 40
       -2.3525212 2.3096602 2.4864573 2.2704334
0000c0 8d 27 1b c0 04 58 19 40 29 c7 14 c0 b9 49 1c c0
       -2.424289 2.395997 -2.3246558 -2.4419997
0000d0 22 ba 16 40 73 66 22 c0 fd d1 19 c0 34 ae 1d 40
       2.3551106 -2.537503 -2.4034417 2.4637575
0000e0 22 3d 15 40 a6 f4 1c 40 38 1c 1c c0 09 b6 15 40
       2.3318563 2.4524322 -2.4392223 2.3392355
0000f0 83 04 18 40 a7 38 12 40 d6 55 1f c0 33 e2 22 40
       2.3752754 2.2847078 -2.489614 2.545056
000100 83 a2 1b c0 38 a6 17 40 09 02 12 40 41 7e 20 c0
       -2.431794 2.3695202 2.2813742 -2.507706
000110 96 0f 13 40 bd 86 21 40 c1 26 22 40 70 bd 19 40
       2.2978263 2.5238488 2.5336154 2.4021873
000120 9a ba 1a c0 13 9e 18 c0 34 34 1c c0 a7 51 1d 40
       -2.4176393 -2.384648 -2.4406862 2.4581087
000130 92 18 1f c0 bd 36 0b 40 d6 ec 1b 40 dd 69 1c 40
       -2.4858747 2.175216 2.4363303 2.4439614
000140 de b6 1c c0 18 80 1a 40 ea fe 19 c0 52 9f 0b c0
       -2.4486613 2.4140682 -2.4061837 -2.1815991
000150 48 72 19 40 a8 d3 13 c0 f7 a9 15 c0 60 29 21 40
       2.3976002 -2.3097935 -2.3384988 2.5181503
000160 d5 b4 20 40 99 10 1a 40 f8 c8 14 c0 6e da 18 40
       2.511037 2.407263 -2.3247662 2.388332
000170 3d 00 10 40 c1 e4 1a 40 fc 45 21 c0 6d 0b 10 40
       2.2500145 2.420212 -2.5198965 2.2506974

fc.bias f4 [3]
000000 09 64 07 40 4f 3e f7 3f 32 36 01 40
       2.1154807 1.931589 2.0189328
