models/humidity_lstm_model.pth (torch, 66720 bytes, 10 tensors)

lstm.weight_ih_l0 f4 [128, 22]
0.20820121 0.1448779 0.23882219 -0.29786834 -0.044871457 0.08150547 -0.07645075 -0.04031466
0.040065434 0.21083768 0.20564213 -0.07849606 -0.010370597 0.038377095 -0.22912039 -0.14839126
-0.159537 0.05964287 0.02080255 0.0029014705 0.20545207 -0.32881567 0.13315332 -0.04624219
0.53455377 -0.126552 0.1636786 0.08344365 0.10480814 0.44705275 0.30144966 -0.04280833
0.218334 -0.01795647 0.07563757 0.04833021 -0.05628537 -0.055108275 -0.13218568 0.06765445
-0.1254624 0.20466591 0.23585808 0.07876207 -0.027130364 -0.11613522 -0.098993696 0.38686132
0.03485358 -0.091294765 -0.25920293 -0.2836454 0.059854664 -0.07607516 0.32791665 -0.021743208
-0.084141 0.14766577 0.04090568 0.20936643 -0.047949493 0.052213892 0.056708507 -0.015595453
-0.018070763 0.18295515 -0.061980158 0.03693189 0.26228657 0.013422135 -0.07921044 -0.049678903
0.055169813 0.44459817 -0.032657698 0.036405083 0.08294227 0.41291177 -0.2132607 -0.19143017
-0.038485836 0.07969486 -0.081401035 0.17789441 0.10167077 -0.08676251 0.024986513 0.069977395
-0.19078034 -0.31398863 0.41634935 0.1257534 0.22885747 0.06517343 0.034270935 0.13535735
-0.33371657 -0.16241646 0.0135714365 0.1652788 -0.121740185 -0.24105388 0.048731674 0.18144788
0.16038308 0.052883808 0.39159682 -0.024758672 -0.105362 -0.02698507 0.23679131 0.15934101
0.103450425 -0.043431353 -0.44177243 -0.17862545 0.20845027 0.035047587 0.0888343 -0.007247512
-0.42429388 -0.13606791 -0.11809309 -0.24370487 -0.15612157 -0.24787624 -0.12931632 -0.37260267
-0.29185113 -0.04612807 0.09715392 0.08596239 -0.21980613 -0.02260257 0.029061966 0.26237047
-0.10324219 -0.07291215 -0.29037738 -0.09699339 -0.053155977 -0.2810679 0.38195318 -0.10066614
0.25569162 0.37889314 -0.08669782 -0.031989735 0.20426022 0.09055519 0.14890319 0.041856144
-0.028618054 -0.1423906 0.005984138 0.1843483 -0.118536375 0.10441278 -0.021362774 -0.07661737
0.067718096 -0.2461559 -0.4235553 0.018801294 0.21476254 0.18146724 0.046002224 -0.16128221
-0.004884234 0.099873334 0.040426802 0.028871171 -0.13814878 -0.15537754 -0.035692956 -0.034127407
-0.31483695 0.053517107 -0.11330493 -0.011492011 0.08183513 0.07783772 0.010281679 0.21277687
0.00033185858 0.06828743 0.03867553 -0.16631931 0.077650145 -0.039406717 0.09568632 -0.12192635
0.055899512 0.0311286 0.16075234 0.026231196 0.20793718 -0.03249656 -0.021640863 0.031802982
-0.104634404 -0.19742548 -0.081715286 -0.033017956 0.27190855 0.10208472 0.39955324 -0.053858694
0.26421276 -0.13315944 -0.1733786 0.11834935 0.0027361542 0.018741587 -0.122091 -0.17601949
0.29731008 0.31974635 -0.15820728 0.0767761 0.08282413 -0.09277053 0.010610075 -0.0037978867
-0.037236776 -0.12587103 -0.16139522 -0.28447855 0.15404208 -0.11759693 0.31607956 -0.2752556
0.16158535 -0.24098332 0.107732855 0.13460845 -0.0021284353 -0.0447297 -0.2461601 0.098542325
-0.1099468 0.0078681605 -0.09724818 0.1728912 -0.14170308 0.16227499 -0.00048338674 0.03978898
-0.3240698 0.3274698 0.27529567 0.3039821 -0.09240099 0.2858029 0.12474066 -0.025243647
00000000: b332 553e df5a 143e ce8d 743e 3382 98be
00000010: 22cb 37bd 57ec a63d 3692 9cbd fc20 25bd
00000020: a71b 243d d5e5 573e da93 523e 8bc2 a0bd
00000030: 70e9 29bc 4d31 1d3d 899e 6abe e1f3 17be
00000040: ab5d 23be 154c 743d 1c6a aa3c 9926 3e3b
00000050: 0762 523e 875a a8be 5859 083e 7368 3dbd
00000060: 84d8 083f d996 01be 5d9b 273e 81e4 aa3d
00000070: a6a5 d63d 19e4 e43e 9c57 9a3e ca57 2fbd
00000080: f392 5f3e 7219 93bc dfe7 9a3d e6f5 453d
00000090: 7d8b 66bd 37b9 61bd af5b 07be 6b8e 8a3d
000000a0: 3779 00be f193 513e c884 713e 024e a13d
000000b0: 7f40 debc 4dd8 edbd 35bd cabd b012 c63e
000000c0: a1c2 0e3d c0f8 babd 3fb6 84be f839 91be
000000d0: 2a2a 753d 4bcd 9bbd b1e4 a73e d01e b2bc
000000e0: 1e52 acbd b235 173e b78c 273d 2764 563e
000000f0: b066 44bd 3cde 553d 2e47 683d 1284 7fbc
00000100: 2309 94bc 9858 3b3e e8de 7dbd e545 173d
00000110: 6d4a 863e 84e8 5b3c 1539 a2bd 1b7c 4bbd
00000120: bef9 613d 5fa2 e33e 14c4 05bd 7f1d 153d
00000130: a3dd a93d 2c69 d33e 0361 5abe 4506 44be
00000140: 53a3 1dbd 0f37 a33d 96b5 a6bd f429 363e
00000150: c438 d03d 8bb0 b1bd 84b0 cc3c 4f50 8f3d
00000160: ec5b 43be 1ec3 a0be be2b d53e 80c5 003e
00000170: 9d59 6a3e a679 853d ae5f 0c3d 1e9b 0a3e
00000180: e6dc aabe 8050 26be bb5a 5e3c d93e 293e
00000190: eb52 f9bd d4d6 76be dd9a 473d 79cd 393e
000001a0: 763b 243e b19c 583d 617f c83e b3d2 cabc
000001b0: 08c8 d7bd cb0f ddbc 6c79 723e 4a2a 233e
000001c0: d1dd d33d 13e5 31bd ff2f e2be 97e9 36be
000001d0: fd73 553e 0f8e 0f3d c2ee b53d 8a7c edbb
000001e0: 0c3d d9be 6355 0bbe cada f1bd c58d 79be
000001f0: 55de 1fbe 45d3 7dbe 7f6b 04be c7c5 bebe
00000200: 836d 95be caf0 3cbd a2f8 c63d 0d0d b03d
00000210: dc14 61be 0629 b9bc 5c13 ee3c 6c55 863e
00000220: a470 d3bd f752 95bd 58ac 94be 78a4 c6bd
00000230: 15ba 59bd 22e8 8fbe 5e8f c33e 0d2a cebd
00000240: 03ea 823e 48fe c13e a08e b1bd ab07 03bd
00000250: 9729 513e 0075 b93d 147a 183e 5971 2b3d
00000260: 6970 eabc d7ce 11be 9716 c43b cdc5 3c3e
00000270: 33c3 f2bd 5ed6 d53d fc00 afbc 91e9 9cbd
00000280: c9af 8a3d 4b10 7cbe 3edc d8be 2c05 9a3c
00000290: b6ea 5b3e 8cd2 393e d46c 3c3d 2a27 25be
000002a0: ed0b a0bb 648a cc3d 9396 253d 3c83 ec3c
000002b0: e076 0dbe 4a1b 1fbe c732 12bd 2ec9 0bbd
000002c0: 4f32 a1be c134 5b3d 6a0c e8bd fd48 3cbc
000002d0: 2d99 a73d 6269 9f3d 7d74 283c 2ee2 593e
000002e0: 4efd ad39 48da 8b3d 3c6a 1e3d 9c4f 2abe
000002f0: 0a07 9f3d f068 21bd 30f7 c33d 86b4 f9bd
00000300: e3f6 643d 6801 ff3c 439c 243e cee2 d63c
00000310: 7ced 543e 1d1b 05bd 2e48 b1bc d843 023d
00000320: 904a d6bd e829 4abe 585a a7bd d63d 07bd
00000330: 9937 8b3e cb11 d13d 3e92 cc3e ef9a 5cbd
00000340: e546 873e f35a 08be 298a 31be 2561 f23d
00000350: 0d51 333b f587 993c d90a fabd 743e 34be
00000360: 0739 983e cbb5 a33e 1701 22be ca3c 9d3d
00000370: b39f a93d 7afe bdbd e1d5 2d3c f7e5 78bb
00000380: 9785 18bd 56e4 00be ca44 25be 2ca7 91be
00000390: 35bd 1d3e a9d6 f0bd 2ed5 a13e 4dee 8cbe
000003a0: a176 253e 55c4 76be 0ba3 dc3d ccd6 093e
000003b0: 387d 0bbb 7d36 37bd 6511 7cbe 8fd0 c93d
000003c0: ca2b e1bd 75e9 003c 0e2a c7bd 640a 313e
000003d0: 9d1a 11be 6a2b 263e 126f fdb9 c5f9 223d
000003e0: 7aec a5be 1faa a73e 8ef3 8c3e 8ba3 9b3e
000003f0: bb3c bdbd c254 923e 0878 ff3d c4cb cebc

lstm.weight_hh_l0 f4 [128, 32]
-0.06715464 -0.032729637 -0.08264766 0.2184981 0.083136804 0.0083588045 -0.11450147 -0.1821877
0.19059631 -0.11906078 0.3549512 -0.088266045 -0.041132048 0.26808035 -0.20071144 -0.10357609
0.39066422 0.046184625 -0.17013185 -0.4309097 0.16765992 -0.12306828 0.038882487 0.28731257
-0.38727885 -0.35818514 0.028842121 -0.32521752 0.28012148 -0.09689413 0.41655982 -0.12380917
-0.16846725 -0.23748438 -0.25430614 0.2467564 -0.19813484 -0.03531413 -0.02713269 0.1210778
-0.21688001 -0.1102658 0.23011577 -0.25583807 0.037306573 0.044267587 -0.37782088 0.2815705
0.2980557 -0.19955051 -0.11040692 -0.39395887 0.21777384 -0.10842797 0.10793799 -0.048210487
-0.18528783 0.025046842 0.25342163 -0.24705815 0.43573722 -0.3788301 0.3945632 -0.050350726
-0.23045528 -0.3828164 -0.18569916 -0.16221203 0.15739177 -0.31102836 -0.04957703 -0.2782762
-0.13317208 -0.13654087 0.106831044 -0.11214753 -0.39385375 0.2772278 -0.31095347 -0.2645452
-0.08364233 0.1425882 0.0886787 -0.02951688 0.19687082 -0.2713682 0.031588223 0.14490743
0.1363531 -0.28119096 0.09665387 -0.44660366 0.23684531 -0.17643906 0.3512592 -0.03749953
-0.3689987 0.10443671 -0.07783332 0.43971917 0.08592303 -0.14989315 0.08281321 -0.12745799
-0.13950539 -0.010352529 0.008263886 -0.13790509 0.027229633 0.15463285 -0.20942466 0.04347633
0.31669936 -0.19477269 -0.14514135 -0.36804837 -0.11168391 -0.2845997 0.12107278 0.08545516
0.0046561128 -0.06483273 0.094549954 0.045245897 0.20740733 -0.32034826 0.10754848 -0.21131998
0.07326428 -0.07226616 -0.10309852 0.3012507 -0.08141935 -0.1632023 0.0113743525 -0.0033683078
0.24715538 -0.057942722 0.21663873 0.26143947 -0.2709273 -0.0073425593 0.08327938 -0.036112413
0.36039868 -0.13241512 0.06715991 0.18065035 -0.10667557 0.059958603 0.07021988 0.29584262
-0.122187436 0.013834349 -0.08477932 0.08017636 0.19047193 0.08832983 0.13047828 0.007968578
0.28365794 -0.12086622 -0.09286005 -0.15272632 -0.24815865 0.16091803 0.17506333 -0.15486464
0.049917165 -0.08253158 0.010014856 -0.5590764 0.03685274 0.25970012 0.12414848 0.13974081
0.17096905 0.34218776 0.052372858 -0.025056163 0.21311936 0.3380465 -0.045900147 0.11348821
0.025977602 -0.11121636 0.22768767 -0.0106304055 -0.03902496 0.065047435 -0.16383536 0.18485422
0.0081376275 -0.17401086 -0.08619666 -0.14424182 0.09181352 -0.019646682 0.066524036 0.007032669
0.2762986 -0.083028235 0.09946223 0.13926224 0.032502398 -0.09876848 -0.18135488 0.021727819
0.11701756 0.08233693 -0.22689761 -0.17029208 0.14207523 -0.18863548 0.19383904 0.09600754
-0.21999156 -0.07626403 0.023042558 -0.19775815 0.056131963 -0.117610335 0.03302448 -0.24749064
-0.46551672 -0.10549228 -0.06501008 0.18753678 0.32712892 0.33030292 0.1864123 -0.14758869
0.3417448 -0.02511155 0.40313116 0.08081296 -0.47920537 0.22127044 0.12968238 -0.068413705
0.39513063 0.20676374 -0.069561355 0.011833241 0.09584238 -0.24125569 0.04438027 0.2767407
-0.3509482 -0.04919263 0.26651412 -0.17402449 0.35571277 -0.2665029 0.26998308 -0.2514769
00000000: 5f88 89bd 830f 06bd 2d43 a9bd f7bd 5f3e
00000010: a143 aa3d 5ef3 083c bf7f eabd 6a8f 3abe
00000020: ae2b 433e 23d6 f3bd 2abc b53e d4c4 b4bd
00000030: 147a 28bd d441 893e 4d87 4dbe b31f d4bd
00000040: 2405 c83e 172c 3d3d 0b37 2ebe 32a0 dcbe
00000050: 0baf 2b3e 390b fcbd 3e43 1f3d a21a 933e
00000060: 6a49 c6be 0b64 b7be 5046 ec3c e982 a6be
00000070: 156c 8f3e 6e70 c6bd 5447 d53e aa8f fdbd
00000080: ae82 2cbe 1b2f 73be 6a34 82be b6ad 7c3e
00000090: dce3 4abe 8da5 10bd 6045 debc a3f7 f73d
000000a0: cb15 5ebe 09d3 e1bd 78a3 6b3e 35fd 82be
000000b0: c7ce 183d ee51 353d bd71 c1be 022a 903e
000000c0: c29a 983e f856 4cbe 061d e2bd fab4 c9be
000000d0: 1b00 5f3e 7c0f debd 980e dd3d 5c78 45bd
000000e0: 18bc 3dbe 092f cd3c 7bc0 813e d0fc 7cbe
000000f0: f318 df3e 05f6 c1be 3004 ca3e 903c 4ebd
00000100: 78fc 6bbe 8300 c4be ec27 3ebe e91a 26be
00000110: 4f2b 213e 1c3f 9fbe 4911 4bbd 387a 8ebe
00000120: 435e 08be 5fd1 0bbe 3cca da3d 9bad e5bd
00000130: 33a7 c9be cdf0 8d3e 4b35 9fbe 7872 87be
00000140: ab4c abbd a402 123e 2e9d b53d 62cd f1bc
00000150: 8198 493e c6f0 8abe a762 013d 9d62 143e
00000160: 26a0 0b3e 43f8 8fbe 77f2 c53d 3ca9 e4be
00000170: 9487 723e 71ac 34be 3fd8 b33e 1b99 19bd
00000180: 66ed bcbe eae2 d53d 1367 9fbd df22 e13e
00000190: 6af8 af3d 977d 19be f999 a93d 5984 02be
000001a0: 80da 0ebe a79d 29bc 4065 073c fe36 0dbe
000001b0: ae10 df3c 1358 1e3e 6b73 56be 3c14 323d
000001c0: 6b26 a23e 7e72 47be ef9f 14be d670 bcbe
000001d0: 89ba e4bd 0db7 91be 01f5 f73d 1d03 af3d
000001e0: 4e92 983b 06c7 84bd 68a3 c13d c353 393d
000001f0: 9662 543e b004 a4be 6142 dc3d 4464 58be
00000200: 950b 963d 4800 94bd 5125 d3bd 883d 9a3e
00000210: 30bf a6bd 811e 27be 7e5b 3a3c d4be 5cbb
00000220: 4d16 7d3e 5955 6dbd 8bd6 5d3e 65db 853e
00000230: fcb6 8abe da99 f0bb 618e aa3d 9cea 13bd
00000240: 2d86 b83e d497 07be 238b 893d 68fc 383e
00000250: b978 dabd 2797 753d 71cf 8f3d af78 973e
00000260: 683d fabd 77a9 623c c8a0 adbd 8133 a43d
00000270: 130b 433e 45e6 b43d 199c 053e a38e 023c
00000280: 9d3b 913e b588 f7bd 692d bebd 4a64 1cbe
00000290: 4d1d 7ebe b2c7 243e cd43 333e d694 1ebe
000002a0: f175 4c3d 5106 a9bd 5a15 243c a21f 0fbf
000002b0: e6f2 163d 6af7 843e 8f41 fe3d 3718 0f3e
000002c0: 8312 2f3e 3c33 af3e ec84 563d 9542 cdbc
000002d0: f63b 5a3e 6e14 ad3e cb01 3cbd 826c e83d
000002e0: fbce d43c 67c5 e3bd f526 693e 272b 2ebc
000002f0: a3d8 1fbd 9737 853d 75c4 27be 6d4a 3d3e
00000300: af53 053c e72f 32be e087 b0bd 21b4 13be
00000310: ba08 bc3d 14f2 a0bc c13d 883d 4e72 e63b
00000320: 0377 8d3e b50a aabd dbb2 cb3d c39a 0e3e
00000330: 3c21 053d 2147 cabd 18b5 39be 8afe b13c
00000340: e7a6 ef3d 44a0 a83d d957 68be 0c61 2ebe
00000350: 2b7c 113e a929 41be be7d 463e 9a9f c43d
00000360: 7845 61be 5130 9cbd bfc3 bc3c 1d81 4abe
00000370: a1ea 653d b0dd f0bd ad44 073d 306e 7dbe
00000380: 3558 eebe 560c d8bd 0124 85bd a409 403e
00000390: 717d a73e 771d a93e dee2 3e3e 7d21 17be
000003a0: 2df9 ae3e bdb6 cdbc 3567 ce3e 4481 a53d
000003b0: 685a f5be b894 623e 75cb 043e 7c1c 8cbd
000003c0: 904e ca3e e0b9 533e 2f76 8ebd 36e0 413c
000003d0: 0249 c43d bb0b 77be 16c8 353d f5b0 8d3e
000003e0: 7caf b3be 367e 49bd 8a74 883e 7a33 32be
000003f0: fc1f b63e 1173 88be 393b 8a3e 95c1 80be

lstm.bias_ih_l0 f4 [128]
0.4133543 0.13978446 0.05123468 -0.07610538 0.23087214 0.093162015 0.15797703 0.266006
0.12971236 0.120634355 0.28722802 -0.02481509 0.30268675 0.19843467 0.17891198 0.024121365
0.18375729 0.049701698 -0.050268557 0.13616428 -0.10345053 0.1947176 0.101135746 -0.12535053
0.30191088 0.14038813 -0.04686901 0.122044824 0.21610896 0.22237208 -0.02604482 -0.023811348
0.061771747 0.008661968 0.011896943 0.029630646 0.18134601 0.3197626 0.20868209 0.2517957
0.061396923 0.0056244517 0.12044691 0.25879967 0.06929461 0.040652227 0.31110933 -0.08694167
-0.05789519 -0.17804427 -0.06163981 0.15297948 0.17266524 0.120279565 0.06220876 0.09319192
0.17297512 -0.08638612 -0.14335616 0.10228186 0.13846143 0.12820044 0.10217476 0.29482394
-0.09131943 0.12101796 -0.12020208 -0.0030560868 -0.025341747 0.14702274 0.170606 -0.1334718
0.19670953 -0.09772676 0.22468565 -0.13887474 -0.1699212 0.13761878 0.11659897 -0.028925804
0.26615956 0.08727882 0.06869514 -0.16505696 0.19604495 -0.16952503 -0.106022134 0.078263104
-0.27812597 -0.08428764 0.1932703 -0.18988767 0.10457124 -0.14749601 0.034735434 -0.11182994
0.26677603 -0.13829906 -0.0061662453 -0.009995177 0.21018565 0.22410884 0.0729266 0.03897856
-0.048790727 0.07885834 0.19661005 0.0680314 0.23280777 -0.16801873 0.1054145 -0.09605779
0.013698738 0.14164433 0.04743041 0.034083348 -0.07648257 -0.051179137 0.24601504 0.14263931
0.12113984 -0.089261524 0.14134644 0.056417722 0.03362745 0.07855352 0.24202281 -0.00088683335
00000000: 2da3 d33e a823 0f3e 75db 513d 23dd 9bbd
00000010: bf69 6c3e bacb be3d bbc4 213e f031 883e
00000020: 51d3 043e 250f f73d 8d0f 933e 0449 cbbc
00000030: c2f9 9a3e 7532 4b3e b434 373e 2b9a c53c
00000040: df2a 3c3e 0294 4b3d 67e6 4dbd a66e 0b3e
00000050: dfdd d3bd 0d64 473e 4220 cf3d e45b 00be
00000060: 1094 9a3e e8c1 0f3e b8f9 3fbd a3f2 f93d
00000070: ab4b 5d3e 82b5 633e f25b d5bc 0410 c3bc
00000080: 5f04 7d3d edea 0d3c 65eb 423c f8bb f23c
00000090: c5b2 393e ecb7 a33e c2b0 553e 5eeb 803e
000000a0: 577b 7b3d 524d b83b dfac f63d 6481 843e
000000b0: 55ea 8d3d f382 263d b949 9f3e 790e b2bd
000000c0: 8223 6dbd 3d51 36be 077a 7cbd a7a6 1c3e
000000d0: 28cf 303e 2255 f63d 9dce 7e3d 68db be3d
000000e0: 6420 313e 35eb b0bd f5cb 12be 2779 d13d
000000f0: d5c8 0d3e fa46 033e 0041 d13d 2af3 963e
00000100: ae05 bbbd 44d8 f73d 822c f6bd a148 48bb
00000110: 7f99 cfbc 218d 163e 57b3 2e3e d5ac 08be
00000120: 396e 493e f824 c8bd ff13 663e 2e35 0ebe
00000130: d3ff 2dbe f0eb 0c3e 71cb ee3d cff5 ecbc
00000140: 1146 883e 3dbf b23d 0ab0 8c3d b104 29be
00000150: 02c0 483e f897 2dbe 2222 d9bd 6848 a03d
00000160: 8766 8ebe 009f acbd a6e8 453e ea71 42be
00000170: 7229 d63d 3209 17be be46 0e3d 1807 e5bd
00000180: de96 883e 459e 0dbe 370e cabb d0c2 23bc
00000190: e83a 573e ca7c 653e 8b5a 953d fca7 1f3d
000001a0: c9d8 47bd 7b80 a13d 2554 493e 0c54 8b3d
000001b0: 2965 6e3e 1a0d 2cbe 8fe3 d73d f2b9 c4bd
000001c0: ac70 603c 360b 113e 6446 423d fb9a 0b3d
000001d0: e5a2 9cbd 37a1 51bd 5eeb 7b3e 0a10 123e
000001e0: 2a18 f83d bfce b6bd 1fbd 103e 4516 673d
000001f0: f0bc 093d abe0 a03d d4d4 773e 617a 68ba

lstm.bias_hh_l0 f4 [128]
0.13164657 -0.12413591 0.14918636 0.16534781 0.16245244 0.045384984 0.094357714 0.12823915
0.1119431 0.21461791 0.16349623 0.11395249 0.098009564 -0.14094104 0.05251352 -0.034467075
0.0725191 -0.013911218 0.09113883 0.15773275 -0.08331104 0.025415005 0.24090303 -0.11476985
0.20713578 0.019295562 0.09373612 0.07266446 0.00788196 0.26421335 0.13467783 0.09090962
0.08330112 0.18972698 0.085526556 0.17060061 -0.017827494 0.21551351 0.0388992 0.2009278
0.014407763 -0.101386145 0.00404487 0.24273738 0.25502142 0.071185 0.2322556 -0.0070566074
-0.119019896 0.021112133 -0.071228124 -0.07539938 -0.04877452 -0.061630882 0.10981311 -0.04841905
0.10924894 -0.04703388 0.18635093 -0.19244996 0.06699925 -0.07041189 -0.08525692 0.22894298
-0.22901836 -0.10455823 0.1890367 0.11683374 0.12766498 0.25557414 0.07609036 -0.066131905
0.12065706 -0.092688814 -0.0034982068 -0.045803938 -0.1211803 0.16150814 -0.12541409 -0.04230045
0.057850685 0.021189917 -0.20543438 -0.1534092 0.011280204 -0.13212726 0.1557539 0.005446347
0.04416021 -0.11238678 0.22334182 0.09163695 0.03770374 -0.27753872 0.21091752 -0.15974651
0.30418837 0.07947177 0.13314414 0.06954851 0.039817907 0.024242373 0.021249002 0.34717226
-0.038624633 -0.052040655 0.12871133 -0.09913251 0.28789872 0.0589236 0.17818722 -0.20891348
0.023522059 0.07243071 0.1703246 0.12992512 -0.07592856 0.15634774 0.18672876 0.101700835
0.1455838 0.20720237 0.14591084 0.05850775 0.03942959 -0.047861714 0.22647041 0.15476963
00000000: 5cce 063e f83a febd 4fc4 183e f050 293e
00000010: ef59 263e 9be5 393d 9e3e c13d 2051 033e
00000020: 6d42 e53d ccc4 5b3e 8e6b 273e ec5f e93d
00000030: 3db9 c83d d952 10be 6b18 573d 592d 0dbd
00000040: e584 943d e1eb 63bc ffa6 ba3d b284 213e
00000050: fb9e aabd 2133 d03c 49af 763e 750c ebbd
00000060: 671b 543e ba11 9e3c b9f8 bf3d 1bd1 943d
00000070: 5623 013c f946 873e fce8 093e d32e ba3d
00000080: c799 aa3d ca47 423e 8c28 af3d edb1 2e3e
00000090: f70a 92bc 93af 5c3e c454 1f3d 04c0 4d3e
000000a0: 8a0e 6c3c 8aa3 cfbd d48a 843b 2690 783e
000000b0: 2b92 823e 71c9 913d 69d4 6d3e 1d3b e7bb
000000c0: b4c0 f3bd 5af3 ac3c 0de0 91bd fd6a 9abd
000000d0: cbc7 47bd aa70 7cbd b2e5 e03d 0e53 46bd
000000e0: e9bd df3d 99a6 40bd c7d2 3e3e 9a11 45be
000000f0: e736 893d 1c34 90bd 2e9b aebd 0770 6a3e
00000100: ca83 6abe a022 d6bd d692 413e 8746 ef3d
00000110: 9cba 023e 9dda 823e 43d5 9b3d 2a70 87bd
00000120: 0c1b f73d a2d3 bdbd 2c42 65bb e99c 3bbd
00000130: 612d f8bd 6462 253e 8d6c 00be 3d43 2dbd
00000140: d7f4 6c3d 7a96 ad3c 645d 52be 4d17 1dbe
00000150: 9bd0 383c 5e4c 07be f37d 1f3e 4577 b23b
00000160: 56e1 343d 0a2b e6bd b8b3 643e 27ac bb3d
00000170: 3d6f 1a3d 8e19 8ebe c3fa 573e 9794 23be
00000180: 94be 9b3e 18c2 a23d f056 083e 736f 8e3d
00000190: 1a18 233d f197 c63c 6312 ae3c 90c0 b13e
000001a0: dd34 1ebd 9528 55bd e7cc 033e fc05 cbbd
000001b0: 7667 933e df59 713d b676 363e 6aed 55be
000001c0: 55b1 c03c 8d56 943d 9269 2e3e 170b 053e
000001d0: 6f80 9bbd 9f19 203e d335 3f3e 8748 d03d
000001e0: eb13 153e dc2c 543e a769 153e d3a5 6f3d
000001f0: ec80 213d a50a 44bd dce7 673e ee7b 1e3e

lstm.weight_ih_l1 f4 [128, 32]
-0.052591328 -0.11471131 -0.1374666 0.03854162 -0.02805442 -0.058440443 0.26038706 0.12615004
0.0660244 -0.12635632 0.17961504 -0.03753915 -0.1625737 0.15326118 0.05389763 -0.17219444
-0.025050327 -0.0010011462 -0.065590136 0.08372486 0.028445998 -0.17086668 0.031817622 -0.04053585
-0.11784498 0.072613366 -0.017968003 0.058008563 -0.087759145 0.017843513 -0.07061661 -0.10248862
-0.42653129 -0.38867995 -0.2607912 0.17902075 0.26770103 0.2785682 -0.1365696 -0.5310959
0.10844398 -0.1752745 0.21974875 -0.23610131 -0.0636649 0.28723824 -0.26189497 0.007968349
0.43718234 0.06974255 -0.24343202 -0.41565135 0.13727525 -0.4562391 0.48439103 0.14897975
0.00908912 -0.09813551 -0.03505661 -0.10124641 0.07787967 -0.2199957 0.46450713 -0.0855063
-0.33496374 -0.15096153 -0.3352922 0.3141346 0.06606046 0.35994065 -0.025682293 -0.6164597
0.09704256 -0.041887365 0.33457926 -0.28204992 0.044970863 0.29842898 -0.24847822 -0.11755163
0.42340457 -0.12659843 -0.41264585 -0.24577202 0.1573763 -0.10777053 0.3568139 0.19178577
-0.06228464 -0.09732924 0.036643468 -0.11287556 0.3806079 -0.16311726 0.4146825 -0.11783534
-0.09927751 -0.030401027 -0.08881793 -0.04645991 0.2194612 0.377773 0.15190002 -0.16137064
0.0024801262 0.0015055017 0.26212767 -0.15122585 0.11840523 0.060105525 -0.1857327 -0.26171848
0.13304035 0.053299826 -0.02689136 -0.1248094 -0.023510944 -0.36798498 0.284495 0.05731119
-0.15874015 -0.037273016 0.104259074 -0.28079277 0.10958535 -0.075502194 0.2984525 -0.1782485
-0.3610689 -0.24580738 -0.2769066 0.16059323 0.31789425 0.37159905 0.12860407 -0.30696076
-0.08356234 0.15758494 0.20824684 -0.042915497 -0.36379203 0.25511712 -0.12600785 0.038836982
0.29791564 0.06916352 -0.30793667 -0.12447105 0.15616897 -0.4282224 0.3405441 0.18974657
-0.2877684 -0.16420446 -0.109020695 -0.3351806 0.30935976 -0.022987397 0.29517555 0.0037533564
-0.11766787 0.097042724 -0.1704341 0.22788613 0.12877835 0.2369086 0.13876429 0.14529696
0.021381076 -0.10842847 -0.0046113855 0.026723823 0.19953261 -0.011707194 0.14355637 0.025763728
0.12738253 -0.08113687 -0.062478982 -0.020138033 0.023428671 0.019451862 0.03517705 0.09548942
-0.13680075 -0.10511574 0.05581857 0.042739738 0.04841084 0.16373289 0.09297551 0.011305032
-0.00047700893 -0.14811118 -0.2831155 0.20807138 0.06920752 0.3209326 0.095707476 0.10795045
0.24232209 0.031030267 0.40216517 -0.16596232 -0.083568424 -0.10234861 -0.0017455029 -0.19143274
0.37346855 -0.003964828 -0.22601017 -0.17871195 0.15400885 -0.28906575 0.2380036 0.018958682
-0.07929363 -0.16458172 0.2143545 -0.042331617 0.16792914 0.09914143 0.33805412 0.015558347
-0.08914937 -0.10535144 0.12408861 0.03837927 0.19280799 0.15455644 0.18699583 -0.10020099
0.105716564 0.040598992 0.11177115 0.14772998 -0.020347303 0.123023964 0.089901805 0.03253476
-0.0101890415 0.20415086 0.1363198 0.12522182 0.00796231 -0.17147109 -0.09279308 0.1935825
-0.023959965 -0.12207753 -0.04350501 -0.056050632 -0.0075655594 -0.12689649 -0.15328401 -0.34953657
00000000: 016a 57bd c3ed eabd 0bc4 0cbe d1dd 1d3d
00000010: 62d2 e5bc 3f5f 6fbd 7451 853e 7a2d 013e
00000020: cd37 873d 8d63 01be 01ed 373e a7c2 19bd
00000030: b879 26be 80f0 1c3e c3c3 5c3d bd53 30be
00000040: 5836 cdbc e438 83ba 1f54 86bd f077 ab3d
00000050: 9507 e93c adf7 2ebe 3253 023d eb08 26bd
00000060: b558 f1bd 51b6 943d a231 93bc 639a 6d3d
00000070: 11bb b3bd 8f2c 923c 719f 90bd 8ee5 d1bd
00000080: 4f62 dabe 0f01 c7be 6d86 85be 3751 373e
00000090: 1c10 893e 7ea0 8e3e e7d8 0bbe e7f5 07bf
000000a0: e117 de3d 297b 33be d105 613e 8bc4 71be
000000b0: be62 82bd e410 933e 1917 86be ae8d 023c
000000c0: 5dd6 df3e 2fd5 8e3d 3e46 79be 41d0 d4be
000000d0: e291 0c3e 2c98 e9be 1a02 f83e 268e 183e
000000e0: 88ea 143c 45fb c8bd 8597 0fbd 475a cfbd
000000f0: 607f 9f3d 8e46 61be e1d3 ed3e ed1d afbd
00000100: 5e80 abbe a995 1abe 6bab abbe 40d6 a03e
00000110: b54a 873d 244a b83e ac63 d2bc 4ed0 1dbf
00000120: 40be c63d 1692 2bbd f94d ab3e d968 90be
00000130: 5e33 383d afcb 983e 1371 7ebe e9be f0bd
00000140: 7cc8 d83e 05a3 01be 5146 d3be a9ab 7bbe
00000150: 4127 213e ccb6 dcbd 50b0 b63e 7d63 443e
00000160: 2e1e 7fbd 8d54 c7bd 7617 163d 4d2b e7bd
00000170: 0adf c23e 3608 27be 4451 d43e a853 f1bd
00000180: 0252 cbbd 930b f9bc 2de6 b5bd bf4c 3ebd
00000190: 70ba 603e 766b c13e ae8b 1b3e 583e 25be
000001a0: 9d89 223b 4154 c53a 9935 863e f3da 1abe
000001b0: 717e f23d 3631 763d b730 3ebe f7ff 85be
000001c0: bb3b 083e eb50 5a3d 454b dcbc 129c ffbd
000001d0: 069a c0bc 8768 bcbe 54a9 913e 23bf 6a3d
000001e0: c78c 22be 97ab 18bd c885 d53d 12c4 8fbe
000001f0: 496e e03d e5a0 9abd c4ce 983e c686 36be
00000200: 06de b8be eeb4 7bbe b4c6 8dbe 8d72 243e
00000210: 09c3 a23e 3b42 be3e c9b0 033e f629 9dbe
00000220: bb22 abbd f25d 213e a93e 553e 29c8 2fbd
00000230: f342 babe b69e 823e 3408 01be 8713 1f3d
00000240: 6688 983e 9ba5 8d3d e0a9 9dbe aeea febd
00000250: c2ea 1f3e f73f dbbe cc5b ae3e ed4c 423e
00000260: 6156 93be 3725 28be 3e46 dfbd cb9c abbe
00000270: 6764 9e3e 1150 bcbc 4021 973e dffa 753b
00000280: dafb f0bd 56be c63d 4786 2ebe fb5a 693e
00000290: 79de 033e 2b98 723e 3a18 0e3e bac8 143e
000002a0: 5e27 af3c bf0f debd 1b1b 97bb ebeb da3c
000002b0: 4752 4c3e 88cf 3fbc 7100 133e 740e d33c
000002c0: 9170 023e 162b a6bd f6e9 7fbd 84f8 a4bc
000002d0: 7ced bf3c 8359 9f3c cf15 103d f58f c33d
000002e0: 7f15 0cbe ec46 d7bd 03a2 643d dd0f 2f3d
000002f0: 724a 463d 98a9 273e f269 be3d be38 393c
00000300: 0e17 fab9 75aa 17be 84f4 90be aa10 553e
00000310: acbc 8d3d 4751 a43e 4802 c43d 2015 dd3d
00000320: 4823 783e 3033 fe3c 98e8 cd3e 07f2 29be
00000330: ec25 abbd 269c d1bd 5cc9 e4ba f206 44be
00000340: 4537 bf3e 63eb 81bb 366f 67be 4400 37be
00000350: 7fb4 1d3e 6d00 94be 37b7 733e 3d4f 9b3c
00000360: b364 a2bd 1c88 28be bf7f 5b3e eb63 2dbd
00000370: 9ef5 2b3e a90a cb3d 6e15 ad3e 70e8 7e3c
00000380: f293 b6bd 7fc2 d7bd 2b22 fe3d 9533 1d3d
00000390: 756f 453e 0b44 1e3e d67b 3f3e 2d36 cdbd
000003a0: ed81 d83d 214b 263d 46e8 e43d 8746 173e
000003b0: 63af a6bc fdf3 fb3d 701e b83d 2b43 053d
000003c0: f0ef 26bc ec0c 513e 6b97 0b3e 263a 003e
000003d0: 5974 023c 1e96 2fbe 4c0a bebd 7e3a 463e
000003e0: b047 c4bc c903 fabd 4f32 32bd 5995 65bd
000003f0: 83e8 f7bb 27f1 01be 7cf6 1cbe 75f6 b2be

lstm.weight_hh_l1 f4 [128, 32]
0.0017908225 -0.015013942 -0.20738363 0.07818789 -0.069376685 0.12555948 -0.019450217 0.22574942
-0.3027411 0.17802571 0.20057273 -0.022106325 0.34271848 0.033199683 0.2087202 -0.059487414
-0.04398328 -0.22253461 0.21109384 -0.2472641 0.19401412 -0.02099659 -0.27479988 0.01237398
-0.024387008 -0.14824042 0.04246226 -0.21149541 -0.05466353 0.09544391 0.039414085 0.08266296
-0.098250315 -0.087987915 -0.13039511 -0.06965746 0.17944531 0.17698254 0.06922017 0.00999215
-0.08736359 -0.13487191 -0.1317833 -0.20237574 -0.09405128 -0.18212953 -0.04707005 -0.16722944
0.11880845 -0.15425313 -0.10811262 -0.20610218 -0.12309681 0.0672153 0.1248419 -0.15576169
-0.015566127 0.13660008 -0.14602768 -0.02921133 -0.18389298 -0.1179736 0.052882917 0.02520361
0.0807091 -0.115944475 0.016213093 0.010894749 0.08580305 -0.07140361 -0.0057091257 0.11508034
-0.04730168 -0.063853145 -0.1685434 -0.019428443 0.19544934 -0.11562782 -0.1189166 0.04498525
-0.13537696 0.16489978 0.0011115958 0.063619085 0.10376993 -0.0025993984 -0.064202905 0.020135242
0.078160115 -0.07096584 -0.00743159 -0.022903379 -0.13406543 0.18003683 -0.36371717 0.20534864
0.097453624 0.11409235 -0.24106573 -0.0721491 -0.09057207 0.08755709 -0.10839277 0.109036215
0.08305206 0.11829487 0.19277418 -0.11362245 0.24604611 -0.023592964 0.0027666038 0.021350032
-0.022552466 -0.13600037 0.121946394 -0.19178745 -0.071343236 0.16264312 0.07892693 0.10573682
0.060691223 0.06684388 0.11048277 0.11903154 -0.22454101 -0.008944955 -0.0790795 0.14600052
0.10679837 -0.14383017 -0.019887779 0.27403474 -0.10420367 -0.04636174 0.035687752 0.17359988
-0.045662552 -0.12345467 0.18876465 -0.02886498 -0.06766498 -0.056650575 0.085172184 -0.043569155
0.11876087 -0.12028475 0.05095813 -0.14069748 -0.023666633 0.16551192 0.07464519 0.121739715
0.050326236 -0.0032276001 -0.09091852 0.085351355 -0.35469076 0.07395556 -0.23691691 0.14163849
0.27402627 -0.034543734 -0.02794601 -0.06519827 0.032544997 0.2206566 -0.2269468 0.011904796
-0.13587193 0.32247344 0.008332344 -0.17637457 0.18293688 0.080678895 0.24175365 -0.020378688
0.17441748 -0.26792148 0.22792105 -0.2529878 0.17953415 0.31212354 -0.005188672 0.186135
0.013737312 -0.24640183 0.2438612 -0.24786319 0.065100595 0.1150663 -0.024664288 0.194533
0.0039002087 -0.0031330823 0.12936199 -0.07654147 -0.11305243 0.20357941 0.03577738 -0.0068967347
0.07360786 0.10659701 0.12722546 -0.17178243 0.17266235 -0.06797433 0.14852318 -0.13555415
-0.079870015 -0.095023 0.055568565 -0.08681381 0.005797685 -0.013574154 0.14435671 -0.12931474
-0.034986004 0.07023825 0.17878743 0.07813478 0.06835806 0.014602788 0.049373984 0.05098934
0.32024324 0.022918893 0.11071899 0.007977479 0.14468202 0.10043216 -0.10659762 0.023228664
-0.267407 0.18806186 0.22041461 0.118043266 0.121556394 0.09916899 0.08879317 -0.004553522
0.29177374 -0.24742223 0.24159218 -0.016555617 0.08985561 0.1734507 -0.2688944 0.12334844
0.074978545 -0.051626734 0.12632126 0.01405361 0.0011917019 0.011390729 -0.077224575 0.26152086
00000000: 08ba ea3a 09fd 75bc 605c 54be f920 a03d
00000010: 5d15 8ebd aa92 003e 1056 9fbc db2a 673e
00000020: e200 9bbe 5f4c 363e f062 4d3e 5318 b5bc
00000030: cc78 af3e 64fc 073d c0ba 553e 13a9 73bd
00000040: d027 34bd 1de0 63be fc28 583e cd32 7dbe
00000050: a3ab 463e 0a01 acbc 92b2 8cbe 3cbc 4a3c
00000060: 43c7 c7bc 56cc 17be e8ec 2d3d 4192 58be
00000070: dee6 5fbd 1978 c33d aa70 213d 334b a93d
00000080: 7637 c9bd 0233 b4bd 4c86 05be 92a8 8ebd
00000090: 83c0 373e e93a 353e 4ec3 8d3d 1db6 233c
000000a0: afeb b2bd dd1b 0abe 34f2 06be 963b 4fbe
000000b0: f59d c0bd 2a80 3abe 86cc 40bd 323e 2bbe
000000c0: d851 f33d 88f4 1dbe 266a ddbd 730c 53be
000000d0: 2e1a fcbd 2da8 893d 1cad ff3d fe7f 1fbe
000000e0: 1209 7fbc e4e0 0b3e 4888 15be 994c efbc
000000f0: 714e 3cbe 259c f1bd c29b 583d cd77 ce3c
00000100: d04a a53d 4c74 edbd 52d1 843c e47f 323c
00000110: 82b9 af3d 0e3c 92bd 9e13 bbbb 3eaf eb3d
00000120: 68bf 41bd 70c5 82bd a496 2cbe 6628 9fbc
00000130: df23 483e 47ce ecbd 8c8a f3bd 7442 383d
00000140: 42a0 0abe 7ddb 283e f7b2 913a b94a 823d
00000150: 5485 d43d ab5a 2abb d07c 83bd aaf2 a43c
00000160: 6912 a03d 8a56 91bd b284 f3bb de9f bbbc
00000170: 7348 09be 935b 383e 2339 babe ea46 523e
00000180: c495 c73d 40a9 e93d efd9 76be e8c2 93bd
00000190: d97d b9bd 2251 b33d 07fd ddbd 614e df3d
000001a0: 3317 aa3d 9544 f23d 9866 453e e3b2 e8bd
000001b0: 83f3 7b3e 0846 c1bc e94f 353b 43e6 ae3c
000001c0: f3bf b8bc ae43 0bbe 08bf f93d ee63 44be
000001d0: 671c 92bd eb8b 263e 71a4 a13d 8c8c d83d
000001e0: 5c97 783d 72e5 883d ca44 e23d cfc6 f33d
000001f0: 14ee 65be dc8d 12bc 6ff4 a1bd 2981 153e
00000200: 1bb9 da3d 3748 13be b2eb a2bc 484e 8c3e
00000210: bc68 d5bd cfe5 3dbd 522d 123d 2bc4 313e
00000220: a808 3bbd cdd5 fcbd 854b 413e 4076 ecbc
00000230: f093 8abd 6f0a 68bd c16e ae3d 9275 32bd
00000240: e638 f33d da57 f6bd 79b9 503d 0013 10be
00000250: 87e0 c1bc f57b 293e 94df 983d ac52 f93d
00000260: e222 4e3d 2586 53bb 7d33 babd b1cc ae3d
00000270: 079a b5be 0376 973d 599a 72be ae09 113e
00000280: 2c4d 8c3e bb7d 0dbd 08ef e4bc ac86 85bd
00000290: e74d 053d cef3 613e be64 68be 550c 433c
000002a0: 0322 0bbe 3d1b a53e 6284 083c 899b 34be
000002b0: ce53 3b3e fa3a a53d 458e 773e 35f1 a6bc
000002c0: 7f9a 323e 012d 89be 2364 693e 9e87 81be
000002d0: cdd7 373e a8ce 9f3e bc05 aabb 2c9a 3e3e
000002e0: 7612 613c c350 7cbe c0b6 793e d9cf 7dbe
000002f0: 7653 853d e1a7 eb3d c30c cabc a933 473e
00000300: a59a 7f3b 6654 4dbb 7877 043e c6c1 9cbd
00000310: 0888 e7bd 1f77 503e 4d8b 123d 01fe e1bb
00000320: b8bf 963d 884f da3d 6447 023e bce7 2fbe
00000330: 66ce 303e 2036 8bbd 7616 183e b5ce 0abe
00000340: e492 a3bd 6b9b c2bd dd9b 633d 70cb b1bd
00000350: 82fa bd3b 2166 5ebc 3fd2 133e 156b 04be
00000360: 7c4d 0fbd 12d9 8f3d 0d14 373e 2105 a03d
00000370: 50ff 8b3d 8840 6f3c 603c 4a3d 33da 503d
00000380: ecf6 a33e 67c0 bb3c a3c0 e23d f9b3 023c
00000390: 8627 143e 60af cd3d da4f dabd 0a4a be3c
000003a0: 92e9 88be 4a93 403e 5eb4 613e abc0 f13d
000003b0: 8ff2 f83d 1d19 cb3d 32d9 b53d b635 95bb
000003c0: 5e63 953e 415c 7dbe f163 773e a59f 87bc
000003d0: 3806 b83d 0f9d 313e 87ac 89be 1b9e fc3d
000003e0: 5a8e 993d 8e76 53bd 5c5a 013e 1d41 663c
000003f0: e132 9c3a 2ea0 3a3c eb27 9ebd 10e6 853e

lstm.bias_ih_l1 f4 [128]
0.02611424 0.12042055 0.14054918 -0.088407636 -0.0689133 0.16640405 0.057722144 0.34294686
-0.027164238 0.1992006 -0.008331099 -0.07854365 -0.071928225 0.033811245 -0.03438855 0.16389745
0.11681479 0.114913955 -0.017064646 0.21494482 0.044843152 0.1699853 0.015108596 0.06418024
0.13420439 0.108013526 -0.06107294 -0.08590134 0.12066477 0.1317143 -0.18916906 -0.023551727
0.04982 0.13251458 0.047668725 0.075118616 -0.08331735 0.11757789 0.01903818 0.07714149
0.1682524 0.31962433 -0.05499903 -0.1613209 0.2792012 -0.058553357 0.11047643 -0.017559357
0.18801488 0.20002912 0.05090296 0.10675233 0.12598658 0.30398187 0.10191366 -0.03653926
0.00040943437 -0.05422363 0.15073828 0.13435213 -0.28973377 0.09783196 -0.3142038 -0.040547367
0.1623905 -0.24488212 -0.211912 0.02179117 0.046275906 0.29727167 -0.103816666 0.072680116
-0.31035927 0.2391025 0.24129027 -0.044228822 0.144281 0.09582024 0.21386719 -0.11197212
0.052221213 -0.32973692 0.30209756 -0.16472125 0.2728861 0.17884497 -0.17123243 0.08050228
0.15214261 -0.20864297 0.009345359 -0.008063983 -0.0054687336 0.06682593 0.08865929 -0.015288036
0.19506085 -0.13357374 -0.08905831 -0.116403826 -0.25119233 0.123096295 0.03675997 0.23735623
-0.019998163 0.0040894356 0.044405755 -0.20023294 0.050647527 0.038930234 0.022147596 -0.12897153
0.16954853 0.19315025 0.03538566 0.07442384 0.15411144 0.26001287 0.079162806 -0.20273973
-0.11236966 0.18122974 0.060293168 0.058289416 0.035892166 0.053096484 -0.012067774 0.18337364
00000000: 88ed d53c 0d9f f63d 20ec 0f3e 100f b5bd
00000010: 6b22 8dbd d365 2a3e 0e6e 6c3d bb96 af3e
00000020: 8987 debc 3efb 4b3e 297f 08bc 7edb a0bd
00000030: 1b4f 93bd a97d 0a3d 02db 0cbd bcd4 273e
00000040: 983c ef3d 0258 eb3d 28cb 8bbc 7f1a 5c3e
00000050: 74ad 373d a010 2e3e 0b8a 773c ee70 833d
00000060: e06c 093e 3236 dd3d 9e27 7abd 0bed afbd
00000070: 171f f73d 1de0 063e 89b5 41be 8def c0bc
00000080: 0e10 4c3d e7b1 073e 4840 433d cad7 993d
00000090: 49a2 aabd adcc f03d f5f5 9b3c 5cfc 9d3d
000000a0: 5b4a 2c3e cda5 a33e aa46 61bd 4e31 25be
000000b0: 76f3 8e3e a5d5 6fbd 7741 e23d a4d8 8fbc
000000c0: f986 403e 6fd4 4c3e 9f7f 503d f7a0 da3d
000000d0: a002 013e 83a3 9b3e 1cb8 d03d 31aa 15bd
000000e0: 5aa9 d639 9919 5ebd 235b 1a3e 9b93 093e
000000f0: fc57 94be 1f5c c83d 52df a0be ff14 26bd
00000100: b249 263e 61c2 7abe 76ff 58be 6583 b23c
00000110: ce8b 3d3d fe33 983e d59d d4bd 50d9 943d
00000120: 69e7 9ebe 49d7 743e cc14 773e 4829 35bd
00000130: 66be 133e 673d c43d 0000 5b3e a451 e5bd
00000140: e9e5 553d 47d3 a8be 88ac 9a3e b0ac 28be
00000150: bab7 8b3e 2323 373e 8e57 2fbe 61de a43d
00000160: 46cb 1b3e 81a6 55be 471d 193c cc1e 04bc
00000170: 1033 b3bb 08dc 883d 0093 b53d ac7a 7abc
00000180: 08be 473e 8ec7 08be 3464 b6bd 2165 eebd
00000190: 489c 80be e919 fc3d 9f91 163d 830d 733e
000001a0: 30d3 a3bc ac00 863b cfe2 353d dd09 4dbe
000001b0: c873 4f3d 4f75 1f3d e06e b53c 1d11 04be
000001c0: 219e 2d3e 2ec9 453e 8ef0 103d 876b 983d
000001d0: 64cf 1d3e 6820 853e 1c20 a23d 019b 4fbe
000001e0: 1022 e6bd 4a94 393e f8f5 763d e2c0 6e3d
000001f0: aa03 133d b37b 593d eab7 45bc 4dc6 3b3e

lstm.bias_hh_l1 f4 [128]
0.22036685 0.12533113 -0.02926342 0.055676974 -0.14823548 0.013343188 -0.084273085 0.19075984
-0.07188714 0.016274046 0.24219187 -0.092913315 0.07135982 0.13695553 0.17149854 0.06674737
0.029107023 0.018969584 0.07562417 0.0034024576 0.21023849 0.2005583 0.12580243 -0.06117325
0.08903122 0.21352969 0.20062006 -0.022055715 0.056184914 -0.14060043 -0.14001288 0.087323606
0.0694642 0.030006526 -0.06222213 -0.004185167 -0.23429799 0.15032394 -0.04874821 0.2070109
-0.07105445 0.07104497 0.0771894 -0.05972161 0.16384968 -0.2505774 0.23230372 0.10075675
0.17244591 0.34725448 0.30031478 0.12731382 0.10299255 0.039281026 -0.16017221 0.11227081
0.12297999 0.04601333 0.08647523 0.06943451 -0.14333147 -0.11012266 -0.06602184 -0.009211741
0.17969102 -0.06122992 0.071789995 0.09471237 0.048819117 0.21014243 -0.22068638 0.31274405
-0.039893094 0.29740527 0.27835628 -0.24550025 0.18718421 -0.13595274 0.14934155 -0.013126533
0.2565857 -0.24209285 0.018130463 -0.22277524 -0.01745496 0.22452538 -0.1999192 -0.048187427
0.040439706 -0.012729542 0.22612263 -0.23033032 0.026478047 0.09294782 0.10309768 0.130092
0.29595563 -0.0640837 0.12436816 0.0017446042 -0.026909944 0.32478547 -0.047416985 0.27623463
0.11007008 0.013851315 -0.088202275 0.027810955 0.096253335 -0.089943804 0.15942729 -0.0836808
0.050657284 0.2794638 0.22864369 0.004615724 0.122294724 -0.031131884 -0.004460269 0.08534458
-0.11212823 0.031682335 0.15894936 0.18141052 -0.16558076 -0.037430923 -0.20878643 -0.009562688
00000000: d9a7 613e ce56 003e d7b9 efbc 8a0d 643d
00000010: 0bcb 17be 639d 5a3c 5e97 acbd 8c56 433e
00000020: 9139 93bd 2651 853c 2501 783e 5649 bebd
00000030: 1925 923d 123e 0c3e 509d 2f3e d8b2 883d
00000040: da71 ee3c 1a66 9b3c d8e0 9a3d c4fb 5e3b
00000050: c248 573e 285f 4d3e 5ad2 003e cd90 7abd
00000060: 0056 b63d 87a7 5a3e 586f 4d3e 30ae b4bc
00000070: 2722 663d 8ff9 0fbe 895f 0fbe b8d6 b23d
00000080: 3f43 8e3d 3fd0 f53c a2dc 7ebd ba23 89bb
00000090: d0eb 6fbe 85ee 193e 34ac 47bd aafa 533e
000000a0: ff84 91bd 0680 913d 7a15 9e3d a69e 74bd
000000b0: 36c8 273e ae4b 80be 07e1 6d3e 8e59 ce3d
000000c0: a995 303e 57cb b13e dcc2 993e 8e5e 023e
000000d0: c2ed d23d 24e5 203d 2f04 24be 3dee e53d
000000e0: efdc fb3d 7978 3c3d ed19 b13d ae33 8e3d
000000f0: 7cc5 12be fd87 e1bd 7536 87bd d8ec 16bc
00000100: ec00 383e 39cc 7abd a206 933d 8ff8 c13d
00000110: 8ef6 473d 942f 573e 9cfb 61be fd1f a03e
00000120: f166 23bd 8145 983e b784 8e3e 6b64 7bbe
00000130: 38ad 3f3e 3237 0bbe feec 183e ab10 57bc
00000140: 335f 833e 30e7 77be 5686 943c 311f 64be
00000150: b4fd 8ebc fbe9 653e 9eb7 4cbe 2e60 45bd
00000160: 1ba4 253d 928f 50bc b18c 673e b6db 6bbe
00000170: 7de8 d83c 6d5b be3d e024 d33d d636 053e
00000180: 7f87 973e 513e 83bd bcb4 fe3d 34ab e43a
00000190: 3e72 dcbc 484a a63e 5038 42bd a06e 8d3e
000001a0: 6c6c e13d a0f0 623c 65a3 b4bd cdd3 e33c
000001b0: 7820 c53d 7534 b8bd e840 233e d760 abbd
000001c0: 037e 4f3d e115 8f3e 9221 6a3e 803f 973b
000001d0: a875 fa3d 4b08 ffbc 7327 92bb 24c9 ae3d
000001e0: 7ca3 e5bd 56c5 013d 9fc3 223e aec3 393e
000001f0: 018e 29be 2b51 19bd 1ccc 55be d2ac 1cbc

fc.weight f4 [3, 32]
2.4373815 -2.4786456 -2.5235107 2.4710913 2.2974596 2.3406916 -2.4445279 2.2770154
-2.4111378 2.3137703 2.5713668 -2.5235345 2.4399922 -2.550456 2.4850895 -2.281582
2.4723494 -2.3936307 2.3745346 -2.312088 2.549414 2.448343 -2.520939 2.572321
2.361122 -2.3202953 2.5459256 -2.5605457 -2.4816754 2.5361497 -2.358664 2.416826
2.4844382 -2.4112468 -2.4141815 2.4941447 2.4361992 2.2840612 -2.4813113 2.4914224
-2.4128046 2.411459 2.4998596 -2.316184 2.4777758 -2.4356422 2.5883482 -2.5573637
2.3308668 -2.3116815 2.544929 -2.295716 2.306861 2.420416 -2.2453415 2.513828
2.4639547 -2.5395834 2.5632043 -2.316359 -2.4745307 2.4286659 -2.583714 2.4946349
2.5307183 -2.3476243 -2.2743046 2.5046453 2.5462904 2.5283732 -2.39089 2.4189465
-2.4068792 2.479769 2.338975 -2.471327 2.326131 -2.4132617 2.34544 -2.5694494
2.5038962 -2.4958007 2.4340124 -2.5705278 2.4788322 2.403482 -2.3649967 2.4016352
2.5086632 -2.421137 2.2546203 -2.5099475 -2.3579273 2.402023 -2.5460587 2.400432
00000000: 0ffe 1b40 21a2 1ec0 3381 21c0 5c26 1e40
00000010: 9409 1340 e4cd 1540 2573 1cc0 9fba 1140
00000020: 1550 1ac0 d014 1440 4691 2440 9781 21c0
00000030: d528 1c40 ac3a 23c0 b50b 1f40 7105 12c0
00000040: f93a 1e40 3f31 19c0 60f8 1740 40f9 13c0
00000050: 9929 2340 a7b1 1c40 1157 21c0 e8a0 2440
00000060: 9f1c 1740 b87f 14c0 72f0 2240 fbdf 23c0
00000070: c5d3 1ec0 4750 2240 5af4 16c0 47ad 1a40
00000080: 0901 1f40 de51 1ac0 f381 1ac0 11a0 1f40
00000090: b0ea 1b40 0f2e 1240 cecd 1ec0 7773 1f40
000000a0: 646b 1ac0 5855 1a40 b3fd 1f40 5c3c 14c0
000000b0: e193 1e40 90e1 1bc0 7fa7 2540 d9ab 23c0
000000c0: ec2c 1540 97f2 13c0 1ee0 2240 03ed 12c0
000000d0: 9ca3 1340 19e8 1a40 adb3 0fc0 8fe2 2040
000000e0: 6fb1 1d40 8988 22c0 8a0b 2440 3a3f 14c0
000000f0: b65e 1ec0 436f 1b40 925b 25c0 19a8 1f40
00000100: 4af7 2140 7a3f 16c0 358e 11c0 1c4c 2040
00000110: 6cf6 2240 ded0 2140 5704 19c0 05d0 1a40
00000120: 4f0a 1ac0 89b4 1e40 c4b1 1540 392a 1ec0
00000130: 55df 1440 e172 1ac0 b01b 1640 dc71 24c0
00000140: d63f 2040 33bb 1fc0 dcc6 1b40 8783 24c0
00000150: 30a5 1e40 a6d2 1940 1b5c 17c0 64b4 1940
00000160: f08d 2040 e9f3 1ac0 b34b 1040 fba2 20c0
00000170: 48e8 16c0 bfba 1940 a0f2 22c0 aea0 1940

fc.bias f4 [3]
2.037098 2.1226373 2.1265628
00000000: d05f 0240 4ad9 0740 9b19 0840
