models/precip_mm_ann_model.pth (torch, 27328 bytes, 6 tensors)

model.0.weight f4 [32, 154]
00000000: 9b45 2dbd 47bc e1bd 92fb e53d cd93 c2bd
00000010: 08b4 01be 9c98 f83d b0ca 4b3e 0c27 17be
00000020: 293b be3d b5be 893b f900 fe3d 485d c6bd
00000030: 20e4 9fbd 02c5 bf3a 2e71 27be 5ad0 2dbe
00000040: 6eee 9cbd e676 e63b 9428 2bbc 7a01 6bbd
00000050: d7f2 493d 5a31 bfbd 9412 ecbd b63a 483e
00000060: b88e c93d 6d65 b83d 629e b3bd c97d 1a3d
00000070: 6f62 5d3e 5746 d6bd 4d29 a83b 5009 043e
00000080: 60f2 b53d 63c5 b43b 07b3 b5bd a6b2 f13c
00000090: c1ae 9ebd a3bf 53be d69a 283d c502 853d
000000a0: 087a 4cbc 3479 abbd aebb 97bd fe20 c8ba
000000b0: e2b1 14be 0933 40bd 15d4 bd3d 03ca 013e
000000c0: d047 43bd b252 ec3d 7d9e 893d ea98 3bbe
000000d0: 59f2 84bd e523 2cbe 311a ab3d ee21 e63d
000000e0: 9688 cfbd 931c 8ebd 6a10 3fbd 9988 c0bd
000000f0: 2843 b23c 42aa e53d d526 a1bc 2bbf c0bd
00000100: bcbf 333d ba42 c63d 62c5 97bd 881e df3c
00000110: 69ca 0b3e 6cb1 b13d bcbb 75bd fadd 0dbc
00000120: a1fa ee3d 4fda 34be 2318 f1bc 82f2 b5bd
00000130: 4dba b23d b447 39bd b303 d7bd 6847 86bc
00000140: 4cd8 e63d ab42 bd3d 9e55 41bd 93a9 a53d
00000150: 9ed5 07bc ba79 c9bd af4b ce3d 2906 4d3d
00000160: a1cd 42bc 70b1 0a3e 81a1 103e 0232 1c3d
00000170: f3de e3bd 5ff2 fb3c 041f 2a3d c7cd 5fbe
00000180: f34d 733d 9fc6 94be 2a10 b63b b449 103e
00000190: 9bed c1bd 4297 a23d 433c 61bd 7b53 9b3d
000001a0: 28ed e03d ea9b 9a3d 79bf 11bd 4482 7cbd
000001b0: 5cdf 073d 1f2f 7b3d 350d bdbb 8dfb 153e
000001c0: 92c3 32bd f10a 03be 989c 2b3e 6946 0dbe
000001d0: 6e2b 8d3e ac78 173e daa9 96bd 31c1 07be
000001e0: 3d9b dd3c d874 613e 0601 c23d 39a7 3d3d
000001f0: 5cbf 2dbc cdce 59bd fe13 dbbd dade 35bd
00000200: 6e02 12be 23a7 0bbd 2eec 633d 055e e93d
00000210: 19a8 e8bd 25d7 5a3d e89e e63d c130 e5bd
00000220: d5c9 673e a9b8 c8bd 7993 943e 26a5 c53d
00000230: c289 4ebd 55c1 7ebe 1983 a63d 52d6 843e
00000240: 2f14 e5bc 69e6 e33d b958 15be c98f b9bd
00000250: ee51 5ebe b56c 59bc 9ac6 92bd f793 b8bb
00000260: 0fe4 263d 4d76 e5bc 3fa7 56be e63d 47be
00000270: 3d5b c73d 0155 0e3e 0ebf d8bd 391e 86bd
00000280: d1c4 c23d bbd7 01be d84a 52bd 94e8 7b3c
00000290: 0c51 f13d a703 0e3e f8ec 3fbd a583 333e
000002a0: 04b2 f6bd 1456 a4bd b3a4 21be 7edf 0abe
000002b0: fb6d 06be fc83 5dbd d9fe 903d 5f02 153e
000002c0: 61e5 49be 2231 a7bd aea3 76bc dec6 cb3d
000002d0: e801 d3bd ffe9 1b3e 24f0 173e 71cb 70bd
000002e0: b6b2 4a3d 4356 e4bd 123a 953d 3bd8 83be
000002f0: d7f9 21be ed33 9fbc f7fd 2fbc ae2b a0bd
00000300: 3081 4ebc 01c3 a7bd 00c8 09be 6b28 3abd
00000310: 6672 153c 878d 143e 54ae e2bd bfe2 a23d
00000320: 05a2 c6bb bbb1 183d d0bc 22be 92a5 a63d
00000330: b8ef 6eba 44cd 803d 9a9d 60bc 3bd3 833c
00000340: cacd b43c 9e49 9ebe b13f e0bd 9a10 33bd
00000350: 88ff 31ba c8d3 3c3d a90e 183e fef7 c5bd
00000360: be05 88bb 3d88 febd 7d4a 52bd c6d0 833e
00000370: ae31 c3bd 3245 a93d 39aa 043e 7348 1f3c
00000380: e681 8b3d 1c39 28bd b2bb 083d 6f04 1ebe
00000390: dbe1 673d 4d03 4ebc 77b4 a3bd 4cf6 a5bd
000003a0: 20d0 54be 073f eebb 4451 8a3d ee25 ce3d
000003b0: 5c7f 36bc 047b 6bbd 560e d2bd d665 1fbe
000003c0: 125a 07be 50cf 5a3e 1df7 303c 003e d13d
000003d0: 806b 3e3e 47c0 d9bd 01c1 8a3d 10db 27b9
000003e0: 464f d93d f0d0 6dbe d65e a93d e5c3 2d3d
000003f0: ad26 c6bc b199 683d c6cb aebd 6086 1dbd
-0.04230271 -0.11022239 0.11229624 -0.09500847 -0.12666333 0.12138483 0.19901538 -0.14760989
0.09288628 0.0042036423 0.12402529 -0.09685761 -0.07807183 0.0014630856 -0.16351768 -0.16974011
-0.07662664 0.0070332168 -0.010446686 -0.057374455 0.049303856 -0.09335585 -0.11526981 0.19553646
0.098416746 0.090037204 -0.087704435 0.037717614 0.2161958 -0.10462635 0.0051318766 0.12894177
0.0888412 0.0055166944 -0.088720374 0.029504132 -0.077481754 -0.20678572 0.041163288 0.06494669
-0.012480266 -0.08372727 -0.07408844 -0.0015268622 -0.14520982 -0.04692367 0.09268967 0.12674718
-0.047675908 0.115392104 0.06719682 -0.18320051 -0.06491537 -0.16810568 0.08354605 0.1123694
-0.101334736 -0.06939044 -0.046646513 -0.09401054 0.021760538 0.11214115 -0.019671837 -0.094114624
0.043884024 0.09680696 -0.07410695 0.027236238 0.13651432 0.08676419 -0.05999349 -0.00865888
0.116688974 -0.17661403 -0.029430455 -0.08884145 0.0872694 -0.045234397 -0.104987524 -0.016391471
0.11271724 0.092412315 -0.04720079 0.08088984 -0.008290676 -0.098376706 0.10073029 0.050054703
-0.011889846 0.1354425 0.14124109 0.03813363 -0.111265086 0.03075522 0.041533485 -0.21855842
0.05940051 -0.29057786 0.005556126 0.14090616 -0.09469148 0.079390064 -0.05498911 0.07584282
0.10982734 0.075492695 -0.035582993 -0.06164767 0.033171996 0.061324235 -0.0057693967 0.1464674
-0.04364354 -0.12797143 0.16758955 -0.1379639 0.27572197 0.14792126 -0.07356615 -0.1325729
0.027051562 0.22017229 0.094728515 0.046302054 -0.010604706 -0.053175736 -0.106971726 -0.04440198
-0.1425874 -0.03409494 0.05564516 0.11394886 -0.11360187 0.053427834 0.11260778 -0.1119094
0.22635587 -0.09800846 0.29018763 0.0965064 -0.050424345 -0.24878438 0.08130474 0.25944763
-0.027963726 0.111279316 -0.14584626 -0.09060628 -0.21710941 -0.013270547 -0.071667865 -0.005632873
0.040744837 -0.028010512 -0.20962237 -0.19457206 0.09734199 0.13899614 -0.10583316 -0.06548733
0.09510196 -0.12679951 -0.051340908 0.015375275 0.117830366 0.13868581 -0.04685685 0.17530687
-0.120456725 -0.080242306 -0.15785484 -0.13561818 -0.13127892 -0.05408095 0.07079858 0.14551686
-0.19716407 -0.08163668 -0.015053673 0.0995004 -0.10303098 0.15225981 0.148377 -0.058787767
0.04948684 -0.111492656 0.07286467 -0.25750908 -0.15817963 -0.01943394 -0.010741702 -0.07820831
-0.012604043 -0.08191491 -0.134552 -0.0454487 0.009121513 0.14507113 -0.11068407 0.07953405
-0.0060617947 0.037278872 -0.15892339 0.08137049 -0.00091147004 0.06289151 -0.01370945 0.016091933
0.022070784 -0.3091554 -0.10949648 -0.043717004 -0.0006790091 0.046100408 0.14849342 -0.096664414
-0.004151075 -0.12428329 -0.05134057 0.2574522 -0.0953096 0.08265151 0.1295556 0.009721863
0.068118855 -0.04107009 0.033382125 -0.15431379 0.056611877 -0.012574029 -0.07993405 -0.08103618
-0.20782518 -0.007270697 0.067537814 0.10065828 -0.011138763 -0.057490364 -0.102566406 -0.15566191
-0.13217953 0.21368146 0.010801104 0.10216904 0.18595695 -0.10632377 0.06775094 -0.00016007968
0.10610823 -0.23224235 0.08270042 0.042423148 -0.024188364 0.056787197 -0.085349604 -0.038458228

model.0.bias f4 [32]
00000000: 7428 53bf 7d0d 89bf cbf1 043f 6733 2bbf
00000010: 5bc9 3dbf da00 393e 9210 65bf b591 8ebf
00000020: f106 4ebf eef6 32bf 87c5 92bf 9fb5 e2bc
00000030: 0323 313f ba67 303f 868b 373e 8fb7 3dbf
00000040: 7246 b9be 67ab 2cbf 470d 65bf f7b1 78be
00000050: f915 16bf 584d 85be 52d3 7fbf 8365 b83e
00000060: 6fb5 7b3f 7f60 70bf d6a3 4b3f d8ed 4fbf
00000070: 7352 42bf b1b4 06bf d6b3 ecbe fc4a 233f
-0.824836 -1.0707241 0.51931447 -0.6687531 -0.7413537 0.18066731 -0.8947841 -1.1138216
-0.8047934 -0.69908035 -1.146653 -0.027674494 0.6919405 0.68908274 0.17924318 -0.74108213
-0.36186558 -0.6744904 -0.89473385 -0.24286638 -0.5862728 -0.2603557 -0.99931824 0.36014947
0.9832372 -0.9389724 0.7954687 -0.81222296 -0.7590706 -0.52619463 -0.46230954 0.6378629

model.3.weight f4 [32, 32]
00000000: 6341 fe3c cad1 583e 07cb a7be 79f4 8c3e
00000010: ac4c 233d f96c bcbd 0c14 8b3e 7c03 4b3e
00000020: 9620 0dbe 2f1b 30be 87e0 5f3e 219f ecbd
00000030: 2891 ddbd 568e 64be d591 94be 6a5d 1dbe
00000040: 61f7 c3be 2300 663d ba31 933e e12f aa3d
00000050: 28bf 173d 9cab 08be d87f 92bc 14a0 5bbe
00000060: 42c9 0ebe 2b47 ba3e c1a5 eabd 010f a4bc
00000070: af1f 533e da4a 48bd 3f33 11bd b6f3 24be
00000080: c241 cdbd 8fe2 433c 7093 2ebe 5669 123e
00000090: 5de5 113e dca6 d03c ad6a bbbd e4db b93c
000000a0: c98d 923e bd1e a73d a09c d7bd 6b08 163d
000000b0: b319 7cbd f832 63be 8afc 9dbe 7875 90be
000000c0: 78bd cb3b 73dd f03d fb75 01be f43c 473e
000000d0: 782d 253e 02e8 62bd c228 8abe cc4a 4dbd
000000e0: 2fdb d33b e1e8 b1bd 6742 4cbd a290 ca3d
000000f0: b31b 3c3e 2e47 1abe 1a2a 45be a8a4 8bbe
00000100: c999 013d d0af 7ebe a587 023e 653c f6bd
00000110: 8ec5 863c 21bf e63c 3888 f5be 5f1c e9bd
00000120: a67b 923d 2b20 183e 8e15 38be 2624 c1bd
00000130: 0f49 b73d 916e 943d bdcf 2d3e d56e 2f3e
00000140: a244 803e 9333 d63d ff1b c9be 1f95 04bc
00000150: 4ec1 84be 5a5b 5d3e 2e35 00bd 8ed1 253e
00000160: 4e77 293e 09e0 8abe 9763 b23d fe51 d0bd
00000170: 64d7 abbd 42e3 393e 535f 6a3d 1d8a 0d3e
00000180: e78e 2fbd c950 9d3d e7a3 4fbd 15c1 2dbe
00000190: 6ae3 1bbe 6f09 84bd 6bd9 913c a8ff 82bd
000001a0: 63fd 09bc 5475 7ebc f22d 1c3e 8d89 96bd
000001b0: 5cdd 12bd 6f77 9fbd fb4f 2dbb 868e dbbd
000001c0: 21a7 8bbd a7c3 353d 50e0 433d eec8 37bd
000001d0: 5906 43bc 82dd 77bd 89a6 b7bd 97a9 95bd
000001e0: 5585 723d 6bc7 6c3e 612d a2bd 2082 b5bc
000001f0: 9121 a03d a37b f2bd 542f c7bd 0ded 99bd
00000200: 6211 48be 4610 083e be38 3abe e297 48be
00000210: 4b18 76be f797 76bd 44b4 cabd 8906 183e
00000220: c243 6bbe e2ac d9bd 4e6f 383e a155 99be
00000230: b886 333d 85aa 77be d501 76be 1bcb e23d
00000240: 9608 bfbc 47da 593d 2700 313e d913 1c3e
00000250: 7b1d 863d 3e69 3d3e dd8e f3bd 4bfa 793d
00000260: 14b4 73bd 5961 bb3e 3e74 95bd a2e5 293e
00000270: c8b6 133c 8af2 15be 44b5 65be 7b71 93bd
00000280: ded3 eebb cb62 bbbd abc9 0dbe e434 b13e
00000290: cc40 28bd b23a 493e 8e4d 6f3e 11ff 413e
000002a0: 8bb7 35bd 3418 e3bd 8270 bfbe b659 01bd
000002b0: 2974 74bc cc15 d23d 54cd 403d 7915 16be
000002c0: ce95 1abe 5eb2 b83c 516d dc3d 1681 d4bb
000002d0: 3b34 94bd 30fc 50be 77d9 503e ed9a bdbc
000002e0: aa83 eb3a 38cf a0bd d93e 04be e56b ae3d
000002f0: 8f44 1bbe 4013 f03c 1966 27be 093d 2a3d
00000300: 05a2 3abe 3e1a 123c bd29 bdbd a077 87bd
00000310: 3312 863c 807d 0bbe 73ca a33c 18ba 5a3d
00000320: 03cc 73bd 4c97 263d 6e50 433d bb74 53be
00000330: 325b 9dbe 9961 abbb cd7a d8be e356 bc3c
00000340: 4734 3d3d 303a 21be ee4f 84bc b45e f33b
00000350: 350b 403c 2c2b 6a3d 0ff0 e63d ce24 cdbe
00000360: 7efd 37be 8a6f 913b 383e c4be 4b75 123e
00000370: 383f d5bd 306c 6d3d 0aae 37bc 2191 15bf
00000380: b9d4 d33d b153 9b3e 1b2b 73be fdc3 afbe
00000390: 04fe bdbd 9210 32be f7cf ba3d 86b2 32be
000003a0: e96d a53d 62cf 5f3e 943f c3be 885e 293e
000003b0: feae e7bd 9a7a 11be c1f0 4ebe 513e 933d
000003c0: 408c efbd 08f4 3a3e 7e3f 68bc 6041 45be
000003d0: 2d17 223e 673d 3dbe 553c 873e 434f 3dbd
000003e0: 7d21 9cbe 341f 903e 1c01 b8bd 2064 123e
000003f0: 4913 88be 704f 50be 1d54 c5bd 6b93 bebc
0.031037038 0.21173778 -0.32772085 0.27530268 0.039868042 -0.092004724 0.27163732 0.19825548
-0.13781962 -0.1719787 0.21862994 -0.11553789 -0.10818702 -0.22319922 -0.2901751 -0.15367666
-0.38274673 0.056152474 0.28748876 0.083099134 0.037047535 -0.13346714 -0.017883226 -0.21447784
-0.13943961 0.36382422 -0.11457396 -0.020026686 0.20617555 -0.04889951 -0.035449263 -0.16108593
-0.10022308 0.011955871 -0.1704843 0.14297995 0.14247651 0.02547019 -0.09151206 0.02268786
0.28623798 0.0816016 -0.10527921 0.03662912 -0.061547946 -0.22187412 -0.30856735 -0.28214622
0.006217655 0.11760988 -0.12642662 0.19456846 0.16130626 -0.05539704 -0.2698422 -0.05012016
0.0064653377 -0.08686996 -0.049868014 0.09890868 0.18369941 -0.15066215 -0.19254342 -0.2727406
0.0316408 -0.24871755 0.12747057 -0.12023238 0.016451623 0.02816731 -0.4795549 -0.113823645
0.0715249 0.14856021 -0.17976972 -0.09430723 0.08949482 0.07247651 0.16973777 0.17132123
0.25052363 0.10459056 -0.39279172 -0.008092194 -0.2592873 0.21616879 -0.031300716 0.1619322
0.16549417 -0.2712405 0.087104015 -0.10171889 -0.08390692 0.18153098 0.057219815 0.13822217
-0.04286089 0.07681424 -0.05069342 -0.16968186 -0.1522347 -0.06447112 0.017803868 -0.06396419
-0.0084222285 -0.015530903 0.15251902 -0.073504545 -0.035855636 -0.07786452 -0.0026445377 -0.107205436
-0.06818987 0.04437604 0.047821343 -0.044869356 -0.011903369 -0.06051398 -0.08967311 -0.07307737
0.059209187 0.23122947 -0.079188116 -0.022156775 0.07818902 -0.11839988 -0.09725824 -0.07515917
-0.19537881 0.13287458 -0.18185708 -0.19589189 -0.24032705 -0.06020352 -0.09897664 0.14846243
-0.22975066 -0.10628678 0.1801121 -0.29948142 0.04382965 -0.24186142 -0.24024136 0.110738955
-0.023319524 0.05318668 0.17285214 0.15241946 0.06548592 0.18497178 -0.118924834 0.061029714
-0.059497908 0.36597708 -0.07297562 0.16591504 0.009015746 -0.14643303 -0.22432429 -0.07199379
-0.00728844 -0.09149703 -0.13846461 0.34610665 -0.04107742 0.19651297 0.23369429 0.18944956
-0.044364493 -0.11088601 -0.37390524 -0.031579696 -0.014920273 0.10258064 0.047070816 -0.14656629
-0.15096208 0.02254599 0.10763038 -0.006485115 -0.07236525 -0.20408702 0.20395456 -0.023145163
0.0017968316 -0.07852024 -0.129146 0.08516673 -0.15162872 0.029306054 -0.16347541 0.041562114
-0.18225868 0.008917389 -0.092364766 -0.066146135 0.0163661 -0.13622093 0.019993996 0.05340013
-0.059520733 0.04067163 0.047684126 -0.20649998 -0.3073364 -0.0052301404 -0.4228119 0.02299065
0.046192434 -0.15744853 -0.016151395 0.007427061 0.011721422 0.05717008 0.11276256 -0.40067142
-0.17967793 0.0044383453 -0.3832872 0.14302556 -0.10412449 0.057964504 -0.011210928 -0.58424574
0.10343308 0.3033729 -0.23746912 -0.34329215 -0.09276965 -0.17389134 0.091216974 -0.17450914
0.08077604 0.21856454 -0.38134444 0.16539967 -0.11312674 -0.14206925 -0.20209028 0.0718962
-0.116966724 0.18257153 -0.014175294 -0.1926322 0.15829153 -0.18480454 0.26413217 -0.046218168
-0.304943 0.28148806 -0.089845866 0.14296007 -0.26577213 -0.20342803 -0.09635184 -0.023263654

model.3.bias f4 [32]
00000000: f19f b6be 83b1 a5be cfcb c53e c712 17be
00000010: a0d0 ce3c 6d54 1cbe 3b7a 1cbe 6d8f 3ebe
00000020: 1b0c a3be 7255 1d3e 833f febe cc4c 3abd
00000030: 874d a2be 5ace 7dbe 4858 aabe f8c8 11bf
00000040: ea90 86be 9522 b8be 89f1 79be de7b 9c3d
00000050: a6c5 9ebe 042e 82be b645 c4be d345 323e
00000060: 727b 8c3d 1e89 963c b31f 1d3e d33a 21be
00000070: eef2 73be f28b 73be d740 58be b60d c8be
-0.356689 -0.32361993 0.38632056 -0.14753257 0.025245965 -0.15266581 -0.15281002 -0.186094
-0.31845173 0.15364626 -0.4965783 -0.045483395 -0.31699774 -0.24785748 -0.33270478 -0.5694728
-0.26282436 -0.35963884 -0.24408545 0.07640813 -0.3101017 -0.25425732 -0.38334435 0.17409448
0.06859483 0.01837593 0.15344124 -0.15745096 -0.23823139 -0.23783854 -0.21118484 -0.3907296

model.5.weight f4 [3, 32]
00000000: f34f 4d3e 11cb c6bd 7291 0b3e 8f56 8b3d
00000010: 4af0 173e c075 563d fa82 2dbe fa31 5e3e
00000020: 1e6b ccbd 672b 4e3d 3f84 2e3e ca22 813d
00000030: cdf1 ab3e 55ea a73e 692f c53d 888e 86be
00000040: ccbf 24be 03af 52be 6659 a8bc 30e5 673e
00000050: fcce 983d 5701 ebbd 8863 a03d d092 fc3d
00000060: d656 a73d 5a36 403e a5f9 46bd 5084 a8bc
00000070: 5dcd 85bd 7cd0 6abd fb7c 873e d39b 8dbe
00000080: 8b00 4bbe fb96 9abd 3895 dfbc 7d63 d9bc
00000090: 5623 453d f3e8 a23d bf1f 23be e98c c83d
000000a0: de6e c0bd 72ab dd3d 2654 1a3e e67b e53d
000000b0: 7164 1bbe 150c 55bd e603 3c3e c6b5 a3be
000000c0: cc28 34be befe 3dbe af81 ed3d 8d70 f23d
000000d0: b3e6 bb3e 7c2b 0bbd bc92 963e 0adc 153e
000000e0: e5f4 913d 6971 953e dbbe a2bd 4bc6 e13c
000000f0: 8365 793e 900a d73c c610 c23e da13 7bbe
00000100: 6da7 743e e13a 78bd f00c 313e a8f4 c5ba
00000110: e9f2 bf3d cd7d 6b3c bf5f 27be 60f1 003e
00000120: d88b 86bd 2aac 343e 7a2a 033e c097 9c3d
00000130: 7fc9 8e3e a0bb a6bd 2944 813d b680 7abe
00000140: a577 99bd 2949 3ebe 1609 22bd ac7c 683e
00000150: 5a13 48be 5f4d 183e 5da0 713e a6df 973d
00000160: fb37 043e b9e0 243e 85de 1ebd 0437 8b3d
00000170: 84c7 013d 5491 353e 08f3 9d3e d631 89be
0.2005003 -0.097067006 0.13629702 0.06803619 0.14837757 0.05235839 -0.16944495 0.21698752
-0.099813685 0.05033436 0.17042635 0.063054636 0.33582917 0.3279597 0.096281834 -0.26280618
-0.1608879 -0.20574574 -0.020550441 0.22646022 0.07461354 -0.11474865 0.07831484 0.1233269
0.081708595 0.18770733 -0.048577923 -0.020570904 -0.065333106 -0.057327732 0.2646254 -0.27657947
-0.19824426 -0.075483285 -0.027292833 -0.026536698 0.048129402 0.07954588 -0.15930079 0.097925015
-0.09396146 0.10823716 0.15071163 0.112052724 -0.15175034 -0.052013475 0.18360862 -0.3197462
-0.17593688 -0.18554208 0.11597001 0.118378736 0.36699447 -0.033977017 0.29408824 0.1463472
0.07126788 0.29188088 -0.07946559 0.027560374 0.2435513 0.026250154 0.37903422 -0.24519292
0.23891993 -0.060603026 0.17290092 -0.001510282 0.09372503 0.014373255 -0.16345118 0.12592077
-0.06569642 0.176438 0.12809172 0.076461315 0.27888104 -0.081412554 0.06311829 -0.24463162
-0.074935235 -0.18582596 -0.039559446 0.22703809 -0.19538632 0.14873265 0.2359633 0.074157044
0.1291198 0.1610135 -0.03878643 0.06797603 0.031684414 0.1773122 0.3084948 -0.26795834

model.5.bias f4 [3]
00000000: 39dd efbb 6b1b 723d a136 11bb
-0.007320073 0.05910818 -0.0022157806
