models/precip_mm_ann_model.pth (torch, 48832 bytes, 6 tensors)

model.0.weight f4 [32, 322]
00000000: 8a51 7c3d 0a16 8e3c 7096 213e ba88 643e
00000010: c2b8 443e 4960 97be 93ce e83a d36a 073e
00000020: 6d7f 68bc 5aab d9bd 70d2 7c3e c733 5b3d
00000030: 3022 09bd f2a0 be3d d04b 9fbd 9f51 b43d
00000040: 4afd 97bd 8ad1 b93c e4e8 983c 685f f73c
00000050: 5212 fcbd cada 173d 3d5a aabe ac6d 313d
00000060: df3d 6bbf 1ac5 21bf 42dd 9c3e aa88 f1be
00000070: e743 57bf c2dc babe daac 603e df90 adbe
00000080: ee16 e6be acaa f93d 6751 ef3d 55ed c93e
00000090: 6a5f 83bf 20b8 8d3d cd0e 22bd f385 05be
000000a0: c9da c8bd 5daf 59be aa40 52bd e860 89be
000000b0: b0b4 87be 3d0b 4cbd cf37 da3d 0a6a 763e
000000c0: c272 2ebe 15c3 7a3c 49b2 0a3e b8f2 533e
000000d0: b68a 983d 273a 3dbd 4612 163b c5ce 10be
000000e0: 7fa1 a1bb 4baf 983d 241e 0e3e 60ae a8bd
000000f0: 7428 9fbd 17cc 383e 83f0 913c a4b2 e93c
00000100: 6cad 05bd 7d1e d8ba 12b8 f93d e8d6 c83b
00000110: dd98 19bd 4e76 963e 5bd7 dfbe 9853 5a3e
00000120: f758 eebe dc32 84be b7eb 49bd 9ed8 583e
00000130: ec78 52be 8120 8cbe 287b 8dbe e405 09bf
00000140: 9d18 d5be 22cd 063d 01ae a0be 3786 ccbc
00000150: 9295 64bf efe2 99be 728b 503e 8e43 103e
00000160: 6f68 18be 129a 8dbe bf82 22be ec57 df3d
00000170: fa68 013d 56bd 233e 0097 42bd 4657 e23d
00000180: d1d3 a2be f9a7 e9bd 866e 703e 42c4 e7bc
00000190: 4a60 f43d 8e65 733e 7a67 2c3e 978d 90bd
000001a0: 86c0 873d 9bdc d3bc 8f82 4bbe 3090 afbc
000001b0: 20b7 74bd cb76 6bbc f906 00bc 708b c0bd
000001c0: 9adc 95bc d188 703d ef88 02bf bd5b 8bbe
000001d0: 6019 973e 7b82 3cbe 837f afbc 80b4 8ebe
000001e0: 5be8 4abd 9472 d33d 1572 cfbe 7237 473e
000001f0: 4969 28bf 0ff2 16be fecc 40bf ce6d 363e
00000200: 7fb6 76bd fc6b 8d3b 2e61 06bd 72a5 77bd
00000210: 69a4 05bf 1d96 723d eddd 9b3c 6dce 91be
00000220: 1f63 82be 500a 19be 3c45 07be cf9d afbe
00000230: 6db5 b43e 8059 67bc 3525 833d 5151 e53d
00000240: 8f5d 28be 1e74 57bb d936 d2bd a07a 253e
00000250: 0126 373e ab1a b2be ac44 373d 7693 563e
00000260: 4161 11be 7044 2abe 79ec b23a 9fc1 86bc
00000270: 8d29 fe3b f3b3 be3d d8ae c13d 85a2 213c
00000280: 9e56 75be fc0c 90be c41f 66be 9b54 55bf
00000290: 6710 edbe 45d7 823e 861f 06bf 8898 d33d
000002a0: 7d4a 31be a079 ac3d 2311 04bf 92f0 ae3e
000002b0: c4f3 b7be 5e69 413e d0b0 a03e 2ae3 23bf
000002c0: bcb1 afbe 4db4 67be 4730 5fbe 1415 6dbe
000002d0: 9cee 783c 7ab0 a5bd 4a9e 4ebd b53c a3bd
000002e0: b4b9 e13c bec0 533e 8882 203e 3f5d 2cbd
000002f0: f6e6 44bd 6fdb a1be 9947 a43c 5d59 b73d
00000300: dc1d 34be b77e 94bd 7a51 843d 03c1 57be
00000310: 8dc9 8ebe bf8c 42bd ac8c 29be 0d52 8abe
00000320: d590 bfbd 4c63 263d a43d 983d 5871 a03d
00000330: e3c2 d33c cce4 833b d608 80be f4ff 91be
00000340: c7ad 99ba ca0d 77be d98f 42bf c392 0f3f
00000350: 0a4d 87bf a66a 78be 205a 033d 328c 71bf
00000360: 71ab c9be 5901 4c3e 9d46 9fbe 627c 24bd
00000370: 76a8 bd3e e36e 12bf 5e55 3f3e b5cf 83be
00000380: 4030 abbe 71bb 713e 70d7 cdbe 7281 f3bd
00000390: 90b5 f5be 8b04 e8bd 8095 773d c499 8fbe
000003a0: 135a bebe 6462 3bbe dfec b53e b235 75bd
000003b0: 96fd 163e 24c1 c3bd bb10 d23d c39b 6a3d
000003c0: 4d93 b8bd 0396 bd3b 9dd3 16be d1f4 683e
000003d0: 002b 36bd e040 19be 1085 aabd ebcd 253d
000003e0: ff1e cf3c 34ba 633d 6e54 4dbe e493 53bd
000003f0: c72c f3bd ddd8 3abe c95e cc3d 330b 943e
0.0616012 0.017344493 0.15780044 0.22317782 0.19211105 -0.29565647 0.0017761759 0.13224344
-0.014190537 -0.10628386 0.2468965 0.053516176 -0.03347987 0.09308042 -0.07778132 0.088046305
-0.07421358 0.022682924 0.018665738 0.03019686 -0.12308182 0.037073888 -0.3327197 0.043317482
-0.9189128 -0.6319138 0.30637556 -0.4717458 -0.84087986 -0.3649655 0.21940938 -0.3389959
-0.4493937 0.12190756 0.11685448 0.39438882 -1.0263493 0.06919885 -0.039564896 -0.13039379
-0.09807355 -0.21258302 -0.0513312 -0.26831746 -0.2650504 -0.049815405 0.10655176 0.24063888
-0.17035964 0.0153053 0.13544573 0.20698059 0.07448332 -0.046198037 0.0022899075 -0.14141376
-0.004932582 0.074553095 0.13878685 -0.082363844 -0.07771388 0.18046604 0.01781488 0.028527565
-0.03263609 -0.0016488578 0.12193312 0.0061291344 -0.037499297 0.29387134 -0.4371899 0.21320951
-0.4655225 -0.25820053 -0.04929706 0.21176383 -0.2055394 -0.2736855 -0.27633023 -0.53524613
-0.4162034 0.032910474 -0.31382754 -0.024966342 -0.89290726 -0.3005595 0.20365694 0.1408827
-0.14883588 -0.2765661 -0.15870188 0.10905442 0.031594254 0.15990195 -0.047507286 0.11051802
-0.31802228 -0.11408991 0.23479661 -0.028291825 0.11932428 0.23769209 0.16836348 -0.07058256
0.06628518 -0.025862029 -0.19874023 -0.021431059 -0.059744954 -0.014371584 -0.007814162 -0.094015956
-0.018293668 0.05872423 -0.50990194 -0.27218428 0.29511547 -0.1840915 -0.021423107 -0.27872086
-0.049537998 0.103245884 -0.40516725 0.19454744 -0.6578565 -0.14740776 -0.75312793 0.17815325
-0.060232636 0.0043158513 -0.03280752 -0.060460515 -0.52203995 0.05922519 0.01902672 -0.28477803
-0.25466248 -0.1494534 -0.13210005 -0.34300086 0.35294667 -0.01412046 0.06403581 0.111971505
-0.1644194 -0.0032875608 -0.102643676 0.16160059 0.17885591 -0.3478597 0.044743225 0.2095469
-0.14197256 -0.1662767 0.0013650797 -0.016449748 0.007756418 0.09311666 0.09457177 0.009865408
-0.23958823 -0.28134906 -0.22473055 -0.8333222 -0.46301576 0.25554863 -0.5239185 0.103318274
-0.17313571 0.08421636 -0.5158865 0.34167916 -0.35928166 0.1888785 0.31384897 -0.640185
-0.34315288 -0.22627373 -0.2179576 -0.23152572 0.015193608 -0.08090301 -0.050443925 -0.07970563
0.02755437 0.20678994 0.15674794 -0.042081114 -0.048071824 -0.31612727 0.020053672 0.089525916
-0.17589515 -0.072507314 0.06460853 -0.21069722 -0.27888146 -0.047497507 -0.16557568 -0.27015725
-0.093537964 0.04062204 0.07433632 0.078341186 0.025849765 0.0040250774 -0.2500674 -0.2851559
-0.0011724763 -0.24126354 -0.76000744 0.56083316 -1.0570385 -0.24259433 0.03206837 -0.94354546
-0.39388612 0.19922389 -0.3110856 -0.040157683 0.37042588 -0.5720045 0.18684909 -0.25744405
-0.3343525 0.2360666 -0.40203428 -0.11889924 -0.47990084 -0.113289915 0.06044531 -0.28047
-0.37178096 -0.18299252 0.3553228 -0.05986566 0.14745173 -0.09558323 0.10257097 0.057277452
-0.090124704 0.005785705 -0.14729162 0.2274964 -0.0444746 -0.14966154 -0.08326161 0.04047958
0.025283335 0.0555975 -0.20051739 -0.05165471 -0.11873775 -0.1824679 0.09979016 0.28914794

model.0.bias f4 [32]
00000000: 055b 8ebe 2dfa 55be 57b3 043e 5de1 58be
00000010: 1b6e 61be 4ae6 d5bd 06c9 c4bd 8b87 9ebe
00000020: e321 a7be 1fb6 91bc 8ad0 e9bd 1b94 983d
00000030: 1117 78be b257 4bbd f541 9fbd 7ae3 1d3e
00000040: 05f8 bbbe 640a af3c 39e8 88be c983 83be
00000050: 8340 86be 5f44 1e3d cb48 8cbe 71bb e6bd
00000060: 55bf 0e3d 0ee4 2bbd 965c 5dbe 9cd2 9bbc
00000070: d5b3 36be f4b9 153e 613c b03d b97f 65be
-0.27803817 -0.20896216 0.12959038 -0.2117972 -0.22014658 -0.10444315 -0.09608655 -0.30962786
-0.3264304 -0.017787037 -0.11416729 0.07450124 -0.24227549 -0.04964418 -0.07776252 0.15418807
-0.3671266 0.02136726 -0.26739672 -0.25686482 -0.26221094 0.038639423 -0.27399287 -0.1126622
0.034850437 -0.041965537 -0.2161735 -0.019021325 -0.17842038 0.14621717 0.08605266 -0.22412004

model.3.weight f4 [32, 32]
00000000: e990 c7be ff5a 9bbe bbf3 88ba d281 1cbe
00000010: 9d1e 143e d609 0c3e b05d 0e3d f64a 3c3c
00000020: c988 d33d d2b1 4c3e f189 39be f7f7 5c3c
00000030: 9abc aebd 0f2a 253d 09d8 7a3e dfe9 cabc
00000040: bb37 b53d ee8a d53b f7ce 85be 2259 5cbf
00000050: 2091 c1be 8195 733c d87d afbd 6420 f7bc
00000060: 9efd 39bb ee2c 333e 0a2c 7e3d f179 67be
00000070: f520 b23d c4a2 893d d85f 0f3e 4ca8 0ebf
00000080: 1c67 973d 1a0d d03c 2be6 843c 735e 89be
00000090: 02ff 6f3d 2c2a d5be b66c 933d 51f2 a63c
000000a0: 890a 373d 7fcc bbbe 1204 e2bd effe 80be
000000b0: 0363 5f3d ae77 f4be 46e8 993d 351b eabd
000000c0: 4bb0 c03c 1987 5a3e 1a91 3f3d 1a79 bc3b
000000d0: d104 333e 4908 35be f15f 87bc 5326 92bd
000000e0: 5b82 b9be 106a 733d 7b76 003e ba3e d3bd
000000f0: 8e57 c43b 4ed9 a7be c577 17be e876 f63d
00000100: bb1b 603e a761 aebe 7f82 9abe 12dd 043e
00000110: 0224 51be aac4 69be f76f 54be f874 263f
00000120: f2fb bf3e 9782 1a3d b8cd cebe 230e a9be
00000130: f7fd e73e 913d 09be 17af 8fbe feab 64be
00000140: 851c ff3e c599 0dbe b815 133f 5a4a 0abe
00000150: 7bab d13e 40e4 79be 197c 2ebb ac6e cebe
00000160: 2d85 87be 5a5b c2be 786b cbbe e8c9 08bf
00000170: 1f6a b7be 9437 8abe 9216 73be b153 ebbd
00000180: 0e12 ed3e 499d e5bd 6707 4cbe 368b 92bd
00000190: 0904 783d d873 f9bd 008f 04be ff28 fbbc
000001a0: b1d3 57bd 1c45 97be d4ba 20be b1be 3cbe
000001b0: 7c91 f53e 974d 09be 0161 45be 357a 80bd
000001c0: dd64 383e 8d10 2abe 0085 70bd 5018 233d
000001d0: a72c e73d 188d fbbd f58d 933e 4925 a63e
000001e0: 1b26 5dbe 4cbf 80be 35f8 4c3e 7877 d23d
000001f0: 76cd 0dbd 289c e9bd cc09 1cbe a7b1 943e
00000200: bcec dfbc f9e8 413d f10e fc3d 7ede 8cbe
00000210: 3ae1 a9bc b020 07bd ee0e c2be 8df4 193d
00000220: 2552 963c ec33 0b3d 0530 25bd dfb5 d13c
00000230: 84e9 ae3b b404 e2be 50ad b33d 21ed 39bd
00000240: 0c1a 1d3d 2191 2b3e 11da b83c 1102 6b3d
00000250: c2bb f53d 344e 06bf 58fc be3d 4462 98bc
00000260: ebac f6bc 602f e0bc f941 ee3c f26a 85bb
00000270: 5e98 073c daf5 b6ba f22b 10be c3e3 703c
00000280: d44b a63e 0401 1ebe 13ff 36be efab 4dbe
00000290: 8f20 463e 450a 18be 81c7 9bbd 04cf 633d
000002a0: b860 013f 5c13 b9be 9288 753e 294e 17be
000002b0: 6e41 c43e 5838 80be d3f1 f0bd 08ce 8cbd
000002c0: 41f5 323e 794c 07be bc67 5bbe 0cff b2bd
000002d0: 9708 d7bd 1775 45be 279e 9b3e d9a5 783d
000002e0: 0003 9cbe d39d 82be 55c9 d73a a014 2b3e
000002f0: b8aa 133d ccd1 60be a564 c5bd ee5a c63e
00000300: 41b8 c33c 7833 f73d 95b9 35be 803a 893e
00000310: 9fa3 4abd e656 203e 9ef4 35bd 7cd2 7d3d
00000320: a7d2 88bd 17fc 8fbe e0b5 45bd 9939 f7be
00000330: 6b9d a13d 1793 9ebe 1953 bc3c 8f17 05be
00000340: 63e8 1d3d 3de5 05bf d8bb 8d3b 1163 7f3d
00000350: ea97 fdbb 9bec 81be 6fbe e6bb 162e 71bd
00000360: 6cbe b8be 4e91 193d d60a 1b3e b68d 07be
00000370: d472 bebd c9fd f8bd 4b34 aabe e948 d03d
00000380: 6750 71be e5d3 c33e ed26 7cbe 6189 26be
00000390: 9bb0 15be 0bee 90be 879f 3abe 2da9 983e
000003a0: 6114 283f 3bfa e13b 7fef 70bd 77cc 4cbe
000003b0: de80 8f3c c488 16be c425 98be 986f a1be
000003c0: ea48 b93e 14f2 63be c6d4 e13e 71be 083f
000003d0: 39e6 843e b7c7 81be 8736 893e 4122 a5be
000003e0: b584 34be fd52 19be 6242 ca3e 9689 92be
000003f0: 4cfd d8bd 4676 20be df76 b6bd 4119 80be
-0.38977745 -0.30342862 -0.0010448614 -0.15283898 0.14464803 0.13675627 0.034757316 0.011492481
0.10328824 0.19989708 -0.18119027 0.013486854 -0.08532067 0.040323313 0.24496473 -0.024769722
0.0884852 0.006516806 -0.26134464 -0.86073506 -0.37806034 0.0148671875 -0.08568925 -0.030166812
-0.0028379927 0.17497608 0.062053718 -0.2260511 0.08697692 0.06720498 0.14001405 -0.5572555
0.073927134 0.025396872 0.016223034 -0.26829872 0.058592804 -0.41633737 0.07198469 0.020379217
0.04468778 -0.36679456 -0.110359326 -0.251945 0.054537784 -0.47747558 0.07515006 -0.114309706
0.023521563 0.21340598 0.04676924 0.005751741 0.17482306 -0.17678942 -0.01652524 -0.07136216
-0.36232266 0.05942732 0.12545197 -0.103146985 0.0059918826 -0.32782978 -0.14791782 0.12034398
0.21885578 -0.34058878 -0.30177686 0.12974957 -0.20423892 -0.22828928 -0.20745836 0.6502223
0.37496907 0.037722196 -0.40391326 -0.33018598 0.45310947 -0.13402392 -0.2806327 -0.22331235
0.49826446 -0.1382819 0.57455015 -0.13504925 0.40951142 -0.24403477 -0.002662426 -0.4031881
-0.26468793 -0.3796032 -0.3973043 -0.53433084 -0.3582315 -0.26995528 -0.23739079 -0.11490572
0.46302837 -0.112116404 -0.19924699 -0.07155459 0.060550723 -0.121802986 -0.12945175 -0.030659197
-0.05269212 -0.29544914 -0.1569627 -0.18432118 0.47962558 -0.13408504 -0.19275285 -0.06273309
0.18007226 -0.16607876 -0.05872059 0.039818108 0.11287814 -0.12282771 0.28819242 0.3245032
-0.21596567 -0.25145948 0.20016558 0.10276693 -0.03461977 -0.114067376 -0.15238112 0.29041788
-0.027334563 0.04734132 0.12307537 -0.27513498 -0.02073728 -0.032990158 -0.37902015 0.037586737
0.018349716 0.033985063 -0.040328998 0.025599418 0.005337896 -0.44144213 0.08773291 -0.04539216
0.03835492 0.16754581 0.02256492 0.057375018 0.119987026 -0.5246308 0.093254745 -0.018601544
-0.03011175 -0.02736634 0.029084193 -0.0040715868 0.008276073 -0.0013958768 -0.14079264 0.01470274
0.32479727 -0.15430075 -0.1787074 -0.20085119 0.19348358 -0.14847668 -0.07606412 0.055617347
0.50538206 -0.36147583 0.23977879 -0.1477591 0.3833117 -0.25042987 -0.11764874 -0.06875235
0.1747637 -0.13212766 -0.2142629 -0.087400526 -0.10499685 -0.19282947 0.30394098 0.06070504
-0.3047104 -0.25511035 0.00164632 0.16707087 0.036051482 -0.21955031 -0.09638337 0.3874125
0.02389157 0.12070364 -0.17746575 0.26802444 -0.049472447 0.15658149 -0.04442274 0.06196831
-0.06680804 -0.28122017 -0.048269153 -0.4828613 0.07891353 -0.30971596 0.022988843 -0.12997268
0.0385517 -0.52302915 0.0043253712 0.062350336 -0.007739057 -0.25375828 -0.0070417444 -0.05888184
-0.3608278 0.03749209 0.15140852 -0.13237652 -0.092992455 -0.12157781 -0.3324302 0.101701565
-0.23565827 0.382476 -0.24624224 -0.16263343 -0.14618151 -0.28306612 -0.18224917 0.2981657
0.65656096 0.006896285 -0.05882215 -0.19999872 0.017517503 -0.1470061 -0.29716313 -0.31530452
0.36188442 -0.22260314 0.44107646 0.5341559 0.25956896 -0.25347683 0.26799414 -0.32252696
-0.17628749 -0.14973064 0.3950377 -0.28620595 -0.105951875 -0.15670118 -0.089093916 -0.25019267

model.3.bias f4 [32]
00000000: 8415 f63d abe5 59be 2410 84be e57f b6be
00000010: f0bb f8bd 0bb8 6d3e 181f 48be 17be 5cbd
00000020: 2528 dd3d ac71 e0be ed6c e7bd 9ba2 9dbe
00000030: 995b acbe 0142 0ebe 298a 003d bc95 923d
00000040: b7be 6a3e 9908 e0be deac 7abe c5dd 91bc
00000050: 6608 40be 7754 6fbe b965 3dbe 8473 973e
00000060: 72b2 babe 4150 feba 03b6 c1be a290 63be
00000070: 34ff ebbd ec41 a03d 3885 52be 3b2b 53be
0.120158225 -0.21279018 -0.25793564 -0.3564445 -0.12145221 0.23214738 -0.19543111 -0.05389222
0.107986726 -0.43836725 -0.11300073 -0.3078812 -0.33663633 -0.13892366 0.03138176 0.07157466
0.22924314 -0.4375656 -0.24480006 -0.017805943 -0.18753204 -0.23372065 -0.18495835 0.2958032
-0.36464268 -0.001940258 -0.37834176 -0.22223142 -0.115232855 0.078250736 -0.20558631 -0.2062196

model.5.weight f4 [3, 32]
00000000: 7047 963e 94d6 e2bd ae6f 8abe 126a 09be
00000010: 48f5 98bd 4b67 593e dd8d 4ebe d89c e83e
00000020: 68c5 0b3e 3f0e ea3d c09e f6bc 7395 90be
00000030: 755a 17be b3e0 28bd 0f94 be3e 7777 57bd
00000040: 9164 acbd 5c9b f43e 4d22 1e3f 89aa 993e
00000050: cfbc 64be 6249 c73e 75df e4bd 34f0 6e3e
00000060: e9e1 3b3d 3d4c a63e 20ec ea3e 7c94 e5bd
00000070: 5c8e 3c3e 56bb 5b3e 1db3 b23e 5f0f 3dbe
00000080: f1c1 483c ad58 09be ade2 5c3f b330 d9bd
00000090: b31e 8ebd f101 be3d 95ff 6ebe 47b8 0d3f
000000a0: fd79 223e ad5e e83e dd62 f03e 2048 eabd
000000b0: 76f1 963b 738e c0bd 4e98 d63d 70a5 a9bd
000000c0: cf39 3bbc 8a18 45be d5e7 2fbe 96b7 793e
000000d0: b30e 403f 6313 40bd b033 babd a472 773e
000000e0: 6a6e d53d 65eb 033e 497d 0abe d8d5 1ebd
000000f0: 5353 513e 93b4 313e 59d5 8ebe de36 04be
00000100: 596e 213d 0b35 45be 4c61 d03d fecb ba3e
00000110: 3223 7dbd cb80 c53e 4b10 91be c10f 4bbe
00000120: 261b 603e 80df 153d 007e 80bc c240 81be
00000130: fa6f 123c 3d11 4cbd 3313 a83d fa87 43bc
00000140: 287d d73e 74c1 eabd 11ea cebd 0a21 f23d
00000150: fa08 edbd 0ee6 20bd a7cf 423f 2568 9a3e
00000160: f084 0c3f 3da3 a03e d525 193e 74da d23e
00000170: 7b73 d03e 963e e33c 5128 32be ad56 d93e
0.29351377 -0.11076084 -0.2703833 -0.13419369 -0.07468659 0.2123081 -0.20171304 0.45432162
0.13649523 0.114284985 -0.030104995 -0.2823902 -0.147806 -0.041229915 0.37222335 -0.052604165
-0.08417619 0.4777478 0.6177109 0.3001292 -0.2233765 0.38923174 -0.111754335 0.23333818
0.04586974 0.3248004 0.45883274 -0.11209962 0.18413681 0.21458182 0.34902278 -0.18462895
0.0122532705 -0.13412733 0.8628338 -0.10604992 -0.06939449 0.09277714 -0.23339684 0.5535931
0.15866847 0.45384732 0.46950427 -0.11439538 0.004606421 -0.0940217 0.104782686 -0.08283508
-0.011427357 -0.19247642 -0.1717828 0.24386439 0.7502243 -0.04689349 -0.0909189 0.24164826
0.104214504 0.12882765 -0.13524355 -0.038778156 0.20441942 0.1735404 -0.27897146 -0.12911555
0.039411876 -0.19258516 0.10174808 0.3648376 -0.061801143 0.38574824 -0.28332743 -0.19830228
0.21885356 0.0365901 -0.015685081 -0.2524472 0.00893783 -0.049821127 0.08206787 -0.011934275
0.42087674 -0.114626795 -0.101032384 0.11822708 -0.11573978 -0.039281897 0.760981 0.3015758
0.54890347 0.3137454 0.14955838 0.41182292 0.40713105 0.027739804 -0.17398192 0.4244894

model.5.bias f4 [3]
00000000: 130f 073e 5d7e 313e ca67 573d
0.13189344 0.1733336 0.052589215
