models/precip_mm_lstm_model.pth (torch, 66734 bytes, 10 tensors)

lstm.weight_ih_l0 f4 [128, 22]
000000 3a d5 ef 3c 0e 08 88 3e cf 55 c6 be fe 65 17 3e
       0.029276479 0.26568645 -0.38737342 0.14785
000010 ba df 0a 3e 56 4f 2e 3e f4 58 95 bd 6f 93 8a bc
       0.13561907 0.17022452 -0.07292357 -0.016916005
000020 05 91 2a 3e 0b 73 0d 3e ad 20 18 be 85 73 a9 be
       0.16656883 0.13813417 -0.14856215 -0.33095947
000030 70 84 69 3c eb 95 33 be dc d1 2a be fd 08 67 3d
       0.014252767 -0.17537658 -0.16681617 0.056405056
000040 90 16 86 be c6 60 8c bd e1 e3 5a 3e 68 8a 22 3c
       -0.2618909 -0.068543956 0.21375991 0.009920694
000050 28 13 0b be 80 4f 05 3e cf 19 c1 3c b9 da 3d 3e
       -0.13581526 0.13018608 0.023571877 0.18540467
000060 b3 67 22 3b 4e 69 0f be cf 6b 74 be 93 17 81 3d
       0.0024781048 -0.14005014 -0.2386925 0.063033246
000070 ab 01 63 3e 6b 10 c0 3d 02 35 08 3e ee fe ba 3d
       0.22168605 0.093781315 0.13301471 0.09130655
000080 0b 78 ee bd d3 2d 37 3e 8e ab 96 be 72 ce 5a be
       -0.1164399 0.17888574 -0.2942776 -0.21367815
000090 a8 a1 af 3d f1 7c 2d bc 40 4d 8a 3d 61 76 32 3e
       0.08575755 -0.01058887 0.067530155 0.1742797
0000a0 20 d7 f9 3d 15 52 87 3e ba 1f 2a be 00 c8 08 3e
       0.12199235 0.2642981 -0.16613665 0.13357544
0000b0 88 a6 f4 3c ad 97 66 3e e3 8f 01 be d0 7c 92 bd
       0.029864565 0.22518797 -0.12652545 -0.07152712
0000c0 26 5b ae 3d 6f c5 0b bd f4 6e 04 3d 6b ae 30 be
       0.08513479 -0.034123834 0.032332376 -0.17254035
0000d0 fe 9e 16 3c 23 3a 9b 3d 2f 7b a4 3b 94 20 01 bc
       0.00919318 0.07579448 0.0050195674 -0.007881302
0000e0 c6 04 fc bd 2f ba 00 be 76 af 61 be 82 c6 8f be
       -0.12305598 -0.12571023 -0.2203959 -0.28081137
0000f0 0f 3b 71 be 3d 5f 7b be cd 05 79 3e 9b 96 d3 bd
       -0.23557685 -0.2454805 0.24318619 -0.1033146
000100 74 c4 b9 3d fa 17 35 bd a0 2b e5 3c c0 1b b2 3d
       0.090706736 -0.04421232 0.027974904 0.08696699
000110 9b 16 ab be 3f 19 8c be c6 3d 9b 3e 7a cd a9 3e
       -0.33415684 -0.2736301 0.30320567 0.3316458
000120 64 95 0b be 99 24 0b be c1 2d a4 bd 06 81 09 be
       -0.13631207 -0.1358818 -0.08016539 -0.13428125
000130 9b b5 0e 3e 96 f5 83 bd d0 ea 40 3c 3f 0c c9 3d
       0.13936464 -0.06443326 0.011774734 0.09816789
000140 3f 74 ec bb 48 4f ac 3d d8 1a 7c 3e f3 95 a0 bd
       -0.007216006 0.08413559 0.24619615 -0.078411005
000150 6b 68 ae 3c 20 e2 36 3e f0 25 65 be 35 ff 22 be
       0.021290025 0.17859697 -0.22377753 -0.15917666
000160 52 6e 84 3c e5 c2 f6 3e 30 2d 83 be c6 fc 84 bc
       0.016165886 0.48195568 -0.25620413 -0.016233813
000170 85 82 65 bd c3 eb 75 3d c8 bb 87 3d 93 52 6b be
       -0.056032676 0.060039293 0.06627613 -0.22980718
000180 e5 e6 e1 bd 26 eb b5 3d 7e cd 1e be c5 d9 5a 3e
       -0.11030368 0.08882742 -0.15508077 0.21372135
000190 e1 6f 57 3d 1d 60 c8 bb 00 29 94 bd 2b aa 83 bd
       0.05259693 -0.006114973 -0.07234383 -0.06428941
0001a0 96 90 32 3d cd 38 79 be af da 3a bd 1c 71 28 3e
       0.04359492 -0.24338074 -0.04561871 0.16449398
0001b0 2f 10 95 3d 93 50 03 be 66 8d eb 3d 3b d1 03 3f
       0.072784774 -0.12823705 0.11501579 0.51491135
0001c0 cc 4f 6e 3e 89 83 5d be a1 27 49 3d 93 bf 63 3d
       0.23272628 -0.21632208 0.04911006 0.05560262
0001d0 67 f3 75 3e be 89 91 3d 16 06 36 be 66 d3 0b 3e
       0.24018632 0.0710635 -0.17775759 0.13654861
0001e0 ac 1d 56 be 6a 36 2b be e1 c3 92 bd e0 56 29 be
       -0.20909756 -0.16719976 -0.07166267 -0.16537046
0001f0 cf 35 74 be 1d 53 8c be c1 bb 5d be 2c fe 1a be
       -0.23848651 -0.2740716 -0.21653654 -0.15136021
000200 02 7a 44 be a9 c4 56 3d de e7 6a be ec 19 8a 3d
       -0.19187167 0.052433643 -0.22940013 0.067432255
000210 3d 7f bb 3e 87 44 2a 3e e9 d2 14 be 24 04 a1 be
       0.36620513 0.16627704 -0.14533581 -0.31448472
000220 11 16 58 3d 99 e2 bc bc 10 9c 7f 3e ec 47 25 3d
       0.05275542 -0.023057269 0.24961877 0.040351793
000230 62 bd a1 bd bf 4f 6d 3e 50 6b 3b 3d 1f a8 e1 3d
       -0.0789745 0.23174952 0.045756638 0.11018395
000240 23 db f4 bd 36 ed 03 3d b4 5f be bc 69 90 73 3e
       -0.119558595 0.032208644 -0.023238994 0.23785557
000250 ae 82 18 be c1 ed 07 bf 6f ff 00 be 9c 25 e2 3d
       -0.148936 -0.5309716 -0.1259744 0.1104233
000260 6a 08 c8 be a9 92 7a 3e 2c a5 8f be 59 99 cb bd
       -0.3906892 0.24470009 -0.28055704 -0.09941358
000270 67 bf 55 be d4 33 07 be 9b d7 7c 3d 4b 14 e9 bd
       -0.20873795 -0.13203365 0.061729055 -0.11380824
000280 11 73 a3 be a3 b2 ac be c3 f4 6e 3d f9 70 64 3e
       -0.31923726 -0.3373004 0.05833889 0.2230872
000290 ad ad 49 be e0 ee 67 be 8d a9 bc 3d 27 47 23 3c
       -0.19695158 -0.22649717 0.09212027 0.0099656945
0002a0 9f 4c a3 3c 27 6e 81 3d 1d 3c 29 3e 38 8e 16 3d
       0.019933997 0.06319838 0.16526838 0.036756724
0002b0 5a 56 64 bd c3 a1 26 bd 57 5f 8d 3e da 02 c7 3d
       -0.055746414 -0.04068161 0.276118 0.09717341
0002c0 03 66 12 bd 84 f0 46 3e 0b 51 fa bd 2a 09 94 bc
       -0.035741817 0.19427687 -0.12222489 -0.018070776
0002d0 d5 50 6f 3d 26 f8 bf bd 95 00 32 3e 1c 25 39 3e
       0.058426697 -0.093735024 0.17383035 0.18080562
0002e0 ce fb 31 be d3 6b 54 3e 5c 1b ea 3c 51 11 90 3d
       -0.17381212 0.20744257 0.0285775 0.07034553
0002f0 da 05 0c 3d c0 25 9c bd bb ed 53 be de 84 f3 3c
       0.034185268 -0.07624388 -0.20696156 0.029726442
000300 0f 4b 62 be af a2 02 be 12 1f 6d bd ae b5 3a bd
       -0.22098945 -0.12757371 -0.05789096 -0.04558342
000310 0f b1 fa bd c7 fe ea 3d 51 2c 32 3d ec 3d 20 be
       -0.122408025 0.11474376 0.043499295 -0.15648621
000320 77 b8 96 bc 19 79 d1 3b da 48 63 3e 08 34 a2 3d
       -0.018398507 0.00639261 0.2219576 0.079200804
000330 36 c0 d7 3d a1 96 b2 be e1 b0 95 be dd 70 d7 be
       0.10534708 -0.34880546 -0.2923651 -0.42078295
000340 58 7f 43 be f4 a4 48 be 94 7d bc 3d 18 23 31 bd
       -0.19091547 -0.19594175 0.092036396 -0.04324636
000350 82 0b 9e 3d 73 91 a1 bd b8 74 50 be 13 50 7f bd
       0.07717039 -0.0788907 -0.20357025 -0.062332224
000360 e3 d9 7c be cf e6 bc be a8 39 83 be 4f ab ca bd
       -0.24692492 -0.36894843 -0.25629926 -0.09895956
000370 37 0f eb bb b0 80 14 3f 26 20 b7 3c 9c 72 7b 3c
       -0.0071734446 0.5800886 0.022354197 0.015347149
000380 c8 b6 cd 3d 1b cf 2c 3e f4 85 83 3d fd 71 e5 bd
       0.100446284 0.1687588 0.06422034 -0.11203382
000390 45 76 9e be ee cd 00 3e 3a ed d8 3d 73 52 63 3e
       -0.30949607 0.12578556 0.105921224 0.2219942
0003a0 52 c6 3a 3e 84 15 2c be 2a af 84 3c 1b 1e a0 3e
       0.18239716 -0.16805083 0.016196806 0.3127297
0003b0 a8 e9 59 3d 81 9f 22 be 6c b0 74 3e ad 00 bc 3d
       0.053201348 -0.15881158 0.23895425 0.091798164
0003c0 8b 52 1b be 72 ca bd bd b8 bb 9a 3d bc 6a 33 be
       -0.15168206 -0.09267129 0.07555336 -0.17521185
0003d0 5b 9a 10 3d 0a 2b 21 bd 50 8d 4f 3c 42 31 be 3d
       0.035303455 -0.039347686 0.012667969 0.09286739
0003e0 e5 3a 43 be 7c 38 33 3e 08 cb 7c 3e b6 e8 09 3e
       -0.19065435 0.17502016 0.24686825 0.13467678
0003f0 0a 24 95 3d 80 45 4a be 68 54 29 3e d3 b7 0b be
       0.072822645 -0.19753075 0.16536105 -0.13644342

lstm.weight_hh_l0 f4 [128, 32]
000000 e4 ac cd bd f3 8a 40 be b9 18 1c bd 59 98 92 be
       -0.10042742 -0.18803005 -0.038109515 -0.28631857
000010 a4 92 03 3f a8 df 6d be 0a 36 b2 bd 0c 65 42 bd
       0.5139563 -0.2322985 -0.087017134 -0.047459647
000020 e2 e9 d8 3d b0 e6 9b 3e ab d5 cf bd 7f 44 d4 bd
       0.105914846 0.30449438 -0.10148176 -0.10364627
000030 ba dd 08 3d 5d 73 a4 be 25 e7 ba 3d b4 c4 47 3d
       0.03341458 -0.32119265 0.091261186 0.048771575
000040 cf cd b4 3d 3a 01 fd bd 9b 7a 32 3e 59 62 13 bc
       0.088283174 -0.123537496 0.17429583 -0.008995616
000050 b3 e1 64 3e 08 b1 35 3e 9a 2d 6d bc 87 75 d0 3c
       0.22351722 0.17743313 -0.014476204 0.025446666
000060 89 a1 a4 3e 3f 84 8c be 14 6e 11 bc 5b 12 1a be
       0.32154492 -0.27444646 -0.008876342 -0.15046065
000070 8c ea 34 3e 06 b5 68 3c 02 e7 c7 3d 65 f7 f2 3c
       0.17667598 0.014203316 0.09760858 0.029658983
000080 52 5d 84 bd ea a2 a0 bc f7 cf 83 3e 9e 55 2b be
       -0.06463112 -0.019608933 0.25744602 -0.16731879
000090 91 cc a4 be 6d a5 5f be c6 d8 f7 3c 0d 35 d1 3c
       -0.32187322 -0.21840449 0.030254733 0.025537992
0000a0 bb b4 d4 be cb 77 95 be e8 23 c3 3e e7 3a d5 3c
       -0.41544136 -0.29192957 0.38113332 0.026029063
0000b0 23 56 92 be 9c 31 d6 bd 28 80 57 be e4 89 9f 3d
       -0.28581342 -0.10458681 -0.21044981 0.077899724
0000c0 b1 fe a2 bd c2 da 23 3e cf 6a 09 be 50 97 63 be
       -0.07958735 0.16001418 -0.1341965 -0.2222569
0000d0 d3 fd f7 3e 41 5e ba be 5e 93 0c be 66 30 86 ba
       0.4843584 -0.36400035 -0.13728091 -0.0010237813
0000e0 0c 76 ab 3d 2d a0 93 be d6 3e 84 3e d5 57 ab 3e
       0.08372125 -0.28833142 0.2582919 0.33465448
0000f0 b0 86 dc 3e 50 67 92 3e fa f3 96 be 65 07 3b bd
       0.43071508 0.28594446 -0.29483014 -0.04566135
000100 38 ba 7f be 87 27 ba be b3 0a 60 be c7 41 e6 3c
       -0.2497338 -0.36358282 -0.21879081 0.028107537
000110 6f aa a4 3e 99 cd ed be b4 ae 24 bd 40 d8 a4 3d
       0.3216128 -0.4644592 -0.040205672 0.08049059
000120 78 2d c2 bd 24 50 7f 3d 7b 28 75 3c fc 19 21 3d
       -0.09481329 0.062332287 0.014963265 0.03933142
000130 00 c0 a8 bd f0 64 dd 3d 6b 49 0a bd 5e 16 d3 be
       -0.08239746 0.10810268 -0.033761423 -0.41228002
000140 47 d3 cf bd 85 17 89 be 92 39 00 3f e4 f9 ce bd
       -0.1014772 -0.26775756 0.50087845 -0.101062566
000150 56 e8 74 3d 74 64 e5 bd 69 c9 a0 3d 2d 00 03 3e
       0.059791885 -0.112008005 0.07850916 0.12793036
000160 e5 51 02 be 9d 5c 87 be 5f e8 a0 3e 43 48 e8 bd
       -0.12726553 -0.26437846 0.31427285 -0.11341908
000170 7c 9a a8 bd 6e 58 64 be 5a 54 6a bd ac d7 0d 3e
       -0.082325906 -0.22299358 -0.05720935 0.13851804
000180 ca 7c b6 bd df 2b 1f be 69 ea 8a bd 5b 3a 40 3e
       -0.089105204 -0.15544079 -0.067829914 0.18772261
000190 ba 26 ec 3d 38 04 8e be 8f ec 93 bd 6c dd 86 be
       0.11530824 -0.27737594 -0.07222854 -0.26340806
0001a0 51 26 6f 3e e6 f3 37 bd fc bf b9 be 52 fb 12 3e
       0.2335446 -0.044910334 -0.36279285 0.14353684
0001b0 a4 89 2f be 58 65 9f 3d 6d 00 60 3e 25 bc d1 be
       -0.1714235 0.07783002 0.21875162 -0.40963855
0001c0 8c 6e 23 be 3c a7 cc be 9c 0e 76 3e 6e 9e 9b be
       -0.15960139 -0.3997134 0.2402901 -0.3039431
0001d0 d6 2f 78 3e 5c e7 e3 3b 58 1d 13 bd b5 40 6e bd
       0.24236998 0.0069550704 -0.035916656 -0.05816718
0001e0 34 77 4f 3e 13 bd f5 bd 59 cb 61 bb 52 c2 11 bd
       0.20260316 -0.11998954 -0.003445348 -0.03558571
0001f0 e6 c7 b1 3d 1e e6 b8 bc e7 e0 47 3e 8b 6d 00 3f
       0.08680706 -0.022570666 0.19519387 0.5016715
000200 ac 1c 00 bd 28 82 4b 3b ca 05 83 be 4b 36 09 be
       -0.031277344 0.003105292 -0.25590354 -0.13399617
000210 c7 75 1b 3e 8e d5 11 3e ae c6 6f 3d ff 82 c5 bd
       0.15181647 0.14241621 0.058539085 -0.09644126
000220 37 45 00 3e 0b 0e 82 bd f5 5d 83 be 60 da c8 bd
       0.12526403 -0.06350335 -0.2565762 -0.09807277
000230 f9 db f4 bc a2 61 75 be 6f 61 91 3d 3c 90 13 be
       -0.029890047 -0.23963025 0.07098662 -0.1441049
000240 45 33 7b bd 93 39 79 be 86 45 3d 3e 6f 4b 50 bd
       -0.06132819 -0.24338369 0.18483552 -0.05085319
000250 b2 fc b5 3d f2 3a 0f 3e a0 50 7b 3c f8 ec 14 3e
       0.088860884 0.1398733 0.015339047 0.14543521
000260 e8 3c 32 be c7 81 95 be 54 42 c2 3d 42 15 71 be
       -0.17406046 -0.29200575 0.09485307 -0.23543265
000270 eb 4e 18 3e 66 02 a7 bd 83 60 b3 bc cd 03 da 3e
       0.14873855 -0.08154754 -0.021896606 0.42581025
000280 c3 67 c3 be 30 e2 54 be 3c b0 bb 3d fa c7 83 be
       -0.381651 -0.20789409 0.091644734 -0.25738508
000290 61 1e 38 be 6c 58 55 bd ac a2 c1 3d 7a c6 62 bd
       -0.17980339 -0.05208628 0.09454855 -0.055365063
0002a0 8d 95 bc 3d 2e 45 61 be d1 2e 1e bd e2 c4 90 be
       0.09208212 -0.21999046 -0.038618866 -0.2827521
0002b0 68 d1 77 bd f8 e7 f5 bd 7e 60 9b 3d f3 44 fc 3d
       -0.06050244 -0.12007135 0.07586764 0.123178385
0002c0 a6 30 22 3e 99 5e ae 3d 7b b1 cb 3d 32 ef 8a bd
       0.1583887 0.08514137 0.09945961 -0.06783904
0002d0 71 60 d1 3d 32 29 e9 bd d8 f7 e7 3d b4 82 ad bd
       0.10223473 -0.113848105 0.11326569 -0.08472195
0002e0 95 e8 02 3d 10 e8 81 bd 99 e0 89 bd 83 b2 d8 bd
       0.03196009 -0.063430905 -0.06732292 -0.105809234
0002f0 84 e8 a3 3e 44 ad 4e 3e a1 47 71 3d 54 2f b3 be
       0.32013333 0.20183283 0.0589062 -0.34997046
000300 26 47 87 be 53 0c 3a be 77 fc 30 3d f6 5b 86 be
       -0.2642147 -0.18168764 0.04320952 -0.26242036
000310 16 28 f5 3e fc 23 dc be b7 78 f8 3d 47 47 ee 3d
       0.47882146 -0.42996204 0.121323995 0.11634689
000320 09 51 42 3e c4 7f 16 3e 01 17 ca be 82 52 57 3d
       0.18976225 0.14697176 -0.39470676 0.05256892
000330 2c d3 47 3e 33 80 20 be 7d 57 a1 3e be aa 75 be
       0.1951415 -0.15673904 0.3151206 -0.23990914
000340 fe 57 8d 3e f4 38 a5 3b da d3 03 3e b7 3d 86 be
       0.27606195 0.0050421897 0.12873784 -0.2621896
000350 59 3d 09 3e f2 c5 ba bd 1b eb aa 3e 26 c3 49 be
       0.13402309 -0.09119786 0.33382496 -0.1970335
000360 63 f7 4a 3c 0c d3 db be 80 9a 31 3d ea ac 0f bf
       0.012388083 -0.42934453 0.043360233 -0.5612322
000370 bb 20 e4 3d f7 e3 62 3e 32 4e 9c 3e 6b 97 34 bd
       0.11139055 0.22157274 0.30528408 -0.044089716
000380 bc c2 c3 bd 72 1c 97 3d be d3 76 bd 5b 36 f5 3d
       -0.09558627 0.073784724 -0.060260527 0.11973258
000390 fa db 8d 3d a2 b1 39 bd 1c cc 7b 3e f5 57 74 3d
       0.06926723 -0.04533542 0.2458958 0.059654195
0003a0 ee ca 88 bd 66 39 f1 bc 8e 96 28 bd cf ce 9b bd
       -0.06679331 -0.029446315 -0.041159205 -0.07607805
0003b0 b0 fa 07 3e 45 cb c9 3d 65 d1 e3 3c a8 17 29 be
       0.13279223 0.09853224 0.027809808 -0.1651293
0003c0 07 43 01 3e cd 98 96 3d 02 eb 9d bd bf ef 87 be
       0.12623225 0.07353363 -0.0771084 -0.265501
0003d0 57 c1 72 bd c6 a1 30 3d a9 84 67 be e7 68 50 3e
       -0.059266414 0.04312303 -0.226092 0.20352517
0003e0 a3 9e 87 3e 7b 0e 24 be a9 a3 11 3d ba 68 94 3d
       0.26488218 -0.16021149 0.03555647 0.072465375
0003f0 5e 1c 10 bc f3 64 ad be e5 93 44 3e 27 a0 d1 3d
       -0.008795826 -0.3386608 0.19197042 0.10235625

lstm.bias_ih_l0 f4 [128]
000000 b9 ad ba 3d 41 57 e5 3d 3e 5b 15 bd 08 a4 17 3e
       0.09115166 0.11198283 -0.03646397 0.14808667
000010 be 62 34 3d 3e d5 9a 3d 69 87 77 bd b9 e6 83 3d
       0.04403948 0.07560204 -0.06043187 0.06440491
000020 7d b4 9c 3e 50 05 3e 3e 93 ec 0b be 4a 30 da 3d
       0.30606452 0.18556714 -0.13664465 0.10653742
000030 08 5c db bb e5 cd 4e 3e 11 17 30 be 20 8d 3d bc
       -0.0066943206 0.2019573 -0.17196299 -0.011569291
000040 46 5a 0d 3e e7 f7 e7 bd cd 80 03 3c bb eb 84 bd
       0.13803968 -0.113265805 0.008026314 -0.064902745
000050 33 47 bb bd 35 0e 64 bc 37 dd b8 3d dc 47 5c 3d
       -0.091444395 -0.013919403 0.090265684 0.053779468
000060 07 fb 63 bd f2 3e f8 bd 10 01 72 3d f6 4b 15 3e
       -0.05565932 -0.12121381 0.059083045 0.14579758
000070 89 92 f5 3b aa a3 1d 3e bc 1a c2 bd 89 8f 9d 3d
       0.007494275 0.15394464 -0.094777554 0.07693393
000080 00 10 4a 3e 83 c6 98 3c 14 59 49 3d 4e 3a ec bd
       0.19732666 0.018649345 0.049157217 -0.11534558
000090 f7 03 8b 3d db f2 0e 3e 6f b1 8f 3d f9 2c 14 3e
       0.067878656 0.1395983 0.07016265 0.1447028
0000a0 69 5e 73 3e 5f 6a 3b bd e5 46 be bd 53 0d d3 bd
       0.23766483 -0.04575574 -0.09290866 -0.10305276
0000b0 f7 55 43 3c 2a 79 f8 3d f3 04 a6 3d c2 7a 0f 3e
       0.011922351 0.12132485 0.08106413 0.14011672
0000c0 f0 56 cc bc 6f 15 62 be 22 3c 50 be 82 2c 6f 3d
       -0.024943799 -0.22078489 -0.20335439 0.058392055
0000d0 f3 e1 8a 3d ac 14 35 be 6d e8 95 3e 78 96 a8 3d
       0.06781378 -0.17683667 0.2927889 0.08231825
0000e0 ff ce 50 3b d8 c1 cb bd cc 46 35 3e 84 9c 3e 3e
       0.003186166 -0.09949082 0.17702788 0.18614393
0000f0 17 e4 92 3d 6b 67 c5 bd c8 87 da 3b 6a f1 25 bb
       0.07172411 -0.09638866 0.0066690184 -0.0025320896
000100 8f 12 ec 3d 4e fa a5 bd 3d 9a 3e 3d 62 4c eb bc
       0.11526977 -0.081043825 0.04653381 -0.028722946
000110 fd 61 bb bd db 67 07 bc c7 4f de bd 7e b7 bb bd
       -0.09149549 -0.008264507 -0.1085506 -0.09165858
000120 b9 0e 12 be 65 c4 84 3e 7a 7a af 3d a2 f2 53 be
       -0.14263429 0.25931087 0.085682824 -0.20698026
000130 77 b5 9f 3c 57 91 a4 bc bd e7 b0 3d 43 c9 df bd
       0.019495709 -0.020088835 0.086379506 -0.109270595
000140 16 cc 1a be 57 76 12 3e 2c 7b dd 3d 3b 1c 30 3d
       -0.15116915 0.14302956 0.10814509 0.042995673
000150 bd 7c c8 3d 03 8d 1f 3c 72 1b 98 bd 5d b2 65 3e
       0.09789417 0.00973821 -0.0742711 0.22431321
000160 ac 15 37 be cb e7 34 bb aa a4 16 bc 2b 43 81 3e
       -0.17879361 -0.002760398 -0.009194532 0.25246558
000170 f0 2b 5c be 8c f3 b0 bd c0 b0 4b bd c5 ac e9 3d
       -0.21501136 -0.08640203 -0.04972911 0.11409906
000180 30 ae 2a bd 4c 4e 06 be fb 91 ec 3d af 35 21 3e
       -0.041670024 -0.13115805 0.11551281 0.15743135
000190 ce 35 cd 3d 3c 7e 31 3d 68 53 1b 3d 15 73 a4 bc
       0.10020028 0.043333277 0.03792134 -0.020074407
0001a0 74 8a 0d bd d0 f5 dc bd 6e a3 54 3e 32 19 c9 3d
       -0.034555867 -0.107890725 0.20765468 0.09819259
0001b0 7e af d5 bd d1 1d a6 bd 80 97 9b 3c 37 51 81 3d
       -0.10433863 -0.08111156 0.01899314 0.063143186
0001c0 9f 63 f0 3d d3 06 6d bd 03 71 82 3c 5f 95 25 be
       0.11737751 -0.057867836 0.015923029 -0.16170262
0001d0 cf 02 31 be fe f7 08 3d 63 40 f3 bc df bc 74 3d
       -0.17286228 0.03343963 -0.029693788 0.059750434
0001e0 f9 64 aa bd 53 21 f8 bd 79 4e d0 bc 3a a5 49 3d
       -0.0832004 -0.12115731 -0.025428044 0.049229838
0001f0 71 94 a5 bd 85 f0 00 3d 62 3a 7a 3d 49 b5 25 3e
       -0.080849536 0.031479377 0.061090834 0.16182436

lstm.bias_hh_l0 f4 [128]
000000 d7 a3 85 bd 15 c0 9c 3d 81 78 a6 3d ba 96 c4 3d
       -0.065253906 0.07653824 0.08128453 0.09599061
000010 c7 f2 59 3e fe 4b ed bd 30 0b 50 be cc 62 2f 3d
       0.21284018 -0.1158676 -0.20316768 0.04281883
000020 58 ec 9a 3d 52 33 d0 bd 06 80 bf bd d2 3a 22 be
       0.0756461 -0.101660386 -0.093505904 -0.1584275
000030 11 45 8f 3d 3f 6c 74 3d e1 4d ef 3c 91 c7 f6 bc
       0.06995595 0.059673544 0.02921194 -0.030124458
000040 9a c8 90 bb 9a 75 38 be 3d f2 39 3d 1a 89 37 be
       -0.004418445 -0.18013611 0.045397032 -0.17923394
000050 be 23 89 bd c5 68 ce 3d 99 94 c2 bd 46 34 2a be
       -0.066962704 0.10078577 -0.09500999 -0.16621503
000060 27 54 f4 bc e8 0c a5 3d c6 34 0e 3e 1e 97 7b bd
       -0.029825283 0.08059102 0.13887319 -0.061423413
000070 55 aa 5e 3e fc d3 3e 3e e7 11 fc 3d 72 e8 52 3e
       0.21744664 0.18635553 0.12308102 0.20596483
000080 19 24 57 3d af 2a 31 3e b0 4a 5a be 8b 29 3e 3d
       0.05252466 0.17301439 -0.21317554 0.046426337
000090 95 11 70 bd 59 3b 4d bd 4c 0d 70 bd 24 42 d9 bd
       -0.058610518 -0.050105426 -0.05860643 -0.106083184
0000a0 3c 21 04 3e f2 67 93 3e 47 4a bc bd 14 25 47 3e
       0.12903303 0.2879024 -0.09193855 0.19447738
0000b0 fd 69 b3 3d 84 28 f1 3d 66 f5 48 3d 4e 39 ef bc
       0.0876045 0.11775306 0.049062155 -0.02920213
0000c0 86 dc 0e b9 ed 02 ea bd 6d d5 78 be 3e 3f 7d 3d
       -0.00013624327 -0.11426339 -0.24300165 0.06182789
0000d0 9f 25 e5 bd 38 c8 70 be 3a f1 49 3e 41 b1 88 bc
       -0.11188816 -0.23513877 0.19720927 -0.016686084
0000e0 73 0a 32 3e c6 e8 c8 bd d2 d2 25 3e da 1b 2b 3e
       0.17386799 -0.09810023 0.16193703 0.16709843
0000f0 c6 0f 9b 3e b5 b3 04 bd 3b c9 82 bb 11 2d bb bc
       0.30285472 -0.032397944 -0.0039912737 -0.022848638
000100 9a 2b 11 bc 09 58 10 3e ce e2 51 be ac c0 bd bd
       -0.008860493 0.14096083 -0.20496675 -0.09265265
000110 bf 52 78 bc fb de 14 bd 11 cd 7a 3c 51 82 07 bd
       -0.015156447 -0.036345463 0.015307681 -0.033083264
000120 f9 d4 17 be f2 22 91 3d 4b 67 1a 3e cc db 28 bc
       -0.14827336 0.070867434 0.15078466 -0.01030631
000130 cd 8d 1a be 34 9a 23 bd 7f e6 65 3c 34 42 5b 3e
       -0.15093155 -0.03994198 0.014032005 0.21411973
000140 2a c0 8e bd 60 d5 a9 3d d3 c6 66 3c 9a 1b b8 3d
       -0.06970246 0.08292651 0.014085489 0.089896396
000150 f6 ad b5 bb 1a ad 73 bd 8a fa 6a be 3b 44 6d bd
       -0.0055444194 -0.059491254 -0.22947136 -0.057926398
000160 de 43 f5 3d fd a0 38 3e 20 39 96 bc 5b 14 2c 3e
       0.11975835 0.18030162 -0.018337786 0.1680464
000170 4c ed 05 be 48 1e 2d 3d 38 d3 07 be 2f 32 37 bd
       -0.13078803 0.042265207 -0.13264167 -0.044725593
000180 14 63 3a 3d b7 7e 41 3e 5e c9 6e bd 78 fc a4 bd
       0.045504645 0.18895994 -0.058297507 -0.08055967
000190 76 16 a2 bd 89 3f 10 3e 69 79 5f 3d c2 be 22 3d
       -0.0791444 0.14086737 0.054559145 0.039732702
0001a0 d6 f3 25 3e 5a 38 cd 3d de 5f 43 3d 5a 73 24 bd
       0.16206297 0.10020514 0.047698848 -0.04014907
0001b0 f6 b8 46 be 6b f2 19 3e ee de bc 3d 20 07 0d 3e
       -0.19406494 0.15033881 0.09222208 0.13772249
0001c0 16 a5 ff ba 86 f6 4d be 72 5b ba 3d 80 96 67 bd
       -0.0019504155 -0.20113572 0.09099473 -0.056540012
0001d0 23 32 00 3e 82 cf 86 bd 60 d8 b1 3d bb cc 17 be
       0.12519126 -0.06582548 0.086838484 -0.14824192
0001e0 27 d0 6e 3d 0e d9 b5 3d b8 0f be 3d bc 6a 67 3e
       0.05830398 0.088792905 0.09280342 0.2259931
0001f0 df d0 b6 3d 59 4d 00 3e d1 9c 45 3e 77 f7 62 3d
       0.08926558 0.12529506 0.19298102 0.055411782

lstm.weight_ih_l1 f4 [128, 32]
000000 2e d6 4b bc 64 03 3e 3c ce bc 9b 3d 25 55 e7 bd
       -0.012441201 0.011597488 0.07604371 -0.11295537
000010 77 5c db bd fd c9 5c be d3 e5 f3 bd 2f 3a 56 bc
       -0.10710996 -0.21561427 -0.1190907 -0.0130753955
000020 b6 b0 b0 3c 9d 85 82 bd e6 4c b2 bc 26 c1 8d 3e
       0.021568637 -0.06373141 -0.021765184 0.27686423
000030 2a 19 bf bd 88 d9 b0 bd 53 38 97 bd d5 2e 35 be
       -0.093309715 -0.08635241 -0.0738379 -0.17693646
000040 07 3a 38 bd 11 1d a9 3c df 53 6a 3e c1 bc 24 3d
       -0.044977214 0.020643743 0.22883557 0.040219072
000050 f6 39 54 3e 21 2c 11 be 51 be 12 3e f8 31 24 3c
       0.20725235 -0.1417699 0.14330412 0.010021679
000060 2d 5c 3d 3e 98 94 a6 bd 37 ea 6d bd de 90 cc 3c
       0.18492194 -0.08133811 -0.058084693 0.024971422
000070 dc 40 76 3e a0 45 a3 bd 03 cb a6 3c ca ca 43 3e
       0.2404818 -0.07972264 0.020360475 0.19120327
000080 c6 e8 76 3d 45 38 01 3e 01 db 7d 3e 22 65 ac be
       0.060280584 0.12619121 0.24790575 -0.33670908
000090 d2 71 4c 3e 49 dc 28 be 34 a8 0c be 8a 06 30 bd
       0.19965294 -0.16490282 -0.1373604 -0.042974986
0000a0 3c 65 66 bd e9 a6 6d be 4f 50 fe bd e0 71 14 bd
       -0.05624889 -0.23208202 -0.124176614 -0.036241412
0000b0 99 e0 3c be 20 5d 80 be 66 47 07 3e 65 91 62 3c
       -0.18445052 -0.2507105 0.1321083 0.01382861
0000c0 33 7c 0f bb 0c dd 23 be 97 71 9b 3d 63 71 8b bd
       -0.0021894097 -0.16002291 0.07590025 -0.06808736
0000d0 53 09 e5 3d d6 79 5b 3d 6f 82 ba 3e 82 7b 4d be
       0.11183419 0.05358299 0.36427638 -0.20066646
0000e0 5c 4a 99 3d 78 2d ff 3d 78 64 5f be 7b e3 63 be
       0.07484886 0.12459844 -0.2181567 -0.22254746
0000f0 d2 92 86 3e f8 af 0c 3e 11 dd 8b bc 5a 29 c0 3d
       0.2628389 0.13739002 -0.017073186 0.09382887
000100 79 6f 2f 3e fd ba 6b 3d d4 e0 09 bd ab 37 04 be
       0.17132367 0.057551373 -0.03366168 -0.1291186
000110 c4 e4 1e 3e 35 50 94 bc 38 ff 4e be 11 2b c0 3d
       0.15516955 -0.018104652 -0.20214546 0.09383214
000120 fb 33 6d bd cf 5a f1 bd a0 1b 71 be c5 15 c1 3d
       -0.0579109 -0.117848985 -0.23545694 0.0942798
000130 9c 30 bd bd de 93 16 be 38 96 41 bb f7 18 eb 3c
       -0.09237787 -0.14704844 -0.0029539 0.028698428
000140 9f 28 17 3d dd 68 d7 bd f9 47 6b 3e cf 85 96 3d
       0.036903974 -0.10518048 0.22976674 0.07349741
000150 f5 ba f1 bd 8f c8 4a 3e 0f cc b0 3d 2f d8 74 bd
       -0.11803237 0.1980307 0.08632671 -0.05977648
000160 06 6d 04 3e 0f 9c ae ba f0 f5 d6 3d b4 9c 4c be
       0.12932214 -0.0013321656 0.104961276 -0.19981652
000170 1a 63 5e 3d 34 f9 a7 3d ee 36 57 3d 6f 44 c6 bd
       0.05429373 0.082018286 0.05254262 -0.096810214
000180 a9 ee 6b 3d 70 92 90 be 66 52 da 39 8e e6 d2 3d
       0.05760065 -0.28236723 0.00041641592 0.10297881
000190 05 b4 4f 3e 2b e5 ff 3b 73 02 17 3e fa e1 c2 3d
       0.20283516 0.0078093014 0.14747028 0.09515758
0001a0 18 b9 bb 3e 53 5b 8d be 23 92 7d be b1 ef bc 3d
       0.36664653 -0.27608737 -0.24762778 0.09225405
0001b0 0b bf ff 3d de 80 dd bd 08 d5 14 3e c5 29 86 be
       0.124876104 -0.10815595 0.1453439 -0.26203743
0001c0 40 5d f6 bb b8 b3 0a be 7a d3 19 3e 92 29 13 3d
       -0.0075184405 -0.1354512 0.15022078 0.035928316
0001d0 83 08 39 bd 72 81 5b 3e f8 83 c2 3d 6a bb 8a be
       -0.045174133 0.21436098 0.09497827 -0.2709611
0001e0 f7 57 7d 3d 42 e5 a0 bd 91 56 e9 bd 5f 08 63 be
       0.061851468 -0.078562275 -0.11393464 -0.22171162
0001f0 f3 25 b7 3d 51 a1 ef bd 69 be 4a 3e dc e1 0e 3e
       0.08942785 -0.117006905 0.19799198 0.13953346
000200 a5 6c 7a 3d c6 70 03 be 5f d5 4f 3e b5 ec 1f be
       0.061138768 -0.12835988 0.20296238 -0.1561764
000210 81 a8 95 3d a7 bb 44 bd b9 97 80 be 33 6c a4 bd
       0.0730753 -0.04803052 -0.25115755 -0.0802845
000220 78 4e 93 3e 43 78 78 be 55 63 da be 02 0c dd 3d
       0.28770804 -0.24264626 -0.4265391 0.10793306
000230 4e a4 a3 bd 94 c3 12 be 8a 03 21 3e 3e 16 9e be
       -0.07990323 -0.1433242 0.15724006 -0.30876344
000240 e8 cf f7 bc 91 e9 34 be 46 66 49 bc 1b 78 68 3e
       -0.030250505 -0.17667224 -0.01229245 0.22702067
000250 34 8a 8f 3c 38 51 6a 3d 90 ed 86 3d 9c b0 bb 3d
       0.017521955 0.057206362 0.0658828 0.09164545
000260 e6 3a 9b 3c 1f da cc bb 69 75 7a be 5b fd 65 be
       0.018948983 -0.006251588 -0.24458851 -0.22459929
000270 7d 95 58 3d 4f 65 2c 3e 17 94 ea 3d e1 e8 7d 3e
       0.052876938 0.16835521 0.11454027 0.24795868
000280 61 23 b9 bd 77 4e c6 bd b5 b0 6a 3d 26 98 71 be
       -0.09039951 -0.09682935 0.057297427 -0.23593196
000290 c8 06 c8 3d b8 68 7e 3e 5a 98 88 3d f4 ff ef 3c
       0.097669184 0.24844635 0.06669684 0.029296853
0002a0 7d 62 dc 3d bf c7 16 be 12 b9 0a be 59 5e ac 3b
       0.10760973 -0.14724635 -0.13547161 0.0052602706
0002b0 45 b3 59 3d 1e bb 1c be 63 fd 06 be d2 c4 22 be
       0.05314948 -0.15305755 -0.13182597 -0.15895393
0002c0 72 66 db bd 1d d2 b3 bb 96 62 d7 3d 1d 31 49 bd
       -0.10712899 -0.005487694 0.10516851 -0.049119104
0002d0 c4 03 26 3e 96 78 63 3e 5b 3e d5 3d 47 54 84 3d
       0.16212374 0.22213969 0.10412284 0.06461387
0002e0 91 60 89 bc 57 fb 55 3d 9d b5 11 be fa 07 c1 3c
       -0.01676968 0.05224165 -0.14229436 0.023563374
0002f0 d6 4a 57 3e b1 69 25 3e d9 7f 4d be 1e 0d 13 be
       0.21024641 0.161536 -0.20068301 -0.14360473
000300 a9 a8 09 be 18 1f 3d be 02 0a c6 3d 14 f6 04 be
       -0.13443245 -0.18468893 0.096698776 -0.12984496
000310 26 2f 46 3e c2 25 39 3e d4 b4 fb bd ca 3b cd 3d
       0.19353923 0.1808081 -0.122903496 0.100211695
000320 ed 37 6c 3e 44 41 f5 bc 7c 68 90 be b4 8e 66 bd
       0.23068209 -0.029938348 -0.28204715 -0.056288436
000330 36 d8 30 be f8 47 d0 bd 73 82 ae bd 4a f8 0a be
       -0.17269978 -0.10169977 -0.08520975 -0.13571277
000340 15 ff ba bb 00 21 f1 bd eb 50 b7 3d 16 55 1f 3e
       -0.0057066777 -0.117738724 0.08950981 0.15559801
000350 d4 79 ce 3d ab 35 64 3e 7f ec 40 3d c5 b5 14 be
       0.100818306 0.22286098 0.04710054 -0.14522465
000360 bc 70 08 3e 70 3d 57 bd 77 27 80 be e6 3f 8b be
       0.13324255 -0.052548826 -0.2503011 -0.27197188
000370 58 f1 65 bd 51 d1 b8 3d 19 19 ed bc 12 43 b9 bd
       -0.056138366 0.09024299 -0.028942632 -0.09045996
000380 e1 cc 49 3c 6a 16 2f be 53 3f 18 3e b1 d3 95 be
       0.012316913 -0.17098394 0.14867906 -0.2926307
000390 e6 4f 82 3e 28 52 4d be 4a 65 8a bd 99 a7 37 3e
       0.25451583 -0.20050871 -0.067576006 0.17935027
0003a0 20 57 7c 3e 9d 7c d3 bd 80 b6 0c be fd d4 17 bd
       0.2464261 -0.103265025 -0.13741493 -0.037068356
0003b0 4b 3d e5 3d e0 1d 55 be 16 e1 da 3d 2e 4f 68 be
       0.11193331 -0.20812178 0.10687463 -0.22686455
0003c0 22 35 52 be f4 98 b7 bb 31 22 ea bd e4 8f ac 3c
       -0.20528081 -0.00560295 -0.11432303 0.021064706
0003d0 57 6d d4 bd 40 6d b5 3d 10 da 63 3d 0b d2 50 3d
       -0.103724174 0.088587284 0.055627882 0.050981563
0003e0 fd e5 ae 3b 97 53 65 bd dd 4e 10 be 6c ef 7b be
       0.0053374753 -0.05598792 -0.14092584 -0.24603051
0003f0 51 1d 5f 3d ce df bb 3d a5 b9 a4 bd 22 85 39 3e
       0.054471318 0.09173547 -0.080432214 0.18117192

lstm.weight_hh_l1 f4 [128, 32]
000000 61 9c 1f 3e 43 84 0c 3e 15 1e a6 3d f8 84 79 be
       0.15586998 0.13722329 0.081112064 -0.2436713
000010 b0 8f 3d 3e a4 ef 9a 3d 1f 7b 6a 3e 97 6d d7 3d
       0.18511844 0.07565239 0.2289853 0.105189495
000020 06 1b 69 bd 6f cc 21 bd 75 e3 bb 3d 40 ca 42 bd
       -0.056910537 -0.039501604 0.09174243 -0.047556162
000030 cd 87 56 be 14 33 72 be f7 a2 5c 3e e7 4b 4a 3e
       -0.20950241 -0.23652297 0.21546541 0.19755517
000040 b0 7b eb bd c9 08 20 be 44 97 41 be 2a 38 33 be
       -0.11498201 -0.15628351 -0.1890536 -0.17501894
000050 a6 b3 19 3e 8a 75 d8 bd 37 73 7a 3e 07 01 a5 3d
       0.15009937 -0.10569294 0.24458013 0.080568366
000060 e3 8d 45 be 64 20 d0 bb 0a fb 91 3e 82 51 94 bc
       -0.19292407 -0.0063515175 0.2851184 -0.018105272
000070 bf 4d 11 be 55 75 78 3e 0c 10 60 bd fb 2f 3f 3b
       -0.14189814 0.24263509 -0.054702803 0.0029172886
000080 40 ca e8 3d 4e 83 d9 bd cf d7 61 bc 5d 85 24 be
       0.11366701 -0.106207475 -0.013784363 -0.16066499
000090 73 89 7c 3e 21 f0 46 3d 80 ce 0c 3e 12 7e 03 3e
       0.24661808 0.04856885 0.13750648 0.12841061
0000a0 2f 14 9b bd a1 43 a1 bd b9 0d 9a bc 43 5c 93 be
       -0.07572209 -0.07874227 -0.018805372 -0.28781328
0000b0 fd ce 27 bd 47 60 b7 bd 04 1a d7 3d e1 fa dd 3d
       -0.040968884 -0.0895391 0.10503009 0.10838867
0000c0 70 12 3c 3e 56 68 ff bd 6b 29 09 3a bf 75 d3 3c
       0.18366408 -0.124710724 0.0005232307 0.025812982
0000d0 35 f0 53 3e ea 7d ce bd ba c2 0b 3e 89 5e 0f 3b
       0.206971 -0.1008261 0.13648501 0.0021876416
0000e0 9c a0 8b 3d ba d1 1a be 59 58 70 3e 25 7d 43 3d
       0.06817743 -0.15119067 0.23471202 0.04772677
0000f0 7a 05 28 be 80 ee 46 bd 91 c4 64 3e 26 0e 18 bc
       -0.16408339 -0.048567295 0.22340609 -0.009280717
000100 c7 41 4e 3e 57 4b a6 bb 18 68 c5 3d 72 fa bc 3d
       0.2014228 -0.005074899 0.09638995 0.09227456
000110 36 76 eb b9 7a e2 1d be 93 9c a3 3d 25 e6 55 3e
       -0.00044910767 -0.15418425 0.079888485 0.20888574
000120 f5 50 4a be 2a 54 7b 3e 3f fe 0d 3e bf 01 52 be
       -0.19757445 0.24543825 0.13866518 -0.20508479
000130 ec d7 42 be c3 80 25 be 73 cc 00 bd cc a6 52 3e
       -0.1902768 -0.161624 -0.031444978 0.2057144
000140 a3 1c 45 3c 9d c8 fc 3d ed 66 26 be 89 0c 59 3d
       0.012030753 0.123429514 -0.162502 0.05299047
000150 e1 87 ef 3d 6d c0 c4 bd 30 56 4f bc e8 97 f5 bd
       0.11695839 -0.09607015 -0.012654826 -0.119918644
000160 d6 37 81 be de 85 3f be 0d 32 70 3d 78 9d cc bc
       -0.25237912 -0.1870341 0.058641482 -0.02497743
000170 bc 41 a8 3d ef 0a 7c 3d 19 eb 45 3d 18 e7 12 3e
       0.08215663 0.061533865 0.04831991 0.14345968
000180 3e f8 08 3e 41 f1 ae 3d c8 76 ff bc f0 0a 2b 3d
       0.13375947 0.08542109 -0.031184569 0.041758478
000190 c0 93 4f 3e 69 a1 07 3e 3b cd d1 3d 82 be 19 3d
       0.20271206 0.13245167 0.10244223 0.037535198
0001a0 60 96 70 3d da ea ef 3c 7e 1c 81 3e ec 7b 3b bc
       0.05873716 0.02928679 0.2521705 -0.0114431195
0001b0 8d 16 85 be 3b 27 98 bd 0b 47 11 3e 16 fb 23 3e
       -0.25993767 -0.074293576 0.14187257 0.1601375
0001c0 70 7c 72 3e ac d2 3d 3e 07 25 44 3e b4 1a 19 3e
       0.23680282 0.18537396 0.1915475 0.14951593
0001d0 ea 5e 4b 3e 28 5e cd 3d da e3 db bd 3d 4a 24 3e
       0.19860426 0.100277245 -0.107368186 0.16043945
0001e0 c8 1d 1b 3c 0b 3c 82 bd cb b2 dd bc af 5d 87 bd
       0.00946755 -0.063591085 -0.027062794 -0.066096656
0001f0 16 70 14 3e 0d 46 1c 3e b4 b3 a8 3d ff e2 11 bd
       0.14495882 0.15261097 0.08237401 -0.03561687
000200 26 d2 e1 3d ba 52 36 be 91 ce 1c 3e 13 99 88 ba
       0.11026411 -0.17804995 0.15313174 -0.0010421596
000210 cc dd 46 3e bc 60 0b 3c 76 fa 28 3e ab 9c 3a bd
       0.19420546 0.00850695 0.16501793 -0.045559566
000220 89 90 eb bc 6e 67 15 3e ca 48 a6 3d 1c 51 ef bd
       -0.028755443 0.14590237 0.08119352 -0.11685392
000230 bd bb cc 3c 8c 1e c4 bd 7f db b4 3d 31 81 81 3e
       0.024991864 -0.09576139 0.08830928 0.25293878
000240 5a 4e 07 3d 5a e8 41 bd 2f 73 b2 bd 28 d7 7d 3d
       0.033033706 -0.04734073 -0.08713376 0.061972767
000250 37 e4 c6 bd 67 73 63 bc 80 4d 14 be bd 3b 51 bb
       -0.09711497 -0.0138824945 -0.14482689 -0.0031926476
000260 19 30 c1 bd d7 9c 24 be ed c4 14 3e 89 37 e0 3d
       -0.09433002 -0.16075455 0.14528246 0.109480925
000270 d7 35 e2 bc 0c 5d 82 3d 56 8b e4 bb 03 0c 8b 3d
       -0.027613563 0.063654035 -0.006974618 0.067894004
000280 75 71 ce 3d 86 a9 20 3e 18 4d 6b 3e be 60 d7 3d
       0.10080234 0.15689668 0.22978628 0.10516499
000290 e5 68 ce 3d d7 95 ee bd 0a bc 6d 3e 1e 0d 7c bd
       0.10078601 -0.116496734 0.23216262 -0.061535947
0002a0 48 39 21 be e0 06 e8 3d 22 ca a2 bd 3f f6 48 be
       -0.15744507 0.11329436 -0.0794871 -0.19625185
0002b0 a5 69 0c 3d 85 7a c8 bd 0e 7e 89 bd f8 c6 51 3e
       0.034280438 -0.09788994 -0.06713496 0.20486057
0002c0 45 c3 65 3e 0c d7 c1 3d d3 a8 31 be 44 e7 10 3e
       0.2243777 0.09464845 -0.17349558 0.14150721
0002d0 58 8b 22 bd 1c 90 fe bd 20 5c 66 bc 29 3c 06 bd
       -0.03968367 -0.124298304 -0.01406005 -0.032772217
0002e0 b7 b7 8b bd cb c5 4c 3c 14 b8 94 3e b3 3a f8 3a
       -0.0682215 0.012498329 0.2904669 0.0018938392
0002f0 d3 d7 8c 3e 22 2e 88 3e 7d a6 52 3d 2d 81 06 3d
       0.2750841 0.26597697 0.051428307 0.032838035
000300 f9 15 35 3e eb 73 68 3e cf 59 34 bd ac c5 61 be
       0.17684163 0.22700469 -0.04403096 -0.22048062
000310 f6 6d 0f 3e 82 32 91 bd 7a bb 8d 3e b5 55 49 3e
       0.1400679 -0.07089712 0.27682096 0.19661601
000320 3a 7f e7 3c 84 e7 32 bc f4 ee e7 3d 21 10 81 bd
       0.028258909 -0.010919455 0.113248736 -0.063019045
000330 52 60 99 3d f0 af 22 bd 87 68 1c 3d e8 7b d4 3d
       0.07489075 -0.03971857 0.038185623 0.10375196
000340 6c cb d8 3d 39 f6 a7 3d 9b 79 0f be 02 ef 25 3e
       0.10585675 0.0820126 -0.14011233 0.16204455
000350 ed a8 ca bd bf 74 22 be d2 12 ab 3d a2 5b d4 bb
       -0.09895501 -0.15864848 0.08353199 -0.00648065
000360 1b 1b 5f be b2 f5 03 be 59 20 2f 3e 07 c8 52 3d
       -0.21787684 -0.12886694 0.17102183 0.051460292
000370 c8 b4 54 3d fb a0 9b bc d5 a4 23 3e 38 a0 10 3e
       0.05193022 -0.01899766 0.15980847 0.14123619
000380 de 93 82 3e 41 2a b9 3d 51 42 1d be 5e f2 5f 3d
       0.2550344 0.090412624 -0.15357329 0.0546745
000390 3d 04 ec 3d 9d f1 02 3e 70 13 cd bc 8c a8 7d bd
       0.11524246 0.1278748 -0.025033683 -0.061928317
0003a0 38 b2 fb 3d 15 5d 1a 3e 47 19 7a 3e e4 71 1b bd
       0.12289852 0.1507457 0.24423705 -0.03795041
0003b0 e1 6d f7 bd af b3 2b be 3d bc e3 3b 6b b6 c2 3d
       -0.120815046 -0.16767763 0.00694993 0.0950745
0003c0 f3 90 27 3d b7 42 38 bd b3 78 bd bd f3 90 16 be
       0.04090972 -0.0449855 -0.09251537 -0.14703731
0003d0 0e f1 5b bd 36 05 7c be 84 a3 2e be ce 45 a1 3d
       -0.053696685 -0.24611363 -0.17054564 0.07874642
0003e0 79 5c 7c be 62 2c 46 be 7e b6 9f bd 43 a7 b3 bd
       -0.2464465 -0.19352868 -0.077984795 -0.08772137
0003f0 23 ce bf bc f3 c4 60 3e eb 6e d2 3d 6f a6 af 3d
       -0.023413723 0.2195013 0.10275062 0.085766666

lstm.bias_ih_l1 f4 [128]
000000 3a 4d 17 bd 90 5c 45 bc f1 a3 a4 bd 65 51 c9 bb
       -0.036938883 -0.012045994 -0.08039082 -0.006143736
000010 37 c0 63 be c8 9d 11 be 17 b1 df 3d 92 d2 0d be
       -0.22241293 -0.14220345 0.10922449 -0.13849857
000020 7f a9 7e bd 14 b0 3a be ed 33 60 be 41 ef 1f be
       -0.062173363 -0.18231231 -0.21894808 -0.15618612
000030 07 2a 7c bd 1d e4 c5 bd a7 85 01 bd a7 8c bb bd
       -0.061563518 -0.0966265 -0.0316216 -0.09157687
000040 d3 a8 9d be 18 41 a8 bd 53 ac d1 bd 39 c1 9a 3c
       -0.30792865 -0.08215541 -0.10237946 0.018890964
000050 69 23 cd bd 1f e0 76 bd 8e 21 05 3e 4d 03 b2 be
       -0.100165196 -0.060272332 0.13001081 -0.34768143
000060 35 7b 85 bd 04 1c ed bd 81 ea e4 bd bc 3c fd bd
       -0.065176405 -0.11577609 -0.111775406 -0.123651
000070 ac 13 0e be eb 22 f5 ba b7 81 9a bb 0f 39 af 3d
       -0.13874692 -0.0018702423 -0.0047151702 0.08555805
000080 48 f9 67 be 77 e5 c7 bd 00 37 a2 bd 8e 22 97 be
       -0.22653687 -0.09760564 -0.07920647 -0.2951855
000090 b6 99 e2 bc 74 a6 8d be 14 d8 12 be ab 2d 68 3d
       -0.027661186 -0.27666056 -0.1434024 0.056684177
0000a0 61 82 87 bd a8 d2 ef bb 85 46 fa bd b1 f4 ab bd
       -0.06616665 -0.0073188134 -0.12220482 -0.083962806
0000b0 86 dc a3 bd 90 8e cd bd af 79 89 3c 38 84 52 3c
       -0.08001046 -0.10036957 0.016781656 0.012848906
0000c0 dd 39 5a be 63 4c 2e be 9c 08 21 be 3c 40 b9 bd
       -0.21311136 -0.17021327 -0.1572594 -0.09045455
0000d0 6c b7 fb bd 42 a6 19 be ed 3a 49 be 10 11 bf bd
       -0.12290844 -0.15004829 -0.19651385 -0.09329426
0000e0 79 df a3 bd 9c 6f 03 be 17 e8 02 bd b4 cf be bc
       -0.080016084 -0.12835544 -0.03195962 -0.0232924
0000f0 2a 23 c7 bd 4a 94 88 be 16 df 9c be 0f ca 87 bd
       -0.09723504 -0.26675636 -0.3063895 -0.066303365
000100 6c f7 13 3e 33 bb b5 bd dc 7e f1 bc 0e 72 08 bd
       0.14449853 -0.08873596 -0.029479437 -0.033311896
000110 d4 90 f5 3d 4d bc c4 3c ad c8 23 3e 90 a4 b4 3d
       0.119905144 0.02401557 0.1599452 0.0882045
000120 4e 6d dc 3c e6 eb bf bd 87 5b 2a bc cd 43 4f bc
       0.02690759 -0.09371166 -0.010397798 -0.012650442
000130 44 5e 5a bc e8 ce 21 3c 12 57 d1 bd 3b 44 0c bd
       -0.013328139 0.00987599 -0.102216855 -0.034244757
000140 4e 36 cf 3c 4c d5 b6 bd cf 12 a2 bd 49 fe ee bd
       0.02529445 -0.08927402 -0.07913744 -0.11669595
000150 23 17 61 3d df 01 81 bd 0c c7 1e 3e 30 11 94 3d
       0.054953706 -0.06299185 0.15505618 0.07229841
000160 16 27 f2 bd a8 4d bc bd 4f 63 12 be 81 a5 41 bd
       -0.11823861 -0.09194499 -0.14295696 -0.047276977
000170 fc ab 3e 3d 3b 06 2a bd 04 78 1b 3e 5e 4e ad 3d
       0.046550736 -0.041509848 0.15182501 0.08462213
000180 19 0a 8c bd 51 35 1b 3e 86 2e 9d 3d 37 05 52 be
       -0.068378635 0.15157057 0.07674889 -0.20509802
000190 ae 5b 34 be 3b 2c 70 be ce 2d a4 3d 57 5c b0 3d
       -0.17613098 -0.23454373 0.08016549 0.086113624
0001a0 f4 dd b8 3d 48 f7 75 3c 4e 0b 2d bc bf 39 92 3d
       0.09026709 0.01501257 -0.010561777 0.071399204
0001b0 e9 f0 82 bd 6f ee 31 bd 59 fe 89 bd e9 56 f7 3d
       -0.06393606 -0.04344028 -0.06737966 0.12077124
0001c0 10 68 3c be 24 e0 de bd c8 a5 b6 bd 5c d9 3b bd
       -0.18399072 -0.10882595 -0.08918339 -0.045861587
0001d0 8a 51 2c 3e be 38 41 bd 8f 16 ca 3d 4e 84 9c be
       0.1682798 -0.047173254 0.09867584 -0.3056969
0001e0 e9 f8 33 be e7 7c 44 3e 31 53 bd bd c9 0c ba 3d
       -0.1757542 0.19188271 -0.09244383 0.0908447
0001f0 d8 29 5f be 83 d9 8f 3c 1f 2c 27 be 7c 2c a0 3d
       -0.21793306 0.017559772 -0.16325425 0.07820985

lstm.bias_hh_l1 f4 [128]
000000 03 c4 fd bc bc f8 af bc ca 0f 5a be bf 13 b8 bd
       -0.030977255 -0.02148091 -0.21295086 -0.08988141
000010 a9 f5 3d be c6 39 29 bc 4c fb 69 3d a0 56 26 be
       -0.18550743 -0.010328716 0.05712442 -0.16243982
000020 17 f9 3b be 16 36 24 be 53 9c 1e be 1e 03 e8 bd
       -0.18356739 -0.16036257 -0.1548932 -0.113287196
000030 ee 1c b9 3c e4 c0 aa 3c 3c 73 b5 3d ab 03 ae bd
       0.022596803 0.02084393 0.0885987 -0.08496793
000040 9e a6 4b bd 46 1f c7 bd e2 ba f5 bd 10 da e3 bd
       -0.049719445 -0.09722762 -0.11998536 -0.111255765
000050 ab 7e ee bd 99 5f fd 3d 76 7a 9b 3d db 04 a7 bd
       -0.11645254 0.123717494 0.07591717 -0.08155223
000060 65 68 7c be 7f b7 0c 3e 37 8c c9 3d 44 1a 1c be
       -0.24649198 0.13741873 0.09841197 -0.15244395
000070 fa a3 b6 bd ec 75 24 3d 3f 46 c3 bd 3b a2 03 be
       -0.08917995 0.04015152 -0.09534883 -0.12854855
000080 c0 b9 5e be 11 45 53 be f0 95 81 3b c0 bd 82 bd
       -0.21750546 -0.20631815 0.0039546415 -0.06383848
000090 f4 c3 96 3d c2 ad b5 bd 93 17 c8 bd ef 21 36 be
       0.07361594 -0.08871032 -0.097701214 -0.17786382
0000a0 3e 60 46 be cc 08 eb bd 99 db 06 bd f5 96 b3 bd
       -0.19372651 -0.11476287 -0.03292427 -0.08769027
0000b0 ce 67 76 bc 73 8b 93 bd 62 72 ff bd 77 24 87 be
       -0.015039397 -0.07204332 -0.12472989 -0.26395008
0000c0 6c af 82 bc 9b 1f 34 be 02 4f 36 be 66 35 21 be
       -0.015952788 -0.17590182 -0.17803577 -0.15743026
0000d0 53 52 47 bd 3f bb 79 bd 19 da c6 bd c7 fb a2 be
       -0.048662495 -0.060969587 -0.097095676 -0.31832716
0000e0 d8 37 83 be 25 7d 1e be f1 eb 58 be 5c 29 67 be
       -0.25628543 -0.15477426 -0.21183755 -0.22574371
0000f0 ba 28 a4 bd 6c 66 13 be 2c 58 a5 bd 25 ef 6f bd
       -0.080155805 -0.1439454 -0.08073458 -0.058577675
000100 2e c9 c6 bd ed 45 e2 3d dd 16 30 3c 0f b1 fe bd
       -0.09706341 0.110484935 0.0107476385 -0.12436115
000110 40 ca 21 bd 07 a5 37 bd 75 dd 3b be 2f 1f f8 3d
       -0.03949952 -0.044835117 -0.18346198 0.12115323
000120 08 56 2e be 61 7b 66 3d a3 52 40 bb 23 95 45 bd
       -0.17025006 0.056270007 -0.002934613 -0.04823793
000130 26 03 f3 bc 88 d0 26 be 96 11 09 3e a8 01 d4 bc
       -0.029664587 -0.16290486 0.13385615 -0.025879696
000140 de 36 ad bd e5 67 de bd af 92 b2 bd 84 2b b4 bd
       -0.08457731 -0.1085966 -0.08719384 -0.087973624
000150 1b b9 04 bd 55 ce fd 3b d1 c8 7c bd f6 57 a9 bd
       -0.032403093 0.007745544 -0.06171495 -0.0826873
000160 1b 96 36 3e 8e 39 02 3d 68 23 96 3d d2 4f e9 bc
       0.17830698 0.03179317 0.07330972 -0.028480444
000170 26 18 14 be 8f 5d 10 bd a9 9d 94 bd 46 db 88 3d
       -0.14462337 -0.035245474 -0.07256634 0.06682448
000180 7c 98 fe bd 3b 3e 0b be c0 62 da bd 09 59 29 be
       -0.12431428 -0.13597958 -0.10663366 -0.1653787
000190 d0 78 42 3d fd 78 4c 3d 71 4a 53 be 41 64 73 3d
       0.047478497 0.04992007 -0.20633866 0.05942178
0001a0 62 7c 1c be 2a 42 f1 bd e8 2c ec bd 82 2b c2 bd
       -0.15281823 -0.11780198 -0.11532003 -0.09480955
0001b0 99 52 e4 3d 5e 47 84 3d c9 ee b0 3d 3b e6 4d bc
       0.11148567 0.06458925 0.08639295 -0.012567098
0001c0 30 96 2d be f6 6a bd bd 82 cc f1 3c 3e 5b c2 bd
       -0.16951823 -0.09248917 0.029516462 -0.09490059
0001d0 7d 17 fa bd 17 87 f8 bc 53 e5 11 3b 98 f9 3e bd
       -0.12211511 -0.030337853 0.0022261932 -0.04662475
0001e0 a7 b8 57 be 38 25 d2 3d 8e f1 e9 bd 56 06 4b be
       -0.21066533 0.10261005 -0.11423026 -0.19826636
0001f0 3e 57 8e 3c bf 16 d0 3d a5 b4 a0 3d 1f 0e 08 bc
       0.017375585 0.101605885 0.07846955 -0.008304148

fc.weight f4 [3, 32]
000000 3f 0c 4d 3e f3 a4 2f 3e 2e cb 29 3e ff 67 1a bd
       0.20024203 0.17152767 0.16581413 -0.037696835
000010 40 7a 66 3e 4c ba 51 be ef 06 99 3d 4d 26 96 3d
       0.22507572 -0.20481223 0.074720256 0.07331524
000020 7b 13 4c be 38 d2 35 3e 0e 2b 49 be 2f 9f e9 3c
       -0.19929306 0.17755973 -0.1964533 0.028518287
000030 45 78 02 be c4 84 65 be 8a fc 57 3d 71 2d 31 3e
       -0.12741192 -0.22413927 0.052731074 0.17302491
000040 7c 0c b9 bd 05 61 f0 bd 6a 5b 3d be e6 df 33 be
       -0.09035584 -0.11737255 -0.18491903 -0.17565879
000050 b1 04 60 3e 1d 00 19 be e3 fe 1d 3e 28 00 80 bd
       0.2187679 -0.1494145 0.15429263 -0.0625003
000060 3c df fc ba 5f fa e5 bd b5 9e 09 3e 52 90 99 bc
       -0.0019292603 -0.11229395 0.13439448 -0.018745575
000070 51 d2 28 be 65 cc 4f 3e 2f b9 52 3e bb 08 80 3e
       -0.1648648 0.20292814 0.20578454 0.2500666
000080 1d f6 58 3e b1 49 6c 3e ae bc 05 3d 45 91 4f bd
       0.21187635 0.23074986 0.032650642 -0.05067565
000090 9e 46 09 3e 7e ec df bd 22 41 b5 3d 38 d5 3d 3e
       0.13405845 -0.10933779 0.08850314 0.18538368
0000a0 d4 28 e2 bd 56 73 0d 3e 14 b6 38 be 77 83 10 be
       -0.110429436 0.13813528 -0.18038207 -0.1411265
0000b0 19 5b 54 be 3e 0a 1e be d7 5d 4d 3e 52 c7 25 3e
       -0.20737876 -0.15433595 0.20055328 0.16189316
0000c0 81 57 1e bd a0 0a 28 be 54 b7 17 be 87 8f 09 be
       -0.03865767 -0.16410303 -0.14816028 -0.13433658
0000d0 51 ac 22 3e c9 7c 3e be e0 9d 3c 3e 19 e8 ae 3c
       0.15886046 -0.1860229 0.184196 0.021350907
0000e0 89 04 00 be 33 66 1c be af 6f 00 3e aa 6b 4f be
       -0.1250173 -0.15273361 0.12542604 -0.20255914
0000f0 13 37 3c 3d 24 94 31 3e 3b 5c 8a 3e 7e 0e 0a 3e
       0.04595096 0.17341667 0.2702349 0.13482091
000100 ea 2c 15 3e fc 2c 18 3e ed 91 2d 3e 88 05 3a be
       0.14567915 0.1486091 0.16950198 -0.18166173
000110 1c bd b4 3d c6 2d a0 3c e0 dd 87 3d d8 72 64 3e
       0.08825132 0.019553076 0.06634116 0.22309434
000120 c7 52 2c be 08 06 60 3e 54 b0 31 bd d1 2e d4 bd
       -0.16828452 0.218773 -0.04338105 -0.10360492
000130 70 bd 91 be 54 eb 56 be 95 2e 50 3e 31 24 00 3e
       -0.28464842 -0.20988208 0.2033027 0.12513806
000140 a1 22 08 3d 25 0e 45 be ba 5c ef bd 6e 01 d3 bd
       0.03323615 -0.19243677 -0.11687608 -0.10303007
000150 a2 23 96 3e 5b 57 52 be a2 1d 5c 3e 13 19 b5 bc
       0.2932406 -0.20541136 0.21495679 -0.022106683
000160 f8 5c 54 be 4c d0 6a be 58 ae cd 3d e2 16 31 be
       -0.2073859 -0.22931021 0.10043019 -0.17293885
000170 82 cf 84 bd 2c 15 29 3e 15 eb db 3d 61 0b 25 3c
       -0.064848915 0.16511983 0.10738198 0.010073514

fc.bias f4 [3]
000000 55 d4 3c 3e c6 c1 49 3e 1e 90 5c 3e
       0.18440373 0.19702825 0.21539351
