models/precip_mm_ann_model.pth (torch, 48832 bytes, 6 tensors)

model.0.weight f4 [32, 322]
000000 82 1d 70 ba b1 e2 16 3e 69 32 fd 3d 02 1d 13 be
       -0.00091596704 0.14734913 0.123631306 -0.14366534
000010 c1 19 ec bd de 8f 8c 3c 2e 9d 01 bd 83 cd 88 bd
       -0.1152835 0.017158445 -0.03164404 -0.06679823
000020 01 cc 00 bc 22 29 3b bd 43 6e 08 be 8f b2 d6 3e
       -0.007861138 -0.045693524 -0.13323312 0.41933104
000030 70 87 6c 3d b0 8f 8e 3c b2 e8 8d 3d 4a a2 82 3d
       0.05774635 0.0174025 0.06929149 0.063786104
000040 80 fe b1 3d 2a c8 4d 3e 55 ea a5 3d 77 7c fe 3d
       0.0869112 0.20095888 0.08101336 0.124260835
000050 92 40 ff bc 99 d8 ae 3d 7c 0e 14 3e b4 71 27 be
       -0.03115872 0.085374065 0.1445865 -0.16351968
000060 ff 1c c7 3d ff e6 7a 3e b5 8d 87 be 76 75 77 3e
       0.097223274 0.2450218 -0.264753 0.24165902
000070 c3 81 e7 bc 0b 17 05 bd 25 45 99 3e 78 fa 60 bd
       -0.028260117 -0.03249268 0.29935566 -0.054926366
000080 bf 6e 00 bd 24 cc db 3d c0 ef 7d 3e 19 05 1f 3e
       -0.031355616 0.10732296 0.24798489 0.15529288
000090 b8 b9 00 3e b5 a6 04 be 15 b5 c6 3e b8 10 58 3e
       0.12570846 -0.12954219 0.3881003 0.21100128
0000a0 d7 01 0a 3f 39 e2 45 bc 9d 8d ac bd ea 82 03 3e
       0.5390906 -0.012077861 -0.08425448 0.12842909
0000b0 58 07 ac 3d 7c 28 2b be 40 9a 1e 3d 97 42 bb 3e
       0.08399838 -0.16714662 0.038721323 0.36574242
0000c0 52 5e dc 3d 2f 38 7d bd 7f f8 ca bd e8 b7 d5 3c
       0.10760178 -0.06182116 -0.09910678 0.02608867
0000d0 ed 41 41 bd d7 38 cc 3b 3a 92 ca 3d 03 29 28 be
       -0.047182012 0.006232362 0.09891172 -0.16421895
0000e0 c4 3a 4b bd 02 b5 67 3e 23 0d 10 bd 97 a6 e9 bd
       -0.04961659 0.22627643 -0.03516878 -0.114087276
0000f0 ba 77 06 3e 73 30 45 3e a2 e2 00 3e 2a ea 06 3e
       0.1313161 0.19256763 0.12586454 0.13175264
000100 ab d1 d5 3d cd 63 85 3c 28 47 48 be 8d 23 41 3d
       0.104403816 0.01628294 -0.19558394 0.047153044
000110 95 d4 79 be 7e 40 19 bd 67 98 25 be 74 38 af 3e
       -0.243975 -0.03741502 -0.16171418 0.34222758
000120 ed 5f ec bc a7 82 6f 3e d7 ff fe 3d 9f 17 71 be
       -0.028854335 0.23389684 0.12451141 -0.23544167
000130 09 12 09 3e 7e 07 4f 3e c9 11 28 3e cb 74 93 3e
       0.13385786 0.20217702 0.16413034 0.28800043
000140 ed 37 dc 3e 42 58 33 3e 8e 72 6c 3e 97 cf fa be
       0.43011418 0.17514136 0.23090574 -0.48986503
000150 12 55 46 3f 38 fa 8e 3e cd 91 d7 3e 2e 27 18 bd
       0.77473557 0.27925277 0.42103425 -0.03714674
000160 8d 07 95 3d 79 7c d7 bc ba 53 0a 3c b7 b0 e9 bd
       0.07276831 -0.02630447 0.0084428135 -0.11410659
000170 3a f4 fd 3c 76 9d 0c 3e 7e af 97 3c 3b c4 93 3c
       0.031000245 0.13731942 0.018516298 0.018037906
000180 f9 97 5f be c2 81 8b bd 98 6b 94 3d 8a 5d 37 3d
       -0.21835317 -0.06811859 0.072470844 0.04476694
000190 98 0f da bc a4 9b 26 3e a4 ba 0a 3d 69 7a a8 3d
       -0.026618764 0.1627031 0.0338694 0.08226473
0001a0 ad 73 5d 3e 55 c1 cb bd 61 4c fc 3c ad f8 40 3e
       0.21626158 -0.099489845 0.030798139 0.18844862
0001b0 84 ce 3c bd f8 e5 5d 3e f1 5b 41 3c 61 9b 6e 3c
       -0.046095386 0.21669757 0.011801706 0.014563412
0001c0 a1 f0 0d bd fe dc 06 3d dc fc f8 bd 25 51 e2 bd
       -0.03465331 0.0329256 -0.12157604 -0.11050633
0001d0 94 e8 2e 3e 15 84 1f 3f 72 79 76 be d3 70 7e be
       0.17080909 0.62310916 -0.24069765 -0.24847727
0001e0 58 b6 77 3e b3 01 af be 38 da 4b 3e 45 72 45 be
       0.24190652 -0.34180984 0.19907463 -0.19281872
0001f0 ba 28 02 3f 63 91 59 3e 6b 42 df 3e aa 01 13 3d
       0.50843394 0.21246867 0.4360536 0.03589026
000200 b9 00 99 3e 18 bc 4a be dc b4 fd 3d 3d 55 dc 3e
       0.29883364 -0.19798315 0.12388012 0.43033782
000210 09 04 10 be 18 4b 99 3e d0 b2 41 3e 70 7d fa bc
       -0.1406404 0.29940104 0.18915868 -0.030577391
000220 78 e8 67 bd b5 a7 54 bc c0 13 2a bd 3f ff 3a bd
       -0.056618184 -0.012979438 -0.04152274 -0.045653578
000230 18 08 dd 3a 82 3d e2 b9 94 b7 3d be 42 e2 96 3d
       0.0016863374 -0.00043151906 -0.18527061 0.07367374
000240 0c 41 9b 3d 45 8a f2 3c 76 82 3c bb ee 38 e6 3e
       0.07580766 0.029606948 -0.0028764284 0.4496531
000250 69 eb ee 3d 0a bd 86 3d f2 a5 00 3e a8 82 66 be
       0.11665995 0.06579025 0.12563303 -0.22510779
000260 d7 a9 a0 3c c7 d8 ba 3c 98 8d 02 3d 26 6d 28 3e
       0.019612236 0.022808446 0.031873316 0.16447887
000270 8a 45 c4 3d e3 ff 54 3d c5 fd b2 bd e5 fb ba 3d
       0.09583576 0.052001845 -0.08739809 0.09130076
000280 12 d3 7c be 77 5e 93 bd b2 e9 8e 3e 59 a2 b4 3e
       -0.24689892 -0.07195752 0.2791267 0.3528011
000290 77 77 11 be d0 67 57 3e b7 75 60 3e 71 1a 82 be
       -0.14205728 0.21035695 0.21919905 -0.25410798
0002a0 44 35 e6 3e 7d 9c 47 be 11 9d f0 3e 11 75 78 3e
       0.44962513 -0.1949329 0.46994832 0.24263407
0002b0 aa 82 28 3e ff c9 b9 3d 8c 84 e6 3e 3c 7e 8c be
       0.16456094 0.09071731 0.45023 -0.2744006
0002c0 77 c1 48 bc 8c 7d 12 3e 75 9c c3 3b 37 3f 28 be
       -0.012253157 0.14305705 0.005969579 -0.16430365
0002d0 1b e6 b7 3d 94 70 fc 3d 7c 41 bf 3d a6 9f 13 bc
       0.08979436 0.1232616 0.09338662 -0.009010231
0002e0 aa 20 02 bd cb d4 0e 3c 1f 9e 23 be 66 be a5 bd
       -0.031769432 0.008717726 -0.15978287 -0.08092956
0002f0 f5 06 de bd 32 85 8d bc 69 42 8a bd 4f 3c ce 3d
       -0.10841171 -0.017275427 -0.06750948 0.10070097
000300 42 7d d9 bd 6d 91 ba bc 86 4e 12 be dd 24 f9 3d
       -0.10619594 -0.022774423 -0.14287767 0.12165234
000310 96 8f 28 3c f9 15 ff bd 55 40 6d bd 3d 7e c3 3d
       0.01028814 -0.12455363 -0.05792268 0.095455624
000320 18 7e f5 bc 6f 60 61 3e 2d f1 6e 3d 54 51 00 3e
       -0.029967353 0.22009443 0.058335472 0.12531024
000330 98 81 45 3e e9 dd 8d 3c f1 5a c3 be 1a 18 e7 3c
       0.19287717 0.01731773 -0.3815532 0.028209735
000340 ae 8b 17 3d 44 0e e4 3e 80 5c 34 3e 78 bf d3 3e
       0.036998443 0.44542134 0.17613411 0.41357017
000350 e0 eb fa 3e f7 b2 3e be 68 6b 79 3e f3 d5 53 be
       0.49008083 -0.18622957 0.24357378 -0.20687084
000360 48 41 4e 3e f8 0c e0 3e 95 89 a5 ba 31 79 c9 bd
       0.2014209 0.43759894 -0.0012629504 -0.098375686
000370 98 61 99 3e 0c da df bd f2 24 bb bc 9e 6d 0f be
       0.2995727 -0.10930261 -0.022844765 -0.1400666
000380 89 ef d7 3c b8 e5 01 bf 3d 17 82 3e fe 70 fc 3d
       0.026359336 -0.5074115 0.25408354 0.12326239
000390 da 48 72 3e fa ec a6 3d 57 d7 13 bc 5b 98 3b bd
       0.23660603 0.081506684 -0.009023509 -0.045799594
0003a0 2d 82 8b 3d 1e 56 db bc 83 22 2d bd 29 fb 3e be
       0.068119384 -0.026774462 -0.04226924 -0.18650497
0003b0 1b 29 ed bd c9 63 5e 3d 38 44 ce bd dc ac 8c bd
       -0.11580106 0.05429438 -0.100716054 -0.06868908
0003c0 22 6e d3 3d ae c7 03 3d 43 e3 b3 bd d6 10 9c bd
       0.103237405 0.03217285 -0.08783581 -0.07620399
0003d0 9e 27 4e 3e 01 27 38 3e 3c 6f ff 3d 43 ac 2b 3e
       0.201323 0.17983629 0.12472388 0.16764931
0003e0 a6 c3 2f 3d 3a ad 97 3d 79 48 29 3e 75 a0 db 3c
       0.042911194 0.07406087 0.16531552 0.02680991
0003f0 17 5a c5 be a9 74 48 3e 47 c8 25 3e 09 7e b8 3e
       -0.38545296 0.19575752 0.16189681 0.36033657

model.0.bias f4 [32]
000000 06 1e c9 bb 80 1c 93 be 64 16 83 be cd 66 a0 be
       -0.0061376123 -0.2873268 -0.2560302 -0.3132843
000010 49 75 5c 3d 27 6f 55 be 29 2a 92 be 11 40 7a 3d
       0.05382279 -0.20843183 -0.2854779 0.061096255
000020 75 ea 87 be fb c5 c8 bd f8 ee 13 be a8 8f 1d 3e
       -0.26546064 -0.09803387 -0.14446628 0.15386832
000030 de e6 41 3d cf fc a1 be 9d 58 ab be 35 91 9d be
       0.047339313 -0.3163819 -0.33466044 -0.30774847
000040 7c ea 35 be 66 74 13 bd 49 c4 9f be 35 2c 94 be
       -0.1776523 -0.035999678 -0.3120444 -0.28939977
000050 76 18 98 be 86 b2 ef bd e8 91 80 be d0 57 aa bd
       -0.29706162 -0.117039725 -0.25111318 -0.0831753
000060 2d 94 8a be 04 69 87 be 97 93 a7 bd 64 b6 8c be
       -0.27066174 -0.26447308 -0.081824474 -0.27482903
000070 fc 5e 66 be 52 e6 19 be dd 6a 7a be 80 28 7a be
       -0.22497171 -0.15029266 -0.24454828 -0.24429512

model.3.weight f4 [32, 32]
000000 ba 38 d3 be 98 18 38 3b 8a 57 c5 bc 90 d2 50 3d
       -0.41254216 0.002809083 -0.024089593 0.050982058
000010 ea 1d cb be 2e 2e 26 3e e4 5b de 3c bc 7f 9d be
       -0.3967126 0.16228554 0.027143426 -0.30761516
000020 25 65 f0 3d 49 db 34 be c8 d4 a4 be 36 ab f3 be
       0.11738042 -0.17661776 -0.3219359 -0.4759156
000030 4c e0 b2 be 15 3d d8 3d 61 e1 bf 3d 3c fe f8 3d
       -0.3493675 0.105585255 0.093691595 0.12157866
000040 de dc e1 3d 59 3d 39 be af 44 f5 3c cd 4c 86 3d
       0.11028455 -0.18089809 0.029939977 0.06557617
000050 d3 dd e1 bd fd f4 7e 3d 69 76 23 3d 7d 38 e3 bd
       -0.11028638 0.062245358 0.039907847 -0.11094759
000060 41 2f 2e bc 4f 9c f4 3d b2 e6 66 bd b9 73 95 bd
       -0.010631383 0.11943876 -0.056372352 -0.07297463
000070 32 80 4e 3e 74 3b 66 be 0f 7c 31 3d 25 3f 2d bc
       0.2016609 -0.22483617 0.043331202 -0.010574137
000080 41 7f 2d be fa 21 f5 bc d0 56 c3 3d f4 d1 8a bd
       -0.16943075 -0.029923428 0.095380425 -0.06778327
000090 73 5e 9a bc 2e 52 ee 3c f0 ed 6f 3c e1 21 ec bd
       -0.018843865 0.02909192 0.014644131 -0.115298994
0000a0 5d 15 71 3e c7 c3 b5 be 7e 0e 2c 3d 31 31 d2 be
       0.23543306 -0.3550093 0.04200601 -0.41053155
0000b0 99 b5 13 be 4c 06 46 3d 96 60 74 3d f8 c8 42 3e
       -0.14424743 0.04834585 0.059662424 0.19021976
0000c0 f8 44 73 3e 76 d4 df bd 0d 91 9b 3d 0a 97 41 bc
       0.23756778 -0.109291956 0.075960256 -0.011815796
0000d0 42 87 ab bc 69 5d c5 3d fb 93 ad 3d 56 63 8f be
       -0.02093852 0.09636957 0.08475491 -0.28005475
0000e0 72 20 4c 3d ee 15 1a bd f3 a1 a1 be ea 2b 16 3c
       0.04983563 -0.03761857 -0.3156887 0.009165743
0000f0 9a b2 3c bd 33 c4 97 be 73 7e e8 3b 97 f4 42 3c
       -0.046068765 -0.29641876 0.007095152 0.011899135
000100 82 66 3b be 1d 72 41 3e f4 bf 14 3e cc ae 1b 3c
       -0.18300822 0.18891187 0.1452635 0.009502124
000110 95 e8 11 be 42 43 22 3e 22 6a 91 3e 42 01 1f be
       -0.14248879 0.1584597 0.28401285 -0.15527824
000120 5d a8 a1 3d 4b 9a 98 be 0f 7c 6d be c6 6a 88 be
       0.07893441 -0.29805216 -0.23191856 -0.26643962
000130 0d 7b 5a be 37 fd 1f 3d cd 4c 3a 3d b6 bb ce 3d
       -0.21336003 0.039059844 0.0454834 0.10094397
000140 7f 7a af be 6a 34 2b be 8f c4 38 bd 55 9a 0b 3f
       -0.34273145 -0.16719213 -0.045109328 0.54532367
000150 b7 36 8e be 08 34 b0 be 1d ba 90 3e 04 8f b2 be
       -0.2777612 -0.34414697 0.28266993 -0.34874737
000160 b5 e2 dd be e3 bc 4f 3e 93 1c 9e be 04 0c 7b be
       -0.43337026 0.20286898 -0.30881175 -0.24516302
000170 59 86 44 3e aa 2c 97 be a2 f2 83 3d ba c0 a3 be
       0.19191875 -0.29526263 0.06442763 -0.31982976
000180 99 3e 3a be 89 d8 04 bd be d5 00 3f ad 9a 64 be
       -0.18187942 -0.032433067 0.50326145 -0.22324629
000190 f8 43 2c be 12 52 48 bc 6b 35 aa 3e 3c c5 1a be
       -0.16822803 -0.012226598 0.3324388 -0.15114301
0001a0 ff 96 9e 3e 31 59 27 be 4b 3c a4 bd 5e ae 70 be
       0.30974576 -0.16342618 -0.080193125 -0.23504016
0001b0 95 b4 c6 bd bc 18 0e 3f 03 7d 0c 3f bd 79 e4 3e
       -0.09702412 0.5550649 0.5487825 0.4462413
0001c0 24 a4 13 3f 61 67 25 be e9 d9 a2 3e 6b 0c 40 3e
       0.57672334 -0.16152717 0.31806877 0.18754737
0001d0 b0 c3 2e 3e dc 34 62 be 5a ca 65 3e c4 a1 0c be
       0.17066836 -0.22090477 0.22440472 -0.13733584
0001e0 60 2f 8f 3d 21 ae b9 bc 5c c2 36 be 20 47 05 be
       0.06991458 -0.022666039 -0.1784758 -0.13015413
0001f0 1c 04 2c be 76 3a 48 be 2a 44 c8 bd 45 44 33 3e
       -0.16798443 -0.19553551 -0.09778626 0.17506512
000200 05 52 25 3e 0d f8 a5 be fc a4 b4 be 09 a2 09 3d
       0.16144569 -0.3241581 -0.35282123 0.033601794
000210 6d 70 2f 3e 1d b0 f7 be 3f a8 cd be b6 60 35 3e
       0.17132731 -0.4837655 -0.40167424 0.17712674
000220 24 96 44 bd 0e 70 32 3e 0e 31 81 3e 2e 2b 37 3e
       -0.047994748 0.17425558 0.25232738 0.17887565
000230 4a 09 3c 3e 8e aa 1b bf 04 9c cb be 95 c1 c9 3b
       0.18362918 -0.6080712 -0.39767468 0.00615711
000240 9f 2e 8c 3d 48 04 02 3e 49 64 ce bd 97 31 0d bf
       0.0684483 0.12696946 -0.100777216 -0.55153793
000250 22 ed 50 bc 9a 7e 99 3e de 05 ee 3d 6f a6 e2 3d
       -0.012751849 0.29979402 0.11622213 0.11066901
000260 b4 92 1e be 85 a5 2a be 72 46 73 3e 46 28 59 3d
       -0.1548565 -0.16664703 0.23757342 0.053016923
000270 4e 44 a3 3e cc 87 85 3e da e5 8a 3b b7 ae b2 be
       0.3188805 0.26080167 0.004238826 -0.34898922
000280 ae 3c fd bd f7 0a 86 bd f4 e9 ac 3e 72 76 6e 3d
       -0.12365089 -0.0654506 0.33772242 0.058218427
000290 6a 6a 64 be 7f 27 61 3d 78 69 60 be a6 7c 14 bd
       -0.22306219 0.054969307 -0.21915233 -0.036251687
0002a0 af d7 b7 3e 44 e2 71 be 7d 55 a4 3e 9f 88 5a bd
       0.3590674 -0.2362147 0.32096472 -0.05335295
0002b0 3e c4 cf bd 64 20 0e 3d 34 27 3b 3e c4 1e 5d 3e
       -0.10144852 0.03469886 0.18276674 0.21593767
0002c0 30 bc 23 3e a7 6a a0 3e 7f 98 94 3e 47 6d 4b 3e
       0.15989757 0.3133137 0.29022595 0.19865905
0002d0 32 df bb 3e 39 09 09 be 24 95 0c 3f 5a a7 84 be
       0.36693722 -0.13382424 0.5491507 -0.2590893
0002e0 fe 42 32 3e 15 d7 b7 3e 86 36 67 be 10 63 94 3e
       0.17408368 0.35906282 -0.22579393 0.2898183
0002f0 a2 74 a2 3d 1e 58 93 be 18 1c 40 3e c3 01 5d 3e
       0.07932402 -0.28778166 0.18760717 0.21582703
000300 47 3e 5c be 0f 3f b4 3e ca 00 1d be ae 3b 71 3e
       -0.21508132 0.3520436 -0.15332332 0.23557922
000310 19 d0 0e be 56 2f 0d 3c 28 4b d8 be 95 96 1b be
       -0.1394657 0.008617243 -0.4224484 -0.15194161
000320 c8 9d 0d bb 49 4c 36 be f0 2d 1f be 45 a3 1a be
       -0.0021608938 -0.17802538 -0.15544868 -0.15101345
000330 be 10 38 be b7 dd bc 3d dd d5 ef 3e 34 9b ef bc
       -0.17975137 0.09221976 0.46842852 -0.029248811
000340 96 2d 69 bd 77 10 a9 bd 65 25 c6 be de e3 0b 3f
       -0.05692824 -0.082550935 -0.38700405 0.5464457
000350 01 c8 37 3c 79 17 f1 bd 78 c8 2b 3b 86 39 a0 bd
       0.011217118 -0.11772055 0.0026212018 -0.07823472
000360 bf 02 e9 bd 62 42 39 be ed 40 f9 bd 61 1b 04 3e
       -0.11377477 -0.1809173 -0.12170587 0.12901069
000370 e4 24 1e be 14 b6 04 be d9 9f 63 bd 1a 03 a9 be
       -0.1544376 -0.12960082 -0.055572364 -0.3301018
000380 62 6b 5f be 35 7d 09 bd 83 d1 b3 bb 40 f9 2b 3a
       -0.21818307 -0.033566672 -0.005487622 0.00065602735
000390 2a 2d 81 bd 12 e4 a5 bc 13 66 86 3d ec 52 17 be
       -0.063074425 -0.020250354 0.06562438 -0.14777726
0003a0 01 b7 32 3d a6 a5 08 be 7e 8e 03 3e b3 44 16 bf
       0.043631557 -0.1334444 0.12847325 -0.58698577
0003b0 99 c1 c1 3c f9 f2 83 3d bf 3d 34 3d 97 c9 1e bd
       0.023651885 0.06442828 0.0440042 -0.03876647
0003c0 08 d0 e7 3c 26 9e 2c bd b4 f8 e9 3b 2a 07 2b 3d
       0.02829744 -0.04214301 0.0071402434 0.04175488
0003d0 e5 58 ab 3c 19 a2 8d bc d0 ac 93 3c 40 e3 10 bf
       0.020916412 -0.017289208 0.01802674 -0.56596756
0003e0 d4 c9 63 3c 8c cd cb 3b 6f c1 1d be ba 45 93 3c
       0.0139031 0.0062195715 -0.1540582 0.017977584
0003f0 85 5b 87 bc de 0d 8a bd f6 b4 c1 3c 11 e6 3c 3d
       -0.016523132 -0.06740926 0.02364586 0.046117846

model.3.bias f4 [32]
000000 4c ee 06 bf c5 ce 50 bd e5 5f 8b 3e 47 f5 9d bd
       -0.5270736 -0.05097844 0.272216 -0.077127986
000010 74 30 9e 3d 04 5d 84 bc 90 c6 a6 bd 48 15 ba bd
       0.077240855 -0.016157635 -0.081433415 -0.0908609
000020 08 3f 73 be 5e d4 98 be 50 dd dc 3d d2 32 77 3e
       -0.23754513 -0.29849523 0.107843995 0.2414048
000030 7d 34 ac bc eb 25 3d be 5d 1c 9f 3c d8 3c 41 be
       -0.021021122 -0.18471496 0.019422704 -0.18870866
000040 73 48 67 be cd 59 9a be 5f 3c 93 3e dc 69 df bd
       -0.22586231 -0.30146638 0.28756997 -0.10908863
000050 9c 1c 15 be 3c b4 9c be 72 8b 71 be af 0a f4 3d
       -0.14561695 -0.30606258 -0.2358835 0.119161
000060 22 11 45 3e fe 56 63 be 84 df 38 be fd 5f f2 bd
       0.19244817 -0.22201154 -0.18054014 -0.118347146
000070 d6 d5 0f 3c 9b 23 4a be 36 f7 a7 3e ac 1e 8b be
       0.00877901 -0.19740145 0.32805794 -0.27171838

model.5.weight f4 [3, 32]
000000 45 90 95 be fa cc 25 be 9f 9f 96 3e 68 17 b7 be
       -0.2921163 -0.16191474 0.29418656 -0.35760045
000010 dc 4a c5 3d 8c f8 bd 3e 43 8c 54 3e 60 11 b3 bd
       0.09633419 0.3710369 0.2075663 -0.087435484
000020 0e c1 84 be dc c4 95 bd 09 09 23 be 18 ce be 3e
       -0.2592854 -0.073129386 -0.15921415 0.37266612
000030 63 1c 23 be f1 ec f3 3d eb 8e 9c 3e 2c 9b ae 3e
       -0.15928797 0.11910427 0.30577788 0.34102762
000040 ba bf a1 bd 21 4b 8c be 6c 36 8f 3e 21 4f c3 bd
       -0.07897897 -0.2740107 0.27971208 -0.09536577
000050 a1 91 83 bc 5d be 2b 3f 01 c5 36 3f ef 30 11 bd
       -0.016060652 0.67087346 0.71394354 -0.035447057
000060 44 75 ac bc e6 0a 12 be 06 e1 b2 3d 60 dd 57 be
       -0.02105201 -0.1426197 0.08734326 -0.21080542
000070 e3 e3 ab bd 70 50 34 be 77 a1 d1 3e ae 31 02 3e
       -0.08393075 -0.1760881 0.409435 0.12714264
000080 fb 13 ad be 07 4a 64 3d d9 6c 2d 3e d3 d1 d9 3e
       -0.33804306 0.05573466 0.16936053 0.42542896
000090 b1 c5 86 3d cb c6 c7 3e 99 1e 65 3e 42 72 b7 bd
       0.065806754 0.39018854 0.22374953 -0.0895734
0000a0 42 c7 5c bd 2d f9 c4 bd 26 56 e0 3e 20 c9 8b 3e
       -0.053900965 -0.09617839 0.43815726 0.27301884
0000b0 2a 59 80 3e 2f 6c 28 3f 24 28 d5 be 12 1f 98 3e
       0.25068027 0.65790075 -0.41632187 0.29711205
0000c0 83 c5 85 3b 34 7f 52 3d 08 18 8b 3e f9 25 c9 bd
       0.004082383 0.05139084 0.27166772 -0.09821696
0000d0 7d 2b 93 be 79 2a f2 3b 86 a4 b7 be e1 a3 30 bd
       -0.28744116 0.007390317 -0.3586771 -0.043125037
0000e0 a7 d8 d3 3e 8f ce 3f be 41 10 2b 3e da 91 af 3e
       0.4137623 -0.1873114 0.16705419 0.34290963
0000f0 8c 12 d9 bd 27 b3 06 3f e4 7a 03 bd 12 14 5b be
       -0.10599241 0.52617115 -0.03209962 -0.21394375
000100 6c 5f 90 be 4a fd 3d be ff 38 b9 3e ed b6 ac 3e
       -0.281978 -0.18553653 0.36176297 0.3373331
000110 3c e1 d4 3e 2e 88 d9 bd 59 b4 97 3e 07 94 f4 bd
       0.4157809 -0.10621677 0.29629782 -0.119422965
000120 73 6e 0d 3f 55 0d b7 bd 53 c0 8b 3e 84 63 e6 3d
       0.5524666 -0.0893809 0.2729517 0.1124945
000130 c6 77 00 3f 34 23 c8 be a4 b5 f1 3e 61 39 a2 be
       0.5018276 -0.39089358 0.47208893 -0.31684402
000140 7a 00 cc bb f2 aa 23 be 7c ed 3a 3e cc a1 0e be
       -0.0062256427 -0.15983179 0.18254656 -0.13928908
000150 37 d0 aa 3c 61 37 44 be a6 e9 d2 3d dc 86 31 bd
       0.020851238 -0.1916175 0.10298471 -0.043341503
000160 37 7c d2 bd a0 85 1d be a4 04 e6 3e 6f 92 c7 3d
       -0.10277598 -0.15383005 0.44925416 0.09744727
000170 d8 44 e5 bd 09 8d 20 3e f5 c3 08 be 55 14 17 3f
       -0.111947715 0.156788 -0.13356002 0.590154

model.5.bias f4 [3]
000000 a3 2a a2 3c 8e cc 34 3d 6f 64 3a 3e
       0.019795721 0.04414039 0.18202375
