models/precip_mm_ann_model.pth (torch, 27328 bytes, 6 tensors)

model.0.weight f4 [32, 154]
00000000: 5da7 eabc 5b9b ae3d 165a acbe c149 493e
00000010: a5c3 58be 9c79 12bd 5a4a f53d c3f0 d63b
00000020: 8abc 3dbd 4417 253e 31aa 383e d3c2 57be
00000030: 70bf 363e 3dfc 1dbe 19c3 bbbd b5bd fd3d
00000040: f6a4 a6bd cffa 803d 7e60 8cbd 29b1 343c
00000050: 4bae f4bd a086 49be ada2 15be af02 8f3d
00000060: 0e88 133e 5756 203e 3a0e b33d 1a80 1e3c
00000070: de30 543d b346 82bd d82b 1ebd 6aef 5bbd
00000080: 96c0 713e 4d1c 39be 6b37 983c a2af 3dbc
00000090: 4ec0 0abe 498a a23d fa58 133c 82f6 f63c
000000a0: 1bb8 903b 03e6 1ebe 4063 87bb ce72 f0bc
000000b0: 5ddd 8abd 0dd8 bf3c c03e 043e bcf0 ae3e
000000c0: b851 b43d 368d b13d e422 b7bb 543a 96be
000000d0: ca71 11be 4565 48bd d4c1 b43c 8a50 58be
000000e0: 5a38 1abe 668f 293d ef7d 9dbe ef44 b2bc
000000f0: 25a8 41bd 80cb 2d3d 9e66 9b3d bef5 a93d
00000100: 3c57 7cbb 91cf 1ebc 8723 6bbc 5e5b 793d
00000110: 199c c5bd b93a aa3d e415 563c e9e2 aa3c
00000120: 37ed cd3d 98b2 42be f021 f53c 1181 e6bd
00000130: c544 c9bd a94c d63d 654b b4be f733 e5bd
00000140: 9c76 b8be b3a0 debd e004 1fbd b351 f63c
00000150: 452c ad3b 9ee8 42bb ca00 f5bd d1b2 653d
00000160: 4839 1cbc bef2 833b 32e1 b4bd 1750 6bbe
00000170: 8af6 afbd 4259 d2bd 59bf 4f3e 33ee c93c
00000180: 8ed0 b83d 4fdb a2bd e503 113e 31a1 4f3e
00000190: 8239 2b3c 5543 8dbd 71b4 73be 84e4 a23c
000001a0: c903 843c 0330 87bb 539e 9a3d 6d16 f8bd
000001b0: c5c4 3a3d f866 e93d 2961 92bd 5676 743e
000001c0: 062d cbbc 868f dabc 1a02 1c3e 9a5e a4bd
000001d0: 6326 393e c609 903e e13b dcbc 9db0 f03d
000001e0: 1d33 1b3e 3d30 9b3c c05b 8b3e a611 20be
000001f0: 41a4 92be f344 5a3e aac5 193e 727f d63d
00000200: 8b06 ee3d f610 4bbe 9774 b43c 6473 5a3d
00000210: e9f0 173d 034b d03c 93c4 023e f586 063e
00000220: ff19 983d 4ec4 95bc 5573 f43e a903 dbbd
00000230: 2d37 01be d848 93bd 9f0a 0e3e 3436 7b3d
00000240: 1742 943e 84de 09be db6d 78be 3308 163e
00000250: 168b d83d 05dd 833c eb81 b43d b76f 2a3d
00000260: 8cdf 343e dd30 b13d 65c3 9dbc f8f5 d83d
00000270: 22d2 04be 3f3f 9b3d 9e16 83bd 1444 0b3e
00000280: 26ba 4b3e 7ad8 423d 3aa6 da3d ba2f a7bb
00000290: d3bb b23e 2976 003e 5f82 5d3e 0c99 3dbe
000002a0: 4b1e fd3c 362b c9bd 51ac 033c d0e0 cd3d
000002b0: ab58 80bc c16a eb3c 9f62 4ebd 14a4 f7bd
000002c0: 13e3 92bc ba88 df3d cd67 3ebe f3bf d93d
000002d0: b897 e2bc c44e 89bd 016e 083e 0eff b2bd
000002e0: d8ef cebc ce37 2c3d bc81 7e3e 26f7 20bd
000002f0: b086 9e3e 6a08 72be 1c88 19be 9236 31be
00000300: 797e 03bd 9e82 0c3d 0602 913c 8ca6 abbd
00000310: 5083 22bc fc9f 09be fade 9bbd c228 813d
00000320: 3679 5e3c 7ff3 3d3d 4b44 853d 5fa5 07be
00000330: 1337 e83d 155a 29be d7e7 dabd 42e4 833d
00000340: 79eb 643e 3083 bbbd a2f3 223d 328c 1ebe
00000350: d960 4fbe 2b9a c3be fd11 78bd 595c 4abc
00000360: 5c8c 803b 63b6 3ebe c542 3ebd e68b fbbb
00000370: 7453 3cbd c8a5 18bc 5509 563e d518 1fbd
00000380: b2fc 083d ec3f acbd aa4e 803d 85ba 1a3d
00000390: 7a89 a5bc 8c2b 31be f7cd a23d b3f7 46be
000003a0: 0a06 c2bc 27d7 9e3c 4891 67be 48fa 34be
000003b0: 02dd a1bd 7f59 fa3b d803 85bd fd6a e13c
000003c0: cf81 52bd 3272 41bc b8b1 48be 8eaa f53d
000003d0: abd5 b73d b5f2 893c 7a34 ad3d 3409 c7bd
000003e0: 7272 66bb b55c a6be ece1 be39 d4c9 22be
000003f0: 479c e53c 239e 92b9 e06f 46be f9c4 25be
-0.028644258 0.085257255 -0.3366248 0.19657041 -0.21168382 -0.035760507 0.11977072 0.0065594628
-0.046322383 0.16122156 0.18033673 -0.21070413 0.17846465 -0.15428253 -0.09168071 0.12389699
-0.081369326 0.06297838 -0.06854342 0.011028566 -0.11947306 -0.19680262 -0.14612837 0.06982934
0.1440737 0.15657936 0.08742948 0.0096740965 0.051804416 -0.06361141 -0.03861603 -0.05369512
0.23608622 -0.18077202 0.018581113 -0.011577519 -0.13549921 0.07936532 0.008993382 0.030146841
0.0044164783 -0.1551743 -0.0041317046 -0.029351618 -0.06780503 0.02341845 0.12914562 0.3416804
0.08804649 0.08669512 -0.005588876 -0.29341376 -0.14203563 -0.048924703 0.02206508 -0.21124473
-0.15060559 0.04139652 -0.30760142 -0.021761386 -0.047279496 0.0424304 0.07587932 0.08298825
-0.0038504144 -0.009693042 -0.014351732 0.06087815 -0.09648914 0.08311982 0.013066743 0.020860152
0.10055011 -0.1901344 0.02992341 -0.11255086 -0.0982757 0.104638405 -0.3521377 -0.11191552
-0.36027992 -0.10870495 -0.03882301 0.030068254 0.0052848184 -0.0029740701 -0.11963041 0.056078736
-0.009535141 0.00402674 -0.08832015 -0.2297977 -0.085919455 -0.10270931 0.20287837 0.024649715
0.09024154 -0.07951986 0.14161642 0.20276333 0.010450723 -0.06897608 -0.23799302 0.019884355
0.016115086 -0.0041255965 0.07549729 -0.121136524 0.04559781 0.11396593 -0.07147438 0.23873267
-0.024801742 -0.026679765 0.15235177 -0.08025856 0.1808105 0.28132457 -0.026884021 0.11752436
0.15156217 0.0189439 0.27218437 -0.15631732 -0.2864094 0.21315365 0.15016809 0.10473527
0.11622342 -0.19830689 0.02202825 0.0533327 0.037094984 0.025426393 0.127703 0.1313742
0.07426833 -0.018282082 0.4774424 -0.106940575 -0.12618704 -0.07191628 0.13871239 0.06133099
0.28956673 -0.13463789 -0.24260657 0.14651565 0.105734035 0.016096601 0.088138424 0.041610446
0.17663401 0.08651898 -0.01925821 0.1059379 -0.12970784 0.075804226 -0.06400798 0.13600188
0.19895229 0.04756973 0.106762365 -0.005102125 0.34908924 0.12545075 0.21631764 -0.18515414
0.030898234 -0.09822695 0.008036689 0.10052645 -0.01566728 0.028737428 -0.05038702 -0.12091842
-0.017930543 0.109147504 -0.18594284 0.106323145 -0.027660236 -0.067044765 0.13323213 -0.08740054
-0.02526085 0.042045407 0.24854177 -0.0392982 0.30962133 -0.23636022 -0.14993328 -0.17305973
-0.032103036 0.034304254 0.01770116 -0.08381376 -0.009919003 -0.13439935 -0.07610889 0.06306602
0.013578704 0.046374794 0.065071665 -0.13246678 0.113386296 -0.1653827 -0.10688751 0.06440021
0.2235545 -0.091558814 0.039783128 -0.15483168 -0.20251788 -0.38203558 -0.06056403 -0.012351119
0.003922982 -0.18624263 -0.046450395 -0.0076765893 -0.045978025 -0.009316869 0.20901997 -0.03884204
0.033444114 -0.0841063 0.06265004 0.037775535 -0.020207155 -0.17301768 0.07949441 -0.19430427
-0.02368452 0.019389702 -0.22614014 -0.176736 -0.07903482 0.0076400633 -0.06494874 0.027516836
-0.051393326 -0.011807011 -0.19599044 0.11995421 0.08976301 0.016839365 0.08457275 -0.09718552
-0.003516343 -0.32492605 0.0003640795 -0.15897304 0.02802862 -0.0002796511 -0.19378614 -0.1618842

model.0.bias f4 [32]
00000000: 0996 59bf ec8d 55bf a333 bdbd 29b1 de3c
00000010: 6e48 eebe aea0 9fbf ca3a 68bf 1f9c 59bf
00000020: 8e35 c73e cdbd e9be d1ac 41bf 49b0 58bf
00000030: 677a 48bf f196 3ebf 3243 213f e4d3 4d3f
00000040: 736a 64bf b848 b43e 10b4 59bf c4cb 08bf
00000050: 8fc4 dc3e 54f7 24bf f107 9bbe 938b c6be
00000060: d1b9 9c3d 68c1 243f 4191 103f 68c7 99be
00000070: 9b1d 82bf d598 96be 4d7e ae3e 7db7 3a3f
-0.8499456 -0.8341968 -0.092383645 0.027184086 -0.46539634 -1.247091 -0.90714705 -0.85003847
0.38908046 -0.4565262 -0.7565432 -0.8464399 -0.7831177 -0.7444907 0.62993157 0.80401444
-0.8922493 0.3521173 -0.8504038 -0.5343592 0.43118712 -0.6443989 -0.30279496 -0.38778362
0.07652629 0.64357615 0.5647164 -0.30034947 -1.0165285 -0.29413477 0.34080735 0.7293623

model.3.weight f4 [32, 32]
00000000: 2185 263d 4c40 1b3e 25d7 c1bd d6f6 47bd
00000010: 708b 79bb 0a5f 8abd 16da 68be da94 f63b
00000020: b5b1 7abd f06a 5cbe 2cc0 50be 4870 523d
00000030: 2236 87bd cc8e e4bd 37ab 12be 92cc 5abe
00000040: 207a 7f3e 80c8 e5bd ce72 7cbd c705 bfbd
00000050: 47a0 49be 67a7 df3a a26b e7bc ecfc 033e
00000060: 28e1 9abd 3785 18bd 7344 32be cae9 1cbd
00000070: b665 b5bd a009 39bd 42e1 26be 550b 1bbe
00000080: b107 9c3e 9bb0 c43d 33e5 ebbe 7e1b abbd
00000090: b3ab df3d 2b9a e73e 9611 943e 3617 ae3d
000000a0: 0d54 e3bd 0c9a cebe 4754 7dbe 84fa 95bd
000000b0: ae5f ca3d 8674 ed3d 674c 3ebe e46c 2dbe
000000c0: c902 263d 4b57 64be 1ac3 3b3e 866a efbd
000000d0: 6b77 a8bc fdff 853e 3629 c0be cada 0b3e
000000e0: 3cf2 19be 5006 7bbe 7909 0fbe 27b5 a0be
000000f0: 3cc5 dfbd 6cb6 53be 4471 36be efe5 d2bd
00000100: f77e eabd 6075 973e 81ea 12bf 3b65 49be
00000110: 5d1a 66bd a68a 993e b5cc ba3d 4626 a63e
00000120: 131c 5cbe 38ac 81bd 4801 bc3e 4508 6abe
00000130: f3f3 d93c d5f1 723e fabb 51be 741b 5cbe
00000140: ebcc af3e 507b 15be 6d4a 063e 5b85 3e3e
00000150: c884 a3be bae1 2f3e 0c31 41be 4880 9ebe
00000160: 0542 74be afb1 67be de81 53be 0bb2 b9be
00000170: 1a97 75bd 8f5a 3e3e e3a0 57be 9a2c a9be
00000180: cb51 c3be 9839 25be fcca fabd 656a 7f3e
00000190: 9285 3e3e 06af 273d df6f 6dbd f239 3dbd
000001a0: d56f 1b3e e6e4 003e e821 82bc 2ac7 bfbe
000001b0: 8a36 25be 16c9 443c cacd 363e 2aa0 613e
000001c0: 006e dcbd 284b 633e 5e7b b13d a5b0 683e
000001d0: 8935 803e 2218 2f3e 7060 493e 3ad3 b93d
000001e0: f064 363e 86d8 523e 651a 523e 617f 08be
000001f0: b09f abbd a8e8 ac3d ddc2 1d3e ce0e 083e
00000200: 32d5 8b3e 9675 523e d217 8abe 2138 6cbe
00000210: d577 dabe 5dca a03e 1cb3 5bbd de63 df3e
00000220: fc90 4fbe 3c22 2bbd cc37 dc3d f335 d0bd
00000230: 8ba2 493e c6f3 a7bc f9ba 33be 93e3 59be
00000240: 2c83 773d 612c e0bd f76a 2bbe 75b7 d53d
00000250: 3df5 36be f249 4dbe b3f0 d0bd 16ac 67bd
00000260: f718 3cbe 4636 55be cc8e 58be 86bd 0ebd
00000270: b723 323e cb2d 9dbd e6ab d1bd 6a65 3fbe
00000280: e72e 8a3e b449 2b3e 997f 5b3c b730 cebe
00000290: ec5b edbe 169d f2bc 6c9e 9c3e f9c7 9abe
000002a0: 08f9 24be 504c 35be d0cc 153e b511 c23e
000002b0: 6aac ebbd 9cde 653e d22c 4bbe 28d2 8fbe
000002c0: a44e 13be 5a32 53be 0ef9 433e a1a7 31be
000002d0: 3bc0 6bbe d646 543d 5892 83bd 20f5 debe
000002e0: 1f6f 2bbe 56ef 3bbe 9130 68be aebf 9dbd
000002f0: f1b9 19bd 8875 883d ca13 24be 38c9 93be
00000300: b307 323d 4e26 05bd 8498 16be 11e1 59be
00000310: 406c 86bc a341 37bc 9acc 0cbd 7b24 8fbc
00000320: 88a4 72bc 14e4 68bd 80be 663d eb0c b8bd
00000330: a54f 3fbd 4e52 99bd f1a3 1f3e 2ad7 aabe
00000340: 375a cdbd daff 8fbd a9ab 803d 6c73 dabc
00000350: 6cc1 32bd d50a 7a3e d28b 28bc a0c9 973c
00000360: 0a1d 19be 39cf aebd 3ef1 83be a5a0 ea3d
00000370: 9b5f 8ebc 09c6 92bc bc6a 94be f923 2fbd
00000380: 677f edbc fdd9 b9bc 300a 313e d12b ea3d
00000390: 6560 b53d c30b 78be 7aa0 12bd 1737 e03d
000003a0: 3f3c a23d ad2a cabd 0255 823d 9747 093d
000003b0: f741 adbd dab5 c2be f19f d63b e183 6dbd
000003c0: 85d7 c93d fb8e 02be a555 853d f76f 6bbe
000003d0: 5c6e ffbd caa2 46be 69c7 903e 2acb 0b3e
000003e0: c283 46bc b49b dfbd d9b6 dcbc f74d 47bd
000003f0: 34c9 933d 825d 123e 8d0e 70be 991c 57be
0.040654305 0.15161246 -0.09464864 -0.048819385 -0.0038077496 -0.067564085 -0.22739443 0.0075250687
-0.06120463 -0.21525168 -0.20385808 0.05137661 -0.06602122 -0.11160049 -0.14323126 -0.213671
0.2494893 -0.11219883 -0.061632924 -0.09327274 -0.19690047 0.001706344 -0.028249566 0.12889451
-0.075624764 -0.03723642 -0.17408924 -0.038308896 -0.088572904 -0.045175195 -0.16296867 -0.15141042
0.30474618 0.09603997 -0.46073303 -0.08354853 0.10921421 0.45234808 0.28919667 0.08500521
-0.11100016 -0.40351903 -0.2473918 -0.07323173 0.09881531 0.11594491 -0.18583833 -0.1693607
0.04053 -0.22298925 0.18336144 -0.116902396 -0.020564755 0.26171866 -0.3753144 0.1365768
-0.15033811 -0.24514127 -0.13968457 -0.31388208 -0.10926291 -0.20675057 -0.17816645 -0.102977626
-0.11449998 0.29581738 -0.57389075 -0.19667523 -0.056177486 0.29988593 0.09121076 0.32451075
-0.21495084 -0.06331676 0.36719728 -0.22854717 0.026605582 0.23725064 -0.20481864 -0.21494848
0.34336028 -0.14597821 0.13114329 0.18605559 -0.31937242 0.17175952 -0.18866366 -0.30957246
-0.2385331 -0.22626375 -0.20655009 -0.36268649 -0.059958555 0.18589233 -0.21057467 -0.3304184
-0.3814834 -0.16135252 -0.122457474 0.2494293 0.1860564 0.0409384 -0.057968017 -0.04619784
0.1517938 0.12587318 -0.015885308 -0.37456638 -0.16134086 0.012010833 0.1785194 0.22033754
-0.10763168 0.22196639 0.086661085 0.22723635 0.25040844 0.1709905 0.19665694 0.090734914
0.17811942 0.2059041 0.20517881 -0.13329841 -0.08380067 0.08442813 0.15406366 0.13286898
0.27311093 0.20552668 -0.26971298 -0.23068286 -0.4266955 0.3140439 -0.05363761 0.4363088
-0.20270151 -0.041780695 0.1075283 -0.1016654 0.19690911 -0.020501982 -0.17551793 -0.21278219
0.06042783 -0.109459646 -0.16740023 0.10435382 -0.17866988 -0.20047739 -0.1020216 -0.0565606
-0.18368898 -0.20821485 -0.21148223 -0.034848712 0.17396437 -0.0767475 -0.10237865 -0.1869103
0.2698891 0.16727334 0.013397121 -0.4027154 -0.46359193 -0.02961592 0.30589616 -0.30230692
-0.16110623 -0.17704892 0.14628911 0.37904134 -0.11507495 0.224482 -0.19841316 -0.28090024
-0.14385468 -0.20624676 0.19137976 -0.17349102 -0.23022549 0.051825367 -0.06424397 -0.4354639
-0.16741608 -0.18353018 -0.22674777 -0.077025756 -0.037530843 0.06663042 -0.16023174 -0.28864455
0.043464374 -0.032507233 -0.14706618 -0.21277262 -0.01640904 -0.011185083 -0.03437481 -0.01747345
-0.014809735 -0.056858137 0.05633402 -0.08986839 -0.046706814 -0.074864015 0.15589882 -0.33367282
-0.10026973 -0.07031222 0.062827416 -0.026666366 -0.043641493 0.24418195 -0.010287242 0.01852876
-0.14952484 -0.08535618 -0.2576999 0.11456422 -0.017379573 -0.017916696 -0.28987682 -0.042758916
-0.028991414 -0.022686953 0.17289042 0.114341386 0.088562764 -0.24223237 -0.035797574 0.109480076
0.07921647 -0.09871421 0.0636387 0.03351554 -0.084598474 -0.38029367 0.006549828 -0.057987098
0.0985556 -0.12749855 0.06510476 -0.2299193 -0.12472221 -0.19398037 0.28277138 0.1365172
-0.012116374 -0.1091837 -0.026942657 -0.048658337 0.07216111 0.14293483 -0.2344305 -0.21007003

model.3.bias f4 [32]
00000000: 895d 9fbe 50d6 78be f4df 9fbe 0cf4 343e
00000010: a3e4 9cbe 6d50 91be 8e3e febd 676c 9e3c
00000020: a827 1dbf 1350 35bd db18 bfbe 2316 94be
00000030: 43ed bcbe 5cd6 a8be b6aa e03d ef46 8b3e
00000040: 8473 163e dbfb 723d 20e0 a3be c906 8c3e
00000050: cce4 b9be be05 203d 5208 eebe 2775 50bd
00000060: 04d8 a0be acf4 80bd 1a1f e0bd bcca 0dbe
00000070: bd46 d5be 48b1 6bbe 02a2 02bd 2eba e9bd
-0.3112605 -0.24300504 -0.3122555 0.17671221 -0.30643186 -0.28381673 -0.12414275 0.0193388
-0.61388636 -0.044265818 -0.3732365 -0.2892314 -0.36899766 -0.32976043 0.109700605 0.27202556
0.14692503 0.05932222 -0.3200693 0.27348927 -0.3630737 0.039067976 -0.46490723 -0.050892975
-0.31414807 -0.062966675 -0.10943432 -0.13846868 -0.41655532 -0.23016846 -0.031892784 -0.11412464

model.5.weight f4 [3, 32]
00000000: 02b3 f4bd d809 f03d 1230 80bd a49f 253e
00000010: 4b24 5dbd 671f c63e c15e 71bd 3b49 c63d
00000020: 7a02 1fbe 2e0c a03e 88d2 acbd 5cd7 823e
00000030: 940b 043d 86a2 993d b1d8 58be 82cc 853d
00000040: db96 2e3d e167 b43c c78b 78be 8915 3f3e
00000050: 4e4c 023c 38d5 2a3e ef66 f83e ff15 aa3d
00000060: 546a d03c e4f9 10bc 6ce1 8fbd cc43 003e
00000070: 68ba a53e 47d6 0ebe 3af5 043e 6571 c3bd
00000080: cf09 ce3d 698f 2e3e 988b d53c a524 3f3e
00000090: ded6 b13e 8118 ddbc a98e 9dbd 8eb3 233d
000000a0: 9aa8 29be c0d6 893e 9132 663e bbb6 683e
000000b0: 6622 6b3e 02fa 953d 271d 28be 5960 b83d
000000c0: d327 003e 2188 483d 7996 47be 1496 a8bd
000000d0: ea49 c2bb 7ad8 1d3e 4eac 47bd a4ec 8fbc
000000e0: 12ad d83d 0e91 02bd aa49 b6bd d3d4 153e
000000f0: 3d7a 0e3e 1577 c13e 7dd0 bf3d 4d3f f4bd
00000100: 0e41 d6bd 9cf8 af3e a52e eb3e dab2 74bc
00000110: 597f 193e f0e5 17be 8ca0 23bd c064 3d3d
00000120: 8611 5abe ec09 993e 69d5 103e 59cc 08be
00000130: a87f 8c3e 4caf ea3d 5446 20be caaf 443e
00000140: af9a 653b 4b26 be3d 6bd0 6cbe fbe5 093c
00000150: 97cc b3bd 71c4 713e a989 093d b444 7c3d
00000160: c3ff e53d dd2f a3bd ab34 e6bd 6291 193e
00000170: 6621 483e 3370 18be 072f 073e 06cf 15be
-0.119482055 0.117206275 -0.06259169 0.1617418 -0.05398969 0.38695833 -0.058928255 0.09681936
-0.15528288 0.31259292 -0.08438593 0.2555493 0.032237604 0.07501702 -0.21176411 0.065331474
0.042624336 0.02202219 -0.24272071 0.18660559 0.007952763 0.16682899 0.48516032 0.08304977
0.025441326 -0.008848641 -0.07025418 0.12525862 0.3236878 -0.13948928 0.12984172 -0.09543113
0.100604646 0.17046894 0.02606754 0.18666323 0.34734243 -0.026989223 -0.07693226 0.03996616
-0.16568223 0.26921654 0.22480227 0.22725956 0.2296234 0.07323076 -0.1641737 0.09002752
0.12515192 0.048957948 -0.19490995 -0.0823175 -0.0059292214 0.1541461 -0.048748307 -0.017568894
0.105798855 -0.031876616 -0.08900769 0.14631967 0.13913818 0.37786165 0.09365938 -0.11926136
-0.10461627 0.3436936 0.45934024 -0.01493522 0.14989986 -0.14833808 -0.03994803 0.04623866
-0.21295747 0.29890382 0.1414391 -0.13359202 0.27441144 0.114592165 -0.15651828 0.19207683
0.0035034826 0.092846476 -0.2312638 0.008416648 -0.08779257 0.23610093 0.03357855 0.061588958
0.11230423 -0.079681136 -0.11240514 0.14996865 0.1954399 -0.1488655 0.13201533 -0.14629754

model.5.bias f4 [3]
00000000: a0c4 2d3d 2e4c 053e eead ba3d
0.042423844 0.13017341 0.09115206
