models/temperature_celsius_lstm_model.pth (torch, 66938 bytes, 10 tensors)

lstm.weight_ih_l0 f4 [128, 22]
0	0xbe2f798f	-0.17136215
1	0x3cce0d94	0.025152959
2	0xbda0d2ea	-0.07852729
3	0xbcc97080	-0.024589777
4	0x3cc5d348	0.024148598
5	0x3d96fc3b	0.07372328
6	0xbd80c448	-0.06287438
7	0xbe995448	-0.29947114
8	0x3c30396b	0.010755877
9	0xbe00140a	-0.12507644
10	0x3e055c81	0.13023569
11	0xbe33faf7	-0.17576204
12	0xbe631e8b	-0.2217962
13	0xbe64106a	-0.22271886
14	0xbcac2b19	-0.021016644
15	0x3e76e36c	0.24110192
16	0x3ebb3c5f	0.36569497
17	0xbdffc8f2	-0.12489499
18	0x3cd2f72b	0.025752624
19	0x3d12ca9f	0.035837766
20	0xbeb08180	-0.344738
21	0x3e5b1e7c	0.21398348
22	0x3e17b9d6	0.14816985
23	0x3ec0a6d0	0.37627268
24	0x3d9318f5	0.071824946
25	0xbda0bc6f	-0.07848441
26	0x3ed1e497	0.40994713
27	0x3f163142	0.5866891
28	0xbdde6f27	-0.108610444
29	0x3cbc051b	0.022951653
30	0x3e3d2398	0.18470609
31	0xbe4ddf11	-0.20104624
32	0x3de295f4	0.110637575
33	0xbedd61bb	-0.43238625
34	0x3e68d69f	0.22738121
35	0xbe16c5a6	-0.14723834
36	0xbbbcac85	-0.0057578706
37	0x3d0396fc	0.03212641
38	0xbd3ade1a	-0.04562197
39	0xbe162c3a	-0.14665309
40	0x3e81bf6a	0.2534135
41	0xbe34a774	-0.17642003
42	0x3ec22415	0.37918153
43	0xbde03d20	-0.10949159
44	0xbe19e6f5	-0.1502951
45	0x3ea13270	0.31483793
46	0xbe11a3dd	-0.14222665
47	0xbe8eede4	-0.2791587
48	0x3e686579	0.22694959
49	0xbcd90afe	-0.0264945
50	0xbd233ed0	-0.039854825
51	0x3dea2d0f	0.114343755
52	0x3e00d638	0.12581718
53	0x3cfc7890	0.030819207
54	0x3d3425f8	0.043981522
55	0x3cc6241c	0.02418714
56	0x3c873533	0.01650486
57	0xbe2ec8eb	-0.17068832
58	0xbbe39f1b	-0.006946457
59	0xbcc308d6	-0.023807924
60	0x3dd198f6	0.10234253
61	0xbd7235eb	-0.05913345
62	0x3d86d887	0.06584268
63	0x3dabc7bd	0.083877064
64	0x3e421d18	0.18956411
65	0xbdfa99db	-0.12236377
66	0x3a9f4bce	0.0012153329
67	0x3ebd4371	0.36965516
68	0xbcb61836	-0.022228342
69	0xbe013646	-0.1261836
70	0x3d10b7a1	0.035331372
71	0xbe295c47	-0.16539107
72	0xbd0abb32	-0.03386993
73	0x3b2b7b81	0.0026166143
74	0x3e2464ab	0.16054027
75	0xbcd28597	-0.025698466
76	0x3bdee536	0.0068022264
77	0xbe319f32	-0.17345884
78	0xbe22af53	-0.15887193
79	0xbe204fdd	-0.15655465
80	0xbe59dec1	-0.2127638
81	0x3dfcc625	0.123424806
82	0x3dfa7a97	0.122304134
83	0xbdc223d5	-0.09479491
84	0xbdd18b91	-0.10231698
85	0xbc98b02d	-0.018638695
86	0x3d2ee906	0.042702697
87	0x3da74653	0.0816771
88	0xbe3f7beb	-0.18699615
89	0xbeb24277	-0.34816334
90	0x3e2dbdd3	0.16966943
91	0xbe5e1a3e	-0.21689698
92	0xbcf8ee34	-0.030387022
93	0xbdcbab6b	-0.09944805
94	0x3dbf553c	0.09342429
95	0x3e3cc7f1	0.18435647
96	0xbe1a2c8f	-0.1505606
97	0xbe17d1e0	-0.14826155
98	0xbcc03f2e	-0.023467626
99	0x38d8becf	0.000103352235
100	0xbe8c53b4	-0.2740761
101	0x3e54f4d0	0.20796514
102	0xbdbce69c	-0.09223673
103	0xbc96e65f	-0.018420396
104	0x3e2ca70b	0.16860597
105	0xbe0c1ac9	-0.13682093
106	0x3e85a801	0.2610474
107	0xbdcc2684	-0.09968284
108	0x3e3b526c	0.1829316
109	0xbe4916ba	-0.19637576
110	0xbd528544	-0.051396623
111	0x3d992cd5	0.07479254
112	0xbe523fb9	-0.20532121
113	0x3d11c28c	0.035585925
114	0x3e0b1b98	0.13584745
115	0xbd0aae20	-0.033857465
116	0x3eee49cb	0.46540675
117	0x3d332c08	0.043743163
118	0x3dcd3a10	0.1002084
119	0xbd6dfb36	-0.0581009
120	0x3e29cb28	0.16581404
121	0xbdb488d3	-0.0881516
122	0xbe1f9105	-0.15582664
123	0x3c7cb77b	0.0154246045
124	0xbd348972	-0.04407639
125	0xbddf90d2	-0.10916294
126	0xbd99dbf7	-0.07512658
127	0xbeb2bbe5	-0.34908977
128	0x3e8897e1	0.26678374
129	0x3c519948	0.012792893
130	0xbe0b2813	-0.13589506
131	0x3e2b3b31	0.16721798
132	0xbe838be5	-0.2569267
133	0xbe28da11	-0.16489436
134	0xbe24b22e	-0.16083595
135	0xbc78638c	-0.015160453
136	0xbcac16a6	-0.021006893
137	0x3d977226	0.07394819
138	0xbd865609	-0.06559379
139	0x3d647aaa	0.055781044
140	0xb82b5398	-4.084743e-05
141	0x3d3bd802	0.045860298
142	0xbe4362bf	-0.19080637
143	0xbe04c460	-0.12965536
144	0xbd4c1f1e	-0.049834363
145	0x3c508f21	0.012729437
146	0xbd9be84b	-0.07612666
147	0x3d49f8f9	0.049309704
148	0x3b891a4c	0.004184043
149	0x3db3ca44	0.087788135
150	0xbdf75c26	-0.12078123
151	0xbe6d7b11	-0.23191477
152	0x3c57a329	0.013161459
153	0x3e0febf9	0.1405486
154	0x3e776226	0.24158534
155	0xbe1f8121	-0.15576603
156	0xbe9f9db8	-0.31175017
157	0x3cafce00	0.021460533
158	0x3ca30d18	0.019903705
159	0xbe0b71c6	-0.1361762
160	0xbd83ec37	-0.06441539
161	0xbea2ea0c	-0.3181919
162	0x3e10f9ba	0.14157763
163	0x3e3d45eb	0.18483703
164	0x3edcba5f	0.4311094
165	0xbd369749	-0.04457787
166	0x3dbb6c42	0.09151508
167	0x3e3205d1	0.17385031
168	0x3de13f7d	0.109984376
169	0xbdc29475	-0.09500972
170	0x3e48a5c4	0.19594485
171	0x3e166c2f	0.14689706
172	0xbe280579	-0.16408338
173	0x3e820240	0.25392342
174	0x3e1ea846	0.15493879
175	0x3d940fc7	0.07229572
176	0xbdb5340e	-0.08847819
177	0x3e69baf4	0.22825223
178	0xbebf616f	-0.37379023
179	0xbd515001	-0.05110169
180	0xbea63a4d	-0.32466355
181	0x3a546743	0.00081025454
182	0x3d8d85af	0.06910264
183	0xbaa5c4c2	-0.0012647139
184	0x3d82439b	0.06360551
185	0xba9745d0	-0.0011541191
186	0xbe1a3862	-0.15060571
187	0x3e974b60	0.29549694
188	0x3d6f02bc	0.058352217
189	0xbe6cac43	-0.23112588
190	0xbe539b56	-0.20664725
191	0xbe073707	-0.13204585
192	0xbdc096dc	-0.09403774
193	0xbe5e1f25	-0.21691568
194	0x3e9783b6	0.29592675
195	0xbd0b9026	-0.034073018
196	0xbe2ac5f3	-0.16677074
197	0x3e352ea4	0.17693573
198	0xbc651192	-0.01398124
199	0x3e58afc6	0.21160802
200	0x3ddb0be4	0.10695627
201	0xbe3957ea	-0.18099943
202	0x3d8ea7f6	0.0696563
203	0x3c6924ac	0.014229935
204	0x3e44936c	0.19196862
205	0xbd874de7	-0.066066556
206	0xbdaa3645	-0.08311132
207	0xbc5d3d88	-0.01350344
208	0xbe388232	-0.18018416
209	0xbd7fbd16	-0.062436186
210	0xbdf1c7c3	-0.1180568
211	0x3e3cc61b	0.18434946
212	0xbda7c9a4	-0.08192757
213	0xbd96af04	-0.073576
214	0x3e8405e0	0.25785732
215	0x3c04bf48	0.008102246
216	0xbe2813f4	-0.16413862
217	0xbdf648ea	-0.12025626
218	0x3da96605	0.08271412
219	0x3dc8e6df	0.0980966
220	0xbe512ebf	-0.20427988
221	0x3d69162c	0.05690591
222	0xbd7a9263	-0.06117476
223	0xba2b58ab	-0.0006536345
224	0xbed327e9	-0.41241387
225	0xbe554d27	-0.20830213
226	0x3d832c3a	0.0640492
227	0x3ca18efa	0.019721497
228	0x3db9d676	0.09074108
229	0xbd5a73cc	-0.05333309
230	0x3c516a2e	0.012781663
231	0xbcfcc40f	-0.030855207
232	0xbd22b934	-0.039727405
233	0x3de26bbf	0.11055707
234	0x3e2d2a6d	0.16910715
235	0x3e1d5fb4	0.15368539
236	0x3e77ecc8	0.24211419
237	0x3e418859	0.18899669
238	0x3d8d6262	0.06903531
239	0x3d45729a	0.048204996
240	0xbdc2a3ca	-0.095038965
241	0x3df60cc6	0.12014155
242	0x3dd3a1a9	0.103335686
243	0xbca2b2ac	-0.019860588
244	0xbe4d921c	-0.20075268
245	0x3d7d772b	0.061881226
246	0x3dec5608	0.11539847
247	0x3dbe42df	0.092900984
248	0x3e736955	0.2377065
249	0xbe1140e9	-0.14184918
250	0x3e1bdf62	0.15221933
251	0xbd4140c4	-0.047180906
252	0xbd9e558f	-0.07731163
253	0xbd19624e	-0.037447266
254	0xbedd3b80	-0.43209457
255	0xbde57342	-0.11203624

lstm.weight_hh_l0 f4 [128, 32]
0	0xbe1227aa	-0.14272943
1	0x3d2d4d66	0.04231014
2	0xbd2dc5b5	-0.042424876
3	0xbe752f9c	-0.23943943
4	0xbeb3ec71	-0.35141328
5	0xbcc14c5b	-0.02359598
6	0x3e4231d2	0.18964317
7	0x3d3e08cf	0.04639512
8	0xbe17135c	-0.14753479
9	0x3e482547	0.1954547
10	0xbeb1740c	-0.3465885
11	0x3d30963c	0.043112025
12	0xbe9d005b	-0.30664334
13	0x3d28d233	0.041216087
14	0xbdc82247	-0.09772163
15	0xbc056706	-0.0081422385
16	0xbed340f9	-0.41260508
17	0x3d88aff1	0.06674183
18	0xbd808739	-0.06275792
19	0xbe252279	-0.16126432
20	0xbe35128f	-0.17682861
21	0xbcc4f896	-0.024044316
22	0xbeb628aa	-0.355779
23	0xbcce9ae2	-0.025220338
24	0x3e91824d	0.28419724
25	0x3dfe39f6	0.12413399
26	0x3dc2d778	0.09513754
27	0xbe5b9d76	-0.21446785
28	0xbe25dc9f	-0.16197442
29	0x3e09fa81	0.13474466
30	0xbde2d7b6	-0.110763
31	0x3d5a7e94	0.05334337
32	0x3b9cd5ff	0.0047862525
33	0x3e2d58bb	0.16928379
34	0x3d9daba9	0.07698757
35	0xbd9d928b	-0.076939665
36	0x3d945b7d	0.072440125
37	0xbde480e2	-0.11157395
38	0xbe373df3	-0.17894726
39	0x3e0e010a	0.13867584
40	0xbe4bc4aa	-0.1989924
41	0xbd856c6b	-0.0651482
42	0x3de6f1a9	0.11276562
43	0x3e050f86	0.12994203
44	0xbd3e6ccd	-0.04649048
45	0xbd77f004	-0.06053163
46	0xbe2a0b50	-0.16605878
47	0x3d445599	0.047933195
48	0xbdf1ae69	-0.11800844
49	0xbe89b8cb	-0.26898798
50	0x3d92aa05	0.07161335
51	0xbe4c2bf1	-0.19938637
52	0x3e9feea8	0.31236768
53	0x3e5aeae1	0.21378662
54	0x3e265c06	0.16246042
55	0x3e6b582b	0.22982852
56	0xbd4e825e	-0.050417297
57	0xbd747995	-0.059686262
58	0x3e80e7ba	0.25176793
59	0x3ecdb602	0.40177923
60	0xbd8499d2	-0.064746514
61	0xbd51be38	-0.051206797
62	0x3e108a44	0.14115244
63	0x3dacfdd7	0.084468536
64	0xbd44eace	-0.04807549
65	0x3e930b2e	0.28719467
66	0x3df95d95	0.121760525
67	0x3cc7c605	0.024386415
68	0xbe8b12b9	-0.27162722
69	0xbe111e98	-0.14171827
70	0xbc9c522a	-0.019082148
71	0xbdfbf317	-0.12302225
72	0x3e58bd7f	0.21166037
73	0xbdf1c794	-0.11805645
74	0x3e338347	0.17530547
75	0xba61df5c	-0.0008616352
76	0xbea4f8c6	-0.3222105
77	0xbe346b41	-0.17619039
78	0xbe3145db	-0.17311804
79	0xbd5afa1a	-0.05346117
80	0x3e11806e	0.14209148
81	0xbde9c122	-0.1141379
82	0xbe7180e0	-0.23584318
83	0x3db17fc4	0.086669475
84	0x3df3d6a0	0.11906171
85	0x3e15b838	0.14621055
86	0x3d40ab2d	0.047038246
87	0x3d429ee8	0.047514826
88	0x3e4ca203	0.19983678
89	0xbdd26e07	-0.10274892
90	0x3e050f4c	0.12994117
91	0x3b0ffeb0	0.0021971874
92	0x3d9b6155	0.07586924
93	0xbe80159b	-0.25016484
94	0x3df1580d	0.117843725
95	0x3d6094e4	0.054829493
96	0xbe92dbd4	-0.2868334
97	0x3e87804e	0.26465076
98	0xbe1225a0	-0.14272165
99	0xbe3a7afb	-0.18210976
100	0x3d241138	0.040055484
101	0xbe9210a9	-0.28528336
102	0x3e33d8f6	0.17563233
103	0xbe9e91d5	-0.30970636
104	0xbde80013	-0.11328139
105	0x3e8edae1	0.27901366
106	0xbeba8bce	-0.36434788
107	0xbe028543	-0.12746148
108	0xbdadcc2b	-0.084862076
109	0xbe6ddfd9	-0.23229922
110	0x3c2c2723	0.010507378
111	0x3e56a124	0.20959908
112	0xbe7db1b1	-0.24774815
113	0x3e4b6d7c	0.19865984
114	0xbd066809	-0.03281406
115	0xbe02f550	-0.12788892
116	0xbe968922	-0.294015
117	0xbd003c48	-0.03130749
118	0x3d55315d	0.05204903
119	0xbd1b4ea2	-0.037916787
120	0x3dc98ac1	0.09840918
121	0xbe94bb4d	-0.2904915
122	0x3dbba534	0.09162369
123	0x3d36c05f	0.044617053
124	0xbdb3cb25	-0.08778981
125	0x3d445ad6	0.04793819
126	0xbec168b7	-0.37775204
127	0x3e909c45	0.28244224
128	0xbcd6aa4b	-0.026204249
129	0x3e26be85	0.16283615
130	0x3e917b57	0.28414413
131	0xbd59e006	-0.05319216
132	0xbcfd9ea4	-0.030959435
133	0x3df8141c	0.121132106
134	0xbcfe7854	-0.031063236
135	0xbe6ce8e5	-0.23135717
136	0xbdeb0a7c	-0.11476609
137	0xbd33f86f	-0.043938097
138	0xbd634181	-0.05548239
139	0x3d9c928a	0.076451376
140	0xbebf0228	-0.37306333
141	0xbe70b2a9	-0.23505653
142	0x3dc7d3d0	0.09757197
143	0x3d8a130c	0.06741914
144	0xbe627541	-0.22115041
145	0x3e791e7d	0.24328037
146	0xbde417c4	-0.111373454
147	0xbddca559	-0.10773725
148	0x3e22df0b	0.15905397
149	0x3c01ab79	0.007914417
150	0xbddcbede	-0.107785925
151	0xbe802083	-0.25024804
152	0xbe28bfc5	-0.16479404
153	0xbc54a6b6	-0.0129792
154	0xbca72b68	-0.02040644
155	0x3d7ae63e	0.061254732
156	0x3d7e6dd9	0.062116478
157	0xbdcfca38	-0.10145992
158	0x3dcb187b	0.09916779
159	0x3dc42870	0.09578025
160	0xbe8e533f	-0.27797887
161	0xbb808189	-0.003921692
162	0x3d8f6b7e	0.070029244
163	0xbe02cd0f	-0.12773536
164	0xbd8bd567	-0.06827813
165	0x3d559cb1	0.052151386
166	0x3e964abe	0.293539
167	0x3d478e96	0.048719965
168	0x3e2eb9ac	0.17063016
169	0x3e69df8b	0.22839181
170	0x3c98336b	0.018579205
171	0xbe01902c	-0.12652653
172	0x3c5212e2	0.012821885
173	0xbd659d5e	-0.05605828
174	0xbdd939ce	-0.106067285
175	0xbd821ab3	-0.06352749
176	0xbd8d258a	-0.06891926
177	0xbdd9fd89	-0.10644061
178	0xbdae57da	-0.0851285
179	0x3e23e81e	0.16006514
180	0xbe4af5f4	-0.19820386
181	0xbd9b6ea2	-0.07589461
182	0xbe68c3bc	-0.22730917
183	0x3e727621	0.23677875
184	0x3dca58eb	0.09880241
185	0xbd199c29	-0.03750244
186	0xbe6d1acd	-0.23154755
187	0x3dc5dac3	0.09660866
188	0x3de89ae5	0.11357669
189	0xbe0b2708	-0.13589108
190	0x3de8112a	0.11331399
191	0x3ddfd832	0.10929908
192	0xbed25251	-0.41078427
193	0x3dc4114d	0.09573612
194	0xbe4a6d4a	-0.19768253
195	0xbc11abe5	-0.0088910805
196	0xbdc57023	-0.09640529
197	0xbe347419	-0.17622413
198	0x3dccb6b7	0.099957876
199	0x3c81e563	0.01585645
200	0x3d6a83e8	0.0572547
201	0xbe2e59c8	-0.17026436
202	0xbdec0cb7	-0.11525863
203	0xbe8c878c	-0.27447164
204	0xbec5a7e4	-0.38604653
205	0x3d01322f	0.031542
206	0x3d396405	0.0452614
207	0xbe037898	-0.12838972
208	0xbe7b68ea	-0.2455174
209	0xbe9927f7	-0.29913303
210	0x3d28f301	0.04124737
211	0xbe1de2aa	-0.15418497
212	0xbe9e63a0	-0.30935383
213	0x3d8bbf22	0.06823565
214	0xbde534d9	-0.111917205
215	0x3b202c33	0.0024440407
216	0xbdf52ad7	-0.11971062
217	0x3bf59bac	0.007495364
218	0xbd42c654	-0.04755242
219	0xbd5d6ea9	-0.054060612
220	0xbe6f43d8	-0.23365724
221	0xbda8b314	-0.082372814
222	0xbd95ee35	-0.07320825
223	0x3dec102f	0.11526524
224	0xbeefc270	-0.46828032
225	0xbe99ac5d	-0.30014315
226	0x3df8bd7c	0.12145516
227	0xbe2f0518	-0.17091787
228	0xbd799d1e	-0.060940854
229	0xbd8789ea	-0.06618102
230	0xbdb90776	-0.09034626
231	0xbd0afc0b	-0.033931773
232	0xbebfdb99	-0.37472227
233	0xbdb625d3	-0.08893933
234	0x3e1914ad	0.14949293
235	0x3cfcd031	0.030860992
236	0xbed29d6f	-0.41135737
237	0x3da3c6a0	0.07996869
238	0xbe2e0a00	-0.16996002
239	0x3c62c0a6	0.013839876
240	0xbf01384a	-0.50476515
241	0x3e3d4949	0.18484987
242	0xbe3fc9ea	-0.18729368
243	0x3c6de3d2	0.014519649
244	0xbe3e50dc	-0.18585533
245	0xbca0c9d0	-0.019627482
246	0xbd16e9c6	-0.036844037
247	0xbd8d9b8a	-0.06914432
248	0xbcf941ff	-0.030426977
249	0x3cedc0c7	0.029022587
250	0xbe20c462	-0.15699914
251	0xbdf39f38	-0.11895603
252	0xbd380850	-0.044929802
253	0xbe1b052e	-0.15138695
254	0x3cd726d2	0.026263628
255	0xbdd8b697	-0.10581701

lstm.bias_ih_l0 f4 [128]
0	0x3d47a951	0.048745457
1	0xbc814d2e	-0.015783872
2	0x3df7a7fc	0.12092587
3	0xbd969864	-0.07353285
4	0x3e08d8bd	0.13363929
5	0x3ca0de2c	0.01963719
6	0x3d8bb98c	0.068225
7	0xbe162f09	-0.1466638
8	0x3ddf41eb	0.10901245
9	0x3dfe0891	0.12403978
10	0xbd4aae61	-0.049482707
11	0x3e5073b4	0.20356637
12	0x3df7695c	0.120806426
13	0x3d2a021e	0.041505925
14	0xbd89a3ec	-0.06720719
15	0x3e5acf8f	0.2136824
16	0xbdfb713e	-0.122774586
17	0x3e8df59f	0.27726457
18	0x3dff9881	0.1248026
19	0xbd723849	-0.05913571
20	0x3d62d423	0.05537809
21	0xbcb80f64	-0.022468276
22	0xbd91e4af	-0.07123696
23	0xbdc2bb4f	-0.095083825
24	0x3d592247	0.053011205
25	0x3d87d1d9	0.06631822
26	0xbc4aaa03	-0.0123696355
27	0x3e5e2dab	0.21697108
28	0x3d9cd73f	0.076582424
29	0x3e742ba7	0.23844777
30	0x3db26525	0.08710698
31	0x3d068b4b	0.032847684
32	0xbd99f5b9	-0.07517571
33	0x3dfb8e4b	0.122829996
34	0xbe2317d9	-0.15927066
35	0x3dd730d5	0.10507361
36	0x3da3a838	0.079910696
37	0xbcaaf6bf	-0.02086961
38	0x3db9cf82	0.09072782
39	0x3dcffdfe	0.10155867
40	0x3e9af33f	0.30263707
41	0x3bcee293	0.006313631
42	0xbe656d59	-0.22404994
43	0x3e68bf3c	0.227292
44	0x3d0af10f	0.033921298
45	0xbde14e42	-0.110012546
46	0x3d56944c	0.05238752
47	0x3e1767cf	0.14785694
48	0xbdc858d0	-0.09782565
49	0x3cd23be2	0.02566332
50	0xbc2c5aa0	-0.010519654
51	0xbb4db99e	-0.0031391154
52	0xbd8dd849	-0.06926019
53	0xbdf3170d	-0.11869631
54	0xbcdf1baa	-0.027234871
55	0x3dc30428	0.09522277
56	0xbd5bf30f	-0.053698596
57	0xbd419af9	-0.047266934
58	0x3dce4474	0.1007165
59	0x3e1b6c63	0.15178065
60	0xbd37e661	-0.04489744
61	0x3e935461	0.28775313
62	0x3e0c9dbd	0.13732047
63	0x3e2ad35e	0.16682193
64	0x3d323bf2	0.0435142
65	0x3dc2b59a	0.09507294
66	0xbe15a801	-0.1461487
67	0x3e24d26a	0.16095892
68	0xbd95ad04	-0.07308391
69	0xbdb6980d	-0.0891572
70	0x3e37b673	0.17940693
71	0x3d1d270c	0.038367316
72	0x3e383f95	0.17993005
73	0x3e899f6d	0.26879445
74	0xbde6d473	-0.1127099
75	0xbc0586ca	-0.008149812
76	0x3e396d9d	0.1810822
77	0xbde1bb57	-0.1102206
78	0xbdff19ce	-0.12456094
79	0x3e413eec	0.18871659
80	0x3df9862f	0.121837966
81	0x3dd0e1a4	0.101992875
82	0xbdc1858b	-0.094492994
83	0xbd01ccb5	-0.031689364
84	0x3da30d23	0.0796149
85	0xbe433c0e	-0.19065878
86	0xbcf6d984	-0.030133016
87	0x3c92ded0	0.01792851
88	0x3e554a2d	0.20829077
89	0xbe5c5df3	-0.21520214
90	0x3e667fdc	0.22509712
91	0xbcd99104	-0.026558407
92	0xbdc9c3d2	-0.09851803
93	0x3db96cbb	0.09053942
94	0xbdea8aa5	-0.114522256
95	0x3e25c576	0.16188607
96	0x3ddee47f	0.10883426
97	0x3ead0ad7	0.33797333
98	0x3e37ae24	0.17937523
99	0x3e29e9a9	0.1659304
100	0x3dbf5e2d	0.093441345
101	0xbd807b84	-0.06273559
102	0x3e065815	0.13119538
103	0x3e93de84	0.28880703
104	0xbda10ca9	-0.07863743
105	0x3dc33c8b	0.09533032
106	0xbafe5455	-0.0019403795
107	0x3deca9fc	0.115558594
108	0x3d9bf509	0.07615096
109	0x3e3ead15	0.18620713
110	0x3e6563fb	0.22401421
111	0x3e8411e2	0.25794894
112	0xbd412b95	-0.047160704
113	0x3e880ca5	0.26572147
114	0x3cdc2315	0.026872197
115	0x3e38d6c6	0.1805068
116	0xbdf7bf2e	-0.120970115
117	0xbd056d50	-0.03257495
118	0xbcd4ebcc	-0.025991343
119	0xbe01863d	-0.12648864
120	0xbcbffc4a	-0.02343573
121	0xbd6ec8ad	-0.058296848
122	0x3d9b290d	0.07576189
123	0x3e2bc70f	0.16775154
124	0xbe29d2a3	-0.16584258
125	0x3e522886	0.20523271
126	0x3e2b25af	0.16713594
127	0xbd4b23c3	-0.049594652

lstm.bias_hh_l0 f4 [128]
0	0x3d45b1ad	0.048265148
1	0xbc34766c	-0.011014562
2	0x3d4dcc36	0.05024358
3	0xbdbdbd2c	-0.09264597
4	0x3dce4adf	0.10072874
5	0xbd8d4f3e	-0.0689988
6	0x3e217a40	0.15769291
7	0x3d5dfa0d	0.054193545
8	0x3e827624	0.2548076
9	0x3dcf7933	0.10130539
10	0x3e01a2f8	0.12659824
11	0xbdb0f474	-0.08640376
12	0xbd17b6ba	-0.037039496
13	0xb80e04b0	-3.3859804e-05
14	0xbd719952	-0.05898411
15	0xbc18643c	-0.0093012415
16	0x3e1b7704	0.1518212
17	0x3e0ffbc7	0.14060889
18	0x3e19d1f4	0.15021497
19	0x3e0a33ad	0.13496275
20	0x3dd25b6f	0.10271346
21	0xbe45439f	-0.19264077
22	0x3dc20f37	0.09475558
23	0x3e21f59b	0.15816347
24	0x3e3ab596	0.18233332
25	0xbcfa07b6	-0.030521255
26	0x3deb798f	0.11497795
27	0xbdc56dcf	-0.09640085
28	0x3ce001b4	0.027344562
29	0x3df07d5c	0.117426604
30	0xbdff486b	-0.124649845
31	0x3db398d2	0.087693825
32	0xbe5dec55	-0.21672185
33	0x3e5fef5e	0.21868655
34	0xbe345aeb	-0.17612807
35	0xbe29a71e	-0.16567656
36	0x3cffab35	0.031209568
37	0x3ca57e99	0.020201968
38	0x3df9a716	0.12190072
39	0xbccac964	-0.024754234
40	0x3eb3ce57	0.35118362
41	0x3ded0ae6	0.11574344
42	0xbdbdf891	-0.09275926
43	0x3e132c54	0.14372379
44	0x3d735c5e	0.05941426
45	0x3dffbd53	0.124872826
46	0x3d46ee5e	0.04856717
47	0x3ea3f5c2	0.32023436
48	0xbe6800aa	-0.22656503
49	0xbb8207ca	-0.0039682137
50	0x3dad241f	0.08454155
51	0xbd36da09	-0.04464153
52	0xbe06d0ba	-0.1316556
53	0xbe8865a4	-0.26640046
54	0x3da80259	0.08203573
55	0xbd8afa36	-0.06786005
56	0xbd5c2473	-0.0537457
57	0x3df10627	0.117687516
58	0x3e592ccb	0.21208493
59	0x3db6b3d0	0.08921015
60	0xbd684fc7	-0.056716707
61	0x3ea17b74	0.315395
62	0xbc9ddf9b	-0.019271662
63	0x3daff2c8	0.08591229
64	0xbd008e37	-0.031385627
65	0x3e955993	0.29169902
66	0xbe7cc13b	-0.24683087
67	0xbdd4e07e	-0.10394381
68	0xbc671180	-0.014103293
69	0xbe4d8a6c	-0.20072335
70	0x3aee25e7	0.0018169255
71	0x3acf5f99	0.0015821337
72	0x3e9b43a1	0.30325034
73	0x3d198100	0.03747654
74	0xbd359dfa	-0.04434011
75	0xbe813a91	-0.25239995
76	0x3e23e20b	0.16004197
77	0xbe8920c7	-0.2678282
78	0xbdbfdc0c	-0.093681425
79	0x3e081e6b	0.13292854
80	0x3b57ce02	0.0032929187
81	0x3dfed7ad	0.12443481
82	0xbdd18c19	-0.102318
83	0xbe847a8d	-0.2587475
84	0xbe482d3b	-0.19548504
85	0x3d269a39	0.040674422
86	0xbe5757a7	-0.2102953
87	0xbe4feb64	-0.20304638
88	0x3e592641	0.21205999
89	0xbe106017	-0.14099155
90	0x3d2e226e	0.042513303
91	0x3e03f8d9	0.12887897
92	0xbd7453f2	-0.05965037
93	0x3e1152aa	0.1419169
94	0xbde887d9	-0.11354036
95	0x3e0f6284	0.14002424
96	0xbd921981	-0.07133771
97	0x3e17f851	0.14840819
98	0x3eabacd0	0.33530283
99	0x3ddd7312	0.108129635
100	0x3d86727d	0.06564806
101	0x3ded8330	0.11597288
102	0x3e47f41b	0.19526713
103	0x3dd9327b	0.106053315
104	0x3e46ef63	0.19427256
105	0x3e5407f8	0.20706165
106	0x3b349e4f	0.002756018
107	0x3ddff2be	0.10934971
108	0x3d67c216	0.05658158
109	0x3d0d9a49	0.034570966
110	0xbd562d38	-0.052289218
111	0x3d895eba	0.06707521
112	0x3e4b77ae	0.19869873
113	0x3e6bf050	0.2304089
114	0x3e519ea1	0.20470668
115	0xbdd01567	-0.10160332
116	0xbe1c591b	-0.15268366
117	0xbd90b10c	-0.07065019
118	0xbda5c289	-0.08093745
119	0x3e258d91	0.16167285
120	0x3dec287b	0.115311585
121	0xbd4cbf4d	-0.049987126
122	0x3dc48a37	0.09596675
123	0x3bebb346	0.007193002
124	0x3c4a4b56	0.012347063
125	0x3e568da0	0.20952463
126	0xbd476a17	-0.04868516
127	0x3d9b5957	0.075853996

lstm.weight_ih_l1 f4 [128, 32]
0	0xbe6313d6	-0.22175536
1	0x3d28333e	0.041064493
2	0xbcf1a42c	-0.029497229
3	0x3d0a42c1	0.033755068
4	0xbe939d0c	-0.28830755
5	0xbbd3cb4c	-0.006463444
6	0x3d9b6c35	0.07588998
7	0x3e4b47d7	0.19851623
8	0x3df6703f	0.12033128
9	0x3e45f74b	0.19332616
10	0x3df58ffd	0.11990354
11	0xbe832f57	-0.25622055
12	0xbd53143c	-0.05153297
13	0x3d06817b	0.032838326
14	0xbc5afacc	-0.013365459
15	0x3e87cfbe	0.26525682
16	0xbba142ea	-0.004921307
17	0x3dd5fb16	0.104482815
18	0x3c49ba02	0.012312414
19	0xbd658dee	-0.056043558
20	0xbda87b3d	-0.08226631
21	0x3c9a7569	0.018854814
22	0xbe39ae51	-0.18132903
23	0xbd5a5fe0	-0.05331409
24	0x3e45660d	0.1927721
25	0xbdba8e0d	-0.09109125
26	0xbe3a6c45	-0.18205364
27	0x3dd043b9	0.10169167
28	0x3ce4ab16	0.027913611
29	0x3e80b5bd	0.25138655
30	0xbe2c4282	-0.16822246
31	0x3d79b51e	0.060963742
32	0xbe99e556	-0.30057782
33	0xbe73ab44	-0.23795801
34	0xbe5cdedf	-0.21569394
35	0xbe22d074	-0.15899831
36	0xbe7bdde5	-0.24596365
37	0xbe3a78aa	-0.18210092
38	0x3e2e3d8e	0.17015669
39	0x3e0baa91	0.13639285
40	0x3e631436	0.22175679
41	0x3de04efb	0.10952564
42	0xbdd6dd0a	-0.104913786
43	0xbce5b365	-0.028039644
44	0xbd3171f7	-0.043321576
45	0x3e377a04	0.17917639
46	0x3d21d8b2	0.039513297
47	0x3e07cc93	0.13261633
48	0x3c731589	0.014836677
49	0xbe2922bd	-0.16517158
50	0xbe65b7ee	-0.22433445
51	0x3c0639a9	0.008192458
52	0xbe8a7cd8	-0.27048373
53	0xbe9595e7	-0.2921593
54	0xbe60472a	-0.21902147
55	0xbd7d42e2	-0.061831363
56	0x3cfff8a4	0.03124649
57	0xbe94b403	-0.29043588
58	0xbe91d836	-0.28485268
59	0x3d6ebae1	0.05828369
60	0x3ca40286	0.020020735
61	0x3afd9a4c	0.0019348352
62	0xbe48f09e	-0.19623038
63	0x3e8059bd	0.25068465
64	0xbd8f1066	-0.0698555
65	0xbe1249e5	-0.14286001
66	0xbd3727ca	-0.04471568
67	0xbd926b65	-0.0714939
68	0xbe16d0f1	-0.14728142
69	0x3c35845d	0.011078921
70	0xbe88ab88	-0.26693368
71	0x3df71efb	0.12066456
72	0x3e935b1e	0.28780454
73	0xbd8ea0cf	-0.069642656
74	0x3cf5aa45	0.029988417
75	0x3ce9a8b2	0.028522823
76	0x3e100233	0.14063339
77	0xbc78c6e5	-0.015184139
78	0x3de87705	0.11350826
79	0x3e847ebb	0.25877938
80	0xba01a290	-0.0004945183
81	0x3c401daa	0.011725822
82	0xbd9b82b1	-0.07593287
83	0x3dc0666a	0.09394534
84	0x3d8d0d32	0.068872824
85	0xbe3683ae	-0.1782367
86	0x3be6abe8	0.007039536
87	0x3da3bdee	0.079952106
88	0x3daf995b	0.08574172
89	0xbe3edf12	-0.18639782
90	0xbd7ff1fc	-0.062486634
91	0x3e513d77	0.20433603
92	0xbe5b4db5	-0.21416362
93	0x3de090fe	0.10965155
94	0xbe90eb9e	-0.28304762
95	0x3e2a761f	0.16646622
96	0xbe8d1cf7	-0.2756116
97	0x3d1b0946	0.03785064
98	0xbd1f18b7	-0.03884193
99	0x3d9fb79e	0.07798694
100	0x3d8ceb76	0.06880848
101	0x3d9f70fd	0.07785223
102	0x3e989eaf	0.29808566
103	0xbe61c845	-0.22049053
104	0x3e3ce73f	0.18447588
105	0x3e9167c5	0.28399482
106	0x3db04ee1	0.08608795
107	0xbdd8377c	-0.10557458
108	0xbe1adfc5	-0.15124424
109	0xbe94a99a	-0.29035646
110	0x3c91c26f	0.017792908
111	0x3de52b8c	0.111899465
112	0xbe6ea21c	-0.23304027
113	0x3ea14a87	0.31502172
114	0x3db7aacd	0.089681245
115	0xbc04fd66	-0.0081170555
116	0xbdd3f9e1	-0.10350395
117	0xbe418192	-0.18897083
118	0xbe25bf4e	-0.16186258
119	0xbeae6484	-0.34061062
120	0xbb310721	-0.0027012306
121	0xbc7a63a9	-0.01528255
122	0x3dda3f35	0.10656587
123	0x3dbd7152	0.0925013
124	0xbbd253b4	-0.0064186696
125	0x3e013ca7	0.12620793
126	0x3b8666b2	0.0041015977
127	0x3bdaa1e1	0.0066721295
128	0xbd5b48c4	-0.05353619
129	0xbde5e0ac	-0.112244934
130	0xbca859d4	-0.020550646
131	0xbe3a04b7	-0.18165861
132	0xbe6e82e9	-0.23292126
133	0xbe0cafb1	-0.13738896
134	0xbdc0bd30	-0.09411085
135	0x3d6c6fcd	0.05772381
136	0x3db953ce	0.090491876
137	0x3d086ead	0.033308674
138	0xbe4878c5	-0.1957732
139	0x3d67e72e	0.056616955
140	0xbe184460	-0.14869833
141	0x3dedb647	0.11607032
142	0x3d0e0c48	0.03467968
143	0x3e37406e	0.17895672
144	0xbe607497	-0.21919475
145	0x3cf6cc72	0.030126784
146	0x3ca807b1	0.02051148
147	0x3d7a42d1	0.061098877
148	0x3d07766c	0.03307192
149	0x3d827e0a	0.06371696
150	0xbe8694e4	-0.2628547
151	0xbe0a7ec6	-0.13524923
152	0x3e668fc7	0.22515784
153	0xbdea5cf8	-0.11443514
154	0xbe5f8233	-0.21827011
155	0xbd6ad406	-0.057331108
156	0x3c1944d6	0.009354791
157	0x3e9779dd	0.29585162
158	0xbdb07cc8	-0.0861755
159	0x3e66fd08	0.22557461
160	0xbc9ce956	-0.019154232
161	0xbe99054b	-0.2988685
162	0xbe074069	-0.13208164
163	0x3e51a1a7	0.20471822
164	0x3de665ff	0.11249923
165	0xbea623b5	-0.32449117
166	0xbecfb5d7	-0.4056842
167	0x3e82c37b	0.25539765
168	0x3d847feb	0.06469711
169	0xbe56c07e	-0.20971867
170	0xbdd4c884	-0.10389808
171	0xbe976bb0	-0.29574347
172	0xbd7083f8	-0.058719605
173	0x3df4c02b	0.11950716
174	0x3e92f407	0.28701803
175	0x3dc913ea	0.098182514
176	0xbd9f6562	-0.07783009
177	0xbe9fa382	-0.31179434
178	0xbdd48c49	-0.1037832
179	0x3e33ea83	0.17569928
180	0xbe77581e	-0.24154708
181	0xbdd39f62	-0.10333134
182	0xbc5979c5	-0.013273661
183	0x3e69c73a	0.22829905
184	0x3e34d6a1	0.1766
185	0xbe730f8c	-0.237364
186	0xbdc34ee9	-0.09536535
187	0x3e906cb4	0.28207934
188	0xbec031ee	-0.37538093
189	0x3d72cbbb	0.059276324
190	0xbc829341	-0.015939357
191	0x3d028191	0.031861845
192	0xbe9d54b4	-0.30728686
193	0x3d9ab242	0.07553531
194	0xbe57ed9c	-0.21086735
195	0xbe1e922c	-0.15485448
196	0xbe866d30	-0.26255178
197	0xbe099857	-0.1343702
198	0xbc8f953f	-0.01752722
199	0x3e40f1a2	0.18842176
200	0x3e7f4ab4	0.2493084
201	0xbc88bc97	-0.01669149
202	0x3bce2d1e	0.0062919995
203	0x3c5bb8d0	0.013410762
204	0xbc42ca2b	-0.011889021
205	0xbca11197	-0.019661708
206	0x3e80919f	0.251111
207	0x3ca1484d	0.019687796
208	0xbde90197	-0.11377256
209	0xbeb1ae05	-0.3470308
210	0xbda26b25	-0.079305924
211	0xbd6857a5	-0.05672421
212	0xbe78180c	-0.24227923
213	0xbe14a263	-0.1451507
214	0xbe5e7161	-0.21722938
215	0x3d8de763	0.06928899
216	0x3dfd93b3	0.12381687
217	0xbe872fb6	-0.26403588
218	0x3dd278d9	0.10276956
219	0x3e42f454	0.19038516
220	0xbe9713e2	-0.29507357
221	0x3e7eb13e	0.248723
222	0xbe01ff51	-0.12695052
223	0x3e2d00fd	0.16894908
224	0xbc53668e	-0.012902869
225	0xbe4a6a98	-0.19767225
226	0xbeaf5614	-0.3424536
227	0x3c8005b2	0.015627716
228	0xbd94d4e9	-0.07267172
229	0xbdb0700b	-0.086151205
230	0xbd84eaee	-0.06490122
231	0x3ec8b0a8	0.39197278
232	0x3e93f0f9	0.28894785
233	0x3e3f8ce5	0.18706091
234	0xbe21aecb	-0.15789334
235	0xbdb0fb2e	-0.08641659
236	0xbdcafefe	-0.09911917
237	0x3dd6fd2b	0.10497507
238	0x3eb8f1aa	0.36121875
239	0x3e4c2188	0.19934666
240	0xbe4d31ba	-0.200385
241	0xbe449957	-0.1919912
242	0xbe9372cb	-0.28798518
243	0xbe2393ac	-0.15974301
244	0xbe1879f3	-0.1489027
245	0xbe028db1	-0.12749363
246	0xbe3a5507	-0.18196498
247	0xbde0198f	-0.10942375
248	0x3e63a4af	0.2223079
249	0xbe9f1e51	-0.31077817
250	0xbdfc2a08	-0.12312704
251	0x3e9331b9	0.28748873
252	0xbe283097	-0.16424786
253	0x3da897e7	0.08232098
254	0xbd976fd2	-0.07394375
255	0xbcbb017e	-0.02282786

lstm.weight_hh_l1 f4 [128, 32]
0	0x3de2887f	0.11061191
1	0x3e824327	0.25441858
2	0xbe1ca2fc	-0.15296549
3	0xbe2ffb14	-0.17185622
4	0x3c9370ab	0.01799806
5	0x3e84dbd8	0.25948977
6	0x3bd2ba34	0.0064308885
7	0x3eda8ae8	0.42684102
8	0x3d706ae5	0.058695693
9	0x3d7abe35	0.06121655
10	0xbe5e324c	-0.21698874
11	0x3dbb82f7	0.09155839
12	0xbd263931	-0.040581886
13	0x3e5ece69	0.21758427
14	0xbe0cd90f	-0.13754676
15	0x3e13d1de	0.14435527
16	0xbe1bf1cb	-0.15228955
17	0xbd8555e6	-0.065105245
18	0xbe0100a7	-0.12597905
19	0xbcdc2865	-0.02687473
20	0xbc84f514	-0.016230144
21	0x3d2a0513	0.041508745
22	0x3e41e821	0.18936206
23	0x3d44910b	0.047989886
24	0xbe1da60e	-0.15395376
25	0x3d213b16	0.03936299
26	0x3ca5a25a	0.020219017
27	0xbe5aea55	-0.21378453
28	0x3e32b9b8	0.17453659
29	0x3e6d0f1e	0.23150298
30	0x3dc16491	0.0944301
31	0x3dd712cb	0.10501631
32	0xbd8be37a	-0.06830497
33	0x3e61ad88	0.22038853
34	0x3c2e4b01	0.0106379995
35	0xbdd913c3	-0.105994724
36	0xbd54c586	-0.051946186
37	0x3d29cbd8	0.041454166
38	0x3deefe87	0.11669641
39	0x3e002177	0.12512766
40	0xbde3d9d0	-0.11125529
41	0xbd8f6c59	-0.070030876
42	0xbd83c014	-0.0643312
43	0x3e2ff4d2	0.17183235
44	0xbda9fc4a	-0.083000734
45	0x3d9b7814	0.075912625
46	0xbcd40a36	-0.025883775
47	0x3de32e55	0.110928215
48	0xbcbe49f8	-0.02322863
49	0xbca88351	-0.020570429
50	0x3d02a9d2	0.031900235
51	0x3e405be2	0.1878505
52	0xbdc661a3	-0.096865915
53	0x3e3de571	0.18544556
54	0xbe0cfc8a	-0.13768211
55	0x3e4623fb	0.19349663
56	0x3dfee91a	0.12446804
57	0xbd9849cd	-0.074359514
58	0xbd2854dc	-0.041096553
59	0x3e01a33b	0.12659924
60	0xbd22e344	-0.03976752
61	0x3e797a7b	0.24363129
62	0xbe08d514	-0.13362533
63	0x3d03b49a	0.032154657
64	0xbe6aa131	-0.22913052
65	0x3dfab714	0.12241951
66	0x3c2a251f	0.010384827
67	0xbdf0e175	-0.117617525
68	0xbdf7c6b6	-0.12098448
69	0x3e94e07a	0.29077512
70	0xbd290a5c	-0.041269645
71	0x3e5ffd65	0.21874006
72	0xbcba40e5	-0.022736022
73	0xbe2899b3	-0.16464882
74	0xbe93d86e	-0.2887606
75	0xbc795eb4	-0.015220333
76	0xbddf72cd	-0.109105684
77	0xbe3a3cb0	-0.18187213
78	0xbe670c4f	-0.22563289
79	0x3e5aaa23	0.21353965
80	0x3d8ad40f	0.06778728
81	0x3d16169f	0.036642667
82	0xbd988756	-0.07447688
83	0x3de7b62e	0.11314045
84	0x3cf9330a	0.030419845
85	0xbc11a8bf	-0.00889033
86	0xbc65e38f	-0.014031305
87	0xbdd06ade	-0.10176633
88	0x3c20a0b4	0.00980394
89	0xbe53ef27	-0.20696698
90	0x3e6e81bd	0.23291679
91	0xbe11717d	-0.14203449
92	0xbdcc0913	-0.09962668
93	0xbd056b86	-0.032573245
94	0x3e870847	0.26373503
95	0xbd17ab37	-0.037028518
96	0x3e186c5f	0.1488509
97	0xbe209794	-0.15682822
98	0xbd2b76df	-0.04186141
99	0xbdfc3030	-0.123138785
100	0xbcb194ae	-0.021677341
101	0xbdc21591	-0.0947677
102	0x3ccf9177	0.025337918
103	0xbe0fb435	-0.14033587
104	0x3e1fb6aa	0.15597025
105	0xbdc61586	-0.09672074
106	0xbdb9afa2	-0.090667024
107	0xbd7f5e01	-0.06234551
108	0x3e4f5e46	0.20250806
109	0x3e062d34	0.13103181
110	0xbe33a7fc	-0.1754455
111	0xbde76e6a	-0.11300357
112	0xbd7c278e	-0.06156116
113	0xbcfc6974	-0.030812003
114	0xbddc8598	-0.107676685
115	0xbd08bded	-0.033384252
116	0x3dc8be65	0.0980194
117	0x3ced05e1	0.028933467
118	0x3d880520	0.066416025
119	0x3d00d359	0.031451557
120	0xbd8c81b8	-0.068606794
121	0x3cb87a6c	0.022519313
122	0x3d8f04b2	0.069833174
123	0x3c6562ac	0.014000576
124	0x3e2e8044	0.17041117
125	0xbd37ff2a	-0.044921078
126	0xbdb71451	-0.08939422
127	0x3e16ea54	0.14737827
128	0x3d242bfe	0.040081017
129	0x3db1171c	0.08646986
130	0xbe2fabab	-0.1715533
131	0xbe38ae86	-0.18035325
132	0x3e01964f	0.12654994
133	0x3d16e01b	0.036834817
134	0xbdd3f7b7	-0.10349982
135	0x3e9aec16	0.30258244
136	0xbceedfb1	-0.029159399
137	0xba9bbe48	-0.001188227
138	0xbe0d4077	-0.13794123
139	0x3e4e6c40	0.20158482
140	0xbd1048fb	-0.03522585
141	0xbd6e92ef	-0.058245596
142	0xbdcb4ad3	-0.09926381
143	0x3e14894b	0.14505498
144	0xbdfd08a6	-0.12355165
145	0x3e135f8e	0.1439192
146	0xbc80b86e	-0.015712943
147	0xbe0dee69	-0.13860478
148	0xbdf31c74	-0.118706614
149	0xbe3b5d00	-0.18297195
150	0x3d8dcfa3	0.06924369
151	0xbd2d1fba	-0.042266585
152	0xbcac3e0d	-0.021025682
153	0x3df21da8	0.11822063
154	0x3e79d37b	0.2439708
155	0xbe3416b3	-0.17586784
156	0xbdbdffe3	-0.09277322
157	0x3d9716b4	0.07377377
158	0x3d8594e1	0.06522537
159	0x3e09ec11	0.13468958
160	0xbea4cc2b	-0.32187018
161	0xbc8aa522	-0.016924445
162	0xbe0b2bcd	-0.13590927
163	0xbe9cc431	-0.30618432
164	0xbe2bafe8	-0.16766322
165	0x3e057e9c	0.13036579
166	0x3d9621b9	0.07330651
167	0x3d9c13c8	0.076209605
168	0xbd008d39	-0.03138468
169	0xbdf70e4e	-0.12063275
170	0xbe8ddf7a	-0.27709562
171	0x3d9d2071	0.07672203
172	0x3c565383	0.013081434
173	0x3c38a928	0.011270799
174	0xbe8f0381	-0.2793236
175	0x3e870154	0.263682
176	0x3ceaa8f7	0.028645022
177	0xbe612322	-0.21986058
178	0xbd9a3ce2	-0.07531144
179	0xbe635f52	-0.2220433
180	0xbd0e028a	-0.03467039
181	0xbd4b08e6	-0.049569033
182	0x3a20b271	0.00061301055
183	0xbe93ce2a	-0.28868228
184	0xbda0b87d	-0.07847688
185	0xbde99dc0	-0.114070415
186	0x3eae8a62	0.34089953
187	0xbe2ff8f8	-0.17184818
188	0x3e8b99dd	0.27265826
189	0xbd272f2a	-0.040816464
190	0x3e97acd9	0.2962406
191	0x3de84769	0.113417454
192	0xbbbbf6a3	-0.0057361885
193	0x3ee05a8f	0.4381909
194	0x3dbfa57f	0.09357738
195	0xbe218091	-0.157717
196	0xbe0547aa	-0.13015619
197	0x3e04822d	0.12940283
198	0x3c7a16cb	0.015264223
199	0x3eda9f3c	0.4269961
200	0xbdef6e45	-0.11690954
201	0xbe062ec5	-0.13103779
202	0xbe8b1236	-0.2716233
203	0x3e4115b0	0.1885593
204	0x3cbb6726	0.022876333
205	0x3da55003	0.08071902
206	0xbc627bba	-0.013823444
207	0x3e4fa4de	0.20277736
208	0xbd91cb82	-0.07118894
209	0xbde764b0	-0.112985015
210	0xbe48c684	-0.19606978
211	0xbdfda2ad	-0.123845436
212	0xbde839fc	-0.11339185
213	0x3e1c3847	0.15255843
214	0x3e3a3f94	0.18188316
215	0xbe2b832f	-0.16749261
216	0xbe501c5f	-0.20323323
217	0xbe07d051	-0.1326306
218	0x3e1ad8c5	0.15121754
219	0xbe33b2b9	-0.17548646
220	0x3e3ed631	0.18636395
221	0x3e87f398	0.26553035
222	0xbd3af9fe	-0.045648567
223	0x3db7d12d	0.08975444
224	0xbcaa69c3	-0.020802384
225	0x3de07d9a	0.109614566
226	0x3d6f1c9f	0.058376905
227	0xbd80c249	-0.06287057
228	0x3e319f30	0.17345881
229	0x3df1cc22	0.11806513
230	0x3dde7caf	0.10863625
231	0x3daa03f3	0.083015345
232	0xbd8b1df7	-0.06792825
233	0x3cd207c4	0.025638469
234	0x3dcbc9e2	0.099506155
235	0x3dcd4b13	0.10024085
236	0x3de430db	0.11142131
237	0x3e302ca3	0.17204528
238	0xbc921c13	-0.017835652
239	0x3e23c1c7	0.15991889
240	0xbcf932ae	-0.030419674
241	0x3dcf54fc	0.10123631
242	0x3e03eceb	0.12883346
243	0x3de90a57	0.11378925
244	0xbdb2aa91	-0.08723939
245	0x3cc7bc00	0.024381638
246	0x3e395d21	0.18101932
247	0xbda71484	-0.0815821
248	0xbd0fab3a	-0.035075404
249	0x3d257b47	0.04040077
250	0x3d84e858	0.064896286
251	0x3de23191	0.1104461
252	0x3e22c6a4	0.15896088
253	0x3d265806	0.04061129
254	0x3e0f8aaa	0.1401774
255	0x3d86c139	0.06579823

lstm.bias_ih_l1 f4 [128]
0	0x3e8de940	0.27717018
1	0x3dbcf736	0.09226839
2	0x3e2d1b76	0.16905007
3	0x3e07c097	0.13257061
4	0x3e6ef164	0.2333427
5	0x3edd8a72	0.43269688
6	0x3d2ea693	0.042639326
7	0x3e975a54	0.29561102
8	0x3d8b76b5	0.06809751
9	0x3d24dba5	0.04024853
10	0x3cf48e59	0.029853033
11	0xbc1cef57	-0.009578547
12	0x3ebf7e2d	0.37400952
13	0x3e0318d2	0.12802437
14	0x3e5f3ec2	0.21801284
15	0x3d65fc76	0.05614897
16	0x3dcafdba	0.09911676
17	0x3de91ab2	0.11382045
18	0x3d574024	0.052551404
19	0x3e914b5b	0.28377804
20	0x3d9debcd	0.07710991
21	0x3e0602b0	0.13086963
22	0x3d1bd228	0.038042217
23	0xbd71be85	-0.059019584
24	0x3e92b3d7	0.28652832
25	0x3e8d55ae	0.2760443
26	0x3d2b8a6e	0.041880064
27	0x3e01f685	0.12691696
28	0x3e0dd400	0.13850403
29	0x3df6ba1c	0.12047216
30	0x3e109c6f	0.14122175
31	0x3dbeb661	0.0931213
32	0x3e02bc55	0.12767155
33	0x3b8fc2a6	0.0043872176
34	0x3b7cfd1d	0.0038603016
35	0xbe8a8e54	-0.27061713
36	0x3dc11ef1	0.0942973
37	0x3ddeaf55	0.10873286
38	0x3db5b205	0.08871845
39	0x3d7d16e8	0.061789423
40	0x3d9e961d	0.077434756
41	0xbe544e32	-0.20732954
42	0xbd962892	-0.07331957
43	0xbd851d2b	-0.06499704
44	0xbe553b67	-0.20823441
45	0x3e8cbb4b	0.27486643
46	0x3c8a201c	0.016861014
47	0x3d913efb	0.07092091
48	0x3e1046b9	0.14089479
49	0x3d822797	0.063552074
50	0x3e4361a7	0.1908022
51	0x3e4efb8a	0.20213142
52	0x3d922115	0.07135216
53	0x3e820203	0.2539216
54	0x3d347fe2	0.04406727
55	0x3dddc82a	0.10829194
56	0xbdbdb6d3	-0.092633866
57	0x3e0161ef	0.12635015
58	0xbd8150e3	-0.06314256
59	0x3e1eedf4	0.1552046
60	0x3e0614e6	0.1309391
61	0xbdb0c8c0	-0.0863204
62	0x3df34203	0.11877825
63	0x3b18db73	0.0023324161
64	0x3bb6e0f7	0.005581017
65	0xbd7d4309	-0.061831508
66	0xbe064efa	-0.13116065
67	0xbde63ca1	-0.11242033
68	0xbe6798b6	-0.22616848
69	0xbdd08df9	-0.10183329
70	0x3e0cb612	0.1374133
71	0x3dd28796	0.10279767
72	0x3dd13eb0	0.10217035
73	0x3d178554	0.036992386
74	0xbd64d877	-0.0558705
75	0x3d3e3702	0.04643918
76	0xbccdd371	-0.025125237
77	0x3d984c16	0.07436387
78	0xbe00f923	-0.12595038
79	0x3e620748	0.2207309
80	0x3dd90303	0.105962776
81	0xbda0be64	-0.07848814
82	0xbe245201	-0.16046907
83	0xbe16b135	-0.14716037
84	0x3dbf1e14	0.09331909
85	0xbe7b307e	-0.24530217
86	0x3e159a6d	0.1460969
87	0xbe2f84d5	-0.17140515
88	0x3d6b405f	0.057434436
89	0xbe4f34dc	-0.20235008
90	0x3e49db39	0.19712533
91	0x3e06e8c3	0.13174729
92	0x3e3d002c	0.18457097
93	0xbd0f94da	-0.035054065
94	0x3d81b696	0.06333654
95	0x3da73e8c	0.08166227
96	0x3e9d1364	0.30678856
97	0x3ea79dce	0.32737583
98	0x3eb172c8	0.34657884
99	0x3e987cef	0.29782817
100	0x3e2f0efa	0.17095557
101	0x3eb5e43e	0.35525697
102	0x3ea68bbd	0.32528487
103	0x3e48b943	0.19601922
104	0x3e9197a7	0.28436014
105	0x3e859264	0.2608825
106	0x3dc2a4f9	0.09504122
107	0x3eba1dc0	0.36350822
108	0x3ef32cfb	0.47495255
109	0x3e059dc2	0.13048461
110	0xbb9fa3bb	-0.004871813
111	0xbd0de2f4	-0.034640267
112	0x3d43d5c0	0.04781127
113	0x3d9222bc	0.07135531
114	0x3e2fde95	0.17174752
115	0x3ec76561	0.38944533
116	0x3e53fd84	0.20702177
117	0x3eaa745b	0.33291897
118	0x3ea3b4fa	0.31974012
119	0x3e2639b6	0.16232952
120	0x3e8212a7	0.25404856
121	0x3e825f78	0.25463462
122	0x3e823e72	0.25438267
123	0x3ea2d829	0.31805542
124	0x3dbdd8d2	0.09269871
125	0x3f0d0dd6	0.55099237
126	0x3ecf613e	0.40503877
127	0x3e8bc83f	0.27301213

lstm.bias_hh_l1 f4 [128]
0	0x3dd4735b	0.10373565
1	0x3e992c28	0.299165
2	0x3e5484fe	0.20753857
3	0x3e42ceed	0.19024248
4	0x3e1d5b50	0.15366864
5	0x3e6fb759	0.23409785
6	0x3dded804	0.108810455
7	0x3e3982ae	0.18116257
8	0x3e8cf143	0.27527818
9	0x3d193073	0.03739972
10	0x3e386ba0	0.18009806
11	0x3d943891	0.07237352
12	0x3dd57f32	0.10424651
13	0x3ce35ae9	0.02775331
14	0x3ea07e6e	0.31346458
15	0x3e8b52c1	0.27211574
16	0x3e21601e	0.15759322
17	0x3ea9299f	0.33039567
18	0x3cb72721	0.022357525
19	0x3d3c87ac	0.046027824
20	0x3e2f52c9	0.17121424
21	0x3c04cfde	0.0081062
22	0x3e754cdb	0.239551
23	0x3d664c9a	0.056225397
24	0x3daeaf9e	0.0852959
25	0x3e8cb6fa	0.2748335
26	0x3d9ff429	0.07810242
27	0x3e1db489	0.154009
28	0x3e4a5a48	0.19761002
29	0x3e252a5e	0.16129443
30	0x3d237399	0.039905164
31	0x3e027eb4	0.12743646
32	0x3e63dacc	0.22251433
33	0xbdf8d274	-0.12149516
34	0x3e8813ad	0.2657751
35	0xbdbb04d5	-0.09131781
36	0x3ccbb22c	0.024865232
37	0x3c2c2311	0.010506407
38	0xbd045267	-0.032305147
39	0x3e852fdc	0.26013076
40	0xbd4e9448	-0.05043438
41	0xbe4d163a	-0.2002801
42	0x3e2772b5	0.16352351
43	0xbc5e5a89	-0.01357139
44	0xbde050d4	-0.10952917
45	0x3e4a6bf5	0.19767745
46	0x3e92c75f	0.28667733
47	0x3e180d39	0.14848794
48	0xbd019a4e	-0.031641297
49	0x3e88891c	0.26667106
50	0x3c3d50a9	0.011554875
51	0x3d6487f9	0.055793736
52	0xbc685809	-0.0141811455
53	0x3df78e30	0.12087667
54	0x3e2c50be	0.16827676
55	0x3e8ddcce	0.27707523
56	0xbe636792	-0.22207478
57	0x3e2fcbe6	0.17167625
58	0xbd880095	-0.06640736
59	0xbd1b3d44	-0.037900224
60	0x3e04ffde	0.1298823
61	0x3e684ecb	0.22686307
62	0xbe59b8a6	-0.21261844
63	0x3e124dc5	0.14287479
64	0xbe6c7f34	-0.23095399
65	0x3da8f0c2	0.08249046
66	0xbc8736f7	-0.016505701
67	0xbda5ecf7	-0.08101838
68	0xbe2ec542	-0.17067435
69	0xbdd75681	-0.10514546
70	0x3e67f2e2	0.22651246
71	0x3da75598	0.081706226
72	0x3dc991bc	0.0984225
73	0xbc1fe5d0	-0.009759381
74	0xbe7afd81	-0.24510767
75	0xbdc20433	-0.09473457
76	0xbd929e05	-0.07159046
77	0xbe2b1c79	-0.1671008
78	0x3c210830	0.009828612
79	0x3cae6f6f	0.02129337
80	0x3e351172	0.17682436
81	0xbe6738a6	-0.22580203
82	0x3da8cc05	0.08242039
83	0x3d2e54e3	0.042561423
84	0x3cc3c782	0.023898844
85	0xbcef8fbe	-0.029243346
86	0x3dbced36	0.09224932
87	0xbd80e352	-0.06293358
88	0xbd83493d	-0.064104535
89	0xbe31b94e	-0.17355844
90	0x3d169560	0.03676355
91	0x3d2e03a6	0.04248395
92	0x3d34252c	0.043980762
93	0xbe82f682	-0.25578696
94	0x3e1f6ffe	0.15570065
95	0x3e586c12	0.21134976
96	0x3e58efbb	0.211852
97	0x3f0c3567	0.54768986
98	0x3dca0815	0.09864823
99	0x3e360119	0.17773856
100	0x3e2d750c	0.16939181
101	0x3ebff670	0.37492704
102	0x3e402f76	0.18768105
103	0x3e536ffb	0.20648186
104	0x3e1a1991	0.15048815
105	0x3e936dd1	0.2879472
106	0x3df8aa6b	0.1214188
107	0x3eb27a40	0.34858894
108	0x3e728860	0.23684835
109	0x3e9c1f2b	0.3049253
110	0x3be78a1d	0.007066025
111	0x3e66b716	0.22530779
112	0x3ec02138	0.37525344
113	0x3e87d8d8	0.26532626
114	0x3e7db60c	0.24776477
115	0x3e8bffd0	0.27343607
116	0x3ea2202f	0.3166518
117	0x3e93594f	0.28779075
118	0x3e5d305a	0.21600476
119	0x3e8f4a99	0.279866
120	0x3e86f91b	0.26361927
121	0x3e9294ac	0.28629053
122	0x3e797070	0.24359298
123	0x3e8eb3e7	0.2787163
124	0x3e594839	0.21218957
125	0x3f04e8af	0.51917547
126	0x3eae0654	0.33989203
127	0x3ec88f92	0.39172035

fc.weight f4 [3, 32]
0	0xbf78b4a5	-0.9715064
1	0xbf91cbbd	-1.1390301
2	0xbf8b37f0	-1.0876446
3	0xbf831811	-1.024172
4	0xbf8a1d1b	-1.0790132
5	0xbf78d9be	-0.9720725
6	0x3f843e0d	1.0331436
7	0xbf875c81	-1.0575105
8	0x3f64884e	0.89270484
9	0x3f8b4348	1.0879908
10	0xbf80bbf9	-1.0057365
11	0xbf73a25f	-0.95169634
12	0xbf90fd61	-1.1327325
13	0xbf88b222	-1.0679362
14	0xbf8648b7	-1.0490941
15	0x3f6d7d4a	0.927693
16	0x3f86120a	1.0474255
17	0xbf82473b	-1.0177988
18	0xbf800736	-1.0002201
19	0xbf8fc4b5	-1.1231905
20	0x3f8e4c12	1.1116965
21	0xbf7d6c87	-0.98993725
22	0x3f85211e	1.0400732
23	0xbf89704d	-1.0737396
24	0x3f80897e	1.0041959
25	0xbf5e1f8c	-0.86766887
26	0x3f8e9469	1.1139041
27	0x3f94c561	1.1622735
28	0x3f731e48	0.9496808
29	0xbf8181a7	-1.0117692
30	0x3f8fd23b	1.1236032
31	0x3f892e64	1.0717282
32	0xbf74c861	-0.95618254
33	0xbf9028b5	-1.1262423
34	0xbf6fb167	-0.9363007
35	0xbf78c043	-0.9716837
36	0xbf75e68e	-0.96054924
37	0xbf90eaac	-1.1321616
38	0x3f776878	0.9664378
39	0xbf88390e	-1.0642412
40	0x3f80906a	1.0044072
41	0x3f851af1	1.0398847
42	0xbf71029c	-0.94144607
43	0xbf85aaaa	-1.0442708
44	0xbf90cc3e	-1.131233
45	0xbf89deb5	-1.077109
46	0xbf81dfbd	-1.0146405
47	0x3f8932ea	1.0718663
48	0x3f6d360b	0.9266059
49	0xbf88074b	-1.0627226
50	0xbf8e2fc4	-1.1108327
51	0xbf90df36	-1.1318119
52	0x3f82f065	1.0229613
53	0xbf6d6dc8	-0.9274564
54	0x3f758225	0.9590171
55	0xbf88143e	-1.0631177
56	0x3f8922bd	1.0713726
57	0xbf815d9b	-1.0106691
58	0x3f91d2a0	1.1392403
59	0x3f8c86cb	1.0978636
60	0x3f94c4ba	1.1622536
61	0xbf8defc0	-1.1088791
62	0x3f8f80d4	1.121119
63	0x3f85720b	1.0425428
64	0xbf866444	-1.0499349
65	0xbf8815b5	-1.0631624
66	0xbf90fa85	-1.1326452
67	0xbf9261a3	-1.1436046
68	0xbf726788	-0.94689226
69	0xbf97b1f2	-1.185118
70	0x3f6dcb11	0.9288798
71	0xbf8ed761	-1.1159478
72	0x3f90d05c	1.1313586
73	0x3f81692b	1.011022
74	0xbf7f3fc7	-0.9970669
75	0xbf8d6823	-1.1047405
76	0xbf829e2a	-1.0204518
77	0xbf68a6c7	-0.9087948
78	0xbf802a98	-1.0012999
79	0x3f65f00f	0.89819425
80	0x3f8a2b42	1.0794451
81	0xbf806735	-1.0031496
82	0xbf8939c0	-1.0720749
83	0xbf8503cc	-1.0391784
84	0x3f80d2dd	1.006435
85	0xbf8671d9	-1.0503494
86	0x3f80602a	1.0029347
87	0xbf779327	-0.9670891
88	0x3f939146	1.1528709
89	0xbf7dbcd6	-0.99116266
90	0x3f73e58c	0.95272136
91	0x3f8f2aaf	1.1184901
92	0x3f922946	1.1418846
93	0xbf8387a2	-1.0275767
94	0x3f79434f	0.9736833
95	0x3f8c39c8	1.0955133

fc.bias f4 [3]
0	0x3f883592	1.0641348
1	0x3f6c5e50	0.9233141
2	0x3f7a88d6	0.97865045
