models/wind_kph_lstm_model.pth (torch, 79008 bytes, 10 tensors)

lstm.weight_ih_l0 f4 [128, 46]
0.03404958 -0.010886682 -0.14041355 -0.094020866 0.08017038 -0.14933516 0.17592303 -0.051298924
-0.049555123 -0.26814455 -0.1290707 0.21272574 -0.1708041 -0.19956623 -0.09204357 0.0400166
-0.3386065 -0.30253187 -0.06880003 0.1943239 0.17672691 0.06978087 0.21405527 0.4652253
0.2637103 0.09304968 -0.196654 -0.19640307 -0.033901297 0.011773064 0.56595206 0.11964224
0.28190494 -0.028271094 -0.036780614 -0.41454637 -0.13480447 0.15755187 0.100915566 -0.030269712
-0.019881772 0.10844018 0.09411452 -0.022753099 0.085574344 0.19561107 0.034540612 -0.15788214
0.06283109 -0.006106742 -0.2778117 -0.18051288 0.3567351 0.6189991 -0.031059686 -0.26713645
-0.13738959 0.25949103 -0.0040650233 -0.14567809 -0.18317266 -0.2862554 -0.02719528 0.015648436
-0.029141085 0.051810108 0.24324891 -0.1495905 -0.18766673 -0.38738626 0.014116609 -0.029635983
0.12631766 0.2798864 -0.109193094 -0.16133636 -0.12479064 0.38882202 0.25284478 0.08741238
0.0232581 0.0987191 0.084038466 -0.060900684 0.35934818 -0.2027062 0.12094175 -0.009284843
0.17053528 0.21563861 0.2396932 -0.1566804 -0.007241863 -0.026908398 -0.09102361 -0.21496296
-0.006236175 -0.08765366 0.02863604 -0.08191988 -0.46174732 0.35256678 0.13523595 0.0076023946
0.21916431 -0.009534387 -0.15800431 0.086792976 0.06271103 0.2472723 0.26956752 0.08878419
0.22398074 0.14112364 0.34249663 -0.041188072 0.14837703 -0.3531143 -0.01528305 0.16953202
-0.20379542 0.37943345 0.1481566 0.060059525 -0.134225 0.43629065 0.16995147 -0.015622189
-0.09152687 0.17096633 0.028720612 0.2117379 0.21592674 0.041052975 0.3027436 -0.04387028
0.16560468 0.11511951 -0.14886779 -0.19340701 0.14549994 -0.22823516 -0.09882441 -0.19421718
-0.03864114 0.26424783 -0.018904997 -0.12446587 0.25033078 0.13248238 -0.21854144 -0.40270868
-0.15049823 0.10595321 -0.1787447 -0.115911074 -0.34953037 -0.3617037 0.20857833 -0.118675314
0.24038091 -0.0641372 -0.10477221 -0.17528294 0.12570447 0.20095618 0.38470966 0.15514018
-0.08080189 -0.24237064 -0.25491992 0.05957731 -0.13906041 0.14097084 -0.096860446 -0.19242035
0.008632694 0.066587344 -0.39973822 0.2591064 0.22410029 -0.2065488 0.27001077 -0.15837473
0.013819782 0.03399674 0.185262 0.017563866 -0.14557554 0.14278893 0.028901467 0.14659747
-0.02175596 -0.032854144 -0.18866286 0.3108345 0.15356731 0.14367028 0.09676521 0.031264212
-0.23170055 0.033936977 0.20529926 0.27904502 0.068553634 -0.0069643483 0.089600414 -0.112666294
0.087265715 -0.04722234 0.0044275196 0.06776731 0.25677538 0.13768588 0.08113264 0.48617202
0.1373398 -0.0933703 -0.053563703 0.10924666 -0.1300654 -0.06254869 -0.08882258 -0.1619119
-0.14400564 -0.318777 -0.20924096 0.117595986 0.13519977 0.2791898 -0.06874358 0.20338672
-0.10197675 0.0843404 0.36757073 0.10879162 0.037987623 0.15314142 0.0307941 0.098176315
-0.020332804 -0.023961268 0.1252115 -0.06395487 -0.21209374 -0.15356265 0.11423219 0.024507178
-0.26249745 -0.09126268 0.32568973 0.057446618 -0.10683807 0.044790097 -0.063687555 -0.27052736
00000000: 9377 0b3d 0e5e 32bc 92c8 0fbe 038e c0bd
00000010: 5e30 a43d 51eb 18be 2b25 343e d21e 52bd
00000020: 50fa 4abd 3e4a 89be 1c2b 04be c7d4 593e
00000030: 45e7 2ebe 175b 4cbe 5781 bcbd 72e8 233d
00000040: d55d adbe 75e5 9abe 08e7 8cbd d8fc 463e
00000050: e6f7 343e 46e9 8e3d 4e31 5b3e 0332 ee3e
00000060: 0905 873e d590 be3d ab5f 49be e31d 49be
00000070: 16dc 0abd cfe3 403c 3ce2 103f fe06 f53d
00000080: d855 903e c898 e7bc 45a7 16bd 6c3f d4be
00000090: 2f0a 0abe 4755 213e d2ac ce3d 30f8 f7bc
000000a0: 19df a2bc e315 de3d 1dbf c03d b564 babc
000000b0: 9a41 af3d 454e 483e 757a 0d3d dbab 21be
000000c0: 96ad 803d 111b c8bb 563d 8ebe 5ed8 38be
000000d0: fca5 b63e ba76 1e3f e270 febc 1cc6 88be
000000e0: dbaf 0cbe 02dc 843e e333 85bb a32c 15be
000000f0: 9d91 3bbe 1190 92be a3c8 debc 2631 803c
00000100: 49b9 eebc d636 543d 3e16 793e 412e 19be
00000110: b52b 40be 7e57 c6be 5949 673c 29c7 f2bc
00000120: 6b59 013e 454d 8f3e a1a0 dfbd 5c35 25be
00000130: 3c92 ffbd ae13 c73e df74 813e 4305 b33d
00000140: c587 be3c 3d2d ca3d 5c1c ac3d ff72 79bd
00000150: 7cfc b73e 3792 4fbe 4fb0 f73d 741f 18bc
00000160: cda0 2e3e 5ed0 5c3e 2272 753e d470 20be
00000170: 264d edbb 006f dcbc 966a babd 401f 5cbe
00000180: d458 ccbb c383 b3bd 2196 ea3c 9cc5 a7bd
00000190: 256a ecbe a283 b43e 4b7b 0a3e 821d f93b
000001a0: 9c6c 603e 1e36 1cbc e2cb 21be 84c0 b13d
000001b0: a46e 803d f334 7d3e c104 8a3e 7cd4 b53d
000001c0: 355b 653e b782 103e b85b af3e d3b4 28bd
000001d0: 26f0 173e 66cb b4be c265 7abc cd99 2d3e
000001e0: bfaf 50be 1a45 c23e 5db6 173e fa00 763d
000001f0: 4772 09be 7d61 df3e c207 2e3e 36f4 7fbc
00000200: 7172 bbbd cc11 2f3e 7d47 eb3c d2d1 583e
00000210: e61b 5d3e 2a27 283d 3601 9b3e 53b1 33bd
00000220: 4694 293e c7c3 eb3d cc70 18be 7d0c 46be
00000230: f0fd 143e 7ab6 69be 7464 cabd dee0 46be
00000240: 2c46 1ebd 7e4b 873e a7de 9abc f6e7 febd
00000250: 5b2b 803e 76a9 073e 54c9 5fbe d52f cebe
00000260: 351c 1abe fffd d83d da08 37be c962 edbd
00000270: a5f5 b2be 3a31 b9be 8f95 553e 0b0c f3bd
00000280: 6a26 763e 5d5a 83bd d092 d6bd 5f7d 33be
00000290: acb8 003e 75c7 4d3e aaf8 c43e 11dd 1e3e
000002a0: 767b a5bd 0230 78be dd84 82be 5607 743d
000002b0: da65 0ebe a95a 103e c55e c6bd d709 45be
000002c0: 2570 0d3c f25e 883d 7daa ccbe 98a9 843e
000002d0: 8c7a 653e 8781 53be da3e 8a3e fc2c 22be
000002e0: 5e6c 623c 2a40 0b3d 52b5 3d3e 19e2 8f3c
000002f0: c111 15be 4337 123e c5c2 ec3c a61d 163e
00000300: 8e39 b2bc 1192 06bd d630 41be b325 9f3e
00000310: c040 1d3e 4d1e 133e d72c c63d e70e 003d
00000320: e942 6dbe 8001 0b3d f839 523e fdde 8e3e
00000330: d965 8c3d 3035 e4bb 6c80 b73d 96bd e6bd
00000340: 5eb8 b23d 366c 41bd ba14 913b 96c9 8a3d
00000350: 1078 833e 87fd 0c3e df28 a63d 8aeb f83e
00000360: cea2 0c3e ee38 bfbd 9d65 5bbd b6bc df3d
00000370: dd2f 05be 8719 80bd 9de8 b5bd 3ccc 25be
00000380: 3776 13be bd36 a3be 4343 56be 2ad6 f03d
00000390: cf71 0a3e f7f1 8e3e 6fc9 8cbd 9c44 503e
000003a0: 30d9 d0bd a9ba ac3d 3b32 bc3e 24ce de3d
000003b0: e998 1b3d 1bd1 1c3e e943 fc3c aa10 c93d
000003c0: fb90 a6bc 6c4a c4bc 7237 003e c5fa 82bd
000003d0: 1a2f 59be 873f 1dbe 91f2 e93d 47c3 c83c
000003e0: 1166 86be eee7 babd cec0 a63e 254d 6b3d
000003f0: ebcd dabd d275 373d 9f6e 82bd 9082 8abe

lstm.weight_hh_l0 f4 [128, 32]
0.25384566 0.147111 0.040008545 0.45579007 -0.20720519 -0.27737603 -0.029286496 -0.11238283
0.16162273 0.4779141 -0.43793976 0.28395683 0.12607296 -0.025389047 -0.64515376 -0.13900375
-0.18257211 0.004457921 -0.13177785 0.15156958 -0.101084515 0.008253004 -0.32170245 -0.08446758
0.4347058 0.0136731295 0.047191773 0.47540054 -0.10234602 -0.06256335 0.38950348 0.06042436
-0.15897115 0.14826557 -0.22019531 0.3059165 -0.3267201 -0.13428095 -0.09099921 -0.1321716
0.2750334 -0.09589746 -0.15011473 0.035403095 0.03809989 -0.14763163 0.060719863 -0.17488207
-0.11870707 -0.090741634 -0.09209016 -0.0079616215 0.0744675 0.28484988 -0.02531566 -0.16687898
-0.027987435 0.076062635 -0.27662182 0.094676994 -0.08907858 -0.42462292 0.15241279 -0.11291892
-0.12821822 -0.12368342 -0.1679217 0.10934049 -0.28067404 -0.22721958 -0.13143912 -0.43477315
-0.15797713 0.13541472 -0.34606743 0.12754452 -0.02208713 0.412061 -0.024667462 0.062158965
-0.09522892 -0.08653148 0.027087826 0.44115555 -0.1624297 -0.091989554 -0.15657823 0.064828016
0.02688023 0.07493984 0.11007825 0.07554793 -0.14487611 -0.06418183 0.10943953 -0.10029781
-0.070259064 0.12714683 0.22039033 -0.10615748 0.04144395 0.18243867 0.044075806 -0.02617097
-0.015895158 -0.2375955 -0.116235875 0.40828586 0.0038556857 0.16776617 -0.3541079 -0.12400883
-0.028601741 0.19319904 -0.05358175 -0.2934263 -0.15900584 -0.07621602 -0.10397447 -0.041003283
0.106332146 0.06743142 0.010560361 0.17083032 0.13747954 -0.10365363 0.47544447 -0.36857757
-0.14688835 0.16359097 -0.10214196 0.18240055 -0.17285821 -0.159204 0.16295442 -0.1785153
0.11211896 -0.09342379 -0.27075574 0.23354734 -0.15849872 -0.030311473 -0.35925803 -0.26370034
-0.19300577 -0.27413306 -0.38891983 0.12463947 0.48092356 -0.13104631 0.039058544 0.08138829
0.17132798 0.20032506 -0.21537876 0.31405348 -0.22564898 -0.16360864 0.25910252 -0.09350832
-0.20465757 0.0411393 -0.34141207 0.16891532 -0.16868086 0.10652003 0.124572374 -0.13938494
0.018173099 -0.13909087 0.27909568 0.29892245 0.56877714 -0.020953186 -0.33403057 0.23028126
0.116193175 -0.35653704 -0.43210554 -0.12774779 0.082373306 -0.1296547 -0.3024375 -0.2544356
0.11478853 -0.12615521 -0.07847628 0.23759824 -0.15262222 -0.24432287 0.5116816 0.31647438
-0.013947815 -0.03740165 -0.008313907 0.48202065 -0.26572537 -0.30084565 -0.2906671 -0.013383531
0.025080118 -0.15949327 -0.08267296 -0.02458269 -0.16875659 -0.20330055 -0.07553921 -0.25553307
-0.048267372 -0.21525863 -0.20436674 0.14886597 0.35965323 0.18121342 0.11904829 -0.052351117
-0.10628954 0.10757354 -0.46902552 -0.12560035 -0.11192544 -0.036223173 0.08580237 -0.17217703
-0.18917184 0.09941303 -0.0836171 -0.0051884903 -0.045237657 0.023552801 0.092723146 0.047882784
0.04367819 -0.15749216 -0.134229 0.1589447 0.09888974 0.2685138 0.073642746 -0.14126682
-0.20024961 -0.2969905 -0.1424426 -0.055164993 0.1417903 -0.24319893 -0.102413096 0.029332466
0.010457323 0.22894023 -0.17006499 -0.084470026 -0.24830255 -0.10092871 -0.1991023 0.12903792
00000000: 0ff8 813e 44a4 163e 00e0 233d 515d e93e
00000010: 992d 54be 3b04 8ebe 3cea efbc f828 e6bd
00000020: 6e80 253e 28b1 f43e a439 e0be ca62 913e
00000030: 4519 013e b1fc cfbc cc28 25bf 0057 0ebe
00000040: 2ff4 3abe c013 923b c6f0 06be 0e35 1b3e
00000050: 6605 cfbd 9c37 073c 2fb6 a4be 57fd acbd
00000060: c291 de3e 4305 603c 294c 413d b367 f33e
00000070: ca9a d1bd 3721 80bd 006d c73e 897f 773d
00000080: 55c9 22be eed2 173e e17a 61be 16a1 9c3e
00000090: db47 a7be f280 09be cb5d babd fe57 07be
000000a0: 2ed1 8c3e e365 c4bd adb7 19be d602 113d
000000b0: a10e 1c3d bf2c 17be 64b5 783d 4914 33be
000000c0: b11c f3bd c0d6 b9bd c499 bcbd 7671 02bc
000000d0: 6b82 983d d8d7 913e c962 cfbc 53e2 2abe
000000e0: e845 e5bc bac6 9b3d 60a1 8dbe 03e6 c13d
000000f0: d56e b6bd 2d68 d9be 1912 1c3e 0942 e7bd
00000100: a34b 03be bc4d fdbd abf3 2bbe e8ed df3d
00000110: 82b4 8fbe 40ac 68be fa97 06be 969a debe
00000120: c2c4 21be 28aa 0a3e c02f b1be 089b 023e
00000130: 12f0 b4bc a9f9 d23e 6b13 cabc 669a 7e3d
00000140: 6107 c3bd 6b37 b1bd 4ae7 dd3c 24df e13e
00000150: f953 26be 0565 bcbd 0b56 20be 8dc4 843d
00000160: ee33 dc3c 0f7a 993d b570 e13d e0b8 9a3d
00000170: 675a 14be c371 83bd d521 e03d f068 cdbd
00000180: fce3 8fbd c732 023e 01ae 613e 1869 d9bd
00000190: 22c1 293d 34d1 3a3e d588 343d 8164 d6bc
000001a0: 9036 82bc 3c4c 73be 130d eebd d80a d13e
000001b0: acaf 7c3b e5ca 2b3e a14d b5be 57f8 fdbd
000001c0: 334e eabc f8d5 453e 8978 5bbd f93b 96be
000001d0: 6dd2 22be 2517 9cbd 91f0 d4bd 0ff3 27bd
000001e0: abc4 d93d 7c19 8a3d 5d05 2d3c 25ee 2e3e
000001f0: 70c7 0c3e 5b48 d4bd 756d f33e 33b6 bcbe
00000200: e669 16be 6484 273e ce2f d1bd 36c7 3a3e
00000210: be01 31be 6006 23be 86dd 263e b7cc 36be
00000220: a09e e53d f954 bfbd 7fa0 8abe 0927 6f3e
00000230: 7d4d 22be c44f f8bc abf0 b7be bb03 87be
00000240: 4ea3 45be 2b5b 8cbe 8020 c7be fa42 ff3d
00000250: 9d3b f63e 0131 06be dafb 1f3d e7ae a63d
00000260: 9a70 2f3e 0322 4d3e 408c 5cbe 9ecb a03e
00000270: 8710 67be 0689 27be 16a9 843e 4a81 bfbd
00000280: c191 51be af81 283d 90cd aebe 23f8 2c3e
00000290: adba 2cbe 2c27 da3d cd1f ff3d edba 0ebe
000002a0: c0df 943c d66d 0ebe a1e5 8e3e 5d0c 993e
000002b0: 619b 113f 04a6 abbc 0e06 abbe dace 6b3e
000002c0: b0f6 ed3d 068c b6be f03c ddbe 51d0 02be
000002d0: 56b3 a83d 34c4 04be 17d9 9abe 6245 82be
000002e0: 4016 eb3d d52e 01be 2cb8 a0bd f44c 733e
000002f0: 0049 1cbe c62f 7abe 91fd 023f ee08 a23e
00000300: 6085 64bc 7932 19bd 0e37 08bc 69cb f63e
00000310: 280d 88be 7108 9abe 51d2 94be 9946 5bbc
00000320: d274 cd3c 3452 23be 7150 a9bd a361 c9bc
00000330: 87ce 2cbe 052e 50be 4db4 9abd 3bd5 82be
00000340: 02b4 45bd c26c 5cbe 8445 51be 5270 183e
00000350: 7824 b83e 0390 393e 97cf f33d 206e 56bd
00000360: 55ae d9bd 844f dc3d 1d24 f0be 619d 00be
00000370: 2a39 e5bd c05e 14bd 27b9 af3d 2d4f 30be
00000380: 43b6 41be 0f99 cb3d 713f abbd 3604 aabb
00000390: 1f4b 39bd cef1 c03c a2e5 bd3d bd20 443d
000003a0: e7e7 323d a045 21be 5473 09be 66c2 223e
000003b0: b486 ca3d a47a 893e 02d2 963d 40a8 10be
000003c0: 3c0e 4dbe 240f 98be 79dc 11be b0f4 61bd
000003d0: 7a31 113e 2409 79be f5bd d1bd a44a f03c
000003e0: 3155 2b3c 4f6f 6a3e 8425 2ebe 9ffe acbd
000003f0: 0643 7ebe b6b3 cebd 79e1 4bbe 8422 043e

lstm.bias_ih_l0 f4 [128]
0.019615108 0.04843092 0.06509374 -0.0602512 -0.048253246 -0.0651235 0.0077453204 -0.02160537
0.022751557 0.17797486 -0.10280005 0.09914149 -0.059834186 0.2044969 0.044498786 0.07658555
0.15358625 0.1565668 -0.26009718 0.04224009 -0.21759191 -0.14228263 -0.079597645 0.2244178
-0.0052449047 -0.103282884 0.09029551 0.089355804 0.011940918 0.096513465 0.12125134 0.12723663
0.31321406 0.17707896 0.26055464 0.038190022 0.2384703 0.28888646 -0.009798521 0.05394794
-0.0019174704 0.08071881 0.04260245 0.10846714 -0.06863765 0.13943692 0.061271224 -0.030418456
0.26107746 0.071945325 -0.14165287 -0.07118496 0.16840823 -0.0691141 0.18567494 0.16159531
0.0890971 0.068386704 -0.08775962 0.120692134 0.06744474 0.20686282 -0.07746257 0.01574137
-0.054399956 0.11819304 -0.04429665 -0.1928305 -0.1427974 -0.08565678 0.14793062 -0.072219215
-0.09190608 -0.013730069 0.070370734 0.08246882 -0.13289422 0.09000008 -0.04654522 -0.12203738
-0.10634872 -0.10772121 0.046975527 0.17742686 0.039247327 -0.07942567 0.104998946 0.18828633
-0.059218522 -0.033350833 -0.06576721 0.04738091 -0.06389007 -0.064528264 -0.10032622 -0.22744733
-0.03900757 0.0070661283 0.027641729 -0.13898697 0.14817354 -0.0911926 -0.1007969 0.0991737
0.07067646 0.1779887 0.1544254 -0.10230616 0.12373842 -0.06420881 0.019716319 -0.12335614
0.13758144 -0.115962535 -0.03551796 0.21328725 -0.079875536 0.29496762 -0.0484928 0.1738284
-0.00804818 -0.111299925 0.1013092 -0.038018875 -0.09650219 0.27010185 -0.059254266 -0.15478042
00000000: ddaf a03c 805f 463d de4f 853d f6c9 76bd
00000010: 32a5 45bd 785f 85bd 75cc fd3b bffd b0bc
00000020: 7961 ba3c 0b3f 363e d588 d2bd b20a cb3d
00000030: b114 75bd a367 513e 5c44 363d e3d8 9c3d
00000040: b745 1d3e 0c53 203e 752b 85be f203 2d3d
00000050: 6ad0 5ebe 8ab2 11be 1704 a3bd c8cd 653e
00000060: 73dd abbb fa85 d3bd daec b83d 2d00 b73d
00000070: d7a3 433c daa8 c53d 9f52 f83d 524a 023e
00000080: 985d a03e 3054 353e 6b67 853e 246d 1c3d
00000090: 8f31 743e ede8 933e fa89 20bc 84f8 5c3d
000000a0: a153 fbba e74f a53d e87f 2e3d 0524 de3d
000000b0: e591 8cbd 8dc8 0e3e 89f7 7a3d 2030 f9bc
000000c0: f2ab 853e 1258 933d 730d 11be 6cc9 91bd
000000d0: 3573 2c3e b18b 8dbd 9221 3e3e 3e79 253e
000000e0: 8a78 b63d 540e 8c3d 51bb b3bd 702d f73d
000000f0: 7820 8a3d d9d3 533e b2a4 9ebd 0cf4 803c
00000100: 7dd2 5ebd 310f f23d 6770 35bd 5c75 45be
00000110: 7b39 12be d26c afbd 207b 173e abe7 93bd
00000120: 4139 bcbd 15f4 60bc 881e 903d 6ae5 a83d
00000130: 6c15 08be f651 b83d 33a6 3ebd bcee f9bd
00000140: 5ccd d9bd f09c dcbd 6969 403d 63af 353e
00000150: cec1 203d eda9 a2bd b009 d73d 22ce 403e
00000160: 1f8f 72bd e29a 08bd f6b0 86bd 7c12 423d
00000170: ccd8 82bd 6527 84bd d577 cdbd f4e7 68be
00000180: 67c6 1fbd fb8a e73b e870 e23c 9a52 0ebe
00000190: ceba 173e 30c3 babd 9b6e cebd 951b cb3d
000001a0: d2be 903d ab42 363e b121 1e3e e485 d1bd
000001b0: 926a fd3d e97f 83bd 1e84 a13c 25a2 fcbd
000001c0: 26e2 0c3e c47d edbd 487b 11bd f967 5a3e
000001d0: c995 a3bd ff05 973e 63a0 46bd 1200 323e
000001e0: 83dc 03bc 37f1 e3bd 337b cf3d aeb9 1bbd
000001f0: f1a2 c5bd ca4a 8a3e 9ab4 72bd c27e 1ebe

lstm.bias_hh_l0 f4 [128]
0.059321906 0.1044494 0.21017429 -0.22957052 -0.12483776 -0.16121475 0.057280082 -0.06656036
0.096587785 0.22256713 -0.11118489 -0.009752335 -0.109620124 0.09990701 0.31480518 -0.1523406
0.18198864 0.16972294 0.044238023 0.11491686 0.076447465 0.17509815 -0.08775947 0.032266118
0.037693914 0.08457488 0.038205653 0.0866996 0.15474056 0.3850882 0.093144946 0.06886859
0.12485227 0.17055747 0.08566156 0.07044469 0.13949873 -0.026068142 0.26309627 -0.14234975
0.25466454 0.14683855 0.2147437 0.14380227 0.13370512 -0.017110128 0.1865202 -0.02034209
0.17127131 0.19795026 -0.0758773 0.2087173 -0.10183065 0.13788076 -0.08690821 0.13202056
-0.059025772 0.04053498 -0.04770472 -0.007263502 0.23444109 0.2480103 0.17742354 -0.106519036
-0.181416 -0.15241311 -0.026354367 0.14568645 -0.08543993 -0.06991659 -0.15346497 -0.24663189
0.15799807 0.039048918 -0.17128365 0.09891489 -0.103308074 0.022301361 0.018906584 0.010893572
-0.1729371 -0.07127383 -0.13697599 0.21217741 0.062294763 0.05440361 0.16380967 -0.089339666
0.17638727 0.079408616 0.06986635 0.12539952 0.035690695 -0.12831849 0.059963305 -0.0641876
-0.040421043 0.05741694 0.057127766 -0.12680556 -0.036011487 0.1511412 0.033808284 0.05405327
0.055987306 0.016141823 0.17519103 0.22947806 -0.051910724 0.12172539 0.016991768 -0.06882789
-0.10400878 0.17583421 0.09568913 0.22283842 -0.06508187 0.28927037 0.1394127 0.08471852
0.16552866 0.10052129 0.15052485 0.091655195 -0.0064741476 0.23224081 0.0949324 0.00066025945
00000000: 87fb 723d 91e9 d53d ee37 573e 8914 6bbe
00000010: f1aa ffbd 7b15 25be 859e 6a3d cc50 88bd
00000020: d1cf c53d a3e8 633e e7b4 e3bd 42c8 1fbc
00000030: 8480 e0bd 0c9c cc3d 252e a13e 2dff 1bbe
00000040: 3b5b 3a3e dacb 2d3e ee32 353d 8859 eb3d
00000050: 7d90 9c3d ee4c 333e 3dbb b3bd 7a29 043d
00000060: ef64 1a3d 9835 ad3d 887d 1c3d 8f8f b13d
00000070: 4f74 1e3e 482a c53e c7c2 be3d fa0a 8d3d
00000080: 8cb2 ff3d 9ea6 2e3e 546f af3d 4e45 903d
00000090: c1d8 0e3e db8c d5bc 8eb4 863e 22c4 11be
000000a0: 6463 823e d85c 163e c6e5 5b3e e740 133e
000000b0: ffe9 083e 8a2a 8cbc 27ff 3e3e 74a4 a6bc
000000c0: bf61 2f3e 79b3 4a3e 8f65 9bbd fdb9 553e
000000d0: 968c d0bd 9d30 0d3e eefc b1bd 6630 073e
000000e0: 02c5 71bd 0208 263d 0666 43bd ac02 eebb
000000f0: 5311 703e 69f6 7d3e 84ae 353e a726 dabd
00000100: 1ec5 39be 2f12 1cbe 1de5 d7bc d42e 153e
00000110: 21fb aebd 6e30 8fbd ec25 1dbe 128d 7cbe
00000120: 3fca 213e c2f1 1f3d fb64 2fbe e493 ca3d
00000130: 2f93 d3bd 58b1 b63c fbe1 9a3c f47a 323c
00000140: 6c16 31be 04f8 91bd 6f43 0cbe 0945 593e
00000150: cb28 7f3d 52d6 5e3d b9bd 273e b7f7 b6bd
00000160: dd9e 343e fca0 a23d 1716 8f3d bb68 003e
00000170: 6830 123d ec65 03be 159c 753d ca74 83bd
00000180: 8990 25bd 062e 6b3d cefe 693d 51d9 01be
00000190: c880 13bd c2c4 1a3e 8e7a 0a3d f666 5d3d
000001a0: f252 653d db3b 843c 4765 333e 4cfc 6a3e
000001b0: 57a0 54bd 294b f93d 5232 8b3c a3f5 8cbd
000001c0: 8e02 d5bd e20d 343e aaf8 c33d c12f 643e
000001d0: a549 85bd 3f1b 943e 34c2 0e3e e780 ad3d
000001e0: 5880 293e 1bde cd3d 3023 1a3e b8b5 bb3d
000001f0: 1625 d4bb 89d0 6d3e eb6b c23d 4315 2d3a

lstm.weight_ih_l1 f4 [128, 32]
0.10064648 0.12628563 -0.13167252 0.13927701 0.10296521 -0.06587806 0.08284366 -0.1689945
0.078181684 -0.033037066 0.119347 -0.099055685 -0.076407254 -0.0192425 -0.023028843 -0.23777935
-0.10647541 0.14788164 -0.024634618 0.26121783 -0.11362988 -0.06444648 0.20960607 -0.080751106
-0.09718807 0.09735761 -0.13971186 0.15234871 -0.24610986 0.025623608 0.07704722 -0.24512137
0.10185099 -0.049453374 -0.17532223 0.29917848 -0.22338706 -0.12707415 0.23783472 -0.27006188
0.03989841 0.15866165 -0.17892699 0.11558772 0.007415593 -0.093932934 -0.08264746 -0.22242257
0.111187674 0.07229073 -0.05262604 0.049970217 0.27568206 0.05306459 -0.037036143 0.04716783
0.028783288 -0.07437025 -0.043041352 0.19056356 0.023749914 -0.12684722 -0.0060066185 0.064864114
-0.09027957 0.42513767 -0.2631131 0.34611303 -0.34953436 -0.14207837 0.036281724 -0.3344408
0.26515976 0.1081425 -0.15252797 0.043263495 0.23398852 0.08244773 -0.17681944 0.04470481
-0.28594607 -0.13189416 -0.27886635 -0.15957788 0.2803272 -0.044752512 -0.2299657 -0.042602442
0.192365 0.011380624 -0.25008237 -0.06582545 -0.23399931 -0.14197697 0.033558495 -0.26038662
-0.15311447 0.3039017 -0.12612425 0.0712901 -0.18952702 -0.21455963 -0.010476896 -0.3186681
-0.026616 0.2737257 -0.31706366 0.07452241 0.18225172 0.091380365 -0.027547166 0.045715235
-0.09324655 0.037874836 -0.17501971 0.02074848 0.059648745 -0.15373379 -0.29040748 0.25293672
0.1801165 -0.059325572 0.030211369 -0.032137107 -0.049018767 -0.14566578 0.048701167 -0.15829955
-0.11611286 -0.03163731 0.024106469 0.1652409 0.023672683 -0.063209765 0.12123635 0.115435734
0.23933491 0.27968645 -0.03345341 0.17256221 -4.31834e-05 0.09289108 -0.10947894 -0.11385021
0.114166476 -0.120423876 0.10931984 -0.021086631 0.01168211 -0.16012615 0.11679697 0.098030694
0.15615177 0.00018000646 0.039248783 0.07607339 0.01934125 -0.08148052 0.1470743 0.16311866
-0.15869747 0.047602423 0.07959655 -0.0017063266 -0.021935059 -0.07257616 -0.004946705 -0.086940065
0.2332305 -0.017459435 -0.33672488 -0.038306426 -0.030471707 0.117946714 -0.03393102 0.010006058
-0.26563743 -9.669769e-05 0.0014685098 0.025024792 0.041981198 -0.13497847 -0.01432623 -0.03688512
-4.4261426e-05 0.22523329 -0.102694005 0.048382767 -0.25020847 -0.0025436997 0.050933287 0.02302176
-0.07088728 0.18310745 -0.19977313 0.30946094 0.024391016 -0.05083383 0.23479669 -0.19282196
-0.090394326 -0.10373098 0.065841645 0.3334746 0.15663287 0.14398102 -0.36808947 -0.011358739
-0.06253046 -0.09136637 -0.032927807 -0.06926591 -0.03875447 0.06825458 -0.15103701 -0.109308295
0.27792907 0.03498011 -0.29252204 0.027381692 -0.033322755 -0.18255506 0.2510277 -0.06659559
-0.14932896 0.093843214 -0.2581417 0.26513132 -0.26029226 -0.1519685 0.22140998 -0.1595879
0.0042300653 0.21503866 0.2148308 0.028655175 -0.14818235 0.27670354 -0.120737314 -0.07317112
-0.0047018602 0.0006735224 -0.052557196 0.23964456 -0.09110248 0.06855595 -0.16059136 0.14279939
0.0791886 0.16785245 -0.16481541 0.12152113 -0.23809929 0.11024872 0.10520977 -0.07521758
00000000: be1f ce3d 0551 013e 29d5 06be a29e 0e3e
00000010: 6ddf d23d 14eb 86bd f0a9 a93d e50c 2dbe
00000020: b81d a03d e051 07bd 336c f43d b5dd cabd
00000030: 687b 9cbd 73a2 9dbc fca6 bcbc 6e7c 73be
00000040: c80f dabd 496e 173e 8ace c9bc 58be 853e
00000050: c8b6 e8bd 84fc 83bd f9a2 563e d660 a5bd
00000060: 8a0a c7bd 6d63 c73d a010 0fbe 4d01 1c3e
00000070: 3904 7cbe 9ae8 d13c efca 9d3d 1901 7bbe
00000080: 4097 d03d 9f8f 4abd ac87 33be ec2d 993e
00000090: 94bf 64be ba1f 02be f28a 733e 8d45 8abe
000000a0: 846c 233d 3378 223e a338 37be 41b9 ec3d
000000b0: 81fe f23b e95f c0bd 1243 a9bd bec2 63be
000000c0: 5db6 e33d 2a0d 943d 678e 57bd 92ad 4c3d
000000d0: 3326 8d3e 415a 593d 36b3 17bd 0e33 413d
000000e0: eeca eb3c 6e4f 98bd 214c 30bd 1823 433e
000000f0: 2e8f c23c 3de4 01be 2bd3 c4bb 7ad7 843d
00000100: 7fe4 b8bd a5ab d93e c3b6 86be ba35 b13e
00000110: 2bf6 b2be fe7c 11be 259c 143d d33b abbe
00000120: 05c3 873e d179 dd3d 4b30 1cbe 1035 313d
00000130: b09a 6f3e 5bda a83d 2810 35be 641c 373d
00000140: 8667 92be 430f 07be 92c7 8ebe 6268 23be
00000150: 0c87 8f3e 694e 37bd 217c 6bbe e67f 2ebd
00000160: 55fb 443e cc75 3a3c cc0a 80be 7ecf 86bd
00000170: 849d 6fbe 6962 11be a274 093d 6551 85be
00000180: 0aca 1cbe 0199 9b3e b726 01be 8b00 923d
00000190: 5f13 42be 85b5 5bbe 49a7 2bbc 7728 a3be
000001a0: cc09 dabc c625 8c3e 2b56 a2be 359f 983d
000001b0: 32a0 3a3e a125 bb3d 98aa e1bc e63f 3b3d
000001c0: 0cf8 bebd a522 1b3d 5e38 33be b7f8 a93c
000001d0: 3e52 743d 646c 1dbe 4ab0 94be ec80 813e
000001e0: 7670 383e 5fff 72bd d57d f73c 33a2 03bd
000001f0: e7c7 48bd 6929 15be e07a 473d 4719 22be
00000200: 94cc edbd 2096 01bd ee7a c53c e934 293e
00000210: 37ed c13c 1f74 81bd c34a f83d 9269 ec3d
00000220: 3614 753e 1033 8f3e 7106 09bd 26b4 303e
00000230: d31f 35b8 ae3d be3d 7f36 e0bd 4d2a e9bd
00000240: 1dd0 e93d cba0 f6bd 15e3 df3d dfbd acbc
00000250: 5266 3f3c 1cf8 23be 4033 ef3d 51c4 c83d
00000260: 40e6 1f3e 1ec0 3c39 55c3 203d 5ecc 9b3d
00000270: 8b71 9e3c 42df a6bd a59a 163e 9408 273e
00000280: 9781 22be c2fa 423d 8403 a33d d2a6 dfba
00000290: 27b1 b3bc cfa2 94bd f817 a2bb a20d b2bd
000002a0: fad3 6e3e 1707 8fbc 3467 acbe 33e7 1cbd
000002b0: cd9f f9bc 0c8e f13d 41fb 0abd 73f0 233c
000002c0: a101 88be 2dca cab8 037b c03a cb00 cd3c
000002d0: 7af4 2b3d cc37 0abe 90b8 6abc da14 17bd
000002e0: 58a5 39b8 8ea3 663e 3c51 d2bd 022d 463d
000002f0: 531b 80be 33b4 26bb 6c9f 503d 2198 bc3c
00000300: 5a2d 91bd 8580 3b3e 5491 4cbe aa71 9e3e
00000310: abcf c73c 2237 50bd 8b6e 703e 1f73 45be
00000320: a920 b9bd e870 d4bd fcd7 863d 2fbd aa3e
00000330: 5e64 203e c36f 133e 3976 bcbe 011a 3abc
00000340: f80f 80bd 4b1e bbbd 4fdf 06bd 49db 8dbd
00000350: 02bd 1ebd 0fc9 8b3d 72a9 1abe 07dd dfbd
00000360: b84c 8e3e 4e47 0f3d 73c5 95be 924f e03c
00000370: 717d 08bd b7ef 3abe b486 803e 4563 88bd
00000380: b1e9 18be df30 c03d 262b 84be 4bbf 873e
00000390: 0745 85be a19d 1bbe 4cb9 623e 036b 23be
000003a0: 5c9c 8a3b 1833 5c3e 9bfc 5b3e 42be ea3c
000003b0: 1dbd 17be 16ac 8d3e 2045 f7bd bdda 95bd
000003c0: 1012 9abb 538f 303a 3746 57bd 6265 753e
000003d0: f093 babd 1067 8c3d 1072 24be 013a 123e
000003e0: a22d a23d 83e1 2b3e 5fc5 28be 12e0 f83d
000003f0: 4dd0 73be 15ca e13d 3878 d73d ad0b 9abd

lstm.weight_hh_l1 f4 [128, 32]
0.02322679 0.0027288464 -0.06482217 -0.042201713 0.12666205 0.064018 -0.01120956 -0.2212288
-0.15006196 0.13462201 0.06526008 0.0039251763 -0.23817831 -0.0074762865 -0.22897114 0.016812464
0.10958743 0.11596368 -0.19161142 0.17157257 0.02068619 -0.1831781 -0.17897922 -0.094039425
0.1532154 -0.08803311 0.076242775 -0.30115432 -0.021359302 0.2535342 -0.1345145 0.19558153
0.21289052 -0.08858681 -0.016146218 0.006702735 0.12247074 0.04526229 0.1649694 0.07637815
-0.1786145 -0.011258374 -0.038016003 -0.028319456 -0.13819695 -0.102008946 0.003182964 -0.13860714
0.16572346 0.107503675 0.12093109 -0.005305991 0.0030419624 -0.06707306 -0.018305827 -0.064064674
-0.023799898 -0.18527815 -0.120995484 0.045994066 0.11915023 0.07772029 0.13751876 0.125221
-0.058679942 0.13939817 -0.0005676002 0.052188832 -0.074861504 0.042710017 0.05756366 -0.035824727
-0.084821515 0.10484904 0.014446983 0.12270463 0.051519014 0.05199075 0.105003186 -0.0017805361
0.13423418 -0.19799665 -0.032999296 0.159676 0.0030752844 -0.059875004 0.06724644 0.16585833
0.0067493627 0.048042364 -0.11216227 0.022585876 -0.10706822 -0.048420396 -0.050159864 0.16420513
0.17678711 -0.05715567 0.09019559 0.13991557 0.19834939 0.17273787 0.145323 -0.18088703
0.023003958 -0.098641306 -0.14347939 0.11798068 0.06877144 -0.09705958 -0.011482696 0.10382977
-0.10031908 -0.12611946 0.09726648 -0.09217248 -0.09671618 0.1212825 0.10040081 0.13979076
-0.13171512 0.1387805 -0.046678174 -0.058786985 -0.08033598 0.100566775 -0.09390279 0.10793306
0.03219262 -0.06940315 -0.18111262 -0.110824704 0.18090767 0.0009849868 -0.02305565 0.10350868
-0.20644906 0.068001695 -0.0169049 -0.04621977 -0.2539825 -0.075760454 -0.014618518 -0.20774053
0.06835984 0.18801355 0.016505424 0.16753697 0.14096801 0.064816035 -0.14099193 0.10322475
0.09154856 -0.10566883 0.21172698 -0.1347034 0.018259881 0.18448439 -0.0008588647 0.1804734
-0.0457964 -0.20252518 -0.0011164637 -0.074261345 0.10974042 0.083986096 0.15520503 -0.018898083
0.09539922 -0.08171729 -0.20160982 -0.17220794 -0.011039678 0.14151117 -0.1578749 0.106644675
0.092479415 0.10314116 -0.09566768 0.113625795 0.17514843 -0.048512828 -0.045312677 0.0685794
0.059546232 0.08423281 0.22034393 0.07128948 -0.04669566 0.20110717 0.10478526 0.07965179
0.009123291 0.08524692 -0.025256297 -0.060309123 -0.08213099 -0.085808545 0.22935057 -0.2008539
-0.12515591 0.020563176 -0.06461348 -0.027332874 -0.21952446 -0.034261193 0.0969839 -0.06759611
0.02290096 0.15041298 0.31531745 0.018420048 0.032646954 0.01953369 0.10731853 0.13532944
0.0025322768 -0.11554362 -0.08535376 -0.1718127 0.018017594 0.016306376 0.24362554 0.028675964
-0.04283112 -0.018647304 -0.16590773 0.0067091407 -0.06211493 0.069803424 0.01486463 -0.19423477
-0.03280711 -0.24041475 0.065411285 0.12668262 -0.09991561 0.122682914 -0.1082875 -0.13243677
0.081761695 0.079069145 -0.2240738 -0.12143139 0.12028178 -0.053477164 0.10089854 -0.034933954
0.060280345 -0.1264754 0.06757594 0.073572695 0.04332351 0.11292416 -0.12696335 -0.07160147
00000000: 1c46 be3c 72d6 323b 7cc1 84bd b4db 2cbd
00000010: b2b3 013e df1b 833d 4da8 37bc cd89 62be
00000020: d8a9 19be 5ada 093e 14a7 853d c49e 803b
00000030: 04e5 73be a3fb f4bb 6977 6abe 4bba 893c
00000040: 606f e03d 5e7e ed3d c935 44be b8b0 2f3e
00000050: 1676 a93c 0a93 3bbe 5446 37be be97 c0bd
00000060: 7fe4 1c3e b44a b4bd 2c25 9c3d e630 9abe
00000070: b4f9 aebc 3ccf 813e 2bbe 09be 8646 483e
00000080: f9ff 593e 006d b5bd 1345 84bc 9ea2 db3b
00000090: f0d1 fa3d f364 393d bded 283e 266c 9c3d
000000a0: b8e6 36be 0b75 38bc abb6 1bbd 34fe e7bc
000000b0: 8083 0dbe 11ea d0bd 4699 503b 08ef 0dbe
000000c0: 69b3 293e e32a dc3d b8aa f73d e1dd adbb
000000d0: a95b 473b 9a5d 89bd 1af6 95bc 5734 83bd
000000e0: 01f8 c2bc 8eb9 3dbe 7bcc f7bd 4664 3c3d
000000f0: 0905 f43d d12b 9f3d b8d1 0c3e ef39 003e
00000100: 615a 70bd 65be 0e3e 01cb 14ba f5c3 553d
00000110: fd50 99bd b3f0 2e3d dfc7 6b3d f3bc 12bd
00000120: e7b6 adbd 18bb d63d 0ab3 6c3c 914c fb3d
00000130: 9a05 533d 41f4 543d e90b d73d e160 e9ba
00000140: af74 093e a2bf 4abe 452a 07bd 1b82 233e
00000150: b68a 493b 7e3f 75bd 80b8 893d c4d6 293e
00000160: c229 dd3b 12c8 443d 55b5 e5bd 0406 b93c
00000170: 9546 dbbd 7754 46bd 6e74 4dbd 6425 283e
00000180: ae07 353e 101c 6abd 77b8 b83d 0746 0f3e
00000190: 1a1c 4b3e 32e2 303e 8dcf 143e 733a 39be
000001a0: cc72 bc3c 7404 cabd 43ec 12be db9f f13d
000001b0: 0ad8 8c3d 2cc7 c6bd eb21 3cbc b4a4 d43d
000001c0: 1774 cdbd 7625 01be a633 c73d edc4 bcbd
000001d0: 2213 c6bd f662 f83d f19e cd3d 4f25 0f3e
000001e0: 54e0 06be 7a1c 0e3e 9d31 3fbd 9fca 70bd
000001f0: 3187 a4bd f4f5 cd3d 1b50 c0bd 020c dd3d
00000200: 69dc 033d 3d23 8ebd 9675 39be 10f8 e2bd
00000210: dc3f 393e ac1a 813a 34df bcbc 5cfc d33d
00000220: 6267 53be 7944 8b3d 257c 8abc f150 3dbd
00000230: ff09 82be 4c28 9bbd 8282 6fbc efb9 54be
00000240: 3e00 8c3d a086 403e 6236 873c d08e 2b3e
00000250: eb59 103e 45be 843d 3060 10be 7f67 d33d
00000260: d07d bb3d e668 d8bd f5ce 583e b0ef 09be
00000270: bf95 953c 7ae9 3c3e 6f25 61ba 05ce 383e
00000280: 0295 3bbd c362 4fbe 4e56 92ba 5516 98bd
00000290: 96bf e03d e700 ac3d 11ee 1e3e 27d0 9abc
000002a0: ab60 c33d 655b a7bd ce72 4ebe 4757 30be
000002b0: c4df 34bc 4ee8 103e f5a9 21be 8668 da3d
000002c0: d965 bd3d ac3b d33d 6bed c3bd a4b4 e83d
000002d0: 1c5a 333e 63b5 46bd c999 39bd 5b73 8c3d
000002e0: c0e6 733d 4082 ac3d d7a1 613e 3800 923d
000002f0: f343 3fbd 0aef 4d3e a899 d63d 7a20 a33d
00000300: db79 153c f095 ae3d 4be6 cebc b306 77bd
00000310: 4b34 a8bd 64bc afbd e0da 6a3e a5ac 4dbe
00000320: df28 00be 1b74 a83c 1254 84bd 31e9 dfbc
00000330: 05cb 60be 7755 0cbd 7f9f c63d d46f 8abd
00000340: cb9a bb3c dc05 1a3e 4a71 a13e a4e5 963c
00000350: d0b8 053d 1e05 a03c d1c9 db3d cd93 0a3e
00000360: 8ef4 253b 22a2 ecbd f4cd aebd abef 2fbe
00000370: a299 933c f394 853c f978 793e dbe9 ea3c
00000380: af6f 2fbd 3bc2 98bc b7e3 29be 5ad8 db3b
00000390: 3a6c 7ebd 19f5 8e3d c78a 733c 7be5 46be
000003a0: c060 06bd 492f 76be 5af6 853d 17b9 013e
000003b0: 8ea0 ccbd 2e41 fb3d d6c5 ddbd 819d 07be
000003c0: ad72 a73d 01ef a13d 9a73 65be 05b1 f8bd
000003d0: 4b56 f63d df0a 5bbd e5a3 ce3d e816 0fbd
000003e0: 86e8 763d c482 01be 4165 8a3d 48ad 963d
000003f0: fe73 313d c844 e73d ae02 02be cba3 92bd

lstm.bias_ih_l1 f4 [128]
0.2756642 0.118494146 0.020382313 0.21377933 -0.045947958 0.011038505 0.08578426 0.230536
0.11811481 0.17650478 -0.008553251 0.20973942 -0.0966735 0.10701531 0.22778946 0.11902237
0.20201439 0.09084291 0.10527362 -0.09187094 0.056206446 0.11342406 0.15195416 0.0011678122
0.018938165 -0.12995797 0.11761529 0.179512 0.04375844 0.18014085 -0.041444853 0.11304867
0.20729281 0.110038385 0.017840933 -0.10064402 0.21389666 0.0026709975 0.04915948 0.080541626
0.09194955 -0.09180828 -0.14900891 0.17746796 0.15994217 0.092538185 -0.028401937 0.023468468
0.09797423 0.19283104 -0.01266661 0.039646972 -0.11967411 0.07624509 -0.088982135 -0.10950425
0.065707155 -0.13317345 -0.059587117 0.2359894 0.29227507 0.15976848 -0.11204906 0.07519759
0.26246223 -0.12208423 0.09454643 -0.08376012 0.2578951 -0.033409614 0.08752167 -0.17533186
-0.25143057 -0.0342679 -0.07213526 -0.12793028 -0.17845277 0.25388587 -0.2007266 -0.11317455
0.22737549 0.20796056 -0.1392824 0.19988035 0.15730491 -0.25026864 -0.19777869 0.12712702
0.14927882 -0.23131852 -0.01454854 -0.088797666 0.105726995 0.17063376 0.107350715 0.06119294
-0.034750838 0.15271907 0.19519235 -0.12903191 0.005822167 0.16154762 -0.23127474 0.11654354
-0.0049319468 -0.25557855 0.047125172 0.11323607 0.05716752 -0.083231226 0.14146563 -0.12691402
-0.12892303 -0.0022098746 -0.028837627 0.065627925 0.12625892 -0.1486382 0.07381827 0.053963013
-0.14946756 -0.13272254 0.17914495 0.0977089 -0.1369946 -0.07655125 -0.068914376 0.0018733164
00000000: dc23 8d3e 0fad f23d cff8 a63c f8e8 5a3e
00000010: ed33 3cbd d8da 343c a8af af3d a111 6c3e
00000020: 2de6 f13d abbd 343e ef22 0cbc eec5 563e
00000030: c2fc c5bd d82a db3d a441 693e 00c2 f33d
00000040: dcdc 4e3e d90b ba3d b299 d73d d526 bcbd
00000050: bb38 663d e04a e83d df99 1b3e 4611 993a
00000060: 3624 9b3c b413 05be 49e0 f03d fed1 373e
00000070: 0d3c 333d d876 383e 14c2 29bd 1086 e73d
00000080: 9144 543e ce5b e13d 2627 923c 741e cebd
00000090: ba07 5b3e e70b 2f3b 735b 493d 02f3 a43d
000000a0: 0c50 bc3d fb05 bcbd cb95 18be 29ba 353e
000000b0: e1c7 233e a984 bd3d 2eab e8bc f240 c03c
000000c0: b7a6 c83d 8075 453e 9d87 4fbc dd64 223d
000000d0: b317 f5bd 6326 9c3d 443c b6bd c443 e0bd
000000e0: 7991 863d 9f5e 08be 9f11 74bd 35a7 713e
000000f0: 14a5 953e 599a 233e fa79 e5bd 3201 9a3d
00000100: 7361 863e 4c07 fabd 8fa1 c13d 6d8a abbd
00000110: d40a 843e 85d8 08bd 903e b33d 328a 33be
00000120: 82bb 80be 7f5c 0cbd a7bb 93bd 2800 03be
00000130: 53bc 36be 54fd 813e 468b 4dbe 0fc8 e7bd
00000140: 1fd5 683e 9df3 543e 0ca0 0ebe 6fad 4c3e
00000150: 8a14 213e 3623 80be 7f86 4abe 962d 023e
00000160: 8cdc 183e c3de 6cbe 005d 6ebc 8ddb b5bd
00000170: 6587 d83d 9eba 2e3e b1da db3d 73a5 7a3d
00000180: e556 0ebd 6362 1c3e 81e0 473e f120 04be
00000190: e0c7 be3b bd6c 253e 49d3 6cbe 61ae ee3d
000001a0: 2b9c a1bb 31db 82be 5306 413d 50e8 e73d
000001b0: 7d28 6a3d 2275 aabd 5edc 103e c0f5 01be
000001c0: 6604 04be 8bd3 10bb e33c ecbc ef67 863d
000001d0: 054a 013e 9d34 18be 082e 973d 5208 5d3d
000001e0: 060e 19be 6be8 07be c671 373e 9b1b c83d
000001f0: 5048 0cbe e7c6 9cbd fb22 8dbd 118a f53a

lstm.bias_hh_l1 f4 [128]
0.0766437 0.05697966 -0.04438947 0.16138327 0.03146335 -0.044874918 0.07651408 0.10854836
-0.07512123 -0.16840066 0.117530234 -0.04762513 -0.008192756 0.20307077 0.28808615 -0.021259036
0.08852781 0.13903561 0.14872003 0.1272586 0.23721027 -0.007548637 0.05304661 0.19463816
-0.03288478 -0.13685364 0.09538394 -0.022523755 0.0003611163 0.20285866 0.11688173 0.16470042
0.24878457 -0.13582668 0.028385095 0.07767454 0.23467539 -0.15469655 -0.16225472 -0.07831119
-0.022459595 -0.18792196 -0.07304304 0.1598119 0.12744173 -0.095246576 0.24369289 0.17243084
0.051812317 -0.05130727 -0.14113314 0.2701156 0.12669143 -0.0488602 0.1291384 -0.1337432
-0.123588435 0.08041034 -0.032678794 0.31058472 0.12616336 -0.12267785 -0.06894224 0.042005718
0.22966897 -0.13561481 -0.14021845 -0.025563534 0.27335748 0.23070946 -0.071163714 -0.14742884
-0.18635765 0.032523923 -0.07155929 -0.14459471 -0.005771346 0.23371537 -0.10698027 -0.14345744
0.23240264 0.13365889 0.0026794341 0.10876937 0.052015822 -0.1901572 -0.013944421 0.03193425
-0.08009432 -0.25507706 0.2920839 -0.24469136 0.088180296 0.061528504 -0.1255682 0.1767658
0.21015397 0.037383784 -0.027088346 -0.105177894 -0.07162011 0.08924084 -0.10535703 -0.06955355
-0.089514054 -0.07049474 0.14565217 0.12986286 0.10046165 0.10725288 -0.111083634 -0.123485945
0.16300346 0.14352542 -0.016582942 -0.043645572 0.08044586 -0.07813382 -0.07701506 -0.12634496
-0.08941077 0.027755035 -0.0327559 -0.049600843 0.020566097 -0.12524453 0.03712318 0.0056382734
00000000: 5ff7 9c3d 8163 693d bcd1 35bd a841 253e
00000010: b7df 003d c3ce 37bd 6ab3 9c3d 9a4e de3d
00000020: 29d9 99bd 3971 2cbe b1b3 f03d 9112 43bd
00000030: e93a 06bc c9f1 4f3e 0780 933e 6e27 aebc
00000040: 124e b53d 5a5f 0e3e 104a 183e 1450 023e
00000050: 40e7 723e 8f5a f7bb 6747 593d 3a4f 473e
00000060: 31b2 06bd 5c23 0cbe a858 c33d bd83 b8bc
00000070: 3654 bd39 2eba 4f3e b05f ef3d 3aa7 283e
00000080: 62c1 7e3e 2616 0bbe dc87 e83c d413 9f3d
00000090: bf4e 703e c668 1ebe 1a26 26be 9e61 a0bd
000000a0: 2ffd b7bc 9d6e 40be 9797 95bd bba5 233e
000000b0: 1680 023e a310 c3bd a18a 793e b691 303e
000000c0: 2739 543d 9227 52bd 3585 10be 984c 8a3e
000000d0: 66bb 013e a221 48bd db3c 043e faf3 08be
000000e0: ef1b fdbd 2dae a43d 33da 05bd f604 9f3e
000000f0: f830 013e 863e fbbd 9731 8dbd 300e 2c3d
00000100: 582e 6b3e 9cde 0abe 6d95 0fbe 9e6a d1bc
00000110: 83f5 8b3e 1a3f 6c3e 48be 91bd 96f7 16be
00000120: 8ad4 3ebe ce37 053d ad8d 92bd a310 14be
00000130: 8f1d bdbb 1553 6f3e 7918 dbbd 82e6 12be
00000140: f5fa 6d3e e0dd 083e 7299 2f3b 7ac2 de3d
00000150: 8b0e 553d 92b8 42be 2477 64bc 7dcd 023d
00000160: 7e08 a4bd 7699 82be 058c 953e 5f90 7abe
00000170: df97 b43d 5005 7c3d f394 00be 1802 353e
00000180: 9a32 573e bd1f 193d 61e8 ddbc 8267 d7bd
00000190: 90ad 92bd e7c3 b63d 6dc5 d7bd 1772 8ebd
000001a0: 2553 b7bd 8c5f 90bd d825 153e c5fa 043e
000001b0: d6be cd3d 66a7 db3d d17f e3bd 33e6 fcbd
000001c0: 61ea 263e 54f8 123e f3d8 87bc b3c5 32bd
000001d0: cdc0 a43d a004 a0bd 12ba 9dbd 9360 01be
000001e0: fe1c b7bd 875e e33c 0d2b 06bd 412a 4bbd
000001f0: 3b7a a83c 1a40 00be 7a0e 183d 44c1 b83b

fc.weight f4 [3, 32]
0.695973 -0.76785594 -0.82720274 -0.8449549 0.75415266 0.77138186 0.7917113 -0.73609436
-0.5696817 0.84024984 -0.75154746 -0.7683772 -0.8520785 0.6431638 -0.71077436 -0.58440167
0.59037113 0.667042 0.8586334 0.81226534 0.83709615 -0.59929675 -0.72243917 0.82828057
0.7047684 -0.71552616 0.6323979 -0.7147425 0.7899951 0.615499 0.86374307 0.7138395
0.73309416 -0.81078833 -0.6566394 -0.7235805 0.664454 0.7394417 0.8130792 -0.76702815
-0.833408 0.83035195 -0.65423876 -0.6563071 -0.7244079 0.7388953 -0.75134295 -0.85045695
0.7121595 0.7691544 0.62488943 0.75789464 0.81795365 -0.7327312 -0.7354609 0.8190359
0.81369764 -0.6502247 0.8553997 -0.6899016 0.7861396 0.78951234 0.739784 0.6041664
0.7524601 -0.8275774 -0.82318777 -0.69969743 0.64396095 0.62018114 0.6892395 -0.6123168
-0.8285005 0.758144 -0.7405881 -0.71397835 -0.7393236 0.77026 -0.59367704 -0.7726952
0.78153276 0.7002039 0.75064075 0.73301184 0.59169716 -0.8551711 -0.74990517 0.8046297
0.79428023 -0.77213424 0.7037665 -0.6951445 0.5783856 0.8004441 0.67698 0.83239454
00000000: 492b 323f 3592 44bf 8fc3 53bf f74e 58bf
00000010: 2610 413f 4879 453f 97ad 4a3f ae70 3cbf
00000020: a9d6 11bf 9d1a 573f 6a65 40bf 5eb4 44bf
00000030: d121 5abf 62a6 243f 4ff5 35bf 599b 15bf
00000040: 9022 173f 44c3 2a3f 66cf 5b3f 9ff0 4f3f
00000050: ef4b 563f 836b 19bf c6f1 38bf 320a 543f
00000060: b46b 343f b92c 37bf d4e4 213f 5df9 36bf
00000070: 1e3d 4a3f 5891 1d3f 441e 5d3f 2fbe 363f
00000080: 0fac 3b3f d38f 4fbf 8519 28bf 923c 39bf
00000090: a819 2a3f 0d4c 3d3f f525 503f f55b 44bf
000000a0: 3a5a 55bf f291 543f 317c 27bf be03 28bf
000000b0: cc72 39bf 3e28 3d3f 0358 40bf 8cb7 59bf
000000c0: 1650 363f 4ee7 443f c1f8 1f3f 6205 423f
000000d0: 6965 513f 4694 3bbf 2a47 3cbf 56ac 513f
000000e0: 7d4e 503f 2075 26bf 7afb 5a3f 649d 30bf
000000f0: 7240 493f 7b1d 4a3f 7c62 3d3f a6aa 1a3f
00000100: 3aa1 403f 1ddc 53bf 6fbc 52bf 5f1f 33bf
00000110: a0da 243f 31c4 1e3f 0072 303f cbc0 1cbf
00000120: 9c18 54bf ba15 423f 2f97 3dbf 49c7 36bf
00000130: 5044 3dbf c22f 453f 38fb 17bf 5acf 45bf
00000140: 8812 483f 9040 333f fe29 403f aaa6 3b3f
00000150: 7779 173f 7eec 5abf c9f9 3fbf 36fc 4d3f
00000160: f355 4b3f 97aa 45bf 0b2a 343f fdf4 31bf
00000170: 1411 143f e8e9 4c3f 904e 2d3f cf17 553f

fc.bias f4 [3]
0.53235906 0.38813847 0.61229473
00000000: af48 083f 16ba c63e 59bf 1c3f
