models/wind_kph_model.pth (torch, 78938 bytes, 10 tensors)

lstm.weight_ih_l0 f4 [128, 46]
00000000: d15f a7be b8b3 2b3e 6988 9ebe cbd5 7dbe
00000010: 9fda 1ebd a254 e73c 2e5b cfbe 75ec f3bd
00000020: a852 8cbe e5f5 3dbe f0bd c5bd 3e1f 813e
00000030: 24fd 243c 8f3b ddbd 96fb 463d 609d 27be
00000040: ee68 aebd 77a1 b73e 6df9 933e 4519 513e
00000050: a565 b63d 30b7 f03c fef3 223e 2f1d c13e
00000060: bdc7 f13d 57c0 edbd df93 913e eea2 2abe
00000070: d526 9f3e 8591 453e a266 5abe 14d9 683e
00000080: 2b84 8bbd f4da fb3d 2cd4 94bd 5beb 1f3e
00000090: b9eb a6b9 0aa0 8fbd 2b21 ed3d 007d 19be
000000a0: a837 673e 2bab 6ebe 9630 433d 0265 babd
000000b0: b6ba 2cbe 8a40 303e 893f 14be bad9 c3bd
000000c0: 271f 12be 263d 32bc de95 f7bd d3a8 1bbe
000000d0: 8581 84be f7a9 e5bd 7c5e 83be 2288 2a3e
000000e0: 7c36 b4bd cfd5 62bd 2452 1abe e319 54bd
000000f0: 2fea 08be 689f 9ebe bcdc 80be 01a8 8c3e
00000100: 94e6 54be 0c93 88be f161 eb3d 8a5f a2bd
00000110: cdb9 a53e da3f a63e 9b44 083e 0faf 7a3e
00000120: 3a9b a0bd 8f3a c63d 3e1e 183e 7626 0c3c
00000130: bfd0 aabd 6222 7e3c fbfd 98be a217 67be
00000140: 075d 56be 5b1f cebd 0a8b 373e e234 573d
00000150: a09c 98bd 6e37 293e 2609 863e 4a36 d93d
00000160: d92a 68be 63b6 cd3d db60 c4bc caa3 a63c
00000170: d53c d43d b1af 7dbe dd67 67bd 3b67 a5bc
00000180: 8773 243c 55b6 a83c cf47 d3bd 8a50 3fbe
00000190: 177b 873e 51c9 463c f0a4 90bc 13b2 88bd
000001a0: 7df3 ab3d 004b 3abe 488b 28be 23cd 30be
000001b0: ebaa 89be 4700 c43d 522a 8b3e 2d17 033e
000001c0: 6d9a c63d d50c c73d b62c 1abe 8f20 8d3e
000001d0: 74e6 4bbc 2e7b 4cbe b741 cd3d 552f c43d
000001e0: ee07 4639 56a2 b83d 809d 3b3e 55f0 563d
000001f0: 63d5 b8bd 0184 7f3e 5924 8abe bff1 4fbe
00000200: a51b 83bc 8e4c 953e 4882 d8bd fcbb 863e
00000210: f30a 4d3e 5f48 f63d bf16 4fbd 1ac4 953e
00000220: 26b3 043e 8951 9abe 068f 01be 6f90 703c
00000230: 2470 fabd a8b9 a7bd 41a5 0abe 26cf 1c3e
00000240: 7efc 04be 1837 f5bd c6e3 bf3d ef02 c33e
00000250: 4949 5cbd a79b 073e 6e46 80bd b82e 19be
00000260: 6f02 3cbd 5a19 a9bc 091e 13bd 15a1 a93e
00000270: cdf8 983e dbb9 23bd 4ad2 e73d 4e8c 26be
00000280: e68a 28bd 5528 4fbe 7ffa 603d 7147 be3e
00000290: eee8 42be 00f4 e73a de28 97be ce1f 4abe
000002a0: 4649 623e f57a 603d c7eb 8d3c dba1 a03e
000002b0: 4f1c e63a 9e58 563e bd93 80bd ea91 2c3e
000002c0: cdf0 a73e e9a6 9cbe ba6c 25be 1b2c 96be
000002d0: ef72 b23e 9208 ccbb 1f50 9bbc 90e4 4c3e
000002e0: 1760 d8bd 9095 9bbe a554 253d 870e 043f
000002f0: 9a25 963e f1ea d9bc ebf8 943d a013 823e
00000300: f136 ce3d 2404 8d3e 7331 2abe 9436 2dbe
00000310: 7cff 3abd 621a 85bd c642 cbbd afba 5a3d
00000320: c3e5 5fbd 1a30 58bd 5a74 4abe 4e69 633e
00000330: ffde a2be 5b49 733e 5128 1e3d cf71 063c
00000340: c28d 91bc 9cb6 303e 9b93 703e e395 1c3e
00000350: 2c94 d4bd 7e5f f43d a154 003d 397f c53e
00000360: 585d f2bd a387 9b3e d855 1c3e 70e7 de3d
00000370: b5eb b0be fd84 4a3e 7f81 b93e ab67 f93c
00000380: 4416 d4bd 1b24 fdbe 28fd 683e ea35 b93e
00000390: 3d4b babd ac30 613d bfe5 f53d cb08 aebd
000003a0: d8c5 9ebd cb12 8d3d a28a 0dbe f008 87be
000003b0: c710 acbd 8614 5c3d 3220 7e3e dfb0 ed3e
000003c0: 45c4 0d3d 2c5e 6bbc c2c8 8bbe 7b11 013d
000003d0: ece2 adbd 65b3 abbe 8394 a9bd f35c 163d
000003e0: 1443 a7bd 9b14 623e 1e8d 493e 706a 5dbd
000003f0: 6060 503d 1433 7dbd b83d 243d b0cd 21be
-0.3269029 0.16767776 -0.30963448 -0.24788587 -0.038782712 0.028238598 -0.40499252 -0.11910335
-0.27406812 -0.18550833 -0.09655368 0.25219148 0.010070119 -0.108023755 0.048579775 -0.16368628
-0.085161075 0.35865375 0.28901234 0.20419796 0.08906106 0.029384226 0.15913388 0.37717578
0.11805675 -0.116089515 0.2843313 -0.16663715 0.31084314 0.19293793 -0.21328214 0.22739059
-0.068123184 0.12297621 -0.07267031 0.15617125 -0.00031837614 -0.07012947 0.11578592 -0.1498909
0.22579825 -0.23307483 0.047653757 -0.09101297 -0.168681 0.1721212 -0.14477362 -0.095630124
-0.14269696 -0.010878837 -0.12089132 -0.1520112 -0.25880066 -0.11214059 -0.25658023 0.16653493
-0.087994546 -0.055379685 -0.15070397 -0.0517825 -0.13370584 -0.30980992 -0.25168407 0.27471927
-0.20791084 -0.26674688 0.1149329 -0.07928379 0.32368317 0.3247059 0.13307421 0.24480842
-0.07842107 0.09679138 0.14855286 0.008554092 -0.083405964 0.015511127 -0.29881272 -0.22567609
-0.20933925 -0.10064574 0.17924133 0.052540667 -0.07451749 0.16525051 0.26178855 0.10606058
-0.22672595 0.10044553 -0.023971966 0.020341773 0.10363165 -0.24774052 -0.056495536 -0.020190826
0.0100373095 0.020594755 -0.10316431 -0.18683067 0.26461098 0.0121329585 -0.017656773 -0.0667459
0.08396051 -0.18192673 -0.16459382 -0.17265753 -0.26888213 0.095703654 0.27180725 0.1280181
0.09697423 0.097192444 -0.15056118 0.27563903 -0.012445081 -0.19968864 0.100223 0.0957934
0.00018885706 0.09015338 0.183218 0.052475292 -0.09025075 0.24952699 -0.26980856 -0.20307063
-0.016004393 0.2915997 -0.10571724 0.26315296 0.20023708 0.120255224 -0.0505588 0.29251176
0.12958965 -0.3014033 -0.12652215 0.014682873 -0.122284204 -0.08189708 -0.13539602 0.15313396
-0.12986943 -0.11973399 0.09369616 0.38088176 -0.053780828 0.1324297 -0.062634334 -0.14959228
-0.04590076 -0.020641971 -0.035917316 0.33130708 0.2987732 -0.039972167 0.11319406 -0.1626446
-0.04114809 -0.20230229 0.05492639 0.3716388 -0.19034168 0.0017696619 -0.29523367 -0.19738695
0.22098264 0.05480476 0.017324341 0.31373486 0.0017556044 0.20932242 -0.06278179 0.16852537
0.32800904 -0.30596092 -0.16154757 -0.29330525 0.34853312 -0.0062266076 -0.018959103 0.20009065
-0.10565203 -0.30387545 0.040363926 0.51584667 0.29325563 -0.026601287 0.0727404 0.25405598
0.10069073 0.27542222 -0.16620426 -0.16915351 -0.045653805 -0.06499173 -0.099248454 0.05340069
-0.054662477 -0.05278025 -0.19770947 0.2220814 -0.31810758 0.23758452 0.038612667 0.008205845
-0.01776779 0.1725716 0.23493807 0.15291552 -0.10379824 0.11932276 0.03133071 0.38573626
-0.1183421 0.3037692 0.15267122 0.10883987 -0.3455483 0.19777294 0.3623161 0.03044494
-0.10355809 -0.4944161 0.22752821 0.36173946 -0.09096382 0.054978058 0.12006711 -0.08497771
-0.077525795 0.0688835 -0.13822415 -0.26374006 -0.084016375 0.05373051 0.24816969 0.46424004
0.034611005 -0.014365714 -0.27301604 0.03151081 -0.084905475 -0.33535305 -0.082802795 0.036709737
-0.08167091 0.22078173 0.19682738 -0.054056585 0.05087316 -0.06181629 0.040097922 -0.1580112

lstm.weight_hh_l0 f4 [128, 32]
00000000: e853 ccbc 7a31 6c3e 189d 8fbe 1d75 ed3d
00000010: 5d09 833e eceb 8abe 7bae 373e 7b69 ae3d
00000020: 597b 323e d2a9 dc3e 2465 793e 6487 df3c
00000030: e3f7 eb3b 70e0 a63e 46fd a83d 8f55 853d
00000040: 3d5f 36bd 6f36 b63d 9159 44be 2be8 3dbc
00000050: cc76 08be 9462 a23d a254 923d 31c1 21be
00000060: 6af4 90be 0a5b 5dbe 5b60 913d ff00 bcbd
00000070: 739b 553e 2329 fb3d 0951 b23e c783 703e
00000080: 0757 adbd bb91 573d 0c95 d6be 6f65 df3d
00000090: a5a5 1e3e 1672 7ebe 2f15 3c3e 5786 533e
000000a0: 01a7 0c3e 9e8a a6bd fc29 b83c 2dae 92be
000000b0: 869b afbe b826 e93d aa2d dbbc 2005 543c
000000c0: 0704 ccbc 5cc8 3c3e 7eb1 c23d eff3 493e
000000d0: d7c6 133d 6bd1 f93e 286e 2d3d 1c0c 263e
000000e0: d9de 93bd fca4 1d3d ab89 543c 4e76 41be
000000f0: 208f 8d3d 114b fe3d e7be d93d 3075 313e
00000100: d24c b33e 34b7 62be fff4 0d3d 951d 563d
00000110: 0fc7 243e b656 4ebd 97fb b93e b600 883c
00000120: 924d 2d3e ed96 c23e 26df 02bd 16e5 153e
00000130: c77c 283e 149f fdbd fd96 a8bd 4a5b dcbb
00000140: 4c93 23be e076 67be 6464 5dbe a745 ab3d
00000150: 961c e4bc 9cb9 0abc 0fdc 563d 60f4 84bc
00000160: 9c2f 51be fb0d 79bd d972 433e c60c 63be
00000170: f18e dd3a a6c0 d7bd f881 723e af1a 723e
00000180: 0795 dfbc 1b57 13bd 66d8 e0be 455c 3d3e
00000190: be40 463e 8c75 d5bd 76a5 663e cbfe 8bbe
000001a0: 43b8 96be eb47 d03e fd88 5f3e 5267 b0bd
000001b0: 6680 1a3e 62fe db3d 6abb ebbd 5fdf 63bd
000001c0: f1c4 013e 0ea4 b23d cf78 b2be dec9 eb3d
000001d0: 28c6 4ebe 3d5e 0e3f 18bc 463d d2ca a73d
000001e0: 29a0 923d 8967 02be a686 bd3d cbf7 76be
000001f0: e041 183f f329 ef3e 1831 903e 9981 d23e
00000200: 631c b4be f0c6 20be a32c 13bd 5344 2bbe
00000210: 2662 013e e939 56bd 34c5 4ebc 481c 07be
00000220: 0ca0 77be 9f62 6dbd 7a3f b53e 369f 76be
00000230: 92a1 adbc 8054 893b 3258 98be 31e7 153e
00000240: e6d2 de3d 7571 a43e e770 b83e b8ac c33c
00000250: c385 923d 919f c83e 88ee a23e 76e9 613d
00000260: 1d96 173d 3cbb 513e 3ba2 aa3d 35c4 80be
00000270: 32c3 1b3f 520e 2cba 8e8b d23b 0085 7a3e
00000280: 8fd5 233e d122 ac3d 44cf 9abe 55e7 0f3e
00000290: 66c7 31be 7e77 f63d 4033 ba3e 451b 4dbd
000002a0: 991a 863d 92ac 073f 1083 dfbc 368f 6bbd
000002b0: 283a 023d c7ee 9dbe 1201 2f3e ddf5 2abe
000002c0: e9a4 173e e408 033e 3e59 bd3d adc2 723d
000002d0: 418b 80be 20a6 8c3e be83 533e e4a5 59be
000002e0: 57f4 6c3d 0a10 17be 71bf a33e 0a46 ac3d
000002f0: f5bc 973d 0cd3 d63e feeb a33e e444 ae3e
00000300: fdd2 433f 37a0 19bd a5f6 77be 4041 853e
00000310: 378d c23c 164b e2bd d5e2 a2bc 1b97 a1bd
00000320: 3392 3cbe cfa5 f63d ce61 083e ed8b e83d
00000330: 7270 04be 3d91 cbbc 7bbc 0fbf b00b 343e
00000340: f0dc 2e3e de35 ea3c d32e 60be 2404 63be
00000350: a7e8 8dbd 6383 7d3d f72a 13bd 1520 473e
00000360: d532 f73c 2907 053e f616 263e e84e 45be
00000370: cc1a bc3e 3066 a9bd 6660 d13d 9fc0 22bd
00000380: 60c3 283d 30fe 1e3d 3a6a ed3d 172d ab3d
00000390: 7569 bd3e 0b22 94be fbd6 b93d 0ac9 d0bd
000003a0: b1e0 58be d52a aa3e 0967 9c3e 230d 8cbe
000003b0: a765 0fbe 5d58 7e3d 19c6 783e aede 6bbe
000003c0: 7d88 e43d bda3 8b3e 830b e4bd df8a a8bb
000003d0: 7e22 e1bd b678 fdbd 8668 f1bc f7c3 ecbe
000003e0: 25f7 023e e717 5d3d a4b6 bf3e 3a03 0a3e
000003f0: ecf2 f6bc 42dc 713e a996 bc3e a7fe f43d
-0.024942353 0.23065749 -0.2804954 0.11594603 0.2559308 -0.2713312 0.17937653 0.085162126
0.17429866 0.43098313 0.24354988 0.027286239 0.0072011813 0.32593107 0.08251433 0.0651046
-0.04452442 0.08897101 -0.19174792 -0.011590998 -0.13326567 0.079289585 0.07145049 -0.15796353
-0.28311473 -0.2161676 0.070984565 -0.091798775 0.2086008 0.122637056 0.3482745 0.23487769
-0.08463865 0.052629214 -0.4191059 0.10908019 0.15492876 -0.24848208 0.18367456 0.20656715
0.13735582 -0.08131908 0.022480957 -0.2864851 -0.34298342 0.11384338 -0.026755173 0.012940675
-0.024904264 0.18435806 0.0950651 0.1972196 0.0360783 0.48792586 0.04234138 0.16215557
-0.07220239 0.03848742 0.012972276 -0.18892786 0.069120646 0.124166615 0.10632115 0.1732986
0.35019547 -0.22140199 0.034657475 0.052274305 0.1609156 -0.050375663 0.3632476 0.016601902
0.16924122 0.38005772 -0.031951092 0.1463817 0.16453849 -0.12383857 -0.08231924 -0.0067247497
-0.15974158 -0.22603941 -0.21620327 0.083628945 -0.027845662 -0.008467104 0.052455958 -0.016229808
-0.20428318 -0.06080435 0.1908678 -0.22172841 0.0016903562 -0.10534792 0.23682392 0.23642991
-0.027292741 -0.035971742 -0.439151 0.1849223 0.19360635 -0.10422811 0.22524056 -0.2734283
-0.29437456 0.4067987 0.218296 -0.08613457 0.15088043 0.10741879 -0.11510356 -0.055632945
0.12672783 0.08722697 -0.34857795 0.115131125 -0.20192778 0.55612546 0.048519224 0.08192982
0.071594544 -0.12734808 0.09254198 -0.24117963 0.5947552 0.46711692 0.28162456 0.411145
-0.35177907 -0.15700889 -0.03593124 -0.16725282 0.12635097 -0.05230132 -0.012620259 -0.13194382
-0.24182147 -0.05795538 0.3539999 -0.24084172 -0.021195207 0.0041909814 -0.29754788 0.14638974
0.108800694 0.3211781 0.36023638 0.02388607 0.07154419 0.3918424 0.3182261 0.055154286
0.037008394 0.2048158 0.08331724 -0.25149694 0.6084472 -0.0006563413 0.0064253276 0.24464798
0.15999435 0.08405078 -0.30236256 0.1405309 -0.1736122 0.1203451 0.36367226 -0.050074834
0.06548042 0.52997696 -0.027284175 -0.057509623 0.031793743 -0.30846235 0.17090252 -0.16695352
0.14809002 0.1279636 0.09245537 0.05926769 -0.25106242 0.27470493 0.20655724 -0.21254689
0.057850208 -0.14752212 0.31981996 0.084117964 0.074090876 0.4195789 0.32015985 0.34036934
0.7649382 -0.03750631 -0.24215181 0.26026344 0.023748977 -0.11049478 -0.019883553 -0.07890149
-0.18415146 0.12043344 0.1331856 0.11354814 -0.1293352 -0.024849528 -0.56146973 0.17582583
0.17076468 0.028590139 -0.21892862 -0.22169548 -0.069291405 0.06189288 -0.035929646 0.19445832
0.030175606 0.12991013 0.16219696 -0.19268382 0.36739194 -0.08271444 0.10223465 -0.03973448
0.04120195 0.03881663 0.11592527 0.083582096 0.3699452 -0.28932223 0.090742074 -0.10194595
-0.21179463 0.33235803 0.3054736 -0.27353773 -0.14003621 0.06209599 0.24294318 -0.23034164
0.111588456 0.2727336 -0.11135008 -0.005143508 -0.10992907 -0.123765394 -0.029468786 -0.4624326
0.1278959 0.053977873 0.3744403 0.13477793 -0.030145131 0.23619178 0.36833695 0.119626336

lstm.bias_ih_l0 f4 [128]
00000000: ee47 b03d 43e5 263e 7158 e23d 8011 623e
00000010: 75f8 913d 6b04 043e 2c64 63bd 7341 373e
00000020: 6c69 253d 10fb 293e ce3f abbb ea1b 1dbd
00000030: 4c32 113e cade 4abd 948d 83bd 6431 a53d
00000040: 49ae 1a3c 8db6 923d b2cf 1f3c cb0f e7bd
00000050: b3c6 f23d 91ba e73d 7d80 053e 91ae df3d
00000060: b179 8cbc 44ee 4cbc 533e 59bd dea9 c33d
00000070: 013d 6b3c 48e7 113e fedf 613e cd80 793e
00000080: 624b eb3d 5514 2d3e 8b88 333d 1d43 9f3e
00000090: d5cc 953e 9e18 7cbd 9053 e1bd 8895 313e
000000a0: 8444 883e b011 02be 704d 633d 59e3 24bb
000000b0: 9719 8e3d 1772 b73d 8dcb 6dbe 4482 1dbd
000000c0: 4f33 3c3e bb28 1f3e 92c2 34be bd97 723d
000000d0: 0bf5 0e3e 1792 b73d 5627 183e 03c5 943e
000000e0: a1b0 dd3d 525a 1f3e 8cc3 8c3e 661a 56bd
000000f0: 864b d03d 730a 323e 3153 21bd 4ecd a23b
00000100: 8beb 5a3d 10f1 4b3e 5362 03be 9a22 053e
00000110: deaa 85bd deb6 b1bc f883 83bd c52e fc3c
00000120: a564 15be 5025 8c3d 54ee f23d 8443 2ebe
00000130: 7954 29be 28be 8abd 53d9 283e 4207 c0bd
00000140: 5b00 213e 944c 2b3d 8e8b 46be 6b65 00be
00000150: 006e 2ebd 5edc 003d 905d d83c 62ab 9a3d
00000160: ded4 1c3e e5c6 f6bd 2db2 50be a0b2 39bd
00000170: 42da a73b 82a7 1d3e f5b2 73bb 6519 393e
00000180: 586e b53d 467a a23b 3c5d 263e c59b 8a3e
00000190: 378e be3d 518b 7c3e 39f0 8b3b 1929 31bd
000001a0: cfa8 2c3e 0101 613e b213 c33d 07a7 4f3e
000001b0: 09a0 f8bd d483 c73d d684 3c3d d4f9 afbd
000001c0: ff95 8fbd b141 f43c 3bd5 073e 5dad 08be
000001d0: 88ca ab3d b89f d13d 9673 13be 36ce 4a3e
000001e0: b297 933c 2719 223e 628d 243e ea04 3c3e
000001f0: 7b7a c6bc eb75 1f3e c88c b63a 30c5 853e
0.086074695 0.16298394 0.11052025 0.22076988 0.071274675 0.1289231 -0.055515453 0.1789606
0.04038374 0.16599679 -0.005226112 -0.0383567 0.14179343 -0.049528874 -0.06423488 0.08066061
0.009440967 0.07163725 0.009754108 -0.11282309 0.11854305 0.113148816 0.13037296 0.10921968
-0.01714787 -0.012507979 -0.053037953 0.09553884 0.014357806 0.14248383 0.22058102 0.2436554
0.114889875 0.16902287 0.04383139 0.3110589 0.29257837 -0.061546914 -0.110022664 0.17342198
0.26614773 -0.1270206 0.055493772 -0.0025159924 0.069384746 0.08957308 -0.2322218 -0.03845431
0.18378948 0.15542881 -0.17652348 0.05922674 0.13960664 0.08963411 0.14858755 0.29056558
0.10824705 0.15561798 0.2749294 -0.05227127 0.10170655 0.17386799 -0.039385978 0.004968322
0.053447288 0.19916177 -0.12830476 0.1300148 -0.06526731 -0.021693643 -0.064216554 0.03078402
-0.14589174 0.06843054 0.11861864 -0.17017943 -0.1653613 -0.06774551 0.16489153 -0.09376384
0.15722792 0.041821077 -0.19389173 -0.12538688 -0.042585373 0.03146016 0.026411802 0.0755222
0.15315577 -0.12049655 -0.20380469 -0.045336366 0.005122454 0.1539593 -0.0037185524 0.18076093
0.08858937 0.004958424 0.16246504 0.27071968 0.09304469 0.2466252 0.00427058 -0.043252084
0.1686127 0.21973039 0.09525241 0.2027856 -0.12139899 0.09741941 0.04602512 -0.08592573
-0.07011031 0.02981648 0.13264935 -0.13347383 0.08388239 0.10235542 -0.14399561 0.19805226
0.01801667 0.15829907 0.16069558 0.1836125 -0.024228325 0.15572326 0.0013927454 0.26127005

lstm.bias_hh_l0 f4 [128]
00000000: ccba c3bd 67b6 683e 0f5c ddbd 84c8 513e
00000010: cf52 7e3e e99c 8e3c 9c47 b1bc ce89 29bd
00000020: d7bb 543e 843d 12bd 9af1 903d f7a4 b93d
00000030: 822f 4d3e 3163 463c 6092 84be 6d56 543e
00000040: 204c 2c3e b356 933d 71bf 1e3e 830e a23d
00000050: 8d76 9cbd 261c 253e e3f7 0a3e d8ae c53c
00000060: b1d4 263e e672 5a3d e45c 4e3c 4894 a63c
00000070: 5d06 ce3d fe7d 59bd 789c 36bd 085a 1b3d
00000080: 14a4 aebd 11b3 2dbe daf1 ea3d 2ff0 053e
00000090: 01c4 853d e67b 48bd 64c3 423d 1e0d 673e
000000a0: f966 d4bb ccc3 233e 62f0 943b 89a9 3cbd
000000b0: c58f 123c 2fb8 e0bc a191 20be 96d5 e13c
000000c0: f52e 19bd 7f8f d43d 1695 9dbd ebfb a6bd
000000d0: e78c 463e 4919 1e3d f2e8 673e 8018 dd3d
000000e0: c19f a53e ad71 ee3d bb8e 333d f445 073e
000000f0: e0c9 a33e 1b4a a53d 457c 313d aa2f 273e
00000100: c046 d9bc 4a41 6bbd c3cb 9a3d 9ac0 d9bd
00000110: e2ee acbd 75b6 1fbd f58e b8bc 1a9b f4bd
00000120: 6dc7 dd3d cc58 893d 821a 9a3d 13fe fdbd
00000130: 0bc3 18be b485 b2bd 1a15 0bbd 9580 023d
00000140: 51e1 51bd ea91 fa3d 1595 7c3d 88f0 963d
00000150: cfc2 d3bd 2714 b9bc f5fb be3d 8eee bbbd
00000160: 412e afbd 74d7 1d3e d849 b13d b8c4 043d
00000170: e9fb 113e 54e0 bdbd 007b a8bd 6eb1 9d3d
00000180: e15c 25be 56c9 953d 0efa 023e 5251 953e
00000190: 7c93 6c3e dc2b c13d 474d 0bbd 16e6 6c3e
000001a0: c7fc 4d3e 11d7 c1bd 2586 78bd 13c2 3c3e
000001b0: 2523 cdbd 9d9f fa3d cdc2 df3d cdb9 10bd
000001c0: a377 28bc 31dd 3ebd 4728 613d 0451 323c
000001d0: 0ef2 1cbe 8b6a 06bc a048 a2bd 08f2 f4bc
000001e0: 0a39 623d 9914 91bd 9aab 4b3e ba57 003e
000001f0: abc3 773d 4252 803d 68cb 813b 9e7a 453d
-0.09557113 0.22725831 -0.108085744 0.20486647 0.24836276 0.017408805 -0.021640591 -0.041391186
0.2077478 -0.035703197 0.07077332 0.09064668 0.20037654 0.01210861 -0.25892925 0.20736094
0.16825914 0.07194271 0.15502717 0.07912924 -0.07639799 0.16124019 0.13571124 0.024131224
0.16292073 0.053332232 0.012595389 0.020334378 0.100598074 -0.05309867 -0.044582814 0.037927657
-0.08527389 -0.1696284 0.11471911 0.13079904 0.065315254 -0.048946284 0.04754962 0.22563598
-0.006482002 0.1599266 0.0045452574 -0.04606012 0.00894541 -0.027431576 -0.15680553 0.027567666
-0.037398297 0.10378932 -0.076944515 -0.08153518 0.19389687 0.038598333 0.22647455 0.10795689
0.32348445 0.11642776 0.04383729 0.13210279 0.31989956 0.08070775 0.043331403 0.16326776
-0.026522994 -0.05743531 0.07558396 -0.10632439 -0.08444001 -0.038992364 -0.022529105 -0.11943646
0.10829053 0.0670639 0.07524587 -0.124019764 -0.14918153 -0.08716908 -0.03395567 0.031860907
-0.05124027 0.12234862 0.061665613 0.073700964 -0.10339891 -0.022592617 0.09325401 -0.0917636
-0.08553744 0.1541422 0.08656663 0.032414168 0.14256252 -0.09271303 -0.082265854 0.07699858
-0.16148712 0.073137924 0.12790701 0.29163605 0.23103136 0.09432194 -0.034009244 0.23134646
0.20115958 -0.09464849 -0.060674805 0.18433408 -0.10016469 0.12237475 0.10925827 -0.035333443
-0.01028243 -0.046597663 0.054970052 0.010883573 -0.15326712 -0.008204113 -0.07924008 -0.029900566
0.055230178 -0.07084007 0.1988968 0.12533465 0.060489338 0.062656894 0.0039610155 0.04821264

lstm.weight_ih_l1 f4 [128, 32]
00000000: 005e 08bd 7779 2bbd 34c2 92be daa6 363e
00000010: 6843 923e 8a3c ddbd 4713 b23e 8fd0 83bc
00000020: 22b2 b0bc f937 413e 11c2 c1bd 6791 c6be
00000030: c7a6 34bd d143 17be 1208 053d af3c a93b
00000040: 744d 6a3d c8d6 c33d afe5 26be bbd0 a53d
00000050: 4d95 b0be 7469 d73e eb0b 463c 09e9 c5be
00000060: 8781 2b3e 8571 9abe 00a2 4b3e 2860 b1bc
00000070: 795b f93c dbec f73d 2b9e 383e c134 263d
00000080: fe46 443e be9b 95be e355 25be 0d18 b63c
00000090: 1405 ad3d d449 62be b387 443e e596 013d
000000a0: d399 84be 5ece 283e e9a1 4e3e c6c5 00be
000000b0: 629f 04bc 8179 13be 012f 1dbe c2ed 65bd
000000c0: 2f61 e93c e4a8 7e3e edd1 1c3d 4869 403d
000000d0: a022 31be 682b 6e3e a4c6 5c3e 1d52 5bbe
000000e0: 0e81 203e cdec 4dbd 2a81 3c3d 9790 90bc
000000f0: 5e34 7e3e 8eda 513e 7c76 d43e 72eb 433e
00000100: 09e7 b83d ad2a 2bbe ac3a 713c a018 533e
00000110: 8099 ec3d e27c d9be efe6 bf3e bf3f 17be
00000120: ce0b 9cbd a988 1cbc 1503 b4bd 89ac 80be
00000130: 52a4 843c 7b24 243d bf15 6b3d 4ac9 133e
00000140: dd91 b33e aa2f b73e 55b3 87be f29c 85be
00000150: 748f 37bd b609 a43e 080f d73d 45d6 493d
00000160: c876 f13d 9b4a 04be 1553 923e 6964 58be
00000170: 5415 21be a7a5 183e bba3 653e 2f25 893e
00000180: a078 b03c 1934 a03b f915 ddbd 32ef 2c3e
00000190: 067d a33d 359d f6bd 9b6d 253e 68cf b63c
000001a0: ca9e 48bc 0063 e23c 1ef7 8b3e f054 2cbe
000001b0: 8184 763c eb30 5c3d 2d9e 3e3e dba5 a1bd
000001c0: 00d7 3f3e 5309 af3c e00e d5bc 4b8d 9ebd
000001d0: 3651 60bc 7f8f 9abc 06bf ff3d 349d 91be
000001e0: 037a 833b 948f 1f3e 9a9d a53d 92ca 54be
000001f0: 2134 80bd 2a0b 073e 7a9c 5f3c a1f2 2e3e
00000200: 16af 31be 9ede 6f3b caa1 943d 959b 033e
00000210: afa1 c83c d8b5 febd bf28 abbc f659 38be
00000220: 35d4 083e 6d84 1d3e 4adf 273e 59d2 5d3d
00000230: a846 86bc b824 3f3b c925 ff3d 27b4 0a3e
00000240: 3591 d5bc e54e 03be 692e 3b3d da4a 453e
00000250: 03f6 11be 52d2 0a3e 2607 183d 8454 19be
00000260: 55d4 5d3d 3c44 613d 2fe6 69bb 2719 383c
00000270: 47ad 9d3d 9b51 53bb 934e b53d eb9b 643e
00000280: 69d3 b9bd b200 40bd 692d 41be 8777 053e
00000290: f737 0f3d 8ef9 08be 5c73 803e eed8 b638
000002a0: d3cc 973c e8fe 753e 16dc 5c3e 0548 963d
000002b0: 2a5d 91bd c7d3 4dbe 33a4 763d 319d 09be
000002c0: 44f9 bb3e 6556 af3e 5cb4 00be 4585 af3d
000002d0: 3e61 c2bc da51 543e b6a2 103e 3611 7b3d
000002e0: 8eee 543e 95bd 89be 70a8 043e 965e 5bbe
000002f0: 5566 91bd 22b9 d73b bcdf a1bd 81e9 d43c
00000300: 6592 883e b180 98be 98a6 8c38 eedd 2abc
00000310: 5f22 4c3e 2b90 bd3c 4cd3 853e 1a91 1d3a
00000320: 086b 313d 0734 443d cf9f 0ebe df64 9ebc
00000330: b6ed ab3d 0085 313b 49f0 c4be b6b6 84bd
00000340: a3a3 d03d 5f57 413e 69d7 cbbe 623e 23be
00000350: 6727 bbbe 6f11 153e 6d39 3c3d c235 83be
00000360: afb9 a13e 3274 28be 732a 5c3c 25e3 d13c
00000370: 9fdf 2fbe 107b 373d 4cdf 1bbd 2734 283e
00000380: a493 0dbe 07cb cc3d 489f 3a3d 7793 06be
00000390: 442c 0c3e 74ac 2fbe 7048 1c3e b338 88bd
000003a0: f0d0 153e 5e45 de3d a3bf 7abc 0af8 94bd
000003b0: eb39 b73c 35f6 0ebe f757 933d 5f5e 2d3e
000003c0: 3639 e33c 1281 403e 1a05 34be 7f6b 8f3d
000003d0: 050a 6fbe 531b 0ebe 418c ac3d e4f8 1bbe
000003e0: bf5c 0d3e 616a d5bd 88f8 0c3d 5518 9abd
000003f0: e3dd ee3d 27e8 6a3e 7fe2 fb3d e83f 3e3e
-0.03329277 -0.041863885 -0.2866379 0.17837086 0.28567052 -0.108025625 0.34780332 -0.01609066
-0.021569315 0.18869008 -0.09460843 -0.38782808 -0.044104364 -0.14771964 0.0324784 0.0051647048
0.05720277 0.09562451 -0.16298555 0.08096453 -0.34488907 0.42072642 0.012087802 -0.38654354
0.1674863 -0.30164734 0.19886017 -0.021652296 0.030439125 0.121057235 0.18029086 0.040577654
0.19167706 -0.29220384 -0.16146044 0.022228265 0.08448234 -0.22098476 0.1919239 0.031638045
-0.2589861 0.16484973 0.20178951 -0.12575445 -0.00809464 -0.14401819 -0.15349962 -0.056134947
0.028488724 0.24869114 0.03828614 0.046975404 -0.17298365 0.23258746 0.2156015 -0.21418042
0.1567423 -0.05027466 0.046021618 -0.01764707 0.24824664 0.20493528 0.41496646 0.19132784
0.090284415 -0.16715498 0.014723461 0.20614862 0.11552715 -0.4247809 0.37480876 -0.14770411
-0.07619439 -0.009554067 -0.0878965 -0.25131634 0.016191635 0.040073853 0.057393786 0.14432254
0.35072222 0.35778552 -0.26504007 -0.26096302 -0.044814542 0.3203866 0.10500914 0.04927661
0.11790234 -0.12919085 0.28579012 -0.21132053 -0.15730792 0.14906941 0.2242574 0.2678618
0.021541893 0.004889023 -0.107952066 0.16888121 0.07982831 -0.120417036 0.16155092 0.022315696
-0.0122448895 0.027635098 0.27336973 -0.16829276 0.01504624 0.05375759 0.18615027 -0.078929625
0.1873436 0.02136675 -0.02600807 -0.07741793 -0.013691237 -0.018867252 0.12487607 -0.2844025
0.0040123477 0.15582114 0.08086701 -0.207804 -0.06259943 0.13187853 0.013648147 0.17084743
-0.17351946 0.0036601196 0.07257421 0.12852319 0.02449116 -0.12437028 -0.020893453 -0.18003067
0.133622 0.15382548 0.16393772 0.05415568 -0.016391113 0.0029166173 0.12458379 0.13545285
-0.026070217 -0.12823065 0.045698557 0.19266835 -0.14254002 0.13556793 0.037116192 -0.14973646
0.054157574 0.054996714 -0.0035690179 0.011236466 0.07699066 -0.0032244686 0.088528775 0.22325103
-0.090735264 -0.046875663 -0.18864979 0.13033877 0.03496548 -0.13376448 0.25088012 8.7188426e-05
0.018530285 0.2402302 0.21568331 0.073379554 -0.07097848 -0.20100318 0.060215186 -0.1343887
0.36713612 0.342456 -0.12568802 0.08570341 -0.02372801 0.20734349 0.1412457 0.06129571
0.20794126 -0.26902452 0.12954879 -0.214228 -0.070995964 0.006583349 -0.07904002 0.02599025
0.2667419 -0.29785684 6.706751e-05 -0.010428889 0.19934987 0.023140034 0.2613777 0.00060106965
0.043314964 0.04790118 -0.1392815 -0.019335208 0.08394949 0.002708733 -0.38464573 -0.06480162
0.10187461 0.18880986 -0.39812782 -0.15941766 -0.365535 0.14557432 0.045953203 -0.2562695
0.31586978 -0.16450575 0.013437855 0.025621006 -0.17175148 0.044795096 -0.03805475 0.16426145
-0.13825852 0.09999662 0.04556206 -0.13142191 0.13688761 -0.1715563 0.15262008 -0.066514395
0.14630485 0.108530745 -0.015304479 -0.07273872 0.022366485 -0.13961108 0.07194512 0.16930531
0.027737241 0.18799236 -0.17580071 0.07002925 -0.23343666 -0.13877611 0.08425189 -0.15231663
0.13804911 -0.10420681 0.034416705 -0.07524172 0.11663415 0.22940122 0.1229906 0.18579066

lstm.weight_hh_l1 f4 [128, 32]
00000000: 3f78 1b3c d9ac ea3c 113e 16bc f2aa 0f3e
00000010: fc06 c93d 0530 00bd 757a 2abd cb74 e93d
00000020: 71fa c2bd c63e 0b3e 7044 583d 927b 04bb
00000030: ed0c a03d 5013 0fbc 9713 1b3b c8d5 2cbe
00000040: 718e 83bc 25ec dfbc ef59 d6bd 5675 5ebd
00000050: abc7 23be 66d2 a9bb d5b4 a2bd f8c4 6dbc
00000060: d73b 04be e212 17be 930f 9fbd 8499 103d
00000070: 8cca 413e 2b61 a5bd 8d1a babd b276 d83d
00000080: cf59 653e 94e5 983d 0b84 ac3d fda4 6f3d
00000090: 392c e13c ad0f 81be aec8 eb3c a7db 61bc
000000a0: 6d1c e9bc e207 3b3e 2a3e 17be 1aac 873d
000000b0: d304 17be 9239 d6bc 2f16 7e3d e645 38be
000000c0: ad25 a5bd a8e2 b6bd c3bc 51bd b0ea d13d
000000d0: 573f 99bd 8cc8 49be dbf7 2abe 0740 ef3d
000000e0: bb9b da3d e420 5ebe 4439 6f3e 3b8b 59be
000000f0: 6c01 553d 361a f43d 41e6 77be 08bf a53c
00000100: 6fde 1fbe f301 203e fabe 12be c809 47bc
00000110: 3858 5e3c 01ba 55bc e65a 463e 12a7 4d3e
00000120: 7034 093e 26e1 1b3e eeab e33c d29e 0f3c
00000130: 300d 313b c42b a93d 7000 f43d 53c3 94be
00000140: 5de9 a33c 8a7b 343e a01f 51bc cc28 b2bd
00000150: 1a61 213e 034c 85bc e60f 0bbe 38a0 0fbc
00000160: 3bcf 67bd 1404 c6bd e12a bdbd a803 5a3c
00000170: 09d1 14bd 2776 813d afb8 963d 2848 70bd
00000180: af73 c9bd 3ff7 da3d a0e6 203d 7e8c c43d
00000190: a138 7bbd cc06 64bc 03e3 36bd d0fe dc3d
000001a0: 89d6 d13d 0d37 0ebd 03cb 3fbe f2a5 cebc
000001b0: 2787 493c a746 fbbd 807a 75bd 16c0 27be
000001c0: 130b 38be 96ca 943d a936 953b d84f 19bd
000001d0: 7bee 0abe 06ec 013e 384a a23d 1d99 263e
000001e0: 8f30 01be b333 063d 6a37 10bd bc0f 2cbe
000001f0: 7f68 93bd 9186 debd a06d 863e 500f 2f3c
00000200: 77f8 32be 5655 c0bd 59a6 223e 1d69 053d
00000210: 57ab 5d3e eb49 15be 941d 1bbe 0f24 3abe
00000220: 9488 c03d 5b9c 993d 7a2d 043d 635a 653e
00000230: dd02 a0bc 91fe 3dbe 2940 a4bd 7f58 e9bd
00000240: 69e2 03be 17c4 3abd 0b97 2fbe e025 89bd
00000250: c1f0 1dbe 3291 c23c 1914 06be 35d1 d3bc
00000260: c8aa c0bd 7a04 29be acb4 1d3e a363 223d
00000270: 97b2 ed3c 0a43 3c3e 8f84 b23c b5e5 983d
00000280: 85df 573e 0288 15be f3d3 55bd 2ea3 5fbd
00000290: 251f 04bd 6283 ce3d e31f 56bd 7ade 9ebd
000002a0: cd3d 393b 7de6 05bd f9ce 9fbc 64ba 5abd
000002b0: 43ee 48bd 2c9b 1b3d f780 293b 286c b2bb
000002c0: 1dd4 cb3c 0ebc c53d 8af2 d7bd f6d3 4b3e
000002d0: 87b8 733d 7f2a 74be e4d1 5dbe 60ac 193e
000002e0: 12f8 133d f201 b73d 65b1 0e3e 53f8 13be
000002f0: 2f00 bbbc 0eca 743d a812 d83d dccf 633d
00000300: 4f9b 3bbe b635 9cbc 4db1 07be e088 adbd
00000310: cc8d 073e c222 633d 90fa ad3d 2532 98bd
00000320: b4de 283e 7ca1 b73d d022 5d3e f811 183c
00000330: 6400 1f3d 7cd8 cd3d 6d51 5ebd 00f7 12be
00000340: 70cd 9e3d ccfa ecbd 5417 f53d c59a a6bc
00000350: 6a18 943d 3bf6 1f3d 0283 9e3d 1f6a 2cbd
00000360: 0012 113c 757e 383e 8b53 bebc 4e0f 2d3e
00000370: 375e a03d f07c a33d 99a7 d63d 90e6 643d
00000380: e755 bbbd def7 b73d 5441 c03d 97d1 dabd
00000390: d578 1c3e cb9d 1c3d 3b04 c3bd 2d3e 9dbd
000003a0: 44cb c2bd 8b03 273d 287d 1ebe 26c7 263e
000003b0: 424c 4ebe 87f3 14be e298 b23d 1d8b 2d3e
000003c0: e42e 44be ee94 583d e39d 40bd 7885 08be
000003d0: 9d89 5b3d 749f 07be 86d3 06be b1d9 f3bd
000003e0: 76a3 d7bd 2ef7 aa3d 84ca 4dbd 2292 1b3d
000003f0: 653f 953c 2222 a23d 7cae 80bd 357f cbbd
0.009489118 0.028646873 -0.009170071 0.14030054 0.09815785 -0.031295795 -0.04162069 0.113992296
-0.09520424 0.13598165 0.052799642 -0.0020215255 0.078149654 -0.008732632 0.00236628 -0.16878426
-0.016059132 -0.027334282 -0.10466372 -0.05431112 -0.15994136 -0.005182552 -0.07944647 -0.014512293
-0.12913452 -0.14753297 -0.077666424 0.035302654 0.18924922 -0.08075174 -0.090870954 0.10569514
0.2239754 0.074656636 0.08423623 0.058506954 0.027486907 -0.25207272 0.028782215 -0.013785279
-0.028455937 0.18264726 -0.14769807 0.06624623 -0.14747934 -0.026150499 0.062032875 -0.17995414
-0.08063827 -0.0892995 -0.051205408 0.10249841 -0.07482784 -0.19705409 -0.16696112 0.11682134
0.106742345 -0.21692234 0.23361689 -0.21244518 0.05200331 0.11919062 -0.24208929 0.020232692
-0.15612195 0.15625744 -0.14330664 -0.012148328 0.013570838 -0.013044835 0.19370613 0.20083264
0.1339891 0.15222606 0.027791943 0.008765893 0.0027015917 0.08260301 0.11914146 -0.2905527
0.020008737 0.17625251 -0.012763888 -0.08699188 0.15759698 -0.016271597 -0.13580284 -0.0087662265
-0.056594115 -0.096687466 -0.09236694 0.013306536 -0.036332164 0.06321364 0.07359444 -0.058662564
-0.09836518 0.1069169 0.03928244 0.09597109 -0.061333302 -0.013917636 -0.04465009 0.10790789
0.102459975 -0.03472047 -0.18729787 -0.025225613 0.012300289 -0.12269335 -0.05993128 -0.16381869
-0.17972974 0.07265203 0.004553635 -0.03742966 -0.13567536 0.12687692 0.07924312 0.16269346
-0.1261618 0.032764148 -0.035209097 -0.16802877 -0.071976654 -0.1086551 0.26255512 0.010684803
-0.17477594 -0.093912765 0.15883769 0.032570947 0.21647392 -0.14578979 -0.15148002 -0.18177818
0.0940105 0.075005256 0.032269932 0.22397761 -0.019532615 -0.1855414 -0.0802005 -0.113938324
-0.12879337 -0.045597162 -0.17147462 -0.06696677 -0.15423872 0.023750875 -0.13093604 -0.025856594
-0.09407574 -0.16505614 0.15400952 0.039645802 0.029015822 0.18384948 0.021791724 0.07465688
0.2108136 -0.14602664 -0.052204084 -0.05459898 -0.032256264 0.10083653 -0.052276503 -0.07757278
0.0028265596 -0.032690514 -0.019507872 -0.053400412 -0.04905535 0.03798978 0.0025864223 -0.005445022
0.024881417 0.09655009 -0.105443075 0.19905075 0.05950215 -0.23844336 -0.21662098 0.15007162
0.03612525 0.08935918 0.13934858 -0.14450197 -0.022827236 0.059763007 0.105504334 0.055618152
-0.18320964 -0.01906858 -0.13251229 -0.084733725 0.13237685 0.05545307 0.08495057 -0.07431439
0.16491205 0.089663476 0.21595311 0.009281628 0.038818732 0.10051057 -0.054276872 -0.14352036
0.07754028 -0.11571273 0.1196734 -0.020337472 0.07231219 0.039053183 0.077398315 -0.042093392
0.008854389 0.1801699 -0.023233196 0.1690037 0.0783047 0.07982814 0.104811855 0.055883944
-0.09147244 0.08982824 0.0938746 -0.10684507 0.15280469 0.03823642 -0.09522291 -0.07677875
-0.09511426 0.040774863 -0.15477431 0.16286907 -0.20146278 -0.14546023 0.08720566 0.16947599
-0.19158512 0.052876405 -0.047025573 -0.13332164 0.053598035 -0.1324442 -0.13166627 -0.11906756
-0.105292246 0.08347927 -0.050241962 0.03798116 0.018218705 0.079166666 -0.0628328 -0.09936372

lstm.bias_ih_l1 f4 [128]
00000000: 0bbe d1bd cacc 07bd c9a8 17be d605 ccbd
00000010: 8309 5f3e 0ecb 443e 7bde 403e ceca 5a3e
00000020: e636 4b3e 2882 183c 7273 103e 2833 0e3e
00000030: 4456 253e 1cc9 ed3c deec d2bd 200e 10be
00000040: 7f6f 7bbd 1187 c13d 5a76 de3d 004b 28bd
00000050: 8252 d2bd 42f8 253d 3358 fc3d b5a0 13be
00000060: 11da 49bd 59f9 103d d436 283e 1ff5 e83d
00000070: ad82 15be 8db9 f53d a1dc 2c3c 5e67 b9bc
00000080: daeb d0bd 56d4 2d3d 8cf6 0b3e 3200 823d
00000090: a2ef 02bd 1a9c 94bd 4d7c 22be 5af5 89bd
000000a0: d2a6 693e 518c 043e 309e ce3d 09ac 1b3d
000000b0: cde9 2abd 684b 843c 1d11 81bb 54d9 863d
000000c0: 3b90 983e 71c5 c03d 954f 9a3d c88a 343e
000000d0: eb8c 9d3d 4980 f33a a388 b73d 3200 ef3d
000000e0: b5a0 513e 21b4 803d a02a b7bd a7e8 3f3e
000000f0: 99fc 223b 8614 2e3d ec87 14be 8eee 5f3e
00000100: 011d e03c 253f 6dbe 2484 36bd 6b50 333e
00000110: 3816 483e 1e22 6cbe 9477 3bbe 08da b5bc
00000120: e446 013e 5586 253d 0078 cebc ab4d 5f3e
00000130: 7047 2fbd e13c 4bbe fc4b ddba 5922 993d
00000140: 3df7 37be a707 2bbd 988e d3bd bf16 623e
00000150: f89a 35be 5142 0d3d 29d4 44be 1f8a 5e3e
00000160: e686 70be cb90 d7bc 6c82 583e c9bb 0abe
00000170: 0be9 393e b4c9 e2bc 29fb f73d 9667 003e
00000180: 42af f83d 5e88 08be da11 bcbd 16c7 4f3e
00000190: f59a 363e 24d5 613d 4d3c 1e3e b02a e13d
000001a0: 97a3 613e 2ccc 8bbd e6af cd3d f50a 733e
000001b0: 5368 593d bbdb 93bd 1d84 453e 6880 b73d
000001c0: bb4d 383e f569 903d 7acd d73d 3599 b33d
000001d0: 4f4d 16be cd11 30bd 5e78 303d 208d bdbd
000001e0: 9af1 6f3e a368 d2bd a5da 04be 22d2 c13d
000001f0: c0cc a2bd e483 38be ab35 63be b6bd 04be
-0.10241326 -0.033154286 -0.1481048 -0.099620506 0.21780972 0.19218084 0.1883487 0.21366426
0.19845161 0.009308375 0.14106539 0.13886702 0.16146189 0.02902656 -0.10299085 -0.14067888
-0.061385628 0.0944959 0.108624175 -0.04108715 -0.10269643 0.04051996 0.1232151 -0.14416774
-0.04928023 0.035394046 0.16427165 0.11374878 -0.1460063 0.11998282 0.010550649 -0.022632297
-0.10201235 0.042438827 0.13668269 0.063476935 -0.031966813 -0.072563365 -0.1586773 -0.0673625
0.22817543 0.12944151 0.100887656 0.038005862 -0.041726876 0.016149238 -0.0039388076 0.06584421
0.2979754 0.09412659 0.0753471 0.17631066 0.076928936 0.0018577661 0.08961608 0.11669959
0.20471461 0.06284357 -0.08943677 0.18741094 0.0024869798 0.04250004 -0.14504975 0.21868345
0.02735758 -0.23168619 -0.044559613 0.17511146 0.19539726 -0.2305989 -0.18307334 -0.022198692
0.12624699 0.040411312 -0.025203705 0.21806972 -0.042792737 -0.19847442 -0.0016883607 0.074772544
-0.17965408 -0.041755345 -0.10329932 0.2207899 -0.17734897 0.034487072 -0.19221558 0.21732377
-0.2348896 -0.02631416 0.21143502 -0.13548197 0.18155305 -0.02768407 0.12108452 0.12539515
0.12142803 -0.1333327 -0.091830924 0.20290789 0.17832549 0.055134907 0.1545269 0.1099447
0.22035061 -0.06826052 0.100433156 0.23734649 0.053078007 -0.07219645 0.19288678 0.089600384
0.17998402 0.0705146 0.105372384 0.08769456 -0.14677928 -0.042985726 0.04308354 -0.09255433
0.23432007 -0.10273864 -0.12974031 0.09463908 -0.07949209 -0.18019062 -0.22188441 -0.12962994

lstm.bias_hh_l1 f4 [128]
00000000: 7d6c ecbd b036 f73d 1367 113e 6627 6b3d
00000010: 676b 4f3e 0c99 2c3d 94b5 8c3d 4cea 583e
00000020: a43a dc3d bba6 b13d 4ae9 543e 71cb de3d
00000030: 7572 95bd a78a 473e c774 483e 04bf 03be
00000040: 2541 553e fa8b aa3c ffac c03c 3e38 c3bc
00000050: 8cf2 a63b c1ef 663e 967e 5f3e ab08 d53d
00000060: d023 813e 0c62 9a3d 0397 5b3d 5837 12bc
00000070: 4d01 203d 21f7 cb3b 8957 89bd 2f2f a13d
00000080: cd3c 87bc 905c 55be 44ac 36be cdfc 4a3e
00000090: 62d0 5cbd c9f8 443d 098c 0e3d 85ce c13a
000000a0: 17e2 fe3c 842f f73d 11ba 093e 8940 c5bd
000000b0: 3736 033e 6d9a 79bd c155 53bd 6d80 1dbd
000000c0: 9b61 2d3e 4649 5c3e e188 1b3e 268e 3e3e
000000d0: 91a6 b4bd 3bc7 ab3d 9862 17bd 809e 85bd
000000e0: fea9 93bd bfdb 163e 7051 3a3e 6573 8b3e
000000f0: 9eff c2bd f369 3a3e d6bb 56be 5595 3b3b
00000100: 56c7 263e f9e2 6fbe 481b 553d f193 d83d
00000110: f247 e93d 017b aa3c be95 3bbd e9a7 f0bd
00000120: 7cfe 403e e659 f73d 19d4 c3bd 6fb9 dc3d
00000130: a304 14be 8e2e a8bc 0b09 5f3e e374 bfbd
00000140: a472 81be 8413 c13d b513 51be 42ce d03c
00000150: 26e2 523c c566 93bd c719 92bd e115 5e3e
00000160: b5df babd ee7a b23c 0aa0 43bd 9701 4dbe
00000170: f970 5bbd 8b44 c83d dac7 883d a40f 323e
00000180: 2e68 913d 941f 3a3d c50d 033e 271e 4c3d
00000190: 8949 7abc a8f4 ed3c 419d 13bb fbe5 03be
000001a0: 05a4 1b3e 4889 6abc 978f 323d 657f d3bc
000001b0: 177d d1bd e1f8 0c3e d0eb b43d f58a 49bd
000001c0: 1388 a03d b127 b8bd aebc 523c 4955 f23d
000001d0: 7fb5 21be 040c 80bb 1ad9 203e 27a7 413b
000001e0: 8b1a 9fbd 3322 f73d 1b6a 093e 2cfc a4bd
000001f0: f4a5 113c 6cd6 15be ced4 243d fdb7 993d
-0.1154413 0.12070978 0.14199476 0.05741062 0.20255814 0.042138144 0.06870571 0.21183127
0.10753372 0.086743794 0.20792118 0.10878647 -0.072972216 0.19486485 0.19575797 -0.12865835
0.20825632 0.0208187 0.023519991 -0.02383053 0.005094832 0.22552396 0.21825632 0.10402044
0.25222635 0.07538232 0.053610813 -0.008924328 0.03906374 0.0062245284 -0.06706149 0.07870328
-0.016508484 -0.20836091 -0.17839152 0.19822998 -0.053909667 0.048088823 0.034801517 0.0014786279
0.031113667 0.1206961 0.13449885 -0.0963145 0.1281365 -0.060938288 -0.051595453 -0.038452554
0.16931765 0.21512327 0.15188934 0.18608913 -0.088208325 0.083876096 -0.03695926 -0.06524372
-0.07210158 0.14732264 0.18195128 0.27236477 -0.09521411 0.18204479 -0.20970091 0.0028622944
0.16286978 -0.23426427 0.05202797 0.105750926 0.113906756 0.020810606 -0.045797102 -0.11750776
0.18847078 0.12077694 -0.09561939 0.10777556 -0.14454894 -0.020530012 0.21780793 -0.09348466
-0.25282776 0.094275504 -0.20417674 0.025488976 0.012871301 -0.07197336 -0.07133823 0.21688034
-0.091247 0.021787133 -0.047760047 -0.20020138 -0.053574536 0.097786985 0.06678744 0.17388779
0.07099949 0.04544027 0.12798221 0.049833443 -0.015276321 0.029047325 -0.002252415 -0.128807
0.15199287 -0.014314957 0.04359397 -0.025817582 -0.10228937 0.13766815 0.0883404 -0.049204785
0.07838454 -0.089919455 0.012862368 0.11832673 -0.15791892 -0.0039076824 0.15707818 0.0029549093
-0.077687345 0.1206707 0.13419382 -0.080559105 0.008889664 -0.14632577 0.04024201 0.07505796

fc.weight f4 [3, 32]
00000000: 0f23 603f c53e 33bf 2779 433f cc79 433f
00000010: 2ef2 113f 58f2 5abf dc27 2bbf 53f2 3fbf
00000020: 0aa1 353f 7287 453f ba27 19bf 5970 593f
00000030: f315 3abf d862 47bf 0cee 153f e48a 47bf
00000040: 2b96 1ebf df82 2cbf e0da 53bf 3354 1b3f
00000050: 3782 24bf 21fb 53bf 7f6c 1abf c39b 343f
00000060: 1737 34bf 2585 55bf b922 283f b4d5 44bf
00000070: db52 3c3f 2d52 453f 0d95 3bbf 0d94 203f
00000080: efb7 513f f977 50bf ce43 343f 44a6 1f3f
00000090: 62f1 483f e5fe 46bf f9bf 3ebf 45d2 18bf
000000a0: 6994 0e3f 8860 313f ede0 4ebf 3cae 253f
000000b0: 303c 54bf d02b 30bf 809b 413f 3f8b 4dbf
000000c0: 6c65 0ebf 940f 55bf 0b30 07bf 9774 353f
000000d0: 9c9b 5abf e5cc 2fbf 5f3b 39bf 131f 0e3f
000000e0: dd60 31bf 4746 47bf 9eb9 513f 26e6 31bf
000000f0: 9b17 293f 8834 3b3f 110d 38bf 06de 4a3f
00000100: 0dda 513f d3dd 26bf 9e78 423f 716b 133f
00000110: b3cb 263f 29b4 1cbf f974 2ebf 6a2c 34bf
00000120: 74b2 333f ba67 4e3f 865a 3bbf 079e 263f
00000130: f2a7 28bf ec72 26bf b6c4 373f f2cd 39bf
00000140: 04ea 45bf 8023 40bf 0223 53bf 66a3 453f
00000150: cbd1 2fbf b6d2 3fbf 2153 44bf a215 443f
00000160: a9ab 21bf 41e8 53bf d20a 363f f021 2abf
00000170: f2d8 473f 5c6e 403f 2a41 2fbf 5f7f 0d3f
0.87553495 -0.70017654 0.7635674 0.7635772 0.5701016 -0.8552604 -0.66857696 -0.7497913
0.7094885 0.771598 -0.5982624 0.84937054 -0.7268974 -0.778852 0.58566356 -0.77946305
-0.6194789 -0.67387193 -0.8275585 0.6067535 -0.6426119 -0.8280507 -0.603218 0.70550174
-0.7039656 -0.8340629 0.6567798 -0.76888585 0.7356393 0.77078515 -0.7327431 0.6272591
0.81921285 -0.81433064 0.7041596 0.62363076 0.7849332 -0.7773269 -0.7451168 -0.59695846
0.55695206 0.6928792 -0.8081196 0.64718986 -0.8290434 -0.6881685 0.756279 -0.802906
-0.5562351 -0.83226895 -0.5280768 0.70881027 -0.8539369 -0.6867202 -0.7235622 0.55516165
-0.69288427 -0.7784161 0.81923854 -0.69491804 0.66051644 0.7312703 -0.7189494 0.7924503
0.81973344 -0.65182227 0.759653 0.5758582 0.6515457 -0.612124 -0.68147236 -0.7038027
0.7019417 0.80627024 -0.73185 0.6508488 -0.65881264 -0.65019107 0.7178453 -0.7257987
-0.77310205 -0.7505417 -0.8247529 0.7720245 -0.68679494 -0.74930894 -0.76689345 0.7659551
-0.6315256 -0.82776266 0.7111026 -0.66458035 0.7806541 0.75168395 -0.6845881 0.5527248

fc.bias f4 [3]
00000000: 3b83 043f b8f3 063f ee6c 2a3f
0.5176274 0.52715635 0.66572464
