models/wind_kph_ann_model.pth (torch, 48822 bytes, 6 tensors)

model.0.weight f4 [32, 322]
0	0x3decf8cf	0.11570894
1	0x3c4b7f0a	0.012420425
2	0x3c7ab1a6	0.015301144
3	0x3c0fb9be	0.008772312
4	0xbb266b00	-0.0025393367
5	0xbdd53422	-0.10410334
6	0xbd0bb7a5	-0.034110684
7	0x3df286ac	0.11842093
8	0x3c8ecb9d	0.017431075
9	0x3def0264	0.11670378
10	0xbcbbcd25	-0.022924969
11	0xbe4a095d	-0.19730134
12	0x3d25c7a3	0.04047359
13	0xbe932683	-0.2874032
14	0xbe288555	-0.16457112
15	0x3d646c66	0.05576744
16	0xbdcc6f71	-0.09982193
17	0xbdfaa690	-0.122388005
18	0xbd928a2c	-0.071552604
19	0xbdc60429	-0.09668762
20	0xbe84f4b1	-0.25967935
21	0xbe4abc2f	-0.19798349
22	0x3de6e766	0.112746045
23	0x3dc573ba	0.09641214
24	0x3e98b946	0.29828852
25	0x3e82b788	0.25530648
26	0xbdaee25c	-0.085392684
27	0xbf3f590d	-0.74745256
28	0x3d6ace42	0.05732561
29	0xbdf5208b	-0.11969098
30	0x3de96f8f	0.11398231
31	0xbf2cef0c	-0.67552257
32	0x3d288540	0.041142702
33	0x3d9e3454	0.077248245
34	0x3c7c5cf7	0.015403024
35	0xbe460d1b	-0.19340937
36	0xbeb5f64d	-0.35539475
37	0xbe133a3f	-0.14377688
38	0xbe8d978f	-0.27654693
39	0xbe2d35fd	-0.16915126
40	0xbe535668	-0.2063843
41	0xbd7f42c1	-0.06231952
42	0xbdda3b6d	-0.10655866
43	0xbd82c009	-0.06384284
44	0x3dd31ae4	0.10307863
45	0xbd063f7f	-0.0327754
46	0x3a87aad8	0.0010350598
47	0xbe0a7b06	-0.13523492
48	0xbd97d31e	-0.07413314
49	0xbd50ef72	-0.051009603
50	0x3ba726e9	0.005101074
51	0xbddf0afa	-0.108907655
52	0xbdfd43e7	-0.12366467
53	0x3e0093bb	0.12556355
54	0xbca8e9d9	-0.02061932
55	0x3e3cf149	0.18451418
56	0x3dbf77bc	0.093490094
57	0xbe87bdc9	-0.26511982
58	0xbe11840b	-0.14210527
59	0xbe848701	-0.2588425
60	0xbda8b2aa	-0.082372025
61	0x3d91f36c	0.07126507
62	0xbe21bdee	-0.15795109
63	0xbc80afc3	-0.01570881
64	0xbdb75523	-0.089517854
65	0xbe07b4eb	-0.13252608
66	0xbe3429eb	-0.17594115
67	0xbe2103b2	-0.15724066
68	0x3e530d27	0.20610486
69	0x3cb961f1	0.02262971
70	0x3e646ff3	0.2230833
71	0x3ddcd712	0.10783209
72	0x3d7bd920	0.061486363
73	0xbedfe8d9	-0.43732336
74	0x3e20ff0a	0.1572229
75	0xb9460a4e	-0.0001888659
76	0x3d4377e5	0.047721762
77	0xbe70ba55	-0.2350858
78	0xbe35700d	-0.17718525
79	0xbd1a6784	-0.037696376
80	0x3c27626c	0.010216337
81	0xbee4c6d2	-0.44682938
82	0xbe1ce45a	-0.15321484
83	0xbeaea1bc	-0.3410777
84	0xbe6cdbe4	-0.23130757
85	0xbe298f46	-0.1655856
86	0xbe84caa5	-0.25935856
87	0x3e917fc1	0.2841778
88	0xbe357ef8	-0.17724216
89	0x3cf84fe8	0.03031154
90	0xbd0e1349	-0.03468636
91	0xbde719ce	-0.11284219
92	0xbc5cbd56	-0.013472876
93	0xbc9b09c7	-0.01892556
94	0xbcb3dc4a	-0.021955628
95	0xbd88d2e4	-0.06680849
96	0x3e25064a	0.1611568
97	0x3b136469	0.002249027
98	0xbe48bf84	-0.19604307
99	0xbb1d7891	-0.0024028162
100	0xbdbb2043	-0.09137013
101	0x3e1177a3	0.14205794
102	0x3e57a6b7	0.2105969
103	0xbe6e5540	-0.23274708
104	0x3d90dc6d	0.07073293
105	0xbe17a7d3	-0.14810114
106	0xbe559926	-0.20859203
107	0xbdb90b54	-0.09035364
108	0xbe943698	-0.28947902
109	0x3deb4da9	0.11489422
110	0x3d94e891	0.07270921
111	0x3c42685c	0.0118657015
112	0xbd8db3c9	-0.06919057
113	0x3cc08c32	0.02350435
114	0x3e8ec0c2	0.27881438
115	0xbdc47399	-0.09592361
116	0x3e181fba	0.14855853
117	0x3e9f63d0	0.31130838
118	0x3db90d96	0.090357944
119	0xbe91cc0f	-0.28475997
120	0xbedea753	-0.43487033
121	0xbc205bb9	-0.009787493
122	0xbe2ad623	-0.16683249
123	0x3e183e49	0.1486751
124	0xbe23e742	-0.16006187
125	0xbead4718	-0.33843303
126	0x3e411d2f	0.18858789
127	0xbdcdead0	-0.100545526
128	0xbf2d13e8	-0.676085
129	0xbe99ab31	-0.3001342
130	0xbd95ffa1	-0.07324148
131	0xbdcafb2a	-0.09911187
132	0xbc919b3d	-0.017774219
133	0x3e7644d8	0.240497
134	0xbe1dc6c7	-0.15407859
135	0x3c255913	0.010092038
136	0xbe5c7bfa	-0.21531668
137	0xbd90a730	-0.070631385
138	0x3e1af384	0.15131956
139	0x3c31bb77	0.010847918
140	0x3d3ec418	0.04657373
141	0xbe01f44b	-0.12690847
142	0x3e339e91	0.17540957
143	0x3cc0e37b	0.023545971
144	0xbd559518	-0.05214414
145	0x3c8f24d9	0.017473625
146	0xbd0ff434	-0.035145
147	0x3e6d8881	0.23196603
148	0x3c871fc2	0.016494635
149	0xbd8dae5c	-0.06918022
150	0xbc8a5eb8	-0.016890869
151	0xbc89f2dc	-0.016839437
152	0xbdf7b155	-0.1209437
153	0x3e0061c9	0.12537302
154	0xbeba0da4	-0.36338532
155	0x3d69c082	0.057068355
156	0x3d805e8c	0.062680334
157	0x3d040c3d	0.032238234
158	0x3d35baf5	0.04436775
159	0x3c2d0d34	0.01056223
160	0x3e83f039	0.25769213
161	0x3d028581	0.0318656
162	0x3eda1e67	0.4260132
163	0x3dc36e2c	0.09542498
164	0xbc2b6375	-0.010460724
165	0xbe9f50f0	-0.31116438
166	0xbf0fc85d	-0.56165105
167	0xbe65ac52	-0.22429016
168	0x3de12714	0.10993782
169	0xbdee6d18	-0.11641902
170	0xbe221a78	-0.1583041
171	0x3d9725fe	0.07380293
172	0xbe1606a9	-0.14650978
173	0xbddf5041	-0.10903979
174	0xbf737476	-0.9509958
175	0xbdbfc80d	-0.093643285
176	0xbdc19d0f	-0.09453785
177	0x3d2c5c4c	0.04208021
178	0x3dd68678	0.10474867
179	0x3b92d4c9	0.0044809324
180	0xbe8cbc44	-0.27487385
181	0xbdd85b8f	-0.105643384
182	0xbd1b2568	-0.03787747
183	0xbdcc60f8	-0.09979433
184	0x3e0d965d	0.1382689
185	0xbe2bb6d9	-0.1676897
186	0x3d55c67d	0.052191246
187	0xbe68117e	-0.22662923
188	0xbde49493	-0.11161151
189	0xbe12d935	-0.1434067
190	0xbe2bfafb	-0.1679496
191	0xbe0a96a6	-0.1353403
192	0xbd3d2824	-0.04618086
193	0x3e12c6ae	0.14333603
194	0x3d772904	0.06034185
195	0xbe335bfa	-0.17515555
196	0x3e0c25da	0.13686314
197	0x3d95b42a	0.07309754
198	0xbe017896	-0.12643656
199	0x3d9c60e0	0.07635665
200	0xbe85ba63	-0.26118764
201	0x3da4d36c	0.08048138
202	0xbd1d85fa	-0.038457848
203	0xbbf503d4	-0.007477263
204	0xbdf8eaf6	-0.1215419
205	0xbd5c4c06	-0.05378344
206	0x3d617276	0.0550408
207	0x3e143475	0.14473136
208	0x3ec66320	0.387475
209	0xbe206c3a	-0.15666285
210	0xbd2387dc	-0.039924487
211	0xbecc7ea3	-0.39940366
212	0xbf08bbb0	-0.5341139
213	0xbebf2a01	-0.37336734
214	0x3e6ced00	0.23137283
215	0xbe2a9830	-0.16659617
216	0x3dd239dd	0.10264943
217	0x3e37834a	0.17921177
218	0xbe75b7bf	-0.23995875
219	0x3c5ed02d	0.013599438
220	0xbf5145cb	-0.8174712
221	0x3e04c1b2	0.12964514
222	0x3e950140	0.29102516
223	0x3e53317e	0.20624349
224	0x3e162920	0.14664125
225	0x3d93a962	0.072100416
226	0xbe957020	-0.29187107
227	0xbddc1e9d	-0.107480265
228	0x3d58af66	0.052901648
229	0xbe89fb03	-0.2694932
230	0x3dfd965e	0.12382196
231	0x3ddc7b7e	0.10765742
232	0x3df1e62a	0.118114784
233	0xbe257d7f	-0.16161154
234	0xbc79994c	-0.015234303
235	0xbdf62917	-0.12019556
236	0xbe44b662	-0.19210199
237	0xbd777ab8	-0.060419768
238	0x3e419483	0.18904309
239	0x3e689f3d	0.22716995
240	0x3d36c2c7	0.044619348
241	0xbd37d988	-0.04488519
242	0xbe29ceae	-0.16582748
243	0xbda4219e	-0.080142245
244	0xbd35ce33	-0.0443861
245	0xbd830472	-0.06397332
246	0xbe7868fb	-0.24258797
247	0xbcdfeabe	-0.027333613
248	0xbdba866d	-0.09107671
249	0xbe0bffcb	-0.13671796
250	0xbe0be82d	-0.13662787
251	0xbd8265d6	-0.0636708
252	0x3e55d4af	0.20881914
253	0x3e15a4e5	0.14613684
254	0x3ea2ad38	0.3177278
255	0xbdb6a9f1	-0.089191325

model.0.bias f4 [32]
0	0xbebf3fce	-0.37353367
1	0xbeca728c	-0.39540517
2	0x3c573904	0.013136152
3	0xbeb441d5	-0.35206476
4	0xbe0f29da	-0.13980809
5	0xbe81c70b	-0.2534717
6	0xbec2680a	-0.3797
7	0xbeceabb0	-0.40365362
8	0xbe5397db	-0.20663397
9	0xbe82d80a	-0.2555545
10	0xbe0ec577	-0.13942514
11	0xbec32ad6	-0.3811862
12	0xbea1c20b	-0.31593356
13	0xbe0881ea	-0.13330808
14	0xbe8b2c3f	-0.27182195
15	0xbd8285bb	-0.06373163
16	0xbe9406a8	-0.28911328
17	0xbe0ed705	-0.13949211
18	0xbeb9f554	-0.36319983
19	0xbe6f2b88	-0.2335645
20	0xbe591911	-0.21200968
21	0xbe85f5e6	-0.26164168
22	0xbe9ac369	-0.3022721
23	0xbecf91b3	-0.40540847
24	0xbe9dd2cd	-0.3082489
25	0xbf0e99b0	-0.5570326
26	0xbe9d42e0	-0.30715084
27	0xbe1fb465	-0.15596159
28	0xbe944006	-0.28955096
29	0xbe98ffa9	-0.29882553
30	0xbe92cc74	-0.2867161
31	0xbed7c203	-0.42140207

model.3.weight f4 [32, 32]
0	0xbe6a27ee	-0.22866794
1	0xbdff1503	-0.124551795
2	0xbdbfaa14	-0.09358612
3	0xbf4cae03	-0.7995302
4	0xbe6df58e	-0.23238203
5	0xbf719509	-0.94368035
6	0xbd847b0f	-0.06468784
7	0xbd63d5be	-0.055623762
8	0xbe406c83	-0.18791394
9	0xbe77daf8	-0.24204624
10	0xbe610cb6	-0.21977505
11	0x3dfd77ed	0.1237639
12	0xbe64d9a5	-0.2234865
13	0xbe2d45d7	-0.16921173
14	0x3da7a4a0	0.081856966
15	0xbe63d850	-0.22250485
16	0x3e0040cd	0.1252472
17	0xbe63a53d	-0.22231002
18	0x3e28c40d	0.16481037
19	0xbda5b426	-0.08091001
20	0xbe3ca8d2	-0.18423775
21	0xbd37c3b2	-0.044864364
22	0xbe8ab902	-0.27094275
23	0xbe3bb01c	-0.18328899
24	0xbc87aba7	-0.016561342
25	0xbe35846e	-0.17726299
26	0xbef0c4cb	-0.4702514
27	0xbeed8193	-0.4638792
28	0xbf695640	-0.9114723
29	0xbd971e8c	-0.07378873
30	0x3d948a30	0.0725292
31	0x3d12d4ae	0.03584736
32	0x3d129286	0.035784267
33	0x3b0c48f1	0.002140578
34	0x3da73a7c	0.08165452
35	0xbdbfdb7a	-0.09368034
36	0x3b2edf8a	0.0026683533
37	0x3ec5f78a	0.3866542
38	0x3c3f73b1	0.011685298
39	0xbf02fe1a	-0.5116898
40	0x3dbcf19f	0.09225773
41	0x3d62f48c	0.055409
42	0xbd70e49a	-0.05881176
43	0xbde0cec1	-0.10976935
44	0xbc8c415c	-0.01712101
45	0x3d9ce339	0.07660527
46	0x3cf2a90b	0.029621622
47	0x3b9e49c6	0.004830572
48	0x3d157972	0.036492772
49	0xbe959002	-0.29211432
50	0xbf284200	-0.6572571
51	0x3d93f504	0.072244674
52	0x3d9591cf	0.073032014
53	0xbbc79f39	-0.006091979
54	0x3f158727	0.5840935
55	0xbd36a91f	-0.04459488
56	0xbd0c3c35	-0.034237105
57	0xbd7bd9e6	-0.0614871
58	0xbf21510f	-0.6301431
59	0x3e25cb8b	0.16190927
60	0x3ef340a2	0.47510248
61	0x3dbcea16	0.09224336
62	0x3ddb294a	0.10701235
63	0x3d980ced	0.074243404
64	0x3e81444d	0.25247422
65	0x3e21aa02	0.15787509
66	0x390a7118	0.00013202836
67	0xbc3b235f	-0.011422007
68	0x3cde27a6	0.027118515
69	0xbde0fb1f	-0.109853975
70	0xbd2a2c55	-0.041546185
71	0xbe9a806d	-0.30176106
72	0x3d63f40d	0.055652667
73	0x3ebf089f	0.37311265
74	0x3dcb942e	0.099403724
75	0x3d07fadd	0.033198226
76	0xbd164f0b	-0.036696475
77	0x3d78adad	0.060712505
78	0x3e10d4a1	0.14143611
79	0x3e66ed80	0.22551537
80	0x3e2ead9e	0.17058417
81	0xbe426291	-0.18982913
82	0xbd968777	-0.073500566
83	0x3cfdd348	0.030984536
84	0x3d6e77f0	0.05821985
85	0x3e8f74a5	0.2801868
86	0xbecb8c31	-0.39755395
87	0x3ec2c7f7	0.38043186
88	0x3e4e9469	0.20173801
89	0x3e76963b	0.24080746
90	0xbe106cf4	-0.14104062
91	0x3e0bf821	0.13668872
92	0x3cc9e7e0	0.0246467
93	0x3d8d9604	0.06913379
94	0xbe698b4c	-0.22807044
95	0x3e43b1cd	0.19110794
96	0x3e842dac	0.25816095
97	0x3e145762	0.14486459
98	0xbcc91de5	-0.024550388
99	0xbeef2808	-0.4671023
100	0x3e650511	0.22365214
101	0xbefcb896	-0.49359578
102	0x3d13f54a	0.036122598
103	0xbe8e9db5	-0.27854696
104	0x3d4bdbc9	0.04977015
105	0x3e0744a3	0.13209777
106	0x3d2773db	0.040881973
107	0xbdb5834d	-0.08862934
108	0x3de8077b	0.11329552
109	0x3dfe16c1	0.12406684
110	0x3dc70bfc	0.09719083
111	0x3c6f818f	0.0146182915
112	0x3e61bf4e	0.22045633
113	0xbf08d636	-0.5345186
114	0xbebc3ff1	-0.36767533
115	0xbcfb60ee	-0.030685868
116	0x3d90272d	0.07038722
117	0x3ef0645d	0.4695157
118	0xbef757f2	-0.48309284
119	0x3e1d5d90	0.15367723
120	0x3e2f7750	0.17135358
121	0x3ea79340	0.3272953
122	0xbf3478c5	-0.7049678
123	0x3dc3c2d1	0.09558643
124	0xbf2060de	-0.6264781
125	0x3e0cfc74	0.13768178
126	0xbe74aceb	-0.23894088
127	0x3ec6191d	0.38691035
128	0x3ea40c96	0.32040852
129	0xbd319bfd	-0.043361653
130	0xbe10701c	-0.14105266
131	0xbe2cdb22	-0.16880468
132	0x3da3f308	0.08005339
133	0xbd2d4566	-0.04230251
134	0x3e12f461	0.14351036
135	0xbe0fef6e	-0.14056179
136	0x3e376847	0.17910872
137	0x3e8731d3	0.264052
138	0x3e8d336f	0.27578303
139	0x3f0ad061	0.5422421
140	0x3ec73a52	0.38911682
141	0xbd366c43	-0.04453684
142	0x3da52636	0.08063929
143	0x3e76bbb4	0.2409504
144	0x3ebe1ae4	0.3712989
145	0xbe856ca6	-0.26059455
146	0xbeddd7a8	-0.43328595
147	0x3e660b66	0.22465286
148	0xbd861b1f	-0.06548142
149	0xbec04461	-0.3755217
150	0xbe4c4fb7	-0.19952284
151	0xbdf5329d	-0.11972544
152	0x3c96f62f	0.018427936
153	0x3e36338a	0.17793098
154	0xbe68e451	-0.22743346
155	0x3e1cce62	0.15313104
156	0x3e1730cb	0.14764707
157	0x3e9cc3cc	0.3061813
158	0x3f000c1e	0.5001849
159	0xbd674a99	-0.056467626
160	0x3c0aa8c9	0.008463093
161	0xbcacb065	-0.021080205
162	0xbde29d6d	-0.11065183
163	0x3dc816e9	0.09769995
164	0xbd947636	-0.072491094
165	0xbec04441	-0.37552074
166	0xbd035724	-0.032065526
167	0x3d94e514	0.07270256
168	0x3e0905c0	0.133811
169	0x3d721cfa	0.059109665
170	0xbe5c22ad	-0.21497603
171	0xbcb7c0a8	-0.022430733
172	0x3d542549	0.05179337
173	0xbaccfc96	-0.0015639241
174	0xbe2ced09	-0.16887297
175	0xbdb8100c	-0.08987436
176	0xbd14a0c8	-0.036286145
177	0xbea6a052	-0.3254419
178	0xbd4b9a52	-0.04970772
179	0xbe24954c	-0.16072577
180	0xbdca92e1	-0.09891296
181	0xbdabcbed	-0.08388505
182	0x3e09b7d5	0.13449033
183	0xbdc6ac5a	-0.09700842
184	0xbe87b53e	-0.26505464
185	0x3db34775	0.08753864
186	0x3e9f2e1e	0.31089872
187	0x3ecd34ef	0.40079448
188	0x3f81481c	1.0100131
189	0x3dde1b09	0.10845
190	0xbe4629a7	-0.19351827
191	0x3be2a1bb	0.0069162524
192	0x3db2f269	0.08737642
193	0xbc3dfdaf	-0.011596127
194	0x3de75f3a	0.1129746
195	0x3ee736fb	0.45159134
196	0x3cbbc075	0.02291892
197	0xbcb31af5	-0.02186344
198	0x3d05a6fc	0.03262995
199	0x3e51aec3	0.20476823
200	0x3d4e4447	0.050358083
201	0xbaf66f10	-0.001880141
202	0x3e17794c	0.14792365
203	0xbea49e2b	-0.32151923
204	0xbe22a79d	-0.15884252
205	0x3c8cd442	0.017191056
206	0x3ba5dfca	0.005062078
207	0x3d1b7d5d	0.037961353
208	0xbd167fc9	-0.03674296
209	0xbd5d9442	-0.054096468
210	0x3ea0bcde	0.31394094
211	0x3d3e8254	0.04651101
212	0xbd4d6d2e	-0.05015295
213	0xbdbc190a	-0.09184463
214	0x3d026433	0.03183384
215	0xbea6c17d	-0.32569495
216	0x3d0f73e5	0.035022635
217	0xbe0f693b	-0.14004986
218	0x3d915e02	0.07098009
219	0xbd7f4cab	-0.062328976
220	0xbe2e061a	-0.16994515
221	0xbe216e3d	-0.15764709
222	0x3dc05229	0.09390671
223	0xbe4fa842	-0.20279029
224	0x3e596711	0.21230723
225	0x3ccaadd5	0.024741093
226	0x3dfd35ec	0.123638004
227	0xbf05dfd6	-0.5229467
228	0x3e032f93	0.12811117
229	0xbf08651d	-0.53279287
230	0x3e744180	0.23853111
231	0xbe86e371	-0.263454
232	0x3deab277	0.11459821
233	0x3e017090	0.12640595
234	0xbd105948	-0.035241395
235	0x3e7dc483	0.24781995
236	0x3e900649	0.28129795
237	0x3d8e3516	0.06943719
238	0x3df8b2d3	0.12143483
239	0xbd539bc3	-0.051662218
240	0x3ed7780b	0.42083773
241	0xbf0a5e5d	-0.54050237
242	0xbe654bfa	-0.22392264
243	0xbce51f1b	-0.027968934
244	0x3e00a808	0.12564099
245	0x3c913cc9	0.01772918
246	0xbf0b9c67	-0.54535526
247	0x3e16ca8e	0.14725706
248	0x3e16bddf	0.14720868
249	0x3eb3f7a1	0.35149863
250	0xbf2609c3	-0.64858645
251	0x3da6b196	0.081393406
252	0xbf1aec9e	-0.605173
253	0x3e8172ad	0.25282803
254	0x3e22ea2a	0.15909639
255	0x3dd5d173	0.1044034

model.3.bias f4 [32]
0	0xbea05319	-0.31313398
1	0xbf6517b3	-0.8948929
2	0x3f6b4a1b	0.9190995
3	0x3f7ccc69	0.98749405
4	0x3f82103b	1.0161203
5	0xbf76a6a6	-0.96348035
6	0xbf87631c	-1.0577121
7	0x3f50d18c	0.81569743
8	0x3f2e2821	0.6802998
9	0x3f3c147a	0.73468745
10	0xbf852a04	-1.0403447
11	0x3f169262	0.5881711
12	0x3f538973	0.82631606
13	0x3f4b3245	0.7937358
14	0xbf86b627	-1.0524338
15	0x3f63ecb1	0.8903304
16	0x3f8b2828	1.087163
17	0x3f90d967	1.1316346
18	0x3f2ff984	0.68740106
19	0xbf7dcd24	-0.99141145
20	0xbf988662	-1.191601
21	0x3f6d5cbb	0.9271962
22	0x3f858fef	1.043455
23	0x3e17341b	0.1476597
24	0x3f6447ea	0.8917223
25	0x3f6a9057	0.91626495
26	0x3f9eb984	1.2400365
27	0x3fa240cb	1.2676023
28	0xbf3dd6ab	-0.7415568
29	0x3f14b7a7	0.5809273
30	0x3f44e5aa	0.7691294
31	0xbf2485fb	-0.6426694

model.5.weight f4 [3, 32]
0	0xbf13cf4e	-0.57738197
1	0xbf198c4f	-0.5997972
2	0x3d28adb5	0.041181285
3	0x3d8cba3a	0.068714574
4	0x3ef5d9c3	0.48017702
5	0xbefb2c52	-0.4905725
6	0xbe6a3eeb	-0.22875564
7	0x3ede415c	0.4340924
8	0x3eaa3a2f	0.33247516
9	0x3f387830	0.7205839
10	0xbe8589f1	-0.26081803
11	0x3f4bc26c	0.7959354
12	0xbd345056	-0.044021927
13	0x3f6198ac	0.88123584
14	0xbe139e79	-0.14415921
15	0x3ecaba45	0.39595237
16	0x3f0edf69	0.55809647
17	0x3e09abaa	0.13444391
18	0x3f44a662	0.7681638
19	0xbec7416e	-0.38917106
20	0xbe86db6d	-0.26339284
21	0x3e71404b	0.23559682
22	0x3f094d3f	0.53633493
23	0x3ed5bacc	0.41744077
24	0x3eefe56d	0.46854725
25	0x3eb8aced	0.36069432
26	0x3e466721	0.19375278
27	0x3e284b44	0.16434962
28	0xbeb3d109	-0.3512042
29	0x3f1f0a01	0.6212464
30	0x3ec23ac2	0.37935454
31	0xbf5bbf94	-0.858392
32	0xbf2aafa2	-0.66674244
33	0xbf13874f	-0.5762834
34	0x3e25634d	0.16151161
35	0x3ed50df5	0.4161221
36	0x3e7310d1	0.23736884
37	0xbf02edcc	-0.511441
38	0xbece7b9a	-0.40328676
39	0x3ec8965f	0.39177224
40	0x3ea05ad7	0.31319305
41	0x3f222a09	0.6334539
42	0xbeb62186	-0.3557245
43	0x3f386894	0.72034574
44	0x3e7b9c92	0.24571446
45	0x3f4c2909	0.79750115
46	0xbe23cff6	-0.159973
47	0x3d367336	0.044543467
48	0x3f2cc2c7	0.67484707
49	0x3e568462	0.20948938
50	0x3f562fb6	0.8366655
51	0xbe98a482	-0.2981301
52	0xbe5aa477	-0.21351801
53	0x3eaf116e	0.34192985
54	0x3ea4f009	0.32214382
55	0x3f18ac02	0.59637463
56	0x3d930653	0.071789406
57	0x3ecd3fda	0.40087777
58	0x3defe446	0.117134616
59	0x3ed54588	0.4165461
60	0xbed30d2b	-0.41220984
61	0x3f4548e2	0.77064335
62	0x3ece541b	0.40298542
63	0xbf680438	-0.9063144
64	0xbf0d3735	-0.55162364
65	0xbf096dec	-0.5368335
66	0x3eab59b4	0.33466876
67	0x3effb3d1	0.49941877
68	0x3c17e9e2	0.009272071
69	0xbef7bb44	-0.4838506
70	0xbea66233	-0.32496795
71	0x3ea75c60	0.32687664
72	0x3e83c143	0.25733384
73	0x3f2bf9f1	0.67178255
74	0xbec4a06e	-0.38403648
75	0x3f4356b5	0.7630418
76	0x3eb5f0b5	0.35535207
77	0x3f4896a8	0.78354883
78	0xbf00ae2a	-0.50265753
79	0x3dc122e4	0.09430483
80	0x3f157f80	0.58397675
81	0x3eb7ea42	0.35920912
82	0x3f4f2eeb	0.80930966
83	0xbd1f30c5	-0.03886487
84	0xbda7383a	-0.08165021
85	0x3dcaa106	0.09893994
86	0x3ddc4438	0.10755199
87	0x3f07edb3	0.53097075
88	0x3e7cfe14	0.24706298
89	0x3edfb042	0.43689162
90	0x3ebf384b	0.37347636
91	0x3ebe0742	0.37114912
92	0xbee68e40	-0.45030403
93	0x3f493be9	0.7860704
94	0x3e83f16b	0.25770125
95	0xbf704851	-0.93860346

model.5.bias f4 [3]
0	0x3f5f85bd	0.87313443
1	0x3f34dd46	0.70650136
2	0x3f55d244	0.83523965
