models/wind_kph_ann_model.pth (torch, 48822 bytes, 6 tensors)

model.0.weight f4 [32, 322]
000000 7d 0c 88 3d 49 60 21 3d 5f 93 b4 3e c7 3e 1b bd
       0.06643007 0.039398465 0.35268685 -0.037901666
000010 42 f5 be bd 92 a5 2a be 82 55 ed bc ee 2d 9b 3d
       -0.09324123 -0.16664723 -0.028971437 0.0757712
000020 6d 2d fa bd b8 17 3c 3e c6 c5 33 3e f8 58 3e bd
       -0.122156955 0.18368423 0.17555913 -0.046471566
000030 7b c3 02 be 1c 98 ad be 7c bd 33 be c9 b3 d5 3d
       -0.12769882 -0.33905113 -0.17552751 0.10434682
000040 70 db 7e bd 39 2e 5b bd 78 11 c3 bd b4 cc 44 3e
       -0.06222099 -0.05351088 -0.09524816 0.19218713
000050 ad 8c e0 bd b7 1a 59 bd de f4 98 3d ed 6c 67 3d
       -0.10964332 -0.053003993 0.0746858 0.056500364
000060 0e 49 86 3d 04 b2 ff be 39 d6 67 3c 5f 7a 1d bf
       0.06556903 -0.49940503 0.014150196 -0.6151485
000070 16 d2 ef be 0a 6f ad bc 70 b8 0d 3b 0d 8e d9 bd
       -0.4683997 -0.021171112 0.0021624826 -0.10622797
000080 f4 3a c6 3e fa 35 53 bd 4d d9 fd bd cc 9b 17 3f
       0.38716853 -0.051565148 -0.123949625 0.592221
000090 02 55 c5 3e b9 66 2f bf 3b e9 82 bd 74 e2 b7 bb
       0.38541418 -0.6851612 -0.063921414 -0.005611712
0000a0 eb 3f 0b be f9 ad 7e 3e bf 7f 74 be b9 62 63 be
       -0.13598602 0.24871053 -0.23876856 -0.22205628
0000b0 25 f2 ee bc 6f 65 4d 3d 44 32 85 bd f2 13 03 3e
       -0.029168198 0.050145563 -0.06503728 0.12800577
0000c0 5c d9 8d 3d 4b 83 50 3d d0 a1 7d bc ea 4c 9b be
       0.06926224 0.05090646 -0.015480474 -0.30332118
0000d0 88 7e 0c 3d 5e 89 0f 3e 97 28 9f bd ed 87 20 3e
       0.034300357 0.14017245 -0.07771414 0.15676852
0000e0 18 0f a0 3d 73 3d 76 bd d9 44 8c be f2 12 eb be
       0.07815379 -0.060117196 -0.27396277 -0.45912892
0000f0 07 e1 72 be 6f d7 2c 3e 2d c1 77 bb cf 72 64 3d
       -0.23718654 0.16879056 -0.003780435 0.055773553
000100 ef b7 48 bd 41 e3 2e bd 36 81 e9 bd 8b f3 5c bd
       -0.049003538 -0.042697195 -0.11401598 -0.0539432
000110 00 fe 7a 3e 97 e5 ad 3c a9 a7 c0 bd b0 90 26 bf
       0.24510956 0.021227641 -0.09406979 -0.65064526
000120 e0 b2 6c 3e b7 aa 14 bf 09 53 f7 be 7b d6 e6 3d
       0.2311511 -0.5807299 -0.48305538 0.11271378
000130 df 62 8c 3d 85 f0 c4 bc f8 8d 99 3c 6d e6 41 3e
       0.06854796 -0.02404047 0.018744454 0.18935557
000140 99 fd c1 3d cb 89 57 3e 2c c4 f4 3d 65 0c f8 be
       0.09472198 0.21048658 0.11951479 -0.48446956
000150 a9 14 5a 3d f5 e7 a4 bd 17 54 b2 be 21 ea 0e 3d
       0.05324236 -0.08052055 -0.3482978 0.03489125
000160 08 ec 6c be b4 99 8c 3d 31 20 f8 3c ce c4 82 bd
       -0.23136914 0.06865254 0.030288788 -0.06385194
000170 fb 8d 05 3e 00 a0 9d 3d ad 5d e6 3d bc 92 a3 bd
       0.13042443 0.07696533 0.11248336 -0.07986972
000180 94 35 c7 3d 88 74 2a be 1d 86 44 3b cb 69 73 3d
       0.09727016 -0.16646016 0.0029987164 0.059427064
000190 9e a1 5d bc 87 ae 13 3e 47 1b 41 3e 0f ea 30 bd
       -0.013527302 0.14422046 0.18858062 -0.043191966
0001a0 b3 ba 29 3d 62 cd 8b be 8c e8 7c be 4a c0 22 3e
       0.041437816 -0.27305132 -0.24698085 0.15893665
0001b0 fc 4a 8a bc 17 32 66 3d 46 64 0d bd 62 35 95 bd
       -0.016881458 0.056200113 -0.034519456 -0.072855726
0001c0 34 09 ba 3d 04 0b 29 3d 69 41 ed 3d fc 59 8d 3d
       0.090837866 0.04127027 0.115847416 0.06901929
0001d0 5e 51 ee 3d 70 b4 c9 be c5 99 97 3e f3 30 ca be
       0.11636613 -0.39395475 0.29609504 -0.3949047
0001e0 bb 78 37 bf 07 82 3b 3e f0 6f 16 3c c8 d3 4a 3b
       -0.71668595 0.1831132 0.009181961 0.0030948985
0001f0 d2 67 b0 3d 3c 12 39 3e a5 7c 70 3e ac c9 47 3c
       0.08613552 0.18073362 0.23485048 0.012194078
000200 63 6d 80 bd 50 60 df be 43 e4 11 be b4 cd 10 bd
       -0.06270864 -0.43628168 -0.14247231 -0.035352424
000210 dc b9 65 3c 23 ad 4f 3e 73 6e 91 be 0a 1a 4e bd
       0.014021363 0.2028089 -0.2840458 -0.0503178
000220 4b 97 1f bd cc ca b6 bd a9 87 4a 3e b3 9e a5 3d
       -0.038962644 -0.08925399 0.19778313 0.0808691
000230 a2 f4 1c be 6d a7 af be 4f 46 5d 3e 5f 4a 3d bd
       -0.15327695 -0.34307423 0.21608852 -0.046213504
000240 7a 32 69 3d 33 6d 06 bd 10 25 16 bd 8e 55 82 3c
       0.056932904 -0.032818984 -0.03665644 0.015909936
000250 af 94 ed 3d 0e 88 35 bd 1d 49 1a bd f7 91 23 be
       0.11600625 -0.044319205 -0.037667383 -0.1597365
000260 2e f1 be be 41 fc 2b 3e 99 db bb bd 55 89 82 3d
       -0.3729338 0.16795446 -0.09172744 0.0637385
000270 0a 4d bc bd e0 a5 1a 3d 6d bd 9a 3d e8 9b d2 3c
       -0.091943815 0.037755847 0.07555661 0.025709108
000280 2c ac e5 3e 75 3c d9 3d 28 df 9b 3d 8e 9b fd be
       0.4485792 0.106072344 0.07610923 -0.4953274
000290 f3 4e 7c 3e 1d ee ce bc 0f 72 b7 be ca 09 15 3e
       0.24639492 -0.025260026 -0.35829207 0.14554515
0002a0 96 e1 2d be 63 b0 0b be fd 2f 30 be e0 c2 88 3d
       -0.16980585 -0.13641505 -0.17205806 0.066777945
0002b0 32 94 aa bc 77 04 00 be fb dd d6 3d 49 30 25 bf
       -0.020822618 -0.12501703 0.10491558 -0.645268
0002c0 e8 3d 28 bb 44 54 0f 3d d9 c6 e7 bd 5e ac d8 3c
       -0.0025671665 0.03499247 -0.11317224 0.026449379
0002d0 1d 32 81 be b4 0a 10 bd 41 01 85 bc 6e c2 d5 bd
       -0.25233546 -0.035166457 -0.01623595 -0.10437475
0002e0 97 1e 45 3e fe 1f 02 3e d6 c0 b3 bd d1 a2 2e be
       0.1924995 0.12707517 -0.08777015 -0.17054297
0002f0 2a 38 1b 3e 9b 70 9c 3d 3d bf 9b bc 5d 1f a2 3c
       0.15158144 0.07638665 -0.019012088 0.019790346
000300 a8 8c 5e 3d 9d 18 6d 3e de 04 3a 3e 92 68 66 bc
       0.05433336 0.2315392 0.18165919 -0.014063017
000310 82 cc 46 3d a9 1b 98 3d ab 6e 8a be 06 fe ea 3d
       0.048534878 0.07427151 -0.27037558 0.114742324
000320 95 12 8c 3d 4d 0c a2 3c 52 02 5a bd 4b 3f 2b 3d
       0.06839482 0.019781256 -0.05322487 0.041808408
000330 05 04 07 3d c6 b9 35 3d ff d3 c2 3e 23 c4 4a 3e
       0.032962818 0.04436662 0.38052365 0.19801383
000340 36 13 4b 3e 68 3e e3 be 85 70 22 bd 2e 57 7f be
       0.19831547 -0.4438355 -0.03965809 -0.249356
000350 8d 62 1f bf ef a9 47 3e 3b bb a5 bd be cc b3 be
       -0.6225975 0.19498418 -0.08092352 -0.35117143
000360 3b 73 3c bd a1 ac 9a 3e 1d 75 d5 bb 3a 3a 43 be
       -0.04600833 0.3020983 -0.006514205 -0.1906518
000370 d0 60 48 3c db ee 61 be 86 72 6b bd 09 31 23 3e
       0.012230113 -0.22063772 -0.057482265 0.15936674
000380 db 35 54 3d 4b 3b 8a be bd 81 48 be 6d b0 4a bd
       0.051809173 -0.26998362 -0.19580741 -0.04948466
000390 c6 78 90 3d 98 5d 65 be 01 1b 2e 3d 5c 8e b6 bc
       0.07054286 -0.22398984 0.04250622 -0.02228468
0003a0 c4 c9 85 3e 10 64 da bd 01 63 91 3d 88 94 8e 3d
       0.26130497 -0.10663617 0.070989616 0.06961924
0003b0 e9 67 57 bd b0 11 68 3d 45 53 fc 3d bb 37 00 3e
       -0.05258933 0.056657493 0.1232057 0.1252126
0003c0 5e bd 8a 3e 7e fa d1 bd 52 63 0a 3e 3c bb 24 bd
       0.270976 -0.10252856 0.1351445 -0.040217623
0003d0 e5 31 c5 bd b0 ee 8a 3d 27 67 2e 3e 8f 98 b7 bc
       -0.09628657 0.06783807 0.17031537 -0.022411613
0003e0 1f 3e a5 bd 72 8f aa bd 3e dd 33 be e0 1c 2e bd
       -0.08068489 -0.08328141 -0.17564866 -0.042508006
0003f0 89 0b 46 3e e2 74 a6 3d 84 86 69 bc ec f2 bd be
       0.19340338 0.081277624 -0.014253262 -0.37099397

model.0.bias f4 [32]
000000 6c db a4 be d6 07 c4 be fd 20 95 be 37 80 a0 be
       -0.32198656 -0.38287228 -0.2912673 -0.3134782
000010 ed 6a ae be a3 7f fd bd ce 6a 97 be 01 62 a9 be
       -0.34065953 -0.123778604 -0.29573673 -0.33082584
000020 7e e0 1c be a5 a0 48 be b0 9d 79 bd aa d7 30 be
       -0.15320012 -0.19592531 -0.0609414 -0.1726977
000030 26 a4 c0 be 35 00 5b be 03 f2 2e be db b1 b5 be
       -0.37625235 -0.21386798 -0.17084508 -0.35487255
000040 13 7c 77 be 2e 10 93 be fc 3d 7a be 30 d9 05 bd
       -0.24168424 -0.28723282 -0.24437708 -0.03267783
000050 1a 97 12 bf 7b 3c 92 be 2d 66 80 be fe db 99 be
       -0.5726181 -0.28561768 -0.25077954 -0.30050653
000060 6b 14 00 be c7 6a d4 be e0 49 29 be 4e 4c 8d be
       -0.12507789 -0.41487715 -0.16532087 -0.27597278
000070 f3 22 86 be 29 0e 47 be 3d ea 98 bd 78 68 bf be
       -0.2619854 -0.19438995 -0.074665524 -0.3738439

model.3.weight f4 [32, 32]
000000 01 cd 52 bd 47 8c 06 be b9 94 98 bd 86 f5 75 3d
       -0.05146504 -0.13139449 -0.074502416 0.060048603
000010 cd 5d 77 3d ba 35 04 3e 29 d9 73 3d 37 46 80 bd
       0.06039219 0.1291112 0.059533272 -0.062633924
000020 99 6b 03 3b 3f ea 1d 3f 2a 82 fe 3d b4 4c c5 be
       0.0020053147 0.61685556 0.124271706 -0.38535082
000030 71 ac a9 bd 1d 0a dc 3b 2e ed d6 3d cc 9d 9c 3d
       -0.08284844 0.006715073 0.10494457 0.07647285
000040 ae 8d 86 3d f1 6a 57 3e 3a 22 fb 3e 0f c9 fb 3d
       0.06569992 0.21036889 0.4904955 0.12294208
000050 69 ab b9 bd 1e b9 d7 bd f9 c7 38 bb 60 ae 76 bd
       -0.09065897 -0.10533355 -0.0028195365 -0.06022489
000060 ed c9 a5 3c 00 25 05 3e fe be aa 3c 90 05 87 3d
       0.020237887 0.13002396 0.020843025 0.06592858
000070 86 8b 7b 3d 54 e9 bb bc 05 2b 22 be 33 ba 9c 3e
       0.061412357 -0.022938408 -0.15836723 0.3061081
000080 68 a9 11 be 38 be 65 3e 7e 63 99 be 0a dd 1b bd
       -0.1422478 0.22435844 -0.2995872 -0.038052596
000090 6a 1a 08 be 36 6a 71 3c 7b b6 4d be 73 b4 81 be
       -0.13291326 0.014734795 -0.20089142 -0.25332984
0000a0 17 b0 f6 bd 0a 9e 8f bd 5f 57 09 be 6f 24 5e 3e
       -0.12045305 -0.070125654 -0.13412236 0.21693586
0000b0 ea 99 56 3e 79 48 73 3d e9 06 40 be da 92 ea bc
       0.20957151 0.059395287 -0.18752636 -0.028634477
0000c0 8b 16 06 3d c2 7d 39 3c 39 9c ca 3d b6 08 f6 bd
       0.032736342 0.011321487 0.09893078 -0.1201338
0000d0 f4 cc 77 be 31 4a b1 be d6 83 31 3c d8 fb 3b 3d
       -0.24199277 -0.34626916 0.010834655 0.045894474
0000e0 58 af 5b be f1 f1 97 be b5 db 3b 3d bb 18 f3 bc
       -0.21453607 -0.29676774 0.045863826 -0.029674878
0000f0 4c 7a 43 3e ea 8a 06 be c7 8a 88 bd c8 8e ba bd
       0.19089621 -0.13138929 -0.06667095 -0.091092646
000100 c4 a5 ed 3b 08 d7 8b 3c a2 3d e1 3c 11 a3 93 be
       0.007252427 0.017070308 0.02749521 -0.28835347
000110 52 6f bb 3e a6 3c 9e be 91 15 69 3e 27 df 09 be
       0.36608368 -0.30905646 0.22762133 -0.13464032
000120 36 0e 6d 3e 9f f6 b1 bd 2a 95 83 be 7d 90 a4 3d
       0.23149952 -0.08689617 -0.2569974 0.080353715
000130 43 91 41 bd be 53 7f be 10 a2 43 3b c1 1b c9 3d
       -0.047257673 -0.24934289 0.0029851235 0.09819747
000140 e7 ed 75 3e 6d d1 d5 bd c2 5a 39 bd 78 11 62 3e
       0.24016534 -0.104403354 -0.04525257 0.22076976
000150 7e fd 35 3f 1a 71 d2 3d 4f 55 45 bf 1d 1b 73 3e
       0.71089923 0.10275479 -0.77083296 0.23740812
000160 33 32 71 be f6 9d 34 bd e2 32 c4 be cb 33 d8 3e
       -0.23554306 -0.044095956 -0.3832007 0.42227015
000170 6e 4c 8e be 3f 44 74 3c ad 6c db be 64 f5 07 3e
       -0.27792686 0.014908849 -0.4285635 0.13277203
000180 5d b6 6a bc 14 bc 01 bf 89 14 48 3e f5 5b 46 be
       -0.014325705 -0.5067761 0.19539084 -0.19371016
000190 f6 c8 6b 3e 66 58 b2 3d 92 68 90 3e e9 0c 1f bd
       0.2302588 0.08708267 0.2820478 -0.03883067
0001a0 04 f8 f1 be b1 45 4a be 18 2e 4a be bf 84 97 bd
       -0.47259533 -0.19753148 -0.19744146 -0.07398366
0001b0 b1 dd ab be 9b 5a b9 bc 42 30 f0 3e 41 13 47 3e
       -0.33567575 -0.022626212 0.46911818 0.19440939
0001c0 fd 1b 6a 3e d8 9d 76 bb 2b cb 56 3d 36 af b5 3d
       0.22862239 -0.0037630703 0.05243985 0.088713095
0001d0 c8 a0 63 3e 6e 30 cb 3e c9 4b 3a 3d bd 1a 76 be
       0.22229302 0.39685386 0.04548243 -0.24033637
0001e0 dd f0 1f 3e 2a 78 c9 3e 2a 04 ee 3e fa c6 cb 3d
       0.15619226 0.3934949 0.46487552 0.09950061
0001f0 68 99 07 3d ad 59 f9 bc ac 21 5d 3e eb 65 4b be
       0.033105284 -0.030438269 0.21594876 -0.19863097
000200 a7 3b 0d bd 02 a5 a7 ba ca a9 f2 3d 7c 1e 2b bd
       -0.034480717 -0.0012790265 0.11848791 -0.04177712
000210 c4 4d 3c 3e 1a 01 90 be 97 99 15 3e 0f d4 ce 3d
       0.1838904 -0.2812584 0.14609371 0.10099041
000220 28 7b 80 3e 4d 94 78 3d 29 40 3c 3d 9a f6 47 be
       0.2509396 0.060688306 0.045959625 -0.19527665
000230 33 43 18 be 79 9a 3a 3e f5 ca 99 3d 19 7b 18 3e
       -0.14869384 0.18222989 0.07509414 0.14890708
000240 3a c9 b1 3e b5 a0 03 be 06 f9 87 be ee ae 01 3d
       0.34723836 -0.12854274 -0.26557177 0.031660967
000250 82 2c 10 3e 82 02 81 3d 4a 23 b0 3e 03 37 33 be
       0.14079478 0.062993065 0.34401923 -0.17501454
000260 e0 45 48 be ef 50 39 3e f3 12 b1 bd bb 3d a7 3d
       -0.19557905 0.1809728 -0.086461924 0.08166071
000270 10 0c 6c bb f1 81 6c 3e bb 40 ec 3d 69 7d 01 3e
       -0.0036017932 0.23096444 0.11535784 0.12645496
000280 d2 c3 20 3e bd 6d bf 3c d4 19 b7 bd 41 89 4e 3c
       0.156997 0.023367757 -0.08940473 0.012605966
000290 be f8 48 be a4 27 66 3d df c6 76 be 5b 50 67 be
       -0.19626138 0.056190148 -0.24099301 -0.22589247
0002a0 7c ef 88 3d 69 d2 90 bd d9 76 e1 3c ce b0 19 be
       0.06686303 -0.070713826 0.027522491 -0.15008852
0002b0 cf b9 fa 3d 07 3e 91 3c c4 5a 47 be cb 81 5b 3c
       0.122424714 0.017729772 -0.19468218 0.013397644
0002c0 b3 39 f6 3d 58 6f 01 3d 01 07 72 3b d5 cc 84 bd
       0.12022724 0.031600326 0.0036930444 -0.06484381
0002d0 ae 8c ee 3b 92 6b 69 be 41 cb fe bd 25 cb 18 3e
       0.007279954 -0.22794941 -0.12441111 0.14921243
0002e0 7a fa ea 3c 70 80 21 be b2 34 83 be a5 36 74 3d
       0.02868389 -0.15771651 -0.2562614 0.059622426
0002f0 1e 4a 87 bc 15 5b 5d be 95 70 63 be 08 f4 e1 37
       -0.016514834 -0.21616776 -0.22210915 2.6935726e-05
000300 b3 4e 74 3d 78 99 20 3e 34 04 93 bd b3 74 e8 3d
       0.059645366 0.15683544 -0.07178536 0.113503836
000310 ec 5f 17 be 69 41 ea 3d c5 66 ec bc 6b ac 9c bd
       -0.14782685 0.11438257 -0.028857598 -0.076500736
000320 c8 a3 18 3d 6d 2a ae 3d a0 99 80 bd c3 0f c0 bd
       0.03726557 0.08504186 -0.06279302 -0.09378006
000330 3e e5 2c 3d d3 18 ae bd 31 f7 cb bd 02 58 2f 3e
       0.04221081 -0.085008286 -0.099592574 0.17123416
000340 a6 f9 c9 bd fe 04 a2 bd 67 e8 17 be 61 b3 83 3d
       -0.0986207 -0.079111084 -0.14834748 0.06430698
000350 1b 39 59 bd f6 a8 3b bd 52 61 e2 bd 8e 57 3e 3e
       -0.053032976 -0.04581543 -0.110537186 0.18588087
000360 1e 58 22 be 9d 9e 82 be 4a c1 e5 bd b0 5f 71 bd
       -0.15853927 -0.25511637 -0.112185076 -0.058929145
000370 55 cb a6 3c f7 61 55 be 77 63 58 be 2f 93 19 3d
       0.020360628 -0.20838152 -0.21131693 0.03749388
000380 9f 47 5a bd e9 fe 67 bf ff 80 77 3b 06 bb 6b bc
       -0.05329096 -0.9062334 0.0037766097 -0.014387852
000390 d1 11 88 3d b3 a2 eb 3c 2e 08 e2 bc 65 b9 5b bd
       0.06644023 0.028764104 -0.027591791 -0.053643603
0003a0 2a c4 de 3d 80 61 fa be f1 d1 23 3e 2c 52 49 3f
       0.10877259 -0.48902512 0.15998055 0.7864101
0003b0 75 74 52 bf 3d 40 c9 3d c8 6e 6d 3d dc ec dd 3b
       -0.8220895 0.098267056 0.057966977 0.0067726206
0003c0 32 96 08 3e 8a 0b 97 bd d6 8a 22 3f 98 d9 ec 39
       0.13338545 -0.07375248 0.63493097 0.00045175548
0003d0 fa a4 c8 bd f0 14 90 3d 05 24 09 3e 75 e2 fc 3d
       -0.09797092 0.070352435 0.13392647 0.12347881
0003e0 43 63 b2 bc 4b 4e d0 bd 59 d9 3d 3e e2 60 40 3d
       -0.021775847 -0.10171183 0.18539943 0.046967395
0003f0 00 66 02 bd ac 42 86 bd 6f c1 85 bd 0a 69 c8 3d
       -0.031835556 -0.065556854 -0.06531035 0.097856596

model.3.bias f4 [32]
000000 f1 22 9f bf 18 02 a2 bf 44 7a 36 be 0a 9d 8b 3f
       -1.2432538 -1.2656889 -0.17820078 1.09073
000010 20 64 93 3f c6 6f c9 bf 21 2d c2 bf 1a cb 84 bf
       1.1514931 -1.5737236 -1.5170022 -1.0374482
000020 4d dd 91 3f b5 b7 5f 3f 10 cb 3f 3f c7 08 6d bf
       1.1395661 0.8738969 0.74919224 -0.9259152
000030 94 6a 48 3f a7 6a 6f 3f 7d 55 82 bf 91 69 1d 3f
       0.78287625 0.93522114 -1.0182339 0.61489207
000040 54 3a 9b 3f 7d 3e a8 bf 6f 4d 8d 3f 0f c1 6c 3f
       1.2127175 -1.314407 1.1039256 0.92482084
000050 fe b5 b3 bf 0f b2 84 3f 43 34 8f 3f aa f8 af bf
       -1.4039915 1.0366839 1.1187824 -1.3747761
000060 1a a8 8c 3f de 89 87 bf 9e 92 7f 3f 09 90 92 3f
       1.09888 -1.0588949 0.99833095 1.1450206
000070 f8 e2 99 bf f2 d7 78 3f 2f 12 7d 3f 1e ae 81 3f
       -1.202239 0.97204506 0.9885587 1.0131261

model.5.weight f4 [3, 32]
000000 6b cc fd be 65 52 b7 be b6 6c 73 3e f8 03 17 3f
       -0.4957002 -0.3580505 0.23771939 0.5899043
000010 4f 63 9d 3e f0 da ba be 7a 7f a4 be c0 14 0e bf
       0.3073983 -0.3649516 -0.32128507 -0.5550041
000020 59 45 65 3e 64 05 58 3f 97 73 b0 3e 44 8a 19 bf
       0.22389735 0.84383225 0.34463188 -0.599766
000030 ca 50 6a 3f 19 9a b2 3e 84 ae 8c be f5 44 ef 3d
       0.91529524 0.34883192 -0.27476895 0.116830744
000040 eb 87 ad 3d eb 51 ab bd 79 d6 06 3e e1 32 c5 3e
       0.0847319 -0.08365234 0.13167752 0.3851538
000050 e3 3a d8 be 57 10 df 3a d6 c3 6b 3f 5c 32 2e be
       -0.42232427 0.001701842 0.92095697 -0.17011398
000060 78 0a 57 3e 4a f3 3a bf 80 7c 9d 3e fe f7 99 3e
       0.21000087 -0.7302748 0.30759048 0.30072016
000070 14 82 39 be 4d 32 5d 3e e9 6b 0f 3f bd b6 a8 3e
       -0.18116027 0.2160122 0.5602403 0.32951918
000080 cb 26 e1 be f6 06 b7 be 3f 51 dd 3e 73 e5 b8 3e
       -0.4397491 -0.35747498 0.43226048 0.36112556
000090 43 cf 85 3d 44 c7 6d be 39 3b 8b be 12 c3 1d bf
       0.06533673 -0.23220545 -0.2719362 -0.6162578
0000a0 7d 69 84 3e 7c 12 62 3f 87 c0 bc 3e 94 f3 10 bf
       0.2586173 0.88309455 0.36865637 -0.5662167
0000b0 99 88 59 3f c0 da aa 3e 30 d5 e8 be a7 04 ea 3e
       0.84974056 0.33370018 -0.4547515 0.45706674
0000c0 6b d3 d5 3e 2a 57 77 be 19 4d bb 3e a1 4d 89 3e
       0.41762862 -0.24154344 0.36582258 0.2681704
0000d0 90 69 47 be f6 a2 ad 3e b4 7f 77 3f bd d4 9c be
       -0.19473863 0.33913392 0.96679235 -0.30631056
0000e0 dd 46 b7 3e 7c b9 38 bf 58 d7 19 3e 8a 1a 51 3e
       0.35796252 -0.72158027 0.15023553 0.2042028
0000f0 c4 4b 96 be 82 86 13 3e d2 f7 53 3e cb a4 94 3e
       -0.2935468 0.1440678 0.20700005 0.29031977
000100 4b 83 03 bf e4 99 49 be 85 6a 12 3f 2d 4c c9 3d
       -0.5137221 -0.19687611 0.57193786 0.098289825
000110 62 21 9a 3e 50 e6 0f be 5a 63 72 be 04 7d 26 bf
       0.30103594 -0.14052701 -0.23670712 -0.6503451
000120 83 c0 ac 3e 3f b8 5f 3f 19 dc 6a 3e 9b 2d f1 be
       0.33740625 0.8739051 0.22935523 -0.47105107
000130 e6 96 47 3f 65 82 35 3e 39 56 a5 be 2e 69 c6 3e
       0.7796463 0.17725523 -0.32292345 0.3875212
000140 d2 10 c3 3e 38 af ac be 5a d6 e0 3e b6 48 73 3e
       0.3809877 -0.3372743 0.43913537 0.23758206
000150 02 c7 74 be 37 be 03 3f d4 f9 75 3f bb d3 9b be
       -0.2390404 0.5146212 0.9608433 -0.30434975
000160 3a 12 b0 3e 16 57 26 bf 34 28 7a 3e 96 b8 e2 3e
       0.34388906 -0.6497663 0.24429399 0.44281453
000170 32 ef b8 be e1 e5 a0 3e 65 13 c0 bc 1d 53 52 3e
       -0.36119992 0.31425384 -0.023446748 0.20539518

model.5.bias f4 [3]
000000 dd bf 78 3f 9b dd 56 3f 5d fd 61 3f
       0.9716776 0.83931893 0.88277227
