models/wind_kph_ann_model.pth (torch, 27318 bytes, 6 tensors)

model.0.weight f4 [32, 154]
000000 98 f1 7c bd 74 f5 92 3d b6 e1 78 be 1d 32 7a bc
       -0.06175384 0.07175723 -0.24304852 -0.015270737
000010 e6 08 82 bd 7e a6 11 be d0 ab 5c bc f8 c6 97 3d
       -0.063493535 -0.14223668 -0.013468698 0.07410997
000020 77 a8 d8 bc 65 82 89 3c 19 3d 09 be ed 26 48 bd
       -0.026447518 0.01678581 -0.13402213 -0.048865248
000030 cf 9f 99 bc 3a dc 69 bd 30 a8 90 be a7 ed 12 3e
       -0.01875296 -0.05709479 -0.28253317 0.1434847
000040 1a c8 3a be 5b 9a 01 be c6 1a 48 be 39 fb 4b 3c
       -0.18240395 -0.12656538 -0.19541463 0.012450033
000050 8f fc 84 3e 91 26 a2 be 95 cd 61 be 0e 37 02 be
       0.25973937 -0.3167005 -0.2205108 -0.12716314
000060 cc 59 62 bc a2 bc c1 be 09 d5 e3 bd 16 3c 7e bb
       -0.013815355 -0.37839228 -0.111246176 -0.0038793138
000070 45 c1 50 bd 35 b6 11 3d 37 ba 72 3c 6f 4b 13 3e
       -0.050965566 0.035574157 0.014814905 0.14384244
000080 e1 ec a3 bd 5d 64 20 be 74 0e e0 bd 52 25 8c bd
       -0.080041654 -0.15663286 -0.10940257 -0.06843056
000090 28 ad 36 bd 39 34 a3 3d 11 fe 28 be c0 92 e5 3c
       -0.04459873 0.07968945 -0.16503169 0.028024077
0000a0 b3 0c 1f be 6a 41 08 bc 00 d7 1a 3e 4c ce 4b be
       -0.15532188 -0.008316377 0.15121078 -0.19902915
0000b0 8c e6 5d bd e2 0a 74 bd 29 99 84 bc fe 53 0e be
       -0.054174945 -0.05958069 -0.016186314 -0.13899228
0000c0 e1 8a 05 be ae 38 ee bb a3 ab 29 bd f6 ce 4b 3d
       -0.1304126 -0.0072699403 -0.04142345 0.04975792
0000d0 bd 1f ad 3b 4f 32 76 3c 60 f3 c8 bc 39 0e dd bd
       0.0052833245 0.015026643 -0.024530113 -0.107937284
0000e0 e6 34 7d be 71 11 50 3d 50 c3 9f bd 18 89 82 3e
       -0.2472721 0.050797883 -0.07800925 0.2549522
0000f0 83 45 46 3d 44 8b d1 3d d4 ec 8a bd 0f cf 83 3d
       0.048406135 0.10231641 -0.06783453 0.06435978
000100 ae 2a 21 3d be cf 05 bd 7d f3 39 3e d1 0a ba bc
       0.039347343 -0.03266882 0.1815929 -0.022710236
000110 d5 54 ac 3e 7f e2 e9 bc 81 f9 58 3d 4a a1 ad bd
       0.33658472 -0.028550385 0.05297232 -0.08478029
000120 d1 32 f2 bc ab 26 a8 3c 2d 5b 2d bc f8 ec c0 3d
       -0.029565247 0.02052625 -0.01058082 0.09420198
000130 63 56 26 bd 14 eb f6 3c 04 12 8a be 4c c3 a9 3d
       -0.04060973 0.03014139 -0.2696687 0.08289203
000140 e8 8f b9 bd ce 93 64 3e 6b 4f 3b be 62 03 2f 3e
       -0.09060651 0.22322008 -0.18292014 0.17091134
000150 46 98 21 be 7a 49 41 3e eb 0b 10 be 4c a9 26 be
       -0.15780744 0.18875685 -0.14067046 -0.16275519
000160 44 4e 29 3e 50 6a 55 bd 37 ea 61 3e e7 56 df bd
       0.16533762 -0.05210334 0.22062002 -0.10905247
000170 e8 a3 ce bd c9 b9 85 3d 09 ae 5b 3b 4b 66 ad bd
       -0.100898564 0.06529576 0.003352048 -0.084667765
000180 7d 08 07 be fd ba a2 3d e5 d7 35 be e4 5f cb bd
       -0.13186832 0.079458214 -0.17758138 -0.09930399
000190 b2 ce 07 be bd 33 f5 3d c7 e7 be bd bc 3c 1c 3d
       -0.13262442 0.11972759 -0.09321552 0.03814386
0001a0 45 42 c4 be 38 2d aa 3d 44 b4 21 be f8 6c 72 3d
       -0.3833181 0.08309406 -0.15791422 0.059185952
0001b0 3b 00 90 3d 16 9f 6d be 0f 25 ae 3d 48 db 81 bb
       0.07031294 -0.23205218 0.08503162 -0.003962908
0001c0 80 26 75 3e 55 f5 37 be ed 2a 1e bd 84 a6 a5 3a
       0.23940468 -0.1796468 -0.038615156 0.0012638126
0001d0 fb 86 d6 3d 52 e6 4c bc 12 15 85 3c df a1 6c 3d
       0.10474964 -0.0125060845 0.016245399 0.05777156
0001e0 5b 65 99 be ff 60 28 be 03 67 51 bd 52 6b f3 3d
       -0.2996014 -0.16443251 -0.05112363 0.11885704
0001f0 c4 fb ca bd 1a 56 81 3c d6 7f bd be 1d 69 2d 3e
       -0.09911302 0.015788127 -0.37011594 0.16934629
000200 09 50 35 be 31 3f b4 3c 74 4e d1 3c ff a9 18 be
       -0.17706312 0.022002788 0.025550105 -0.14908598
000210 6e 18 85 3e 21 f5 53 bd 5b 0c f0 bd 85 ba 8f bc
       0.259952 -0.051747445 -0.117211066 -0.017544994
000220 ba 22 64 be 76 71 c3 3b 02 04 3d 3e 5f d3 af 3d
       -0.22278872 0.0059644533 0.1845856 0.08585238
000230 87 a9 36 be 9e da d4 3e a9 97 3d be 5b 17 82 bc
       -0.17838107 0.41573042 -0.18514885 -0.015880277
000240 0d cf 0f 3a b0 20 60 38 9b 24 cb bb 53 a6 2d 3e
       0.000548587 5.3436204e-05 -0.006199432 0.16957979
000250 35 4c b8 3b 8d 8b 53 bd 88 55 c4 be 3a 65 80 bd
       0.005624319 -0.051646758 -0.38346505 -0.062693074
000260 76 ad c2 bd b6 4f 37 bd d5 6c 04 3e 70 48 42 be
       -0.09505741 -0.044753753 0.12932141 -0.18972945
000270 2b a1 09 3e 0f 2c 3f be 71 56 61 3d 9f 31 ca bd
       0.13440387 -0.18669151 0.055014078 -0.09872746
000280 5a 68 01 3e e1 2a a4 3e 5e c9 bb be 9f 9c 9f 3d
       0.12637463 0.32063964 -0.36677068 0.07793545
000290 b2 ec 74 3d fc 2e a6 3e 67 b3 c0 be 7d c1 13 3e
       0.059796043 0.3245772 -0.37636873 0.14429279
0002a0 ef 6d ea 3d 00 b8 7b bb 62 25 54 be e7 64 c8 3b
       0.114467494 -0.0038409233 -0.20717385 0.006115544
0002b0 57 22 01 be f2 73 bb 3c 68 ed ce bd 57 7a 8a be
       -0.12610756 0.022882435 -0.101038754 -0.27046463
0002c0 3b 4a 86 bd 3a 1b 38 be 96 b5 88 3c 74 44 61 be
       -0.06557127 -0.17979136 0.01668815 -0.21998769
0002d0 42 ec e2 bb c6 a0 52 bd 65 93 9e bd 3c 01 5c 3e
       -0.006925137 -0.051422857 -0.07742957 0.21484846
0002e0 6c 87 eb be 1c b1 71 3e 02 0a 55 bd 14 7d 87 3e
       -0.46001756 0.23602718 -0.052011497 0.26462615
0002f0 a1 d1 70 be e1 f8 df bd de c2 b6 3d 7d 23 ae bc
       -0.23517467 -0.10936142 0.08923887 -0.021257157
000300 4b 2e 5b be 5b 73 ff 3d d7 21 17 be e8 3c cb bc
       -0.21404378 0.12473174 -0.14759003 -0.024809316
000310 71 80 57 be b3 16 df bd c5 d8 94 bd e3 4b ac bd
       -0.2104509 -0.108930014 -0.07267908 -0.08412912
000320 c4 cf 94 3d 37 f2 39 bf 65 06 08 3e 01 20 30 3d
       0.07266191 -0.72635216 0.1328369 0.04299927
000330 91 7c f4 bd c4 81 61 3e 53 e5 dd be a2 51 6f 3e
       -0.11937822 0.22022158 -0.43339023 0.23370984
000340 da 35 a2 bd 9b 5c 5d 3e 2e 42 fb b8 62 8f 7d 3d
       -0.079204276 0.21617357 -0.000119809396 0.06190432
000350 32 e3 23 3e 2c 2a 0d 3d 6d 1b 09 be ca a0 6b 3e
       0.16004637 0.034464046 -0.13389368 0.23010555
000360 17 c1 30 bc 7b 8c 9f bd c1 cb 8b bd f1 ba e2 bd
       -0.010788224 -0.077904664 -0.06825972 -0.110708125
000370 de c4 43 3e 6e 08 a2 3b 4f 0a 34 3e 1e 03 82 be
       0.19118068 0.0049448526 0.17582057 -0.25393003
000380 09 84 7b 3d 80 cc d3 3c fe 72 cf bc 29 4c b0 3e
       0.061405215 0.02585435 -0.025323387 0.34433106
000390 49 d5 eb be 65 35 0e 3e 76 41 8c 3b ad 81 64 3e
       -0.4606116 0.13887556 0.0042802645 0.22315092
0003a0 73 b8 8f 3c d2 ae 73 3d 82 db 37 3e 71 1d 2d bd
       0.017544007 0.059492894 0.1795483 -0.042264406
0003b0 32 f7 ff 3c b4 7e 8e 3e 9d c2 78 bd 1d 3f ad 3d
       0.031245802 0.27831042 -0.060732473 0.084593035
0003c0 9f 19 17 be f9 e1 d0 bc d8 9f a7 3d a6 26 ed 3c
       -0.14755867 -0.025498377 0.08184785 0.028949093
0003d0 f4 99 d5 3e a6 9a 77 bd 6b 73 83 3c 3c ac 8e bd
       0.4171902 -0.06045022 0.016046247 -0.06966445
0003e0 22 91 da bc 8b 36 c8 3e 3f 2e fa be ab ff 1b 3e
       -0.026680533 0.39104113 -0.48863408 0.15234248
0003f0 62 3e 10 3d 3b 92 4d 3e f9 da f5 bc d2 e2 04 3e
       0.035215743 0.20075314 -0.03001164 0.1297715

model.0.bias f4 [32]
000000 44 06 67 bf 48 09 c9 3d 77 7b 59 bd 13 a1 06 bf
       -0.90243936 0.098162234 -0.05309626 -0.5258953
000010 82 62 b7 be 0d 57 11 bf b9 b6 ef be 76 77 1b bf
       -0.35817343 -0.56773454 -0.46819094 -0.6072916
000020 64 48 53 bf 35 82 07 bf 8e 58 0f 3f 2e 4f e6 3d
       -0.82532334 -0.52933055 0.559945 0.11245571
000030 09 aa aa be 6a e2 e4 be 63 20 b8 3e ad 66 94 bf
       -0.33332852 -0.4470399 0.3596221 -1.1593834
000040 c7 7f 53 bf 67 c7 0a bf bd 19 12 bd 99 36 98 be
       -0.8261685 -0.54210514 -0.035669077 -0.29729155
000050 a4 c7 16 bf 9c 38 46 be e7 8b cd be ec 1b 20 bf
       -0.5889838 -0.19357532 -0.401458 -0.62542605
000060 90 18 12 bf 44 9f b3 3d 51 2e 82 bf c5 fc bf 3e
       -0.5706873 0.08770612 -1.0170385 0.37497535
000070 cb 24 f3 3c 6d f5 08 bf 8f 72 0e bf f2 f1 5e be
       0.02968063 -0.5349949 -0.5564355 -0.21771982

model.3.weight f4 [32, 32]
000000 ac 6b 4d bd 6c 5f b1 bd c1 34 82 be 2e 66 a0 be
       -0.050151512 -0.086607784 -0.25430873 -0.31327957
000010 95 20 8f 3e cc 32 b0 3e 48 a3 43 3e a0 17 e6 3d
       0.27954546 0.34413755 0.19105256 0.11234975
000020 80 00 24 3e 2e 43 5d be 15 35 06 bf e8 26 d4 bd
       0.16015816 -0.21607658 -0.52424747 -0.10358983
000030 60 e1 67 be e8 4f 2a be 6a 2f ac bd 81 6f dc be
       -0.22644567 -0.16632044 -0.08407481 -0.4305382
000040 6e 28 ab bd b4 62 28 3e f7 27 a2 3d 3d ae dc be
       -0.08357321 0.16443902 0.07917779 -0.43101683
000050 36 7a cb 3d 30 e1 fa 3e e3 d4 8c be 01 cd d3 3d
       0.09935419 0.4899993 -0.2750617 0.10341836
000060 24 79 4c bc 42 c0 88 be 75 72 c9 3e 91 b6 e3 3d
       -0.012480054 -0.2670918 0.39345136 0.11118806
000070 0a ba bd be 24 e5 a8 3e 38 6a dd bd 60 52 b0 3d
       -0.37056 0.3298732 -0.10811275 0.08609462
000080 2d c4 73 3d 6c 73 26 bf 7f 08 b4 bd f4 00 78 3d
       0.05951326 -0.6501987 -0.08790683 0.060547784
000090 95 f2 a4 3d 8f b8 2b bf 6e d3 73 bf 8a 50 72 3e
       0.08054081 -0.6707849 -0.9524449 0.23663536
0000a0 2f 82 05 bf 67 cc 85 bd d9 ba cf bd 90 25 e4 3d
       -0.5215177 -0.06533127 -0.1014306 0.11139977
0000b0 e3 f0 7c 3e 3a 28 34 bf 90 a3 08 bd dc de ba bd
       0.24701266 -0.7037388 -0.03335911 -0.09124538
0000c0 7d b2 53 3e eb 13 c0 3e d1 5a 87 be 7f f3 76 3e
       0.20673557 0.37515196 -0.26436475 0.24116324
0000d0 f8 4e 6d 3e df 41 bd 3d 55 03 6d be da 74 4e 3e
       0.23174655 0.092410795 -0.23145802 0.20161763
0000e0 ae c1 ce be cd 53 f8 3d c3 33 0b 3e cf 80 c1 bd
       -0.4038214 0.12125359 0.13593964 -0.094483964
0000f0 93 10 3b 3e 59 80 22 bf 81 4d 00 bf 41 0e 31 3e
       0.18268041 -0.63477093 -0.5011826 0.17290594
000100 9e 0a 79 bc 40 08 da 3d e3 0a 2c 3e 84 d6 28 be
       -0.015200285 0.10646105 0.16801028 -0.16488081
000110 8b b3 5d 3c db 47 48 be 59 70 51 be a1 d5 88 bd
       0.013531576 -0.1955866 -0.20453013 -0.066813715
000120 c0 42 38 be 44 8e 5e bc 7a 7d a4 be a5 aa a9 bd
       -0.17994213 -0.013583723 -0.3212698 -0.08284501
000130 11 69 c9 bd e8 5f 1e be 78 b5 f5 bd cb a4 a2 bd
       -0.09834493 -0.15466273 -0.11997503 -0.07941588
000140 64 cd 3f bd 2b 08 ff bc ad bd 0c 3e 00 f2 43 3e
       -0.046826735 -0.031131824 0.1374423 0.19135284
000150 46 ea 02 3c a8 b5 95 bd cc 15 13 be 64 87 dd 3d
       0.007990425 -0.07310039 -0.14363784 0.10816839
000160 81 be 80 be 7d 93 10 be e6 47 11 bd 74 da 80 be
       -0.25145343 -0.14118762 -0.03546896 -0.25166667
000170 67 87 80 be 6c 80 85 be dd c1 90 bd 9c 2c 37 3e
       -0.25103304 -0.2607454 -0.070682265 0.17888111
000180 75 35 99 3e bb 72 10 be b0 bb b8 3d 04 9f ae 3e
       0.29923597 -0.14106266 0.090201735 0.34105694
000190 77 2b 55 3e 76 25 65 3e 3b be 72 3d 0b 1e 35 be
       0.20817362 0.22377571 0.05926345 -0.17687242
0001a0 4e 1d c3 bd b8 30 be 3d 41 ce 61 bd 35 65 0d be
       -0.09527074 0.09286636 -0.05512834 -0.13808139
0001b0 32 27 39 3e 06 9a 58 be fb 79 13 3e 9a 32 68 3e
       0.18081358 -0.21152505 0.14402 0.22675553
0001c0 7d 56 79 3e 26 d1 71 3d 9b 8b 23 3e 69 3b f4 3d
       0.24349399 0.05903735 0.15971224 0.11925394
0001d0 fd 9d 18 3e 09 3a 81 3d 49 8d 65 3e 76 e8 39 3e
       0.14904018 0.063098975 0.22417177 0.18155083
0001e0 5f 6e b8 3c 5e c2 d3 bd b7 4a 64 3d 4f 62 13 be
       0.022513567 -0.10339807 0.055735316 -0.1439297
0001f0 de 1f 38 be 0a 40 a4 bd a5 0a f4 3c 57 bb 1c be
       -0.17980906 -0.08020027 0.029790232 -0.1530584
000200 e6 63 4b 3e b9 33 91 bc e5 e0 41 bd d0 80 c9 3d
       0.19862327 -0.017724859 -0.047333617 0.09839022
000210 3e 4a 84 bd 36 5d 3a 3e 2e bb ff 3b 7c 9e 91 be
       -0.06459473 0.1819962 0.007804296 -0.28441226
000220 e3 9f f1 3c 77 80 ac 3e 23 77 42 be 02 c2 99 3e
       0.029495185 0.3369176 -0.1899076 0.3003083
000230 d1 bb f4 3c a2 b7 5d 3d 9b d5 10 3e 79 64 c1 3e
       0.029874714 0.054130204 0.14143984 0.37771967
000240 ad c2 4d 3e c4 bb 55 3e fe eb e4 bc dc 38 46 3d
       0.20093794 0.20872408 -0.027944561 0.04839407
000250 65 27 1f 3e 0f 71 48 be 75 37 7e 3e 07 7d a6 3e
       0.15542372 -0.19574378 0.24825843 0.32517263
000260 01 9a 85 3d 38 fd 3d be 66 94 7f 3e 6b a5 84 3e
       0.065235145 -0.18553627 0.24958953 0.25907454
000270 d7 b8 7f 3c fd 8f ce bc 3b fd 81 3e c4 7f 22 bf
       0.015608034 -0.025215143 0.25388512 -0.63476205
000280 05 26 86 3d b2 f3 7a bd 64 cf a1 3d c9 a9 32 bf
       0.065502204 -0.061267562 0.07900885 -0.6979032
000290 ca 86 cf bd 3a d3 be bd ab 7d 90 bd 12 79 c2 be
       -0.10133131 -0.09317632 -0.07055219 -0.37982994
0002a0 e1 86 44 bd e4 8f 03 bc ef 7d d4 be b9 fd b3 3c
       -0.047980193 -0.008029912 -0.4150233 0.02197157
0002b0 ea 13 0c bd b6 e4 10 3e aa 81 03 3e a6 e1 4c be
       -0.03419868 0.14149746 0.12842432 -0.20007953
0002c0 75 5d e9 bd 76 26 a7 bd 64 ed ae bd 67 1f 15 bf
       -0.11394779 -0.08161633 -0.085413724 -0.5825104
0002d0 49 48 a1 bd b2 99 7b be 86 1c fa 3d 96 48 07 be
       -0.078751154 -0.24570349 0.12212472 -0.13211283
0002e0 bd fb 10 be 06 7d e1 bd 48 0a 81 bd a4 05 34 bf
       -0.1415853 -0.110101745 -0.06300789 -0.70321107
0002f0 51 45 af 3e ea 4c 5e 3d a6 60 30 bd 6f 71 31 3e
       0.34232572 0.05427257 -0.04306092 0.17328428
000300 03 a9 93 3e 67 76 e6 bb f7 dd 02 3e 0a 6e 9d 3e
       0.28839883 -0.0070331576 0.12779985 0.30748016
000310 a0 b8 75 3c 18 33 68 3e ce 00 ef 3d 1b 7a bf 3d
       0.014997631 0.2267574 0.11670075 0.09349462
000320 d0 9d 11 3d f5 53 95 3e 86 73 37 be 4e 6c 84 3e
       0.035550892 0.29165617 -0.17915162 0.2586388
000330 67 f1 11 3e 8f 6d 1f be 0e 6f 00 3e 75 be 9f 3e
       0.14252244 -0.15569137 0.12542364 0.31199995
000340 51 a3 a2 3e 60 0c 68 3e 74 39 09 3d af 3a 92 3e
       0.31765226 0.2266097 0.033502057 0.28560397
000350 aa 40 be 3d 46 28 c4 be b7 46 9c 3e c4 64 9b 3e
       0.092896774 -0.38311976 0.305227 0.30350316
000360 c1 91 70 bd 2d cb d7 be 2e 69 5f 3d 53 bd ed bd
       -0.05873275 -0.42147198 0.054543667 -0.11608376
000370 8d 46 4d be 7c 63 79 3e 7c f3 e0 3c fb b7 a3 be
       -0.20046444 0.24354357 0.027459852 -0.31976303
000380 63 77 18 3d 37 e3 cc bd 9b 2d a6 3e 66 fb b9 3d
       0.03722323 -0.10004275 0.3245667 0.090811536
000390 24 f0 8f 3d 0c f1 bf bc 97 5d af 3d bd d2 89 3e
       0.07028225 -0.02343037 0.08562773 0.26918593
0003a0 da 4b 5a be 0c d6 d6 3d 03 b4 80 3d b7 ed 32 be
       -0.21317998 0.10490045 0.062843345 -0.17473494
0003b0 98 cd e9 3d 00 c5 50 3e 76 77 3c 3d 59 70 e3 3d
       0.11416167 0.2038765 0.046012364 0.11105413
0003c0 da 36 64 3d 8a f0 da bd cb 15 28 3e 06 75 cc 3c
       0.055716373 -0.106904104 0.16414563 0.024958145
0003d0 68 bf bd be 9c 8b 2a bd 58 c9 a4 be 17 4a 7c 3d
       -0.37060094 -0.041637048 -0.32184863 0.061594095
0003e0 51 a8 10 3e 89 0b 32 be a1 2f 25 3e d7 39 9e 3d
       0.14126708 -0.17387213 0.1613145 0.07725876
0003f0 b9 9d e8 3d d9 65 c7 bd e5 7b a7 bd 42 d1 15 3d
       0.11358208 -0.09736223 -0.08177928 0.036576517

model.3.bias f4 [32]
000000 60 89 f7 3e e4 e0 f1 3c a8 09 35 bf d1 b2 0a 3f
       0.48346996 0.029526182 -0.7071786 0.541791
000010 fe 13 04 3f 75 4f b5 be 4d e3 0a 3f 27 8a 4d 3f
       0.51593006 -0.35412183 0.54253083 0.8028893
000020 f1 a1 42 3f a9 72 86 bf f1 39 a9 3f fd 8d 4b 3f
       0.7602835 -1.0503742 1.3220807 0.7951353
000030 c8 1b 3d bf ce a2 1e 3f b6 3e 34 3f 82 79 95 3f
       -0.73870516 0.6196717 0.7040819 1.1677706
000040 c7 2d e9 3e 74 77 58 be f8 60 14 3f 45 49 2d 3f
       0.45542738 -0.21139318 0.5796046 0.67689925
000050 82 ba b9 3f 16 c1 7e 3f 2c 7f 0a bf df f8 34 3f
       1.4510043 0.99513376 -0.541003 0.7069225
000060 86 1c df bd a9 d4 45 3f c4 42 23 bf 7a 2d 4a 3f
       -0.10894112 0.7727762 -0.6377375 0.7897564
000070 29 62 93 3f 17 31 b5 3f d2 75 82 3f dd 30 91 3f
       1.1514331 1.4155606 1.0192206 1.1343037

model.5.weight f4 [3, 32]
000000 12 24 3d 3f c2 d6 0b 3f 04 4e 14 be 01 b3 1b 3e
       0.73883164 0.5462457 -0.14482886 0.15205003
000010 91 59 3a 3e 13 f2 ea be 76 a2 c1 3e 7f 60 11 3e
       0.1819823 -0.45887813 0.3781926 0.14196967
000020 93 2c 30 3f f7 84 2e bf 75 ba 47 3f de 7f ba 3e
       0.68818015 -0.6817164 0.78018886 0.3642568
000030 06 27 4e be f0 e4 98 3e 85 42 82 bc 27 93 a7 3e
       -0.20132074 0.29862165 -0.01590086 0.32729456
000040 24 0b 4f 3e d5 1e 16 3f b5 f1 25 3e 91 bc 5d 3e
       0.20219094 0.58640796 0.16205485 0.21653964
000050 c1 4e de 3e 29 85 95 3e 7e 4a 80 3e 41 a7 20 3e
       0.4341946 0.29203156 0.25056833 0.15688802
000060 67 ad c3 be 6c 45 e4 3d 63 e2 11 3c 62 5b 8b 3d
       -0.38218233 0.11146054 0.008904072 0.06804539
000070 94 d9 3e bd 1a 49 d5 3e 47 68 a1 3e 99 9d c3 3e
       -0.046594217 0.41657335 0.3152487 0.38206175
000080 42 7d 36 3f bf ac 19 3f 1c 9d 33 be 25 cc fc 3d
       0.7128488 0.60029215 -0.17540401 0.12343625
000090 58 a3 87 3e 8f ab e4 be 05 25 8e 3e 6e 7b 02 3e
       0.2649181 -0.4466214 0.2776262 0.12742397
0000a0 eb 7c 53 3f 44 48 2b bf 20 e4 4e 3f d4 77 e8 3e
       0.82612485 -0.66907144 0.8081684 0.45403922
0000b0 bf 57 f9 bd cd cd 13 3e 9c 3a 69 3d d5 22 9c 3e
       -0.12174939 0.14433976 0.05694066 0.30495325
0000c0 40 28 15 bd 90 b2 34 3f 5d b4 96 3e 2d 9e 6f 3d
       -0.03641534 0.70584965 0.2943448 0.058500458
0000d0 d0 b7 e5 3e f0 ed 71 3e dd a5 17 3d 0c 0d d3 3d
       0.448668 0.23625922 0.037023414 0.10305223
0000e0 1b 3b e4 be 00 3a 25 bc eb 9d 46 be 63 0c d6 3d
       -0.44576344 -0.010084629 -0.19396178 0.10451581
0000f0 b7 da 27 3e 19 28 c9 3e a3 d9 ae 3e 4c 0a d4 3e
       0.16392027 0.39288405 0.3415042 0.41414106
000100 31 73 2c 3f cf dd 17 3f f9 56 52 be e8 15 27 3e
       0.6736327 0.5932283 -0.2054099 0.1631695
000110 38 33 b4 3e 1a af d4 be ed a5 71 3e 2a a6 61 3d
       0.35195327 -0.41539842 0.23598452 0.055090107
000120 45 8c 5a 3f 7c e6 2f bf d6 cf 4a 3f 33 d4 f8 3e
       0.85370284 -0.68711066 0.7922338 0.48599395
000130 89 dc 01 be ad 22 6c 3d ea dc 26 3e 2d f6 60 3e
       -0.12681784 0.057650257 0.1629521 0.21968909
000140 5e 2e 68 bd df 16 2f 3f 85 37 77 3e cf 4a fe 3c
       -0.056684844 0.68394274 0.24142273 0.03104153
000150 89 ae b6 3e 7e ec 99 3e 98 f6 85 3b cf 13 61 3e
       0.35680035 0.30063242 0.004088234 0.21980213
000160 d9 9e ec be 13 0e dd 3d f8 f4 ec bd de 34 5e bc
       -0.4621494 0.107937 -0.115701616 -0.013562409
000170 6a 57 28 3e 9e e6 db 3e 4b 76 b4 3e 19 db e8 3e
       0.16439596 0.42949384 0.352465 0.45479658

model.5.bias f4 [3]
000000 75 87 da 3e d2 b7 ae 3e c6 80 0a 3f
       0.4268147 0.3412462 0.5410274
