models/wind_kph_ann_model.pth (torch, 27318 bytes, 6 tensors)

model.0.weight f4 [32, 154]
000000 47 18 b3 3d 14 d2 5a 3d 51 ee 71 bd e7 ac c4 be
       0.08744865 0.053423002 -0.059065167 -0.38413164
000010 97 14 91 bc 5f be 9b 3e cd ba 57 3e ca e2 db 3d
       -0.017710013 0.3041868 0.21067353 0.10736616
000020 54 c5 a5 be 77 2f 02 3d e4 77 42 be 72 fc 33 bc
       -0.32377112 0.031783547 -0.18991047 -0.010985481
000030 ea e1 fb bd a7 8f 1c 3e d4 f3 2c 3e b8 84 dc bd
       -0.12298949 0.15289174 0.16889888 -0.107675016
000040 83 a7 5e 3d 61 fd 95 be 2d b0 59 3e 50 14 b2 3d
       0.05435897 -0.29294875 0.21258612 0.086952806
000050 3c ab 11 3e c2 24 59 bd 14 97 8a bc 4f 4f c7 bd
       0.14225477 -0.05301357 -0.016917743 -0.09731924
000060 cd 43 e0 bd 47 68 35 be f7 9a ce bd 04 91 b7 3e
       -0.10950432 -0.1771556 -0.10088151 0.35852826
000070 f8 4e df bc 84 11 7c bc f4 6e 8e be cb 4f f9 bc
       -0.027259335 -0.015385035 -0.27819026 -0.030433556
000080 77 19 6a be 01 08 0f 3c 6f 72 18 be cc 9a 68 3d
       -0.22861277 0.008729936 -0.14887403 0.05678825
000090 71 f8 2d 3e 5e ef 79 bd f1 8c 06 3d d6 b1 02 be
       0.16989304 -0.061019294 0.032849256 -0.12763152
0000a0 47 85 35 3e e1 d4 cc 3d 63 23 50 3d f3 4f 39 bc
       0.17726623 0.10001541 0.050814997 -0.011310565
0000b0 ae 1f 60 bd 62 a3 cf 3d 25 9f 56 be 48 f8 27 bf
       -0.054717712 0.10138585 -0.20959146 -0.6561322
0000c0 23 38 3b be c0 f5 8f 3e 77 11 38 bd b7 45 5f 3e
       -0.18283133 0.2811718 -0.04493853 0.21803938
0000d0 42 c8 72 be 2e 28 a6 3d f9 30 50 be a7 a1 6b 3d
       -0.23709205 0.081131324 -0.20331182 0.05752721
0000e0 b6 c4 1d be 39 46 b9 3d 64 ec 66 bc 73 cc a1 bc
       -0.1540707 0.09046597 -0.014094446 -0.01975081
0000f0 63 02 e8 bd 0a da 04 3e c7 2a 5e 3e b8 a1 d3 bd
       -0.1132858 0.129738 0.21696006 -0.1033358
000100 26 7b 61 bd d5 16 03 3d d7 58 77 bb 86 97 c0 3b
       -0.055049084 0.032004196 -0.0037742162 0.005877438
000110 36 62 95 bc d0 f6 94 be 87 a1 45 be e5 0d 82 3e
       -0.018235307 -0.29094553 -0.19299899 0.25401226
000120 e0 84 ec bd 35 96 26 3d 8e f4 34 be 30 01 00 3d
       -0.115487814 0.040670592 -0.17671415 0.031251132
000130 9b 0a 38 bd c2 9b 13 bb 22 7e 03 be 25 02 8a 3d
       -0.04493199 -0.0022523259 -0.12841085 0.0673869
000140 04 2a 26 3d e6 b8 15 bd b6 2d 80 3d 8d 84 30 3d
       0.040567413 -0.036553286 0.06258719 0.04309516
000150 d4 f7 28 3e 77 07 2c 3d df 24 a6 3c 1d db 5f bd
       0.16500789 0.041999307 0.020281253 -0.054652322
000160 3e 3d 00 3e 42 12 44 bd 39 d4 4a bc 49 80 95 be
       0.12523362 -0.047868975 -0.012379699 -0.29199436
000170 f5 55 91 be 40 b3 87 3e 8f 48 1b bd 21 6d 72 3d
       -0.28385893 0.26503944 -0.037910994 0.059186105
000180 75 98 c4 be 4b 1c 82 3c db 07 97 bd 0a 62 84 bc
       -0.38397565 0.015882632 -0.07374545 -0.01616003
000190 2a bc 47 bb 42 a6 2c 3e 7e 6c 9c 3d 9c 9f b5 3d
       -0.0030477145 0.16860297 0.07637881 0.08868334
0001a0 30 f5 d7 ba bb 65 f7 3d 88 d1 55 3d 3f 4f 12 3d
       -0.001647627 0.120799504 0.052201778 0.035720106
0001b0 c6 fa 20 bd 8c b6 ae bc bb 18 1b 3e b1 07 b3 3b
       -0.039301656 -0.02132728 0.15146153 0.0054635634
0001c0 88 f3 20 3e 45 57 42 be a4 44 96 be b4 1d 99 3e
       0.157179 -0.18978603 -0.29349244 0.29905474
0001d0 ca b2 f0 bc 9f 76 b3 3d 9e ef 1a be ab ba 53 3e
       -0.029382128 0.087628596 -0.15130469 0.20676677
0001e0 ad fa 1e be 08 cc 87 bc ee 40 2a bd 3f 71 6c 3d
       -0.15525313 -0.016576782 -0.041565828 0.057725187
0001f0 3d 62 04 bd 33 ca 4f bc b5 41 14 3d dc d6 b1 3d
       -0.03232025 -0.012682485 0.036195476 0.08683559
000200 eb ae bd bd 9d 83 51 bd da cf ad bd 40 3b 7a bd
       -0.092618786 -0.051150907 -0.0848691 -0.06109166
000210 f0 23 eb 3d 4d 72 e2 3c 85 a8 8b be c8 d8 a3 3d
       0.11481464 0.027642393 -0.27277008 0.08000332
000220 42 64 b9 be 4b 05 73 3e ad 9f dc 3d 25 57 ee 3c
       -0.36209303 0.23732488 0.10772643 0.029094288
000230 54 de d3 be dd cb b8 3e e3 b0 29 bd aa db a7 bd
       -0.4138056 0.36093035 -0.041428458 -0.081961945
000240 42 42 f2 bc 6c 8b 36 3d 03 b8 cb bd 32 cd 4d bc
       -0.02957261 0.044566557 -0.09947207 -0.012561129
000250 70 21 a2 bd f7 6c da 3d 3d 1c 96 be 0e 53 3d bd
       -0.07916534 0.10665315 -0.2931842 -0.046221785
000260 97 a9 9b 3c 1e 9a 63 be c7 50 d3 bd de a4 a1 3d
       0.019001765 -0.2222676 -0.103181414 0.07892774
000270 67 e3 60 3e ec 83 b7 3d d9 cf 96 3d ab 26 36 be
       0.21961747 0.08960709 0.073638625 -0.17788188
000280 85 c2 15 be af 4c bb bd f9 de 7e 3e 7a 6e d7 3d
       -0.14624985 -0.091454856 0.24889745 0.105191186
000290 ef fe 86 3e 80 b8 2e bd 4e e6 00 be 60 fe 67 3c
       0.26366374 -0.04265642 -0.12587854 0.014159769
0002a0 a7 cb ae be 5a a2 42 be c1 07 2a bd f6 fa f0 bd
       -0.3413975 -0.19007245 -0.0415113 -0.11766617
0002b0 2d 10 20 be 68 d6 a5 be 98 0c ca bd f9 ac 02 bb
       -0.1563117 -0.3239014 -0.09865683 -0.0019939526
0002c0 82 f4 b0 bd cd e7 eb bd 67 60 e8 3e 6b 9c 7e 3d
       -0.08640386 -0.11518822 0.4538605 0.06216089
0002d0 1a 70 9c 3d 4d e1 0c 3a f7 9c e2 3c 84 46 1b be
       0.07638569 0.00053741486 0.027662737 -0.15163618
0002e0 f5 17 8b 3e a0 c5 65 3e 3a 7d 8e 3e 3e 2f c4 3d
       0.27166715 0.22438669 0.27829915 0.09579323
0002f0 dc e1 af be b4 13 00 3e bc 54 2c be db 4c f6 bd
       -0.34352005 0.12507516 -0.16829199 -0.12026378
000300 3d b6 88 bd de dc 3e be ef bb a9 bc 7f 91 07 be
       -0.06675384 -0.18638942 -0.020719497 -0.13239096
000310 ef 41 89 3b 44 34 d1 3a de 32 85 ba a3 99 96 bb
       0.004188768 0.0015961011 -0.0010162254 -0.0045959516
000320 25 52 e5 3e 31 68 c3 3d a5 8d f2 3d 25 b0 4d 3d
       0.44789234 0.09541357 0.11843423 0.050216813
000330 23 2a dc bb 0f 66 76 be f5 97 58 3e fd 06 0b 3e
       -0.0067188903 -0.2406237 0.21151717 0.13576885
000340 88 3f a1 3e 7c 7b 64 3c 8c f7 9b bd d8 92 32 3d
       0.31493783 0.013945457 -0.07615575 0.043597072
000350 5d 90 64 be c1 28 bf bd f0 47 a9 3c cd 30 50 be
       -0.22320695 -0.09333945 0.020664185 -0.20331116
000360 83 f9 16 bd ed 4e bb 3d b6 e1 d6 3c 79 34 58 3d
       -0.036859047 0.09145913 0.026230674 0.052784417
000370 c3 76 ee 3d 4c f0 60 bd 61 62 fd 3d a1 31 b1 3c
       0.11643746 -0.054916665 0.1237228 0.02163011
000380 a7 30 f5 3e f2 c1 bb bd 48 d9 8a bc 55 2c 1e be
       0.4788868 -0.091678515 -0.01694931 -0.15446599
000390 c6 d0 88 3e 08 d3 46 3e 58 f6 4c 3e 20 6d e9 bd
       0.26721781 0.1941644 0.20015848 -0.11397767
0003a0 5a 02 c7 3d ea 25 2a 3e bd fc 18 be 54 eb 90 bd
       0.097172454 0.16616026 -0.14940162 -0.07076135
0003b0 4c 54 d7 bd d9 d2 2c be 2c 6b 08 bd e1 58 41 be
       -0.10514125 -0.16877307 -0.033305332 -0.18881561
0003c0 e1 a5 5a bc a7 c0 9a 3d b2 82 8d 3b 34 fa a9 bd
       -0.013345213 0.07556277 0.0043185586 -0.082996756
0003d0 7f 29 47 3d aa b4 4a 3e 02 c3 39 3e e6 47 d1 bd
       0.048623558 0.1979548 0.18140796 -0.10218792
0003e0 cf 4b a4 bd f1 f5 23 be 8e 25 31 3e 21 3f 78 3d
       -0.08022272 -0.16011788 0.17299482 0.06060708
0003f0 f0 11 32 3e 2f e4 8b bd ad d0 af 3d 34 44 06 3e
       0.17389655 -0.06830632 0.085847236 0.13111955

model.0.bias f4 [32]
000000 d3 24 84 be d7 bb 2f 3e 23 53 7d 3e 74 1a c0 bd
       -0.25809345 0.17161499 0.24738745 -0.093800455
000010 ff db 9f be ad 6e 44 bf c0 e7 23 bf a7 70 d9 bc
       -0.3122253 -0.7673138 -0.640255 -0.026542975
000020 5a 73 06 bf fa a5 b8 be de 61 95 be 08 87 02 bf
       -0.5251976 -0.3606413 -0.2917623 -0.5098729
000030 3d 39 81 bf 8c 12 4f bf be 26 5b 3d cb aa 88 be
       -1.0095593 -0.80887675 0.053503744 -0.26692805
000040 1a 80 93 3b 26 f5 1a bf 8a c5 7a be 41 52 f7 3e
       0.004501355 -0.60530317 -0.24489418 0.48304942
000050 53 36 48 bf 17 f4 01 be 36 b3 93 be b1 ec 80 be
       -0.7820789 -0.12690769 -0.28847665 -0.2518058
000060 15 96 53 bf 1a 99 1e be 07 8b 73 be 51 3d c2 bd
       -0.8265088 -0.15488091 -0.23783503 -0.094843514
000070 e8 8e ac 3d a7 90 96 3d 82 6a e6 3e 82 f6 2d bf
       0.08425695 0.07351809 0.45003134 -0.67954266

model.3.weight f4 [32, 32]
000000 89 d0 4d be 63 54 10 3e 90 d5 ab bb 47 c9 f1 3c
       -0.20099081 0.14094691 -0.0052439645 0.029514922
000010 6a 19 44 3d 7e 8f 0c bd 18 fb 12 be e7 c9 3b bc
       0.0478758 -0.034316532 -0.14353597 -0.0114617115
000020 95 97 4a 3e c0 d0 44 3e 7f 73 d0 3e d3 90 38 3d
       0.19784386 0.19220257 0.40713117 0.04505999
000030 6b 96 81 3e f7 d8 9a 3e 82 2a 73 3c 34 e7 93 3d
       0.25310072 0.30243656 0.014841678 0.07221833
000040 8a 87 81 3e 37 c0 48 3e 19 9c 9a 3e d0 0a 43 bd
       0.2529872 0.19604574 0.30197218 -0.047617733
000050 74 6e bb 3d ce fa e2 3d 72 8f 21 3e 40 d0 9a 3e
       0.09151927 0.110829934 0.15777376 0.30237007
000060 cb f3 1b be 9d 00 3e 3e 9e ce 94 3e e0 e2 63 3e
       -0.15229718 0.18554921 0.29063886 0.22254515
000070 03 d2 b4 bc 34 d2 56 3d e6 91 5d bd cd 56 8b 3d
       -0.022072798 0.05244656 -0.054094218 0.06803665
000080 3b 36 35 be 8f d8 7b 3d 79 6c a4 3d de 18 56 3e
       -0.17696469 0.061485823 0.08028502 0.20907924
000090 ba 73 1b 3e f3 64 95 be ab da 55 bd ba 7d 6b 3e
       0.15180865 -0.2917858 -0.05221049 0.2299718
0000a0 a0 fd 36 be 7a 1c 2b bd 59 43 6c 3d 2a 9b 9d bd
       -0.17870188 -0.041775204 0.057681415 -0.07695611
0000b0 13 fc 2b bc db 95 5f 3e 43 06 0f 3e d8 b1 bf 3e
       -0.010497111 0.21834509 0.13967232 0.37440372
0000c0 5a 7f 81 be e9 ec 27 be 97 50 d9 bd a3 3f ec bd
       -0.25292474 -0.16398968 -0.106110744 -0.11535575
0000d0 21 d0 b0 be 58 9d 88 3e 3f 6e 37 3e 82 38 57 be
       -0.3453379 0.26682544 0.1791315 -0.2101765
0000e0 08 20 00 3e c8 2b 24 3e 46 12 1f be 37 3d a5 3c
       0.12512219 0.16032326 -0.15534315 0.020170791
0000f0 da cf 51 3e 43 b0 ac 3e ec 24 a6 3e 5f e6 3a 3d
       0.20489445 0.33728227 0.32450044 0.045629855
000100 fd 8a e4 bd eb 4a 7b 3d a8 39 38 bd 25 d5 2e 3e
       -0.111593224 0.061350744 -0.04497686 0.17073496
000110 c8 6a c7 bd e4 35 20 be 0d c7 8d bd 12 b0 4b be
       -0.09737164 -0.15645558 -0.069227315 -0.19891384
000120 42 fe d6 bc 9c 1a 40 3d 0b 7f 13 be 7f 07 f0 3d
       -0.026244286 0.046900377 -0.14403932 0.1172018
000130 5e 85 a9 be 60 de 5b 3b 60 bf bb bd 8a ce 2f be
       -0.33109564 0.0033549294 -0.09167361 -0.17168632
000140 21 f0 39 be 52 ff 30 bd ac 5b 64 3e a2 72 4d be
       -0.18158008 -0.043212242 0.22300595 -0.2006326
000150 1e cd 5f bc 5d a3 19 be 92 38 ee bd 5f 9a 9c bc
       -0.013659744 -0.15003724 -0.11631884 -0.019116579
000160 90 72 70 be 75 46 77 3e cc b4 34 bb 27 26 ae be
       -0.23481202 0.24147971 -0.0027573584 -0.34013483
000170 93 1d f6 bd cf 1c 19 bd d7 95 2b be af 01 e5 bd
       -0.120173596 -0.03738099 -0.16756378 -0.11181962
000180 de 38 1e 3c a2 af b6 be 68 a1 b6 be 59 bb 9b 3d
       0.009657113 -0.35680872 -0.35670018 0.07604093
000190 58 5d b5 3e 83 7c fb 3d e2 ea 86 be d7 42 12 3e
       0.35422778 0.12279608 -0.26351076 0.1428331
0001a0 f8 c2 e7 3d 46 1f 2d 3e b5 21 b5 3d 07 86 7d 3e
       0.11316484 0.16906461 0.0884432 0.24758159
0001b0 77 c3 ee 3c a8 bd 82 bc 92 e3 21 bd be 06 4d 3d
       0.02914594 -0.015959576 -0.03952367 0.050055258
0001c0 cd 3b ee bd f6 3f cf 3e b4 8f bb 3e e0 3d 93 3d
       -0.116325 0.40478486 0.36633074 0.07189536
0001d0 30 80 1a bd 31 f7 c6 3e d6 4b ae bd 76 38 a3 bd
       -0.037719905 0.38860467 -0.08510558 -0.079697534
0001e0 a8 dc 5c be 2a f6 1f 3e 23 18 35 bd ad 2e 8a bd
       -0.21568549 0.15621248 -0.04421247 -0.06747184
0001f0 6a 88 82 bc 04 5c c9 bc 69 27 26 bd d8 42 87 be
       -0.015934188 -0.02458001 -0.04056493 -0.26418185
000200 9c 1a 4f be 24 da 8d be 7a 93 dc bd e2 4a a0 be
       -0.20224994 -0.2770549 -0.107703164 -0.3130713
000210 3b b6 82 be c0 ac be 3d d4 a4 fd 3c 80 7b b1 bd
       -0.25529656 0.09310293 0.030962385 -0.08666134
000220 36 98 63 3d 74 be 8f be bf 13 47 3d 85 95 05 bb
       0.05556508 -0.28074992 0.048602816 -0.002038331
000230 95 fe 86 be 65 52 20 bd 5c ac e0 3c 2b f6 be be
       -0.26366106 -0.039141078 0.027425937 -0.37297186
000240 a5 80 7d bb 9f ee 57 be ef ab 90 be b5 6c 4f bd
       -0.0038681414 -0.2108712 -0.28256175 -0.05064078
000250 fe 61 15 be 15 8d 70 3d 09 0e a0 be 9c 6e de bd
       -0.14588162 0.058728296 -0.31260708 -0.10860941
000260 20 1f a0 3d d5 af af be 0d 0b b3 3d 58 ad fb 3b
       0.078184366 -0.34313837 0.08742342 0.0076805763
000270 00 25 8c be a7 e0 d9 be 78 c7 bf be 2b f3 1b 3e
       -0.2737198 -0.4255421 -0.3745687 0.1522948
000280 bd 1e bb bc 29 85 ab be f8 ca ef be 1b 30 65 be
       -0.022841806 -0.3350003 -0.4683454 -0.22381632
000290 13 29 2d 3e a2 eb 2f 3e 45 35 04 3d cb af 0b 3e
       0.169102 0.1717973 0.032277364 0.13641278
0002a0 4c 15 91 3d 05 b6 af bd 4a aa 10 be 35 7e 19 bc
       0.0708414 -0.08579639 -0.1412746 -0.009368469
0002b0 8a fd 0b 3f db 1b 54 bd 38 83 9e 3d 2c 49 82 3d
       0.54683745 -0.051784378 0.07739872 0.06361613
0002c0 cc 6b 37 3e 3c 15 11 3e 01 42 c4 3e ff fa 3b 3e
       0.17912215 0.14168257 0.38331607 0.18357466
0002d0 97 f2 1f 3d a7 73 d3 bd 3f 1f 4d be 56 2e 80 bd
       0.03904971 -0.10324793 -0.2003145 -0.06258838
0002e0 d8 2e 10 be 9c b8 68 3d bb 49 07 3e 55 28 80 3e
       -0.1408037 0.056816682 0.1321172 0.2503077
0002f0 c4 a3 04 bd 15 0f a3 3e 54 7f 20 be dc 9c 59 3e
       -0.03238274 0.31847444 -0.15673572 0.21251243
000300 cb 01 84 be 92 db 90 be b2 04 8b be 24 0a c1 be
       -0.25782618 -0.2829252 -0.2715202 -0.3770305
000310 da d7 66 3d b1 99 8d bd 8c 86 41 3e be cd 75 be
       0.056358196 -0.0691408 0.18898982 -0.24004266
000320 91 42 85 3e 42 23 c2 3d b2 78 ae be 8e f8 18 bf
       0.2602735 0.09479381 -0.34076458 -0.59754264
000330 db ab ae 3e dd 88 a6 3e d2 c5 8a be 99 ae 01 bd
       0.3411549 0.32526293 -0.2710405 -0.03166065
000340 76 d3 c0 bd 97 6b de 3a 2d 07 ee bc cb 58 94 be
       -0.09415333 0.001696932 -0.029056156 -0.28973994
000350 e2 2a 91 be 5e 85 b5 3c 6a 86 05 bf 00 42 30 be
       -0.2835303 0.022158321 -0.52158225 -0.17212677
000360 38 a7 bc 3e 8b 18 3f bf 60 0a dc 3d 37 d5 76 be
       0.36846328 -0.74646825 0.107441664 -0.24104773
000370 2f ae 04 be 1c 07 f7 be f0 5b c8 be 2a d1 1e bf
       -0.12957071 -0.48247612 -0.39132643 -0.6203791
000380 b0 9d 3f 3d 72 16 72 3e 68 ef af be af f0 0b bb
       0.046781242 0.23641375 -0.3436234 -0.0021353175
000390 18 b3 01 bf c4 2c 73 3d 73 11 5c 3e 23 23 fa 3d
       -0.506639 0.059368864 0.21491031 0.12213733
0003a0 a3 10 a1 bc d5 cd a0 3d 6f 76 3a bd 30 fe d5 3d
       -0.019661253 0.07851759 -0.045523103 0.10448873
0003b0 1f dc fb 3d bd 90 db 3d 73 b0 a9 be a6 bb 3a bd
       0.12297844 0.10720966 -0.33142433 -0.04558911
0003c0 05 ac 3d be e4 62 69 3e 52 8b ea 3c 39 dd 36 3d
       -0.18522651 0.2279163 0.028630886 0.044644568
0003d0 95 16 03 3f 65 56 06 bf 09 5f c0 3d 9f 83 87 3e
       0.5120633 -0.5247558 0.093931265 0.26467606
0003e0 a5 7b 4d 3e 96 af 7d 3e 23 12 c2 3d 7b c0 08 3e
       0.20066698 0.24774012 0.094761156 0.13354675
0003f0 ff c6 d4 3e f9 31 0e bf 28 53 d6 be 36 ae 0e 3d
       0.41558072 -0.55545 -0.41860318 0.03483411

model.3.bias f4 [32]
000000 2a a6 f7 3e e7 bb 99 3f e9 41 67 bf 90 c7 83 3f
       0.4836896 1.2010468 -0.90334946 1.0295277
000010 db bf 57 bf b4 16 32 3f 97 17 1b be d0 56 8a 3e
       -0.84277123 0.6956589 -0.15145718 0.27019358
000020 51 89 ad bc 7b 86 5d 3f 7c 66 5b 3f 99 31 99 3f
       -0.021183642 0.86533326 0.85703254 1.1968261
000030 86 e2 3e be 71 eb d5 3e 4f 7a 88 3f a5 06 b5 3f
       -0.186411 0.4178119 1.0662326 1.4142653
000040 6d 14 61 3f c2 7a 84 3f aa 35 9d be ba 3f 2b bf
       0.8792179 1.0349963 -0.30705005 -0.66894114
000050 1c 61 96 bf c4 db 23 bf 28 85 67 bf 6c 05 a1 bf
       -1.1748385 -0.6400721 -0.90437555 -1.257978
000060 a3 18 a9 3f ba ba 2d 3e 0d 45 88 3f 66 fb a2 3f
       1.3210644 0.16965762 1.0646073 1.2732971
000070 f9 79 1e be ba 97 e3 3c 2f 21 86 3f e3 54 9e 3f
       -0.15476216 0.02778231 1.0478877 1.2369655

model.5.weight f4 [3, 32]
000000 55 a9 a2 3e 7a 6d 6f 3e 9b 2c 40 be 9c bd 86 3e
       0.31769815 0.23381606 -0.18767016 0.26316535
000010 ef 73 94 be fc e9 7d 3e e3 79 f0 3e 74 76 e4 3e
       -0.289947 0.24796289 0.46967992 0.44621623
000020 57 d1 cd 3e ea d8 ba 3e 46 e7 3b 3e 87 de ae 3e
       0.40198776 0.36493617 0.18349943 0.3415415
000030 21 31 3e bf 11 80 28 3f c3 5b 74 3e 19 04 3c 3f
       -0.74293715 0.65820414 0.2386313 0.7344375
000040 60 3f 02 3e 01 ba 7d 3e 9c f0 08 be a2 c1 2d be
       0.12719488 0.24777986 -0.13373035 -0.16968396
000050 42 75 98 3c 8e 83 90 be 3a fd 9f be 16 10 60 be
       0.0186106 -0.28225368 -0.31247884 -0.21881136
000060 7f 50 d0 3d 9a 86 01 3f ae 90 32 3e 1e a4 c1 3d
       0.101716034 0.5059601 0.17438003 0.09455131
000070 31 22 59 be 5d 89 21 3f d2 d3 8e 3e 55 3d 54 3e
       -0.21204449 0.63100225 0.2789598 0.20726521
000080 06 00 ab 3d 0f 23 9b 3e fd a6 9b be 89 58 ea 3e
       0.08349614 0.30300185 -0.3040084 0.45770672
000090 9d 76 96 be 31 ea a6 3e 3b 20 0b 3f 5e 2e db 3e
       -0.2938737 0.3260055 0.54346055 0.42808813
0000a0 55 ad e3 3e 61 db b4 3e 6a fc 51 3d ca c0 af 3e
       0.4446818 0.35323623 0.05126611 0.34326774
0000b0 5a 7f 42 bf b0 ab 06 3f 6c dd 34 3e da 06 3c 3f
       -0.75975573 0.52605724 0.1766259 0.73447955
0000c0 0c fb 3f 3e 66 6c 21 3e 4d ba 95 be ff 20 e3 bd
       0.1874811 0.15764007 -0.292437 -0.11090278
0000d0 fe 2e 87 be 67 d1 2d be 3c 9a 0b be 2b fe 47 be
       -0.2640304 -0.16974412 -0.13633054 -0.19530551
0000e0 62 0d f4 3d 26 d4 ff 3e 25 c4 88 3d e8 91 b0 3d
       0.11916615 0.49966544 0.066780366 0.086215794
0000f0 46 73 87 be 91 6b 38 3f e1 a8 a0 3e f3 4c 99 3e
       -0.26455134 0.72039133 0.31378844 0.2994152
000100 fa e8 93 bd 18 2b a4 3e 36 83 76 be 53 6e e4 3e
       -0.07222171 0.32064128 -0.2407349 0.4461542
000110 66 d3 bd bd d8 10 99 3e fe 0b 1d 3f 63 b4 cc 3e
       -0.09268837 0.29895663 0.61346424 0.39981374
000120 3c 74 c4 3e bf 16 a3 3e 12 df 6a 3e 30 b8 d9 3e
       0.3836993 0.3185329 0.22936657 0.42523336
000130 4e 5c 40 bf 6f b6 f1 3e 46 de 0c 3e 24 53 3f 3f
       -0.75140846 0.47209498 0.13756666 0.7473624
000140 2c ac 8c 3e 1b 81 52 3d 7c eb 8e be c8 ff 51 be
       0.27475107 0.051392656 -0.27914035 -0.20507729
000150 67 1d 8b be b0 92 cf bd 54 7d 28 be dd 1d 87 be
       -0.2717087 -0.101354 -0.16454059 -0.2638997
000160 c3 06 55 3e cd 12 1f 3f 8b 97 2f 3e ad f9 fb 3d
       0.2080336 0.6213806 0.17147653 0.12303481
000170 52 31 c3 be 6b 12 3d 3f c8 e0 ac 3e 2e 62 3b 3e
       -0.38123566 0.7385623 0.33765244 0.18299171

model.5.bias f4 [3]
000000 0a 03 14 3f 50 7a 33 3f 01 5c 07 3f
       0.5781714 0.7010851 0.5287476
