models/wind_kph_lstm_model.pth (torch, 66720 bytes, 10 tensors)

lstm.weight_ih_l0 f4 [128, 22]
00000000: d5f3 473e 9c2d d53d 2cde b53e bd93 6abd
00000010: 7480 8b3d 10b3 f9bd 611b 983e 08e6 d43e
00000020: 5bb8 943d 00e2 b93e c31b 96bc 0fe9 cc3e
00000030: 813d 0abe 4edb 76be 7381 0fbd 473a b4be
00000040: 0ab7 61bc ed20 aabe f3e9 f2bd f4b4 afbd
00000050: 12eb 8a3d 3b21 1ebd 2b42 3f3d 86a2 f5be
00000060: fadb 9a3e 186a da3d 75be 4abe 054c f33d
00000070: b18b 34bd 66c7 1fbe cff3 2fbe dc15 c8bd
00000080: 1d46 0fbe 40e5 973e 9f0d e8bc 4a71 a23e
00000090: 4f65 41be 6596 06be 8cbd 433d d78e 2ebe
000000a0: 480e 6abb 343f 743e 5b7b b43d b982 5bbe
000000b0: 7d63 6abb ab8b e2bd 35d6 d53e 9c34 4ebe
000000c0: 97cd 113e 812e 7bbb ad02 a23c 6c5f cbbd
000000d0: 5c6f 173e 10ca c33d 2d1d 76bd c4ce 043e
000000e0: bd80 4b3d d00d 4b3b f4f9 e3bc 1c5e fb3d
000000f0: 0a72 40bb ba67 e5ba 8507 6c3d 4ed5 0ebe
00000100: 6eaf 8bbd d650 43be 2cd5 753e 43b9 283e
00000110: c802 a83b 1311 2ebe 19fb fa3d 52a0 9b3e
00000120: 096d 49bc 41c3 453e d49f 6b3e b56d a3be
00000130: 1aa6 2cbe aedb 8cbd 4862 8abe 3946 983d
00000140: d1ea a43d 14f4 06be ed4b 32be 728f d2bd
00000150: d8d6 583e a0f2 603d cf9c e8bd 8d7a 29be
00000160: 8454 123e a649 a2be e1f5 89be cfc9 7cbd
00000170: 85f5 883e 3948 693e 2b8c 633e fff8 7d3e
00000180: 5abb 803c 04fa f63d 49c4 b13c a3d7 d53d
00000190: fc2c 813e 8207 fdbd fa52 cdbd 94b6 313d
000001a0: dafc 0f3e 896d e23c e3a2 52ba 4899 12be
000001b0: 80eb 0f3e 2b16 07bd 90f3 a63d 6844 31bf
000001c0: e178 233e 839b 863e 35fb 163d 340b 7b3d
000001d0: de5f 283e 1a2c 863d c1af 89be 49a6 7abb
000001e0: a6fd 12be 8f4b c7be e864 08be a351 8cbd
000001f0: 4cc6 843c 4907 67be 9ae1 b0bc 64ba b93d
00000200: 1fd6 36be f8db 9ebd 7564 11bb efe6 85be
00000210: dc87 df3d e587 bcba 1625 3f3d 93f7 303e
00000220: 8a09 ac3d b5d9 06be 1f9a cdbd ef83 b0be
00000230: 7c35 d7bd d64c c73d 3dfe 2fbd aba1 0abe
00000240: 9dde 553e ea3f 933e c738 d83c 94b1 fe3d
00000250: 90a6 543e 9801 9cbe 9259 99bd 841e 303e
00000260: 06e8 d7bd c834 ab3e 3283 53be 074c 433d
00000270: 6507 b6bd 1cc2 603b 519f 82be 56a1 1b3b
00000280: 3c0d 04be cdb7 39be cef3 96bd f8b4 57be
00000290: a404 483e acce 8b3e ff91 a3be 856d 48be
000002a0: 6286 7f3d d4fc 8d3b 4145 a7bd 6ba3 a4bc
000002b0: 8fbf 48be 09e1 58be d1a5 943e 8c62 bebe
000002c0: a105 75be 7ffe ac3d 5d73 19be 3de7 d7bd
000002d0: 4eef 61be 75f2 a7bd 7ef1 78be dbb1 cebd
000002e0: 4233 b63d f4b3 e53d 8582 64be e96b ef3c
000002f0: b356 55be 6284 6fbe 1925 c4bd 4d52 6abe
00000300: d0fc a3bd adf9 473d 533a c2bd 9653 51be
00000310: 8dca 493e d384 0cbe 08cc 033e 239f 6dbd
00000320: 7571 10be c407 acbe 21df 52be 3369 893d
00000330: 189d 813e 4c04 97bd 650c 6f3d 96e1 313d
00000340: 2ae3 fb3d 2053 7abd 7775 54be cba2 a53d
00000350: b322 87be 5b03 46bb 9637 02be 4f14 173e
00000360: 483e ba3d d707 56bc a2ea 8abc 1c70 10bd
00000370: 4539 883d fa95 e9be e073 86be c86a f33d
00000380: e8cc ee3d 99cf 36bd fc50 9c3e 4b9c 913e
00000390: 11eb 9c3e ad52 30be 8556 6fbe 5f84 18be
000003a0: 366e 473d f612 73be fe33 2dbe c1e9 eabc
000003b0: a89b c3bd 254d 36bd b9b1 d9bd 6a6b 00be
000003c0: 0557 5abe 5279 6a3d ec32 f8bd acef e43c
000003d0: 13c0 89be 5627 083d 1cf9 a53d d985 8e3d
000003e0: c0b8 67bd 0004 883d a515 17be 68b6 803e
000003f0: 4ab6 623e eee8 bbbc 3fe3 f23d 635c 0c3d
0.19526608 0.1040909 0.35521066 -0.0572698 0.0681161 -0.121923566 0.29708388 0.4158175
0.072617255 0.36305237 -0.018323785 0.4002156 -0.13500024 -0.24107096 -0.03503556 -0.35200712
-0.01377655 -0.33228245 -0.118610285 -0.08579436 0.06783117 -0.03860591 0.046693962 -0.47975558
0.30245954 0.10664767 -0.19799216 0.11879734 -0.044078533 -0.15603408 -0.1718285 -0.09769794
-0.1399159 0.2966709 -0.028326808 0.31727058 -0.18886302 -0.13143308 0.047788188 -0.17046677
-0.0035714079 0.23852235 0.08812591 -0.21436585 -0.0035764866 -0.11061796 0.4176499 -0.20137256
0.14238583 -0.003832728 0.019776667 -0.0993031 0.14788574 0.09560025 -0.060086418 0.129695
0.04968332 0.0030983575 -0.027829148 0.12273809 -0.0029364848 -0.0017502226 0.05762436 -0.13948557
-0.0682057 -0.19073805 0.240071 0.16476922 0.0051272847 -0.16998701 0.12254924 0.30395752
-0.012294062 0.19312765 0.23010188 -0.31919637 -0.16860238 -0.06877838 -0.27028108 0.07435269
0.080526 -0.13179046 -0.17411776 -0.10281266 0.21175706 0.054918885 -0.11358034 -0.16550656
0.14290053 -0.31696814 -0.26945403 -0.061715897 0.26749817 0.22781457 0.22221439 0.24802016
0.015714336 0.120594054 0.021700041 0.1044152 0.25229633 -0.123549476 -0.10025592 0.04338701
0.14061299 0.027640121 -0.0008035136 -0.14316285 0.1405468 -0.032980125 0.081519246 -0.69245005
0.1596408 0.2629052 0.036860663 0.06128998 0.1644282 0.065513805 -0.26891902 -0.0038246086
-0.14354572 -0.38924834 -0.13319743 -0.068515085 0.016207837 -0.22561373 -0.02159195 0.09068754
-0.17855118 -0.077567995 -0.0022185121 -0.2615275 0.10914585 -0.0014383761 0.046666227 0.17281942
0.08400257 -0.13168986 -0.10039162 -0.34475657 -0.10508248 0.09731452 -0.04296707 -0.13538234
0.20885701 0.287597 0.026394261 0.12436214 0.20766664 -0.30469966 -0.07487787 0.17199141
-0.10542302 0.33438706 -0.20655516 0.047679927 -0.08888129 0.0034295386 -0.25512174 0.0023747287
-0.12895674 -0.1813652 -0.07370721 -0.21065128 0.1953302 0.27306116 -0.31947324 -0.19573028
0.062384017 0.004333118 -0.08167506 -0.020097455 -0.19604324 -0.21179594 0.29032758 -0.3718456
-0.23927929 0.08446979 -0.14985414 -0.10542152 -0.22063944 -0.08200542 -0.24310872 -0.10092517
0.088964954 0.11215964 -0.22315414 0.02922626 -0.20833854 -0.23390344 -0.09577388 -0.22882958
-0.080072045 0.048822094 -0.09483781 -0.20442042 0.19706173 -0.13722543 0.128708 -0.058013093
-0.1410578 -0.33599675 -0.2059293 0.06709518 0.25315166 -0.073738664 0.05836143 0.043428026
0.122991875 -0.06111443 -0.20747934 0.08087691 -0.2639366 -0.0030214402 -0.12716517 0.14753841
0.090939105 -0.013063393 -0.016957585 -0.035263166 0.06651548 -0.45622236 -0.2626028 0.11885601
0.116601765 -0.044631574 0.30530536 0.28439555 0.3064809 -0.17219038 -0.23372848 -0.14894246
0.04868909 -0.23737702 -0.16914365 -0.028675916 -0.095511734 -0.044507165 -0.10629601 -0.12540975
-0.21322258 0.057244606 -0.121190876 0.027946316 -0.26904353 0.03324064 0.081041545 0.06959123
-0.056572676 0.06641388 -0.1475435 0.25139165 0.2213985 -0.022938218 0.1185975 0.034267794

lstm.weight_hh_l0 f4 [128, 32]
00000000: ab13 2e3e 82da b63c bb88 d6bd a367 51be
00000010: e012 a03d 3f4a 6bbd ab3d cfbb 1e27 7bbd
00000020: a0f9 743e c197 10be 9053 0abe 0cf3 dc3d
00000030: 4647 f03d e2cd 08be 3675 083e 8a79 a4be
00000040: 6daf 543d c9c1 a23e 46db 76be 5ea6 96be
00000050: 7478 e5bd 8324 c3bd 742c 533e 7f39 0a3e
00000060: 8cde 69ba 096d 92be 6564 c2ba f3ae c83e
00000070: a2b5 b7bc d610 4b3e a97d f9bd 4f16 47bd
00000080: 5901 36ba 7475 4ebb 4dcd bdbe ba14 c33c
00000090: 7f35 0a3c e341 653e 46a6 e3bd 09dc 5a3e
000000a0: 366a 643e 55ad 94bd fb0c 28be 4fcc 5a3e
000000b0: 96c5 0cbd 7a03 d83d bb15 2cbe f4ea ba3d
000000c0: d88c 28be 0b2f 5fbe a958 433e cac4 e83d
000000d0: 328b 88be 9917 87bd 023a 583d 1c21 203e
000000e0: d43c 49be 1327 a83d e8d0 073d b5a6 a1bd
000000f0: 6b4f 1a3e db19 f23c 3397 9f3d e33a 733b
00000100: 9068 b53e 7741 f83c e6ba 39be 1641 a13e
00000110: 73cf bc3d bcf8 85bd 2c94 bd3d 729b 493e
00000120: 7317 c8bd dae7 cebe 6e56 5c3e e5ac 52be
00000130: 5774 a53b 2aa7 8f3e ef4b f0bd 776c 25bd
00000140: 4900 f53d a58c 1b3e dc44 aebe eb42 f5bd
00000150: 5756 adbe 9e82 09be 607c dd3d 2b2c f23d
00000160: d2a7 fdbe 51d0 c53e 0dc7 3bbe 47dc 883c
00000170: ba61 4dbe fd11 223e 8dce aebe e259 083e
00000180: 079f f63d 451c 70be 28b6 a43d 45f4 bcbd
00000190: 696d debd e328 5a3e ae8b 6f3e ea8e afbd
000001a0: 3789 28be be9d 8dbe 253e 45bd 4d12 b1be
000001b0: 71fe 573e 2f89 303d 7f42 c53d caaf e73d
000001c0: e929 c83e c480 bebc 25cc 6e3c 0928 99bc
000001d0: 77d2 7ebd 1892 ae3b ad8f 963e c6c6 e0bd
000001e0: 812e 04be 5bfd 5bbd 8dbf b8be 6ca3 3a3d
000001f0: cba8 a3bd a47c 703e f7ee 91be 590c a33e
00000200: 7419 683e 932f 24be 6b79 f4bd 5fc2 8bbc
00000210: 65e8 853e 6646 4e3e d0f6 bd3e 57e9 ba3d
00000220: daf6 b63d 6c6d acbe 92b6 bb3d fd07 cbbe
00000230: 499e 3abd 22bf 423e 5282 b33d e1d1 a5bd
00000240: 06f1 c33e dbd8 6d3e fbe8 0a3e 5d26 453e
00000250: e66f bebd 9a30 d23e 30e6 b43e bfec 243c
00000260: 0954 5abe 6a5e 423e 9842 a7be ba53 54be
00000270: 1b53 d13e 3e97 153e 99e1 65be d02d 593e
00000280: 9053 07be c2f1 c7bd 874b e03d 8f9a e0bd
00000290: cfdb 5e3e 2c73 973d c907 553e 2f5b e53c
000002a0: a307 fd3c 615a 12bc 919e 4abe c684 15bd
000002b0: cd62 b8bd 0f66 00bd d8e5 b0bd 2914 c3bd
000002c0: f7d4 463e 5fb2 a53e 770e 683d 7c7a 5abe
000002d0: 5797 273d e371 8c3e 32bc 423e c2b6 26bd
000002e0: 6fbd 853d 383a f8bd e2aa a53d 238d 2b3e
000002f0: 7152 283e 1fcf bd3d 286c 1e3d 4751 383e
00000300: 1fa7 cc3e ad27 42be b3c9 66be 67e2 be3e
00000310: 74fe debe 96ac d23d 4b22 673d dd18 ba3d
00000320: 68b9 a73e 8c6f b7bc 646f 133d d650 9bbb
00000330: 50b4 4abd c7bf bc3d bdee d6bd 7f34 123e
00000340: bbb3 8abb 3bf9 923e 15a0 8f3d 48c8 3abd
00000350: 94ac 07be c0a2 c33d 172a 4d3d 0463 313e
00000360: 99e2 dc3d 6a40 9ebd 115a 5dbe c525 173e
00000370: ce72 193d 15ed 01be 50b7 163a ae71 d33d
00000380: 87e1 bfbe 134a 23be 7ead 36be 998e a0bd
00000390: 3a59 05be 12a4 193e f13e 6c3e 27da a4be
000003a0: e086 98be 5229 30be 7771 a53d 91e8 b2bd
000003b0: 2dac 963e ea2a 8c3d e913 bcbd 5be8 c33e
000003c0: 6b6a 723e bc7b 36bd 2ced abbd 73cf 1dbd
000003d0: 9144 0fbe f517 9abe e872 443e 6ae4 5c3e
000003e0: 7b1a c2be 0af5 093f e793 c43d cba0 043e
000003f0: e76d 74be f7b4 b93e 1728 4dbc 2966 e8bd
0.1699969 0.02232099 -0.10475298 -0.2044969 0.078161 -0.057443853 -0.00632449 -0.061316602
0.2392335 -0.1412039 -0.13508439 0.10788545 0.11732344 -0.13359788 0.13325962 -0.32123977
0.05192511 0.3178847 -0.24107084 -0.29423803 -0.11204615 -0.095284484 0.20622426 0.13498496
-0.00089214067 -0.28598812 -0.0014830945 0.39195976 -0.022425476 0.19830641 -0.12182171 -0.04860526
-0.000694295 -0.0031503113 -0.37070695 0.023813594 0.008435606 0.22388415 -0.111156985 0.21372999
0.22306141 -0.07259623 -0.16411202 0.21367 -0.03436812 0.10547538 -0.16805165 0.09126845
-0.16459978 -0.21795289 0.1907679 0.113656595 -0.26668698 -0.06596298 0.052789696 0.1563763
-0.1965211 0.08210578 0.033158213 -0.07893125 0.15069358 0.029553344 0.07792511 0.0037113957
0.35431337 0.030304654 -0.18137702 0.3149497 0.09219255 -0.06541583 0.09256777 0.19688204
-0.097700976 -0.40411264 0.21517345 -0.20573767 0.005049269 0.28057224 -0.11733233 -0.040386643
0.11962945 0.1519037 -0.3403691 -0.11975654 -0.33854935 -0.13428733 0.10814738 0.118248306
-0.495421 0.38635495 -0.1833765 0.016706599 -0.20056811 0.15827174 -0.3414196 0.13315538
0.12042051 -0.23448284 0.08042556 -0.09226278 -0.10860712 0.2130466 0.23393127 -0.085721806
-0.16458593 -0.2765941 -0.04815497 -0.34584275 0.21093155 0.04309958 0.09631824 0.11312826
0.39094475 -0.02325476 0.014575039 -0.018695848 -0.062212434 0.0053274743 0.2940649 -0.10975413
-0.12908365 -0.053708415 -0.36083642 0.045566007 -0.07991179 0.23485047 -0.28502628 0.31845358
0.2266596 -0.16033773 -0.11937221 -0.017060457 0.26153865 0.20144042 0.37102365 0.09126537
0.08933802 -0.33677232 0.09165682 -0.39654532 -0.04556111 0.19018224 0.08765091 -0.08096672
0.38269824 0.23227255 0.13565437 0.19252916 -0.09298687 0.41052705 0.3533187 0.01006621
-0.2132112 0.18981329 -0.32667994 -0.20735064 0.40883717 0.14608476 -0.2244934 0.21208882
-0.1321547 -0.097629085 0.10951906 -0.1096698 0.21763538 0.07395014 0.20803751 0.027997581
0.03088743 -0.008932681 -0.19787051 -0.036503576 -0.0900322 -0.03134733 -0.08637589 -0.095253296
0.19417177 0.3236265 0.05665442 -0.21335787 0.040915813 0.2743064 0.19017103 -0.040701635
0.06530272 -0.12120479 0.08089234 0.16753058 0.16437699 0.09268021 0.038677365 0.17999755
0.39971253 -0.18960448 -0.2253788 0.37282106 -0.43553507 0.102868244 0.05642919 0.090867735
0.3275864 -0.022392057 0.035994902 -0.004739861 -0.049488366 0.09216266 -0.104947545 0.14277838
-0.0042328513 0.28705773 0.07012955 -0.04560116 -0.13249427 0.095525265 0.050088968 0.17322928
0.107854076 -0.0772713 -0.21616389 0.14760502 0.037463002 -0.12688096 0.00057493616 0.10324417
-0.3747675 -0.15946226 -0.1783962 -0.07839698 -0.13022318 0.15003994 0.23070885 -0.32197687
-0.297904 -0.17203262 0.08078282 -0.08735765 0.29428235 0.06844123 -0.09183485 0.3826321
0.23673408 -0.044551596 -0.08394846 -0.038527917 -0.13991 -0.30096403 0.19184458 0.21571508
-0.37910828 0.53889525 0.09598523 0.12951963 -0.2387005 0.36270878 -0.012521765 -0.113476105

lstm.bias_ih_l0 f4 [128]
00000000: 2528 96bd 4492 a83d 7e12 8f3e f794 d1bc
00000010: a4fd c3bd cc27 853e 0c8d 4c3e 0c92 443e
00000020: cda5 993e 57c0 e13d 94db 643e fb38 623e
00000030: f569 643d e89a 8d3d 4635 1c3e 3d6c 013e
00000040: b30a 323e d71b 983e 2aa6 b83e 68ec 7cbd
00000050: 4b6f a93d 590d 913d c20e 463e c2ba 033e
00000060: 847d e13d 4225 173d 6072 2c3e 0b05 363e
00000070: 0fc5 1f3e 4960 22bd 4dcb ee3d 87fd e23d
00000080: 6845 8d3d 3654 063e 0e44 f73d 96e4 21bd
00000090: 71f6 77bd b15c 463d 54ed 1d3e 6e01 b83e
000000a0: 9d4c 613d 6915 aa3e ecb4 81bd 42ab 953e
000000b0: 086d 253d 8187 923d 594e 8fbd 9cea bd3e
000000c0: f3aa 1d3e 3e03 c13c 396a a63c 4a5d 733e
000000d0: 2cf5 babd 0d4c a33d f2ac 5fbc 4372 67bd
000000e0: 3834 843e 939a adbd 1f68 733e a13d 49bd
000000f0: 13d1 bc3c 9725 813e 3d3f 803e fd62 12be
00000100: 63cb d43d c651 6abe 8d08 42be 1efe 103e
00000110: 4b11 35be 36fa 84bd b419 10bc 23b7 3b3d
00000120: ce83 373e 12e9 34be a51e 693e 1fb1 513d
00000130: 3769 b23d 8b34 e23d 4c80 d2bc e09b 0d3b
00000140: 651c d8bc a2b6 94bd 76b0 843d 5cf0 53be
00000150: 5a64 12bd f3ac b93d 32d5 50bd 1571 283e
00000160: d0a1 48be 2d3e 743d c687 fabb d704 27be
00000170: 369c 663c aa33 2c3d 3eb8 1abe 69a1 99bc
00000180: 4959 693d d506 b5bc 6b12 ea3c 6dd7 02be
00000190: 404b 283d 819b a73d 5cfa 223e 460f 853d
000001a0: a6ae 9e3e f121 793e 548b 213e ab48 1b3e
000001b0: 13b6 523c f313 c93d a408 043e 9a58 bc3d
000001c0: a5b1 5d3d bd9e 0a3c 88ea 273e 49b3 283e
000001d0: f6f0 553d a2e6 053d 6752 003e 1254 cfbd
000001e0: 60da 3abd 5d8a 033c 7892 923e f7a6 283e
000001f0: e141 2c3e 7ec3 b6bd 2d1a 43bc 4e96 4a3d
-0.07331876 0.08231023 0.27943796 -0.025583727 -0.095698625 0.26006925 0.1997568 0.19196337
0.30009308 0.11023014 0.22349387 0.22092049 0.05576511 0.06914312 0.15254697 0.12638946
0.17386894 0.2970874 0.36064273 -0.061748892 0.082731806 0.07082624 0.19341567 0.12864211
0.11010268 0.036900766 0.16840506 0.17775361 0.15602516 -0.039642606 0.1165987 0.11083513
0.06898004 0.13118061 0.12073527 -0.039524637 -0.06053776 0.04842824 0.15422565 0.3593859
0.055004705 0.3321946 -0.06333336 0.29232222 0.040387183 0.071547516 -0.069973655 0.37093055
0.15397243 0.023561116 0.020314323 0.23766056 -0.09128794 0.0797349 -0.013652073 -0.056505453
0.2582109 -0.08476748 0.23770188 -0.04913104 0.023048913 0.2522399 0.25048247 -0.14295574
0.103903554 -0.22882757 -0.18948574 0.14159438 -0.17682378 -0.064930364 -0.008795191 0.04582895
0.17921373 -0.17667034 0.22765596 0.051194306 0.087114744 0.11045178 -0.025695942 0.0021607801
-0.026380727 -0.07261397 0.0647897 -0.20697159 -0.035740234 0.090661906 -0.05098457 0.16449387
-0.19592977 0.059629608 -0.00764558 -0.1631044 0.0140753295 0.04204146 -0.15109345 -0.018753724
0.056969915 -0.022097984 0.028573235 -0.12777491 0.04108739 0.08183957 0.15915817 0.06497054
0.3099262 0.24329354 0.15775806 0.1516444 0.012860793 0.09818258 0.12893921 0.09196587
0.054124493 0.008460698 0.1639806 0.16474642 0.05223175 0.03269065 0.12531434 -0.10123457
-0.045618415 0.008028594 0.28627372 0.16469942 0.16822006 -0.08924006 -0.011908096 0.049459748

lstm.bias_hh_l0 f4 [128]
00000000: e342 c63d 6255 3ebd 1c19 833e 3a93 a9bc
00000010: e266 d23a a0cf d43d 7a99 923e c5bb 44bd
00000020: 72a3 e23c 4afc 793e 237b 623d e61d c53c
00000030: fe78 8e3d f5fd 263d b5c0 053e 1de8 543e
00000040: 7211 983e ffe8 0e3e cbaf 323e 8b2b b1bd
00000050: ff3e 04bd 05e2 bdba 8c78 7a3e 5ea1 10bc
00000060: 7c30 2ebd 1d4b 1f3d 4483 af3d 1391 2dbd
00000070: 7c40 dabc 0a58 933d 78d5 393e 2516 223d
00000080: f732 6bbc 1cc6 d03d 7266 b13d e347 853d
00000090: 9f2b 31be b92e 3b3d 30fe 763e 6923 6a3e
000000a0: 1a27 5c3c c533 753e 2ac1 09bd 2a06 0a3e
000000b0: 9535 343e ecfa e93d 7059 4a3d 6a33 6d3e
000000c0: 590b 1ebd 5951 193e fc72 333e a180 483e
000000d0: afc7 ff3c c6b7 473e 9fb1 fd3d 6a59 a3bd
000000e0: 8f2b b7bd 9064 233e d59c d63e 7af4 34bd
000000f0: 8399 d0bd c7d0 073e 74cc 323e ad98 073d
00000100: f506 26bc 72a5 9b3d 0377 3fbe ea24 0e3e
00000110: 8187 31be bc23 20be c645 a73d c345 be3d
00000120: a80a 06be 647c ccbd 87ff 0c3e 6964 9a3d
00000130: 57e1 2b3e 609e f23d 423a 15be ce97 0d3a
00000140: b857 1d3e 7dc1 253e 8182 013e 20f6 2dbe
00000150: aa02 47bc f5c7 d2bd 1071 983d cb0f 2d3e
00000160: 1239 3bbe 494c 2f3e 66a0 46bd 9ca7 cfbd
00000170: f545 43be 9837 533d 8608 80bd 1ebd 773d
00000180: d73e 3f3d be4c 943d b49e ef3d 7693 d83d
00000190: b124 363e 4cba f73d 9532 743e bf86 c23d
000001a0: d0d4 963e d490 fa3d 718e f03c 43b6 6e3c
000001b0: d0f2 b2bc 3923 393d 683e 7d3d b1d5 e53c
000001c0: 9acc 223e c04d 253e 7266 263e 38c1 3b3d
000001d0: 78b4 423e 3a15 cdbd 5513 a53d 68b6 463e
000001e0: e4b5 fb3d 38af 94bd 3ab5 d93c c486 c1bd
000001f0: 4298 a23d a2c3 183e b5b2 0d3d 4805 48bd
0.096807264 -0.046468146 0.25605094 -0.020700086 0.001605239 0.10391164 0.28632718 -0.048030633
0.027665827 0.24412647 0.055293214 0.024062108 0.06956671 0.040769536 0.13061793 0.20791669
0.2970081 0.13956068 0.17449872 -0.08650883 -0.03228664 -0.0014486915 0.24460047 -0.008827535
-0.042526707 0.038889993 0.08569959 -0.04237468 -0.026642077 0.071945265 0.18147838 0.0395719
-0.014355413 0.10194036 0.08662118 0.06507852 -0.17301796 0.045698855 0.24120402 0.2286507
0.013437057 0.2394553 -0.03363148 0.13478914 0.17598565 0.11424813 0.0494017 0.23164144
-0.03858504 0.14972438 0.17524332 0.19580318 0.031223146 0.19503698 0.12387394 -0.07976039
-0.08943855 0.1595633 0.41916528 -0.044178464 -0.1018553 0.13263236 0.17460805 0.033104587
-0.010133495 0.075999156 -0.18697743 0.13881269 -0.17336847 -0.15638632 0.08167605 0.0929065
-0.13090003 -0.09984663 0.13769351 0.07538683 0.16785179 0.11846614 -0.14573005 0.0005401344
0.15365493 0.16187091 0.1264744 -0.1698842 -0.012146631 -0.10292045 0.0744344 0.16900556
-0.1828349 0.17118944 -0.04849281 -0.10139391 -0.19069655 0.05156669 -0.06251626 0.06048309
0.046690788 0.072412 0.11700192 0.10575001 0.17787434 0.1209608 0.2384742 0.09498357
0.29459238 0.12234655 0.029364796 0.014569822 -0.021844298 0.045199607 0.061827093 0.028055998
0.15898362 0.1614294 0.16250017 0.045838565 0.19014156 -0.10013814 0.08060328 0.1940552
0.12290552 -0.07259983 0.026575673 -0.09449533 0.07939197 0.14918378 0.034594256 -0.04883316

lstm.weight_ih_l1 f4 [128, 32]
00000000: 75f8 9a3d 2b43 b83c 2b64 d8bd a9a4 60bd
00000010: 9cbc f63d 047b 27be 119a 213c 15ca 143e
00000020: 04bb 993d 3912 e4bc dd47 d0bc 7ff6 24bd
00000030: 9a6f 703d fbfd c5bd 4859 c5bc 8424 053e
00000040: b7f5 243d ade4 373e 1581 843c b7f0 19be
00000050: f712 d23d 325e c53d 1226 453e 4e71 553c
00000060: 07a6 56be 13ce 1e3e 7f93 f8bc 6d02 a1bc
00000070: a0c1 513d bc84 c0bc c1b9 afbd 68ce a8bd
00000080: 8430 773e fd01 febd 8677 b8bd 2a7d 3d3e
00000090: d44b 9abd 4db5 30bb d0fd 213e 42f4 e63d
000000a0: eeb9 d0bd fcf7 c03d 808c 223e ebab c2be
000000b0: 5e99 cfbd d2f1 033e 4718 633d 6d12 813e
000000c0: 9656 82bd 3cdc 913d deda 7f3e d3be d0bd
000000d0: eb41 0ebe 9a8d 8b3d 875d 133e 50fc 263e
000000e0: 3400 3cbe 11a1 6b3d b091 cebd 27df a63d
000000f0: d18d 453e f51d 4a3e 2712 2fbd aa36 2f3e
00000100: 4f70 8c3d 7830 3ebe 11e5 3cbe 1f81 ea3d
00000110: c029 c6bc 30d6 22bc a2ca 0a3d 3e22 cf3d
00000120: 7b04 08bd 6c7c 54bd 130b fc3d 3ffd e13b
00000130: b346 e9bd 7329 d5bd 91d4 1dbe 5bf1 b33c
00000140: a83a cabd 4b64 c83d 6fb7 dd3d e096 0bbe
00000150: e0fc 4abe 4749 78bd 7a1a 483e 6a23 193e
00000160: dd08 2d3d 3f5e 4e3e 350b 003e 5cd8 9b3d
00000170: 7ef7 013e 001d 26be 71b1 47be 74d9 c2bd
00000180: d8c6 193e ddd9 1cbe 3288 8b3d faf4 27be
00000190: 2f8e 5c3d 6c33 14bd 1c0e 0dbd 66c8 4b3e
000001a0: 90cd 893d 8d91 3ebe ff95 803e 6818 7fbe
000001b0: 8e08 b23d ca6b c1bc 6eb4 46bd 2af1 12bd
000001c0: 23fc afbb abe6 453e 7f8d 823d 9702 63bd
000001d0: 99a3 3dbc 5e18 eabc 97b6 22bb 9e03 72bb
000001e0: f766 cbbd a5f1 c4bd dfd9 083e 1102 f3bd
000001f0: a705 5ebd 6dbd 30be 0590 b03c e188 e73d
00000200: 69eb a63e 05e0 a1bc ad99 4cbe 166a 0e3d
00000210: 5196 9abe 6afb 163d 090f 23be 97bd ccbd
00000220: 3557 2b3e 1ed9 8cbe ef80 523d f84e f83b
00000230: 88cd f8bd da3f 7d3e e04c 92be 5a3d 063e
00000240: 6b7e 8b3e b743 c6bd 9bfb 933d 674b 65be
00000250: 9ca8 3638 b07c 913d 9dcf 8e3e e494 edbd
00000260: 474c 98bc 6ad8 fd3d 8910 65be 06a8 24be
00000270: b6a7 cd3d 8e30 3e3d 2994 a5bd 2245 803e
00000280: be0e 0b3e a9e6 3ebe 74d1 e2bd 7a40 21be
00000290: 1a34 003b c8a4 e5bd 519e cfbd 75fa c6bd
000002a0: f51a 80bc 8342 043e 2602 c73d 4410 b43d
000002b0: d488 26be 4aae 89bd b596 06be 9f86 8b3e
000002c0: 9911 ba3d 811e 3c3e e44e 753d 1d8c 3b3b
000002d0: b75c 573c 84b0 533e 19e7 333d f588 cd3d
000002e0: 0267 70bc 46e6 f33a ccdb ac3d 9533 16bd
000002f0: 7ef1 273d 267b 57be d5eb 08be f289 373d
00000300: 6a61 af3b 9a18 3ebe 24a0 5ebe e83a 5a3e
00000310: 1a3e 1fbd 266b 763d 2f1b 3cbb 3591 2f3e
00000320: 8b6d 123e e78b 79be eecf 0d3e edba 6abe
00000330: 0746 98be ce33 f7ba 7600 16bd dab9 15be
00000340: 23ad c6bd 02ed ccbd dbb0 2c3e 95d8 1fbe
00000350: e1df 86be 9a22 143d 2eec 11be f50d af3e
00000360: fe0a b9be f8b5 513e 0a4e 0abe 6c2d 99be
00000370: a6b5 373d 078f d2bc 2315 5fbe 1e87 db3c
00000380: 7ac5 063b 98fb 25be 918b 7b3c 5a20 053e
00000390: 52b1 36be ea57 3a3e c382 8fbd c7c7 ee3d
000003a0: 5815 d03d 0655 943d 764d 233e dd8a 2cbd
000003b0: 65c8 87be 52be 103e 0af6 17be 0311 963d
000003c0: 961d 9bbd eeb4 a13d 8589 26bd 9435 c2bc
000003d0: 2831 debc 2b68 f23d a063 9a3e 4398 81bd
000003e0: 9eb9 04be 9979 16bd 286c 87be 4131 203e
000003f0: 5277 073e b53a 37be a3b3 103d 0bb7 613d
0.07566921 0.022492966 -0.105659805 -0.054844532 0.12047693 -0.1635552 0.009863392 0.14530213
0.075063735 -0.02784072 -0.025424892 -0.04027414 0.05870018 -0.096675836 -0.024090424 0.13002211
0.040273394 0.17958327 0.016174832 -0.15033232 0.102575235 0.09637107 0.19252804 0.013027502
-0.20961772 0.15508299 -0.03034377 -0.019654477 0.051210046 -0.023500793 -0.085803516 -0.08242494
0.24139601 -0.12402723 -0.09007172 0.18504778 -0.07533994 -0.0026963532 0.15819478 0.11277057
-0.10191713 0.09422299 0.15873909 -0.38021788 -0.10136674 0.12885216 0.055443075 0.2520937
-0.06364171 0.071220845 0.24985835 -0.10192647 -0.13892333 0.06814118 0.14391147 0.16307187
-0.18359452 0.05752665 -0.100863814 0.08148032 0.1929238 0.1973799 -0.04274192 0.17110696
0.06857359 -0.18573177 -0.18446757 0.11450409 -0.02418983 -0.009938762 0.033884652 0.10113953
-0.033207398 -0.05187647 0.123068 0.0068966444 -0.11390438 -0.104082964 -0.15413119 0.021965673
-0.09874469 0.09784754 0.10826003 -0.13631773 -0.19823027 -0.060616758 0.1954135 0.14954916
0.04224478 0.2015314 0.12504275 0.07609627 0.12692067 -0.16222 -0.19501282 -0.09514132
0.15017259 -0.15317483 0.068130866 -0.16402045 0.053846534 -0.036181852 -0.034437284 0.19900665
0.06728661 -0.1861021 0.25114438 -0.24911654 0.08693038 -0.023610968 -0.048511915 -0.035874523
-0.005370633 0.19326274 0.063746445 -0.05542239 -0.011574649 -0.028576072 -0.002482807 -0.0036928426
-0.09931748 -0.096164025 0.13364361 -0.118656285 -0.05420461 -0.1725976 0.021553049 0.113054045
0.3260148 -0.019760141 -0.19980498 0.03476914 -0.30192807 0.03686086 -0.15923704 -0.09997099
0.16732486 -0.27509397 0.051392492 0.007577773 -0.12148577 0.24731389 -0.28574276 0.13109341
0.27244887 -0.09680884 0.07225724 -0.22392045 4.354921e-05 0.071038604 0.2789277 -0.11600664
-0.01859106 0.12394793 -0.22369589 -0.16079721 0.10041754 0.046433024 -0.080849 0.25052744
0.13579842 -0.18642677 -0.11075106 -0.15747252 0.0019562305 -0.1121307 -0.10137618 -0.0971574
-0.015637854 0.12915997 0.09717207 0.08792165 -0.16263133 -0.06722696 -0.13143428 0.27251145
0.09085388 0.18371011 0.05988969 0.002861745 0.013144664 0.20672804 0.043921564 0.10035888
-0.0146729965 0.0018608056 0.084403604 -0.036670286 0.04100179 -0.21043071 -0.13371213 0.04480929
0.005352189 -0.18564072 -0.21740776 0.21311533 -0.038877584 0.06016078 -0.0028702726 0.17145236
0.142996 -0.24369775 0.1384885 -0.22922869 -0.29740927 -0.0018860043 -0.036621533 -0.14621678
-0.09700992 -0.10006143 0.1686434 -0.15609963 -0.2634268 0.03616581 -0.14250252 0.34190336
-0.361412 0.20479572 -0.13506332 -0.29917467 0.044850968 -0.025702966 -0.21785407 0.026797827
0.0020564483 -0.16209257 0.015353099 0.13000622 -0.1784108 0.18197599 -0.07007363 0.11659198
0.10160321 0.072427794 0.15947518 -0.042124618 -0.26520076 0.14135101 -0.1483995 0.073274635
-0.075740024 0.07895838 -0.040658493 -0.023707189 -0.027123049 0.11836275 0.30154133 -0.0632787
-0.12961432 -0.03673706 -0.26449704 0.15643789 0.13229111 -0.17893489 0.035327565 0.055106204

lstm.weight_hh_l1 f4 [128, 32]
00000000: 55d9 c13c 5167 d83d d18c 0a3c 7e4f 2a3d
00000010: e2d9 793d 2fba 523e 35eb 8abc f4ec 743e
00000020: 61e9 be3d 0e41 7ebe 239c 433e 6168 95bc
00000030: c5ed a13d 44a5 513e fa94 2cbd 10cf dd3d
00000040: bee0 d43d a30d bb3d b07d 09be 2ec9 1e3d
00000050: 74a0 2bbd d386 1ebd e0fc f9bd c729 0c3d
00000060: 86b0 77be 0ff5 c7bd 912f 09be 4083 87be
00000070: f9a2 153e 8ea6 cebd 8a35 2c3e 132e b23c
00000080: 2478 ae3d 8944 d73d 7efd d43d 7e4d 2cbd
00000090: ef40 163e f20a aebd ba50 f1bd ef9b 603d
000000a0: 0ec3 c83d 67c1 c23d f03f 15be 3a51 cabc
000000b0: e8dc 10be df8c 513d ff5c a9bd 84ce 603d
000000c0: 5d8b 28be a887 3a3d d60f e1bd 455e 16be
000000d0: 6b98 423d b77b c4bd 3833 0ebe 8b82 423e
000000e0: 5c00 4dbd 9a03 dabd 54a3 dabd 4045 ec3c
000000f0: 9c1b 8dbd 5ba4 3e3e 5f3f a93d ac79 a3bd
00000100: a57d 173e fa84 acbd 9790 4a3d e386 47bc
00000110: 1dc1 a53d 8726 a43d a5c5 50be 40b9 97bc
00000120: 6b74 003e f436 17be 8be2 d53d 5c1f 2e3e
00000130: d762 babd 49a1 473e d254 32bc 1019 dd3d
00000140: df9f dfbd 7cda e6bd eac1 f13c faa5 35be
00000150: 3b51 2abd 7b64 e9bc 581d 95bd 6d46 9d3d
00000160: 81a1 07bd be4c 323e 99d7 193e f304 01be
00000170: 3a5a c63c 9f87 18be 96f2 453e b439 39bd
00000180: dce7 5ebd 9e49 293e 68b8 3fbe aa9e 2dbe
00000190: d067 2fbc 7f93 73bd ff8e d5bd c228 943d
000001a0: 1776 273e 67b6 cabc 7381 20bc f92b 673e
000001b0: f6af e1bc d5c8 b33c f20e d33d 781f d83d
000001c0: 8492 8a3d a916 083e c2ba 20bd 2fac 663c
000001d0: 3e59 143d 8d61 6c3d c2c9 123e c7d7 0d3e
000001e0: fee9 b3bd 9f5f 803d ff77 32bc 43a9 22be
000001f0: 372f 583e 1a87 09be dfcc 043e d6b8 803e
00000200: a9a7 ba3d ab02 053e 78bc 5dbd c7db dabb
00000210: be5a 3ebe 9119 493e ca8a 81be 9978 e63d
00000220: 2409 563e ee13 90bb 57de 3bba 4c62 123d
00000230: 9ed5 06be 8d79 083d 00ca 913d 89ce ef3c
00000240: b5de 0f3e 0536 6f3e 45e3 d53d 4fcc 32bd
00000250: 95be 5f3d 151d cd3d 7145 383c d8e6 1a3d
00000260: c526 6f3c 695c 443e 5ec8 7d3e 656b f5bd
00000270: 7a78 5f3e 3d62 55be 4ee1 ad3d 8bed 453d
00000280: f56c 493e fe38 8a3d 9ff5 70be 07a3 89be
00000290: 718f aebd 9433 03bd 38e0 733c 53f1 2a3e
000002a0: c4b5 973d 7089 ae3b 6e5a 7b3e 0c5a 583e
000002b0: ad7d 25bd ad63 2f3e bfb3 01be d55f 663d
000002c0: e97c 893e d52a 153e 575f 0cbe f7f0 02be
000002d0: 8f23 9dbc 4d8f 7a3e 77f9 183e 16fb 9ebd
000002e0: 1eff 8a3d d543 c9bd 04ee d2bd 5156 8dbe
000002f0: 715e 133e 43f1 5ebe 564d 0c3e a1ad 633c
00000300: caa4 c1ba 2f26 dc3d d4fb b63d 0e0c a9bc
00000310: 6955 943d 9202 eebc 9e51 a93d 9044 083e
00000320: e8d8 593e eddb 39be ef76 06be e54d 81bd
00000330: 413c 4cbe 5fb3 b4bd de85 07be e84a be3a
00000340: dc02 aabc e786 3d3e d93d 40bd a1ff b8bd
00000350: d5bb f33d b1c4 04bd ca15 113d 19ae 013e
00000360: 38f4 f13d 1916 bc3d cf76 123d 4b24 963d
00000370: 371b 1bbd aab7 323e c5dc f5bd b368 28bc
00000380: 1f25 203e 49ce 3e3e bfba 57be 8ba2 553d
00000390: ebf0 2dbe e89c 373e d5da b93d a99a 823d
000003a0: 8dd6 edb9 9a29 76bd 72c3 09bd c1aa 223e
000003b0: a1ce 6b3c ed60 88bd cfae ff3d 019b 8ebd
000003c0: cd28 223d 048b 283e cab5 89bb 3bc5 f2bd
000003d0: a817 acbd 73b4 e63c ee9a a7bb 85c7 80bd
000003e0: 241b 053e cafd acbd 09a4 203e 7c47 323d
000003f0: c148 96bc 78b3 acbd 3aee a6bd feb1 ba3d
0.023663202 0.10566581 0.008456425 0.041579716 0.060998805 0.20578836 -0.016957859 0.23918515
0.09321857 -0.24829504 0.1910253 -0.018238248 0.07906679 0.204732 -0.042134263 0.1083051
0.10394429 0.091334604 -0.13426852 0.03876608 -0.041901067 -0.038702797 -0.12206435 0.03421953
-0.24188432 -0.09763538 -0.13397051 -0.26467323 0.1461295 -0.100903615 0.16817299 0.021750486
0.08519009 0.10511119 0.10399912 -0.04206609 0.14673208 -0.084981814 -0.117829755 0.05483621
0.09802829 0.09509545 -0.14575171 -0.024696935 -0.14146769 0.051159736 -0.08269691 0.05488445
-0.16459413 0.045539528 -0.109893486 -0.14684398 0.04750864 -0.09593909 -0.13886726 0.1899511
-0.05004917 -0.10645218 -0.106756836 0.028841615 -0.06890032 0.18617384 0.0826404 -0.079821914
0.14794023 -0.08423801 0.049454298 -0.012178156 0.08093474 0.08015161 -0.20387895 -0.018520951
0.1254441 -0.14767057 0.104436 0.1700415 -0.091008835 0.19495119 -0.010884481 0.10795796
-0.10919165 -0.11272141 0.02951141 -0.17739096 -0.041581374 -0.028490296 -0.072809875 0.07679448
-0.033113007 0.17412087 0.1502365 -0.12599544 0.024212945 -0.14895485 0.1933082 -0.045221046
-0.054420337 0.16531989 -0.18722689 -0.16955057 -0.010705903 -0.059466835 -0.10427665 0.072343364
0.16353641 -0.02474518 -0.009796488 0.22575368 -0.027549725 0.02194635 0.10305585 0.10552877
0.06766227 0.13289894 -0.039240606 0.014079138 0.03621792 0.05771022 0.14334777 0.13851844
-0.08784865 0.06268238 -0.010892867 -0.1588488 0.21111761 -0.13430443 0.12968777 0.2514102
0.0911401 0.12989299 -0.054134816 -0.0066790315 -0.18589303 0.19638659 -0.253012 0.11253471
0.20901924 -0.004396907 -0.0007166615 0.035738274 -0.13167426 0.033319045 0.071186066 0.029273288
0.140498 0.2336045 0.10443739 -0.043651875 0.054625113 0.100153126 0.011247025 0.037817806
0.014596646 0.19175877 0.24783465 -0.119833745 0.21823302 -0.20838256 0.08490239 0.04832224
0.1967047 0.06749152 -0.23531197 -0.26882192 -0.08523453 -0.03203161 0.014885001 0.1669362
0.07407716 0.0053264424 0.24546215 0.211281 -0.040403057 0.17127867 -0.12666224 0.056243736
0.2685311 0.1456712 -0.13708244 -0.12787233 -0.019181995 0.24468727 0.14938913 -0.077627346
0.06786941 -0.09827391 -0.10299304 -0.27604917 0.14391495 -0.21771722 0.13701376 0.013896377
-0.0014773842 0.107494704 0.08934751 -0.020635631 0.07242853 -0.02905396 0.0826752 0.13307405
0.2127415 -0.18150301 -0.13131307 -0.06313685 -0.1994486 -0.08823275 -0.1323466 0.0014518173
-0.020753317 0.18508492 -0.046933983 -0.09033132 0.119010605 -0.032414142 0.03542117 0.12664069
0.11814159 0.09183902 0.035757836 0.07331141 -0.03786775 0.17452875 -0.12004999 -0.0102788685
0.1563916 0.18633379 -0.21067332 0.052156966 -0.16986434 0.17930949 0.09074942 0.06377155
-0.00045364015 -0.060098268 -0.033633657 0.1588545 0.014392526 -0.06659112 0.12484514 -0.069631584
0.039589692 0.1645928 -0.004202579 -0.11854025 -0.084029496 0.028162217 -0.0051149046 -0.06288055
0.12998635 -0.08446844 0.15687574 0.043525204 -0.018345239 -0.084326684 -0.08150907 0.091159806

lstm.bias_ih_l1 f4 [128]
00000000: 4990 313c 22d2 5e3e adaa 3f3d d609 c93d
00000010: f8e4 433c e40a 1dbc bfa0 ff3d 786e 93bd
00000020: ed65 043e 0cef 453e 4f7c d33b 42bd 903d
00000030: a58b ec3d 65d3 533e 9097 07bd 6f60 1a3e
00000040: 19fb 5a3e 0482 efbd 9951 0fbe bc48 233e
00000050: 16de 423e 528a 583e 93f5 a43d 1e2a e53c
00000060: ea09 11bb 0270 823d d4f1 173e 702c c03d
00000070: 651c abbd 3ee3 90bd 762b 31bd 5ca5 debd
00000080: e257 873e 9b51 813d f0f0 163e 8a55 68bb
00000090: 161f 153e 8826 7d3e cc28 7d3e 3754 753d
000000a0: 35b1 363e 64d9 573e 8a57 783d a9d0 85bd
000000b0: 3a64 cb3c d8dc 92bd 2e6b bb3d 8789 dbbb
000000c0: 7a4a f83d eff9 893d 1ba1 a83c 3472 923d
000000d0: af2d e73d e7a7 833e 97af 6ebd a509 8e3e
000000e0: 7f07 143e 0a47 a23d 128e a7bc b01b 633e
000000f0: 0530 72bc 3bd6 de3d 9607 4e3e cda9 67be
00000100: 93de 493e 0396 2a3e 4921 02be 3eb3 01be
00000110: 771a 82be 0594 173e 001a 81be 255d 2f3e
00000120: 97c3 80bd 7611 2fbe cdf6 0c3e 4bf4 803e
00000130: 5e19 90bd 11f5 fd3d de5e aebd af63 60be
00000140: 8fec 213e 92b5 f7bc 3d9b d13a 445d 76be
00000150: 167b fbbd 9346 bf3d f122 c43c 1eec 2c3e
00000160: 3055 50bd c232 103e d052 99bd fc65 71be
00000170: b4f9 143e 25be d4bd 5d85 4c3e 4429 a53d
00000180: f3e1 56bd ff67 90bd 100c aabb 765f 8ebb
00000190: 5048 193e cea4 14be cf39 c9bd 9531 84bc
000001a0: d6b0 5c3a 28c9 03bd b774 a13d 85f0 28bd
000001b0: d092 eb3d d554 12bd 9765 ae3d 0d50 0c3e
000001c0: f549 84bd aca8 133e 0b2b cdbd 84fa 0fbe
000001d0: d5d3 00be 6480 95bc 4c73 46be ed1c 5c3c
000001e0: 2513 1bbb 5a4f 01bc 364a f33d 4bfb 023e
000001f0: ee0d bfbb fdbd b4bd 9828 903d 03bd b73c
0.010837623 0.21759847 0.04679363 0.09816329 0.011956446 -0.009585116 0.12481832 -0.071988046
0.12929507 0.1932947 0.0064540277 0.07067348 0.115500726 0.2068611 -0.033103526 0.15075849
0.21384849 -0.116947204 -0.13995971 0.15945715 0.19030032 0.21146515 0.08054652 0.027974185
-0.0022131153 0.0636902 0.14838344 0.09383476 -0.08355025 -0.07074593 -0.04325434 -0.108713835
0.26434237 0.06314393 0.14740348 -0.0035451376 0.1456264 0.2472173 0.24722594 0.059894767
0.17841037 0.21079022 0.06063036 -0.065339394 0.024828065 -0.07171029 0.09151302 -0.006699744
0.1212358 0.06737124 0.020584634 0.07150689 0.1128801 0.25714037 -0.058272924 0.27741733
0.14455985 0.07923706 -0.020453487 0.2217853 -0.014781957 0.10880705 0.20120081 -0.22623368
0.19713812 0.16658787 -0.1270801 -0.12666032 -0.25410816 0.14802559 -0.2521515 0.17125376
-0.06287306 -0.17096505 0.13766022 0.2518638 -0.070360884 0.12400258 -0.08514188 -0.21913026
0.15812896 -0.030237947 0.0015991699 -0.24059016 -0.12279336 0.09339633 0.023942443 0.16886947
-0.05086249 0.14081863 -0.07486498 -0.2357406 0.14548379 -0.1038783 0.19972749 0.080645114
-0.052461576 -0.07051086 -0.0051894262 -0.004344876 0.14968991 -0.14515993 -0.09825479 -0.016136924
0.00084186846 -0.03217426 0.0788359 -0.041245002 0.11502612 -0.035725433 0.085154705 0.13702412
-0.06459419 0.14419812 -0.100179754 -0.14060408 -0.12580808 -0.018249698 -0.1937992 0.013434631
-0.0023662534 -0.007892454 0.11879389 0.12791173 -0.005830518 -0.088253 0.07038993 0.022428995

lstm.bias_hh_l1 f4 [128]
00000000: 4952 293e 26ff 983d b097 92bb 0d53 823e
00000010: 81d2 59bd 0c31 c43d ce8f 0d3e c93f c93d
00000020: 9e39 1c3e fb71 ac3d 9e40 9f3c f49f 6e3e
00000030: fe65 263e e118 133e 88ac 2b3d 89ed 2c3d
00000040: 7d71 333d 5e0c 983d 151c 1dbd 6a4e 733e
00000050: 9421 3a3e c4b5 9a3d e392 a43d 710d 3d3e
00000060: 8cba cb3d 9025 03be 0a45 b03d 95b3 f83c
00000070: a970 6b3d 31db fc3d b3c1 003d 55c1 9abd
00000080: 5acf 913b b2e0 283e 691b 793e ec07 99bd
00000090: 9167 eabc bab8 0e3e dce9 413e 5f2c 553d
000000a0: d6d6 163e 6b1f c83d 297c a2bb 3243 c53c
000000b0: 34c2 9cbc 8004 9f3d f217 a0bd ddbd 053e
000000c0: 08e4 d43d 1fa1 d5bd c080 193b a13c 103e
000000d0: b3ac 673e 1e32 f0bc e7d4 1a3d 845e 813e
000000e0: 1433 eb3c 563d 323c 1196 15be 5635 923e
000000f0: 6550 383d ec6d fbbd 58a8 663e 396f 75be
00000100: b749 443e 9402 a43c b2e9 4bbe a639 3ebe
00000110: 3750 2ebe e1a4 053c 159e 2cbe 3b77 11bd
00000120: 0310 833e 4f8d 9dbd 652f 3b3e 7d98 9c3d
00000130: c528 b9bc 1400 46bb e03b 0cbe e12b dcbd
00000140: ef75 a5bd 0ccc 7c3e c039 aabd 1e44 51be
00000150: f7fc e3bc 09a2 563e ca69 b0bd d873 4e3e
00000160: 99cc 36be ee67 7d3d a6b2 613e 581e 2bbe
00000170: 6e49 713d 870c 50be 6c7f 403d b4e7 df3d
00000180: 15e9 253c 4d4e d43d 034b 403e 2d15 33bd
00000190: cb5c 043d 372f ee3d 8ece 153e bcee 353e
000001a0: 60c6 d8bd 4e36 2bbd 9637 483d 4e19 123e
000001b0: 094b 053e c9e8 51bd 7b3f 35bd 028e 073e
000001c0: f10e fb3d 111d 6fbd 2f65 283d 429a aa3c
000001d0: b92a 343e 2d78 6fbd 9203 623d 6bb3 323c
000001e0: 4a5a a1bd f49b fb3c ce2a 80bd 9580 483e
000001f0: 8a09 eebc 48e4 583e 4138 123e 912c aebd
0.16535296 0.07470541 -0.004473649 0.25453988 -0.053179268 0.095796674 0.13824388 0.09826619
0.15256354 0.084201775 0.019439992 0.23303205 0.16249844 0.1436496 0.041912585 0.04221872
0.043809403 0.07424234 -0.03835686 0.23760381 0.18176872 0.075542 0.08035829 0.18462159
0.0994769 -0.12807298 0.08606918 0.030359069 0.057480488 0.12346495 0.031434726 -0.075564064
0.004449767 0.16491964 0.24326862 -0.07472214 -0.028613837 0.13937655 0.18936867 0.05204427
0.14730391 0.097716175 -0.0049586487 0.024079893 -0.019135572 0.0776453 -0.07817067 0.13060708
0.10395056 -0.10431122 0.0023422688 0.14085628 0.22624473 -0.029320773 0.037800696 0.25267422
0.02871088 0.010878881 -0.14608027 0.28556317 0.044998545 -0.12276825 0.22525156 -0.2396821
0.19168745 0.02002076 -0.19913366 -0.18576679 -0.17022787 0.008156986 -0.16857179 -0.035514098
0.25598153 -0.07692968 0.18279798 0.07646272 -0.022602448 -0.003021245 -0.13694715 -0.10750557
-0.08079135 0.24687213 -0.08311796 -0.20436141 -0.027830584 0.20960249 -0.08613928 0.20161378
-0.17851485 0.061866693 0.22040805 -0.16710794 0.05890792 -0.20317279 0.04699652 0.10932866
0.010126372 0.10366497 0.18778615 -0.043721367 0.032315057 0.11630099 0.14629576 0.17766851
-0.10584712 -0.041799836 0.048881136 0.14267465 0.13016905 -0.05124739 -0.044249993 0.13237765
0.12258709 -0.05837733 0.04111212 0.020825509 0.17594422 -0.058464218 0.055179186 0.010907034
-0.078785494 0.030714013 -0.06258164 0.195803 -0.029057283 0.21180832 0.14279272 -0.08504594

fc.weight f4 [3, 32]
00000000: 3f33 353f ec63 0c3f cb55 3abf 8c59 42bf
00000010: a893 3bbf 279c 423f be2f 3dbf d5c3 3a3f
00000020: b8fd 4f3f f952 2bbf 8b35 453f 20c8 433f
00000030: c1ae 343f c6b0 3a3f 3b30 3ebf b492 60bf
00000040: 732c 223f 9937 3e3f a40d 513f 0ed7 46bf
00000050: 3483 1fbf 7b7c 2a3f 2e0e 483f 1bb1 163f
00000060: c354 49bf b52e 3c3f 3ef7 2a3f f664 21bf
00000070: 6b3b 463f 6c65 34bf e5f5 283f 2ffc 583f
00000080: 1d39 1a3f 3ac5 3f3f e408 40bf 2809 53bf
00000090: c853 38bf a274 443f bbdf 28bf e482 4c3f
000000a0: 1bc3 1f3f 5fde 18bf 769a 1d3f 4c23 3f3f
000000b0: 7209 513f 3033 2f3f f824 1cbf 729e 2bbf
000000c0: 3e1c 543f 8c61 423f ebc1 5f3f 464b 23bf
000000d0: 0bfa 2bbf ad61 473f 4528 3d3f d22b 2b3f
000000e0: 3772 52bf a89e 3d3f 9186 523f 9a58 19bf
000000f0: 0d85 5a3f 0ca2 5bbf 8c72 323f 75d2 383f
00000100: 23c8 3f3f 437c 4e3f 2607 3dbf 9882 0cbf
00000110: 6ae2 39bf c0f4 1f3f 1965 21bf 46a4 403f
00000120: fbd2 343f 3d10 4bbf 7ea5 443f 21d0 4e3f
00000130: 538f 3f3f fa89 2f3f 3b23 4fbf e522 32bf
00000140: ffc1 3b3f 8829 1c3f be2a 583f cf0b 32bf
00000150: 68bd 57bf f439 1a3f 537c 303f a6ec 2c3f
00000160: 7e84 54bf c3d0 603f 9fe0 4b3f ead7 39bf
00000170: cb01 2e3f 63b2 2bbf 4a37 3c3f ed4a 243f
0.7078132 0.5483997 -0.7278716 -0.7591789 -0.7327218 0.7601952 -0.73900974 0.72955066
0.8124652 -0.6692348 0.77034825 0.7647724 0.70579153 0.72925985 -0.74292344 -0.8772385
0.63349074 0.74303585 0.8166144 -0.776719 -0.62309575 0.6659619 0.78146636 0.5886399
-0.7864496 0.7350877 0.6678351 -0.6304468 0.77434415 -0.7046726 0.66000205 0.847598
0.602434 0.7491032 -0.75013566 -0.82435846 -0.7200284 0.7674047 -0.65966386 0.79887223
0.6240708 -0.5971431 0.61563814 0.74663234 0.8165504 0.6843748 -0.6099391 -0.67038643
0.82855594 0.75930095 0.8740527 -0.63786733 -0.6717841 0.77883416 0.7388957 0.6686374
-0.8220553 0.74070215 0.8223658 -0.5990082 0.8535927 -0.8579414 0.69706035 0.7219613
0.7491476 0.8065836 -0.7383903 -0.5488677 -0.72611105 0.62482834 -0.6304489 0.7525066
0.7063443 -0.7932165 0.7681502 0.8078633 0.7482807 0.6856991 -0.8091313 -0.69584495
0.7334289 0.6100087 0.8444022 -0.6954927 -0.84273386 0.6024468 0.68939704 0.67548597
-0.8301467 0.87818545 0.7963962 -0.72595084 0.67971486 -0.6706907 0.73521864 0.6417683

fc.bias f4 [3]
00000000: 3994 d93e 838a e33e 6b28 d93e
0.42495897 0.44441614 0.4241365
